models/v2/target_qmix_net.pth (torch, 490172 bytes, 13 tensors)

hyper_w1.0.weight f4 [64, 576]
0	0x3cc1e1cf	0.023667244
1	0x3ced26e5	0.02894921
2	0x3d3101f3	0.04321475
3	0x3c4c7b17	0.012480519
4	0xbd0836dd	-0.033255447
5	0x3ba07022	0.00489618
6	0x3d0653e2	0.03279484
7	0x3c55c6d4	0.013047893
8	0x3cfad5ed	0.030619586
9	0x3d0e48ca	0.034737386
10	0x3b8f5dba	0.0043751867
11	0x3b59dfec	0.003324504
12	0x3c90affe	0.017662045
13	0x3cb71a8f	0.022351531
14	0x3ca18639	0.019717323
15	0x3c86fc3d	0.016477698
16	0x3d12f9b0	0.03588265
17	0xbaa642c1	-0.0012684689
18	0x3d36cf5f	0.04463136
19	0x3c51e4e3	0.0128109185
20	0xbc4c7a24	-0.0124802925
21	0x3d04c1c5	0.032411356
22	0x3c42f893	0.011900085
23	0xbbe5de0a	-0.0070149945
24	0x3d1045d8	0.03522286
25	0xbcd269bd	-0.025685186
26	0x3d417993	0.047235083
27	0x3c411adb	0.011786188
28	0xbc2caad4	-0.0105387755
29	0x3d379337	0.04481813
30	0x3cbd0d69	0.023077684
31	0x3d0ec94e	0.034859948
32	0xbce51538	-0.02796422
33	0x3bdc8dd3	0.006730774
34	0x3d1aea93	0.037821364
35	0xb96294c9	-0.00021608466
36	0xbb56d791	-0.0032782296
37	0xbce07b6f	-0.027402608
38	0xbca971ef	-0.02068421
39	0x3cad265f	0.02113646
40	0x3bcef733	0.0063160895
41	0x3bba4f93	0.0056857555
42	0x3cdc82d9	0.026917862
43	0x3cdcc1a5	0.026947806
44	0x3ca4071f	0.020022927
45	0xbd06d241	-0.032915358
46	0xbcd980e0	-0.02655071
47	0xbce902d9	-0.02844374
48	0xbc7cd296	-0.015431067
49	0x3d306199	0.043061826
50	0x3bea2f28	0.0071467347
51	0x3cad600a	0.021163959
52	0xbc0eea6c	-0.008722883
53	0xbcc7df05	-0.024398336
54	0x3c1d2aa4	0.009592686
55	0x3d034df1	0.032056753
56	0xbc61495c	-0.0137504
57	0xbd1f57ee	-0.038902216
58	0x3d148525	0.03625979
59	0xbcdafa8e	-0.026730802
60	0xbcaa5145	-0.020790705
61	0xbcffcf98	-0.031226918
62	0x3cd0755a	0.025446583
63	0x3d05548d	0.032551337
64	0xbc33f596	-0.010983845
65	0x3ca62832	0.020282838
66	0xbd07b2aa	-0.03312937
67	0xbd20a7ce	-0.03922253
68	0xbceacb4b	-0.02866139
69	0xbd21609b	-0.03939877
70	0x3d11dffc	0.035614
71	0x3d405927	0.046960022
72	0x3d02a684	0.031897083
73	0xbc11a764	-0.008890007
74	0xbcf010c3	-0.029304868
75	0xbba6a7a8	-0.005085904
76	0xbcd52f53	-0.026023543
77	0xbd0b6f67	-0.03404179
78	0x3c02acbc	0.007975753
79	0xbcd9ca8b	-0.026585838
80	0xbc580030	-0.013183638
81	0x3c96ff72	0.018432353
82	0xbcbe1cb8	-0.023207054
83	0x3cb2c20b	0.021821043
84	0x3d12be61	0.03582609
85	0xbb675d70	-0.0035303496
86	0x3d017501	0.031605724
87	0x3ab52500	0.0013820231
88	0xbd166693	-0.036718916
89	0xbc488347	-0.01223833
90	0xbd008fb6	-0.031387053
91	0xbc35b5f0	-0.011090741
92	0xbb0efb9a	-0.0021817447
93	0x3c253324	0.010082994
94	0x3b4c0a1d	0.0031133958
95	0xbd016976	-0.031594716
96	0xbcea60bc	-0.02861058
97	0x3b0745bf	0.0020640937
98	0x3b4eef80	0.0031575859
99	0xba7b4c40	-0.0009586252
100	0xbc744c96	-0.014910838
101	0xbced5673	-0.028971886
102	0xbb5aad50	-0.0033367462
103	0xbc056a70	-0.008143052
104	0xbd06dcc2	-0.032925375
105	0xbcb72bc0	-0.022359729
106	0xbc8845c0	-0.016634822
107	0xbc90617b	-0.017624607
108	0x3c077404	0.008267406
109	0x3d110b99	0.03541145
110	0xbc3875a6	-0.011258518
111	0x3d170051	0.036865536
112	0x3cd3894a	0.0258223
113	0x3ad12300	0.0015955865
114	0x3cebc952	0.02878252
115	0xbd20a377	-0.039218392
116	0x3d0e9587	0.03481057
117	0x3cd526e2	0.026019517
118	0x3d3a0889	0.045418296
119	0xbd0d4a98	-0.034494966
120	0xbc823a09	-0.015896814
121	0x3b39d1ae	0.0028353739
122	0xbceca628	-0.028887823
123	0x3c648e2c	0.013949912
124	0x3d12e3ef	0.035861906
125	0x3ce6f272	0.028191779
126	0xbc690844	-0.014223162
127	0x3d139965	0.03603496
128	0xbcba9d7b	-0.02278017
129	0xbd016e62	-0.03159941
130	0xbcbf39fb	-0.023343077
131	0xbd0fb734	-0.035086825
132	0x3d022ec7	0.03178289
133	0x3d1b0b3b	0.037852507
134	0xbce4be4f	-0.027922777
135	0x3c2726fc	0.010202166
136	0x3ccb0016	0.024780314
137	0x3cdd4d3a	0.027014364
138	0x3c2d2bac	0.010569494
139	0x3cfab494	0.030603684
140	0xbc8f9516	-0.017527144
141	0xbbe71712	-0.0070523107
142	0x3d36d1b5	0.044633586
143	0xbd05c230	-0.032655895
144	0x3d043871	0.03228039
145	0xbd0cfd82	-0.03442145
146	0xbb9fba40	-0.0048744977
147	0xbd1a8267	-0.037722018
148	0xbc97ca62	-0.01852912
149	0x3cc97293	0.024590766
150	0xbd04da00	-0.032434464
151	0x3b8cc920	0.004296437
152	0x3d022c6b	0.03178064
153	0xbb7c9430	-0.0038540475
154	0x3c9b63f8	0.018968567
155	0xbc960600	-0.018313408
156	0x3d17d467	0.037067797
157	0x3ba80968	0.0051280744
158	0xbc186ed4	-0.009303767
159	0x3cc17096	0.023613255
160	0x3c9bc013	0.019012487
161	0x3c5b5e04	0.013389114
162	0x3b010cf0	0.001969155
163	0xbc671780	-0.014104724
164	0x3c3a21d4	0.011360604
165	0x3c3b7ea4	0.011443768
166	0x3bd9693b	0.006634859
167	0x3d1077ec	0.035270616
168	0xbc3aedc8	-0.0114092305
169	0xbba74145	-0.0051042163
170	0xbcb6ea86	-0.022328626
171	0xbcb36850	-0.021900326
172	0x3d1ffa95	0.039057333
173	0x3c6e6444	0.014550272
174	0xbd1aae1e	-0.037763707
175	0x3cba46c6	0.022738826
176	0xbcf6311b	-0.030052712
177	0x3d08b699	0.033377264
178	0x3d088b39	0.033335898
179	0x3cb02a1e	0.021504458
180	0x3c46e284	0.0121389665
181	0x3b3c39b0	0.0028720908
182	0xbc5af520	-0.013364106
183	0xbc032f30	-0.008006856
184	0x3d03c385	0.032168884
185	0x3bb9f348	0.0056747533
186	0xbcdc4187	-0.026886715
187	0x3aa2cde0	0.0012420975
188	0x3c9030d0	0.0176014
189	0xbd184de6	-0.037183665
190	0xbce28ae3	-0.027654117
191	0x3c97406e	0.01846334
192	0x3cba8725	0.02276952
193	0xbcdecfa3	-0.027198618
194	0x3d0d3c99	0.03448162
195	0x3c343586	0.010999089
196	0x3bb97668	0.005659867
197	0xbb88f1f8	-0.0041792355
198	0x3b806748	0.003918562
199	0xbc312390	-0.010811701
200	0x3ca3c86a	0.019993026
201	0x3d082acd	0.033243943
202	0xbd244e6b	-0.040113848
203	0x3d1d1299	0.038347814
204	0xbc14ceec	-0.009082537
205	0x3b9653e0	0.0045876354
206	0xbcbef663	-0.023310846
207	0xbd226242	-0.039644487
208	0x3c50d03c	0.012744959
209	0x3cb07532	0.021540258
210	0xbc8722c6	-0.016496073
211	0xbd198b33	-0.037486266
212	0xbd12119f	-0.035661336
213	0xbc85daae	-0.016339626
214	0xbbec2fca	-0.0072078453
215	0xbcbfee31	-0.023429008
216	0xbc833c1f	-0.016019879
217	0x3d1e46db	0.03864179
218	0xbd28a7ea	-0.04117576
219	0x3cc1a4fe	0.023638245
220	0x3c968ec2	0.01837862
221	0x3ccbf2ca	0.024896044
222	0x3c9be578	0.019030318
223	0x3bc2c9e8	0.0059444793
224	0x3bf5a478	0.007496413
225	0x3d1b3b03	0.037898075
226	0x3bbb7f68	0.005721975
227	0x3ce8a7a1	0.028400244
228	0xbce11ec0	-0.027480483
229	0x3c59e7ea	0.0132999215
230	0x3d0f7fc5	0.03503396
231	0xbc91a598	-0.017779157
232	0x3c080664	0.008302305
233	0xbcc00c66	-0.023443412
234	0x3a02e5c0	0.0004993342
235	0x3bcc3160	0.006231472
236	0x3c39c0bc	0.011337455
237	0x3c3b50e4	0.01143286
238	0x3cdce139	0.026962863
239	0xbca369d1	-0.019947918
240	0x3cbf9011	0.023384126
241	0x3aee4044	0.0018177112
242	0x3d133e5b	0.03594814
243	0x3cc7fc62	0.024412338
244	0x3ced5e32	0.02897558
245	0x3c8d4cf0	0.0172486
246	0xbc3a1bec	-0.011359196
247	0xbcbf041e	-0.023317393
248	0xbca654f8	-0.020304188
249	0x3cf5cf8a	0.030006189
250	0x3c77ee20	0.015132457
251	0xbbcf9598	-0.0063349716
252	0xbb31d000	-0.0027132034
253	0x3cb1663a	0.02165519
254	0xbc35f06c	-0.011104684
255	0xbbcb7e18	-0.0062101

hyper_w1.0.bias f4 [64]
0	0xbd1f6231	-0.038912002
1	0x3b763812	0.0037570042
2	0xbc364cc8	-0.0111267045
3	0xbd1918cd	-0.037377167
4	0x3bfe920e	0.007768876
5	0xbbff47a3	-0.007790522
6	0x3c86c70f	0.01645234
7	0x3cad6ba8	0.021169499
8	0xbc227b13	-0.0099170385
9	0x3cdb4d12	0.026770148
10	0x3c792390	0.015206233
11	0x3d261bf7	0.040554013
12	0x3d07a5b1	0.033117
13	0x3c9ea462	0.019365493
14	0xbba0821e	-0.0048983237
15	0x3c77f85c	0.015134897
16	0x3b75bc92	0.003749643
17	0x3a126600	0.0005584657
18	0xbd416546	-0.047215723
19	0xbcdba997	-0.026814265
20	0xbd1487fa	-0.03626249
21	0xbc04b564	-0.0080998875
22	0x3cb66bef	0.022268264
23	0x3c09d700	0.008413076
24	0x3ca69edd	0.020339424
25	0x3cd32ada	0.02577727
26	0xbd3095ca	-0.0431116
27	0xbce46173	-0.027878499
28	0xbcfc5e73	-0.030806756
29	0xbd0d4dd4	-0.03449805
30	0xbccbee48	-0.024893895
31	0xbcf78dcc	-0.030218981
32	0xbcc9a8ee	-0.024616685
33	0x3c9d0a1d	0.019169861
34	0xbd40d11c	-0.047074422
35	0xbcca1e5e	-0.024672683
36	0xbbb3625e	-0.0054743728
37	0x3cddae12	0.027060542
38	0x3c1c3c6c	0.00953589
39	0x3ce76ef8	0.028251156
40	0xbbd457f8	-0.0064802133
41	0xbc683440	-0.014172614
42	0x3ab65271	0.0013910068
43	0xbd367e24	-0.04455389
44	0x3d1ad63d	0.03780197
45	0xbd2a73e7	-0.04161444
46	0xbade9eaa	-0.0016984541
47	0x3c33ee69	0.010982134
48	0x3ceb3352	0.028710995
49	0xbd0416c0	-0.03224826
50	0xbcde9142	-0.027168874
51	0x3b45966f	0.003014948
52	0xbd108077	-0.035278764
53	0xbd0e5f88	-0.034759074
54	0xbc7a9c31	-0.015296028
55	0x3a9bab42	0.00118766
56	0x3c2616ba	0.010137254
57	0x3d04601b	0.032318216
58	0x3b8a6aa1	0.004224137
59	0x3cc372c6	0.02385844
60	0xbca44b92	-0.020055566
61	0x3d171111	0.03688151
62	0x3d100fa9	0.035171185
63	0x3c4b4a4c	0.0124078505

hyper_w1.2.weight f4 [128, 64]
0	0x3cde52db	0.027139118
1	0xbe24ad05	-0.16081627
2	0xbd56f63f	-0.052480932
3	0xbd8d23fc	-0.06891629
4	0x3da15b44	0.07878736
5	0x3cb909eb	0.022587737
6	0xbdb3157b	-0.087443314
7	0x3dd5cf57	0.104399376
8	0x3da279c5	0.07933382
9	0xbd8fb084	-0.070160896
10	0x3d945ff3	0.07244863
11	0x3d017bac	0.031612083
12	0xbce97690	-0.028498918
13	0xbd7a1f21	-0.061064843
14	0x3dda7d33	0.10668411
15	0xbd75b0a5	-0.059982914
16	0xbc193293	-0.009350437
17	0xbc44e600	-0.012017727
18	0xbbb78893	-0.0056009977
19	0x3d90b6cd	0.070661165
20	0xbd7ee1b0	-0.06222695
21	0x3d91d07e	0.07119845
22	0xbd8bc25f	-0.06824183
23	0xbd2730f8	-0.040818185
24	0xbd74eceb	-0.059796255
25	0x3d808328	0.06275016
26	0xbd446208	-0.047945052
27	0x3d82db50	0.06389487
28	0x3d959b9a	0.07305069
29	0xbdf294a6	-0.11844759
30	0x3d60d8e8	0.054894358
31	0xbd81bca7	-0.06334811
32	0x3de84443	0.11341145
33	0xbddebd62	-0.10875966
34	0xbd0fb3c3	-0.035083544
35	0x3dd2e230	0.10297048
36	0xbdd955fb	-0.106121026
37	0xbd151b08	-0.036402732
38	0x3c3b7fbe	0.01144403
39	0xbcf12933	-0.02943859
40	0xbdc3442a	-0.09534486
41	0xbd18afea	-0.03727714
42	0x3da9b43c	0.0828633
43	0x3dd9a4ce	0.10627137
44	0x3dff4dde	0.12466024
45	0xbd97bd54	-0.07409158
46	0x3c10fa92	0.008848803
47	0xbdece6c4	-0.115674525
48	0xbab28e00	-0.0013622642
49	0xbdd4bc98	-0.10387534
50	0x3dfa88c9	0.12233121
51	0xbd046897	-0.032326307
52	0xbd6fc8b9	-0.058541033
53	0x3d9ab43a	0.07553907
54	0xbdb3fa23	-0.08787944
55	0xbda7dcc6	-0.08196406
56	0x3dc90292	0.098149434
57	0x3d8afe7d	0.06786821
58	0xbdc3e9ec	-0.095661014
59	0x3d8709e2	0.06593682
60	0x3d8cc4bb	0.06873461
61	0x3d9d2fce	0.07675134
62	0xbc907e4d	-0.01763835
63	0x3deca9bb	0.11555811
64	0x3db6230f	0.08893406
65	0x3e0e17f4	0.13876325
66	0xbdad8c4e	-0.084740266
67	0xbdce6895	-0.10078541
68	0xbdc2f4d7	-0.09519356
69	0xbdff60d3	-0.1246964
70	0xbdd81601	-0.10551072
71	0xbdc57af5	-0.09642593
72	0xbd0acfd7	-0.033889618
73	0x3c841318	0.016122386
74	0xbca95cfd	-0.020674223
75	0xbd1245d4	-0.035711125
76	0xbcbfbd38	-0.023405656
77	0xbd8504f0	-0.064950824
78	0x3d9f0d51	0.07766212
79	0x3dbcd144	0.09219602
80	0x3d69df67	0.05709782
81	0x3d8baff6	0.06820671
82	0xbd5343c7	-0.05157831
83	0xbb105139	-0.0022021069
84	0x3d340774	0.04395242
85	0x3df34e1c	0.118801326
86	0xbceada54	-0.02866856
87	0xbc1ece20	-0.009692699
88	0xbde9927c	-0.11404893
89	0xbcebb6c0	-0.028773665
90	0x3d417c86	0.047237895
91	0x3d808074	0.062745005
92	0xbddcabe2	-0.107749715
93	0xbdfd804e	-0.12377988
94	0xbc088750	-0.008333042
95	0x3dd97ac9	0.106191225
96	0xbdfc9228	-0.123325646
97	0x3dd24234	0.102665335
98	0x3d834f53	0.06411614
99	0xbd4a460c	-0.04938321
100	0x3d2e1ec8	0.042509824
101	0x3ddc0ece	0.10745011
102	0x3dd779d4	0.10521284
103	0xbd050da0	-0.032483697
104	0x3d8cc280	0.068730354
105	0x3b3c004b	0.0028686698
106	0xbdf5792e	-0.11986004
107	0xbd7c62b0	-0.061617553
108	0x3da6e956	0.08149974
109	0xbdc669ca	-0.096881464
110	0x3d2be472	0.04196591
111	0x3dca6e77	0.09884351
112	0xbd75c298	-0.060000032
113	0xbd90c380	-0.07068539
114	0xbd99b783	-0.07505705
115	0x3d23b50d	0.039967585
116	0x3dd86ec1	0.10568
117	0x3ce59a98	0.028027818
118	0x3da3d75d	0.08000062
119	0x3cd4bbab	0.025968393
120	0x3c89b5fd	0.016810412
121	0x3d8cec81	0.06881047
122	0xbd0174b1	-0.031605426
123	0xbd62ec9c	-0.05540143
124	0x3cbb11a6	0.022835564
125	0xbdc21a64	-0.0947769
126	0x3d19291a	0.037392713
127	0xbd007a46	-0.03136661
128	0xbdf07f41	-0.11743022
129	0xbab487a1	-0.0013773331
130	0xbd531cb3	-0.05154104
131	0xbdb74bbf	-0.08949994
132	0xbcbd292d	-0.023090923
133	0xbd353586	-0.044240497
134	0xbd8fd7b7	-0.07023566
135	0xbd9e3de9	-0.07726652
136	0xbda33b67	-0.079703145
137	0xbd952d68	-0.07284051
138	0x3df912fb	0.12161823
139	0xbba60d00	-0.0050674677
140	0x3d661804	0.056175247
141	0xbdc12236	-0.09430353
142	0xbddff4f5	-0.10935394
143	0x3da9a52f	0.082834594
144	0xbdecd4c3	-0.115640186
145	0xbdbb6db2	-0.09151782
146	0x3db16828	0.08662444
147	0x3dc008eb	0.09376701
148	0xbde22ea2	-0.11044051
149	0xbc968b40	-0.018376946
150	0x3ce2f9bf	0.027706979
151	0xbd8c7ed0	-0.06860125
152	0xbd1c0144	-0.038087144
153	0xbd84212a	-0.06451638
154	0x3de7a3c1	0.113105305
155	0x3cdb7978	0.02679132
156	0xbd0e3ff4	-0.03472896
157	0x3d9962a0	0.07489514
158	0x3dea1fd4	0.11431852
159	0xbd1a0e1a	-0.037611105
160	0xbd250ab4	-0.04029341
161	0x3db12e6f	0.08651435
162	0xbd962017	-0.073303394
163	0x3c284f60	0.010272831
164	0x3d447ae8	0.047968775
165	0xbdd0b61a	-0.10190983
166	0xbd9e2a71	-0.07722939
167	0x3ccea337	0.025224311
168	0x3dd9d50a	0.10636337
169	0x3d8f135f	0.069861166
170	0xbd3bc3e3	-0.04584111
171	0xbd5285bf	-0.05139708
172	0xbda2b5d2	-0.07944836
173	0xbd83043e	-0.063972935
174	0xbdf266f1	-0.11836041
175	0x3d080821	0.033210877
176	0x3c116340	0.008873761
177	0x3d701c98	0.05862102
178	0x3ccd8a05	0.025090227
179	0x3c37d4c6	0.011220163
180	0x3d35e1f1	0.044404928
181	0xbd5aae30	-0.053388774
182	0x3d4b899a	0.049691774
183	0xbd62ff42	-0.055419214
184	0xbc57b3c2	-0.013165416
185	0x3da8cb8a	0.08241947
186	0x3dc3570b	0.095380865
187	0x3aeff900	0.0018308461
188	0x3d958aa0	0.07301831
189	0xbdd9e758	-0.106398284
190	0x3dd1dd24	0.10247257
191	0x3b459d67	0.0030153634
192	0xbb2934aa	-0.0025818744
193	0xbda9c4ad	-0.08289466
194	0xbc907e10	-0.017638236
195	0x3d32a44a	0.04361371
196	0xbd7a16b0	-0.061056793
197	0x3de9aa65	0.11409453
198	0x3c09ac38	0.008402877
199	0xbd83c62f	-0.06434285
200	0x3d2cb4c5	0.042164583
201	0xbdc20200	-0.09473038
202	0xbe02d090	-0.12774873
203	0x3d8ef8d8	0.06981057
204	0x3bcd8660	0.0062721223
205	0x3cf99ec9	0.030471222
206	0x3daf1143	0.08548214
207	0x3de09cd1	0.1096741
208	0xb8fa79a1	-0.00011943584
209	0xbcb9fdd8	-0.02270405
210	0xbc821ddb	-0.015883377
211	0x3c829452	0.015939865
212	0xbd84b522	-0.06479861
213	0x3d8dee36	0.06930201
214	0x3d147b07	0.03625014
215	0xbc7a9af0	-0.015295729
216	0x3d35601c	0.04428111
217	0xbd333e30	-0.04376048
218	0xbd4efb06	-0.050532363
219	0xbda6f1da	-0.08151598
220	0x3b0f9dc0	0.0021914095
221	0xbc4d0a90	-0.012514725
222	0x3bb59f40	0.0055426657
223	0xbdd48109	-0.10376174
224	0xbd8bbd08	-0.06823164
225	0xbd5c86c3	-0.053839456
226	0x3d8b843f	0.06812333
227	0xbdd3109a	-0.10305901
228	0x3da0762c	0.078350395
229	0x3dc25220	0.0948832
230	0xbdc2f9c7	-0.095202975
231	0xbcbd49bf	-0.023106454
232	0x3d959400	0.073036194
233	0x3db98b34	0.09059754
234	0xbdc190ed	-0.094514705
235	0x3dc32cfb	0.09530064
236	0x3d0b6d9c	0.03404008
237	0x3d674ab0	0.056467712
238	0x3de24d13	0.11049857
239	0xbd9fa0f8	-0.07794374
240	0x3d5a4b08	0.05329421
241	0x3d9da410	0.07697308
242	0xbd38c83e	-0.04511284
243	0x3d27aed7	0.040938225
244	0x3c9ac702	0.018893722
245	0x3d580844	0.052742258
246	0x3d8a2118	0.067445934
247	0x3df30aef	0.1186732
248	0xbdcc7d15	-0.09984795
249	0x3cee2dde	0.029074606
250	0x3d06afc4	0.032882467
251	0x3db87fae	0.09008728
252	0xbdd23fa1	-0.102660425
253	0xbdd58a0a	-0.104267195
254	0x3d78d115	0.06074627
255	0x3d9a8ab1	0.075459845

hyper_w1.2.bias f4 [128]
0	0x3e8b2d43	0.2718297
1	0xb683becd	-3.9263164e-06
2	0x36e7e71d	6.9112416e-06
3	0x34a182c6	3.0083737e-07
4	0x3ee59c65	0.44845882
5	0x365b793e	3.2704115e-06
6	0xbf38d915	-0.7220624
7	0x36ab4547	5.104262e-06
8	0xbc3aaa34	-0.011393119
9	0x3d040206	0.032228492
10	0xb7aa018b	-2.0266298e-05
11	0xbccf2e48	-0.025290623
12	0x39424b1b	0.0001852926
13	0x382c0cd5	4.1019946e-05
14	0x3ed42e2b	0.41441473
15	0xbe889d98	-0.26682734
16	0xbe73ab56	-0.23795828
17	0xbd1fed56	-0.0390447
18	0x3ea4ee94	0.3221327
19	0xb67f80cf	-3.8072938e-06
20	0xb700aca5	-7.6695915e-06
21	0xb748d91f	-1.1971481e-05
22	0x3b482a51	0.00305428
23	0xb68e5a21	-4.242422e-06
24	0xb68108e7	-3.845536e-06
25	0xb6952d66	-4.445831e-06
26	0xb70ff3a3	-8.58019e-06
27	0x3e936e96	0.28795308
28	0xb809c5d3	-3.2847583e-05
29	0xbf15cae8	-0.58512735
30	0xb680f1d4	-3.8428498e-06
31	0xbf0a45b7	-0.54012626
32	0xbe1ad03d	-0.15118499
33	0x3c76f762	0.015073629
34	0xbce64d87	-0.02811314
35	0xb5c3d5d6	-1.4590867e-06
36	0xbd8e03dd	-0.069343306
37	0xb4cc7ad6	-3.8087336e-07
38	0x3e14dc5f	0.1453719
39	0x3db081e4	0.08618525
40	0x3d87a4ba	0.06623216
41	0x3d48ce02	0.04902459
42	0x3e1d473d	0.15359206
43	0x3de1cd9e	0.110255465
44	0xbd28a20f	-0.041170176
45	0x3c8d6e0c	0.017264389
46	0x3d729f77	0.05923411
47	0x3e1655d8	0.14681184
48	0xbdcfa524	-0.1013892
49	0x3d88f83d	0.06687973
50	0x3e1049c6	0.14090642
51	0xbd84d08f	-0.06485092
52	0xbdc07bd9	-0.09398622
53	0x34c55492	3.6755642e-07
54	0xbd53d02f	-0.05171221
55	0x3d1a46da	0.037665226
56	0x3d9ded37	0.07711261
57	0xbda9126b	-0.08255466
58	0xb5976851	-1.1280737e-06
59	0x3d44866b	0.047979753
60	0xb5b645bf	-1.3580355e-06
61	0xbe00eb1e	-0.1258969
62	0x3d99d440	0.075111866
63	0x3df03214	0.11728302
64	0x3b41d9f9	0.0029579385
65	0x3df42098	0.11920279
66	0x3d3a741b	0.045520883
67	0x3dbb0e4a	0.09133585
68	0xbd272f7e	-0.040816776
69	0x3d3e70fb	0.046494465
70	0xbdb303e2	-0.08740975
71	0x3c83fc83	0.016111618
72	0xbd5ef2a4	-0.05443062
73	0xbd3a5cfd	-0.045498837
74	0xbe1f1730	-0.15536189
75	0x3cf60620	0.030032218
76	0xbd80ecdf	-0.062951796
77	0xbd1306f8	-0.035895318
78	0x3d99b84e	0.075058565
79	0x3bc9f981	0.0061637764
80	0xbcbc8cff	-0.02301645
81	0x3daa6cfb	0.083215676
82	0x3ce0420f	0.02737525
83	0xbb86a369	-0.0041088355
84	0x3d8d2544	0.068918735
85	0x3d587f08	0.05285552
86	0xb360fb6e	-5.2382738e-08
87	0x354279a0	7.244762e-07
88	0xbba92618	-0.005162012
89	0xbd2f69c9	-0.042825494
90	0x3d806aa5	0.06270341
91	0x3b9e4a00	0.004830599
92	0xbceb1ebc	-0.028701179
93	0xbdaf7cac	-0.08568701
94	0x3da8970f	0.08231937
95	0x3e39d814	0.18148834
96	0x3b1af991	0.0023647288
97	0xbc908ea3	-0.01764614
98	0xbd728dcf	-0.05921727
99	0x3c865671	0.01639864
100	0x3de40c7d	0.111351945
101	0xbd4e4158	-0.050355285
102	0x3e080ed4	0.13286906
103	0xbd3d7716	-0.046256147
104	0x348cb4c2	2.620855e-07
105	0xb485c032	-2.491302e-07
106	0x34e3be9d	4.2420734e-07
107	0x34bc7005	3.5099234e-07
108	0x3d3208d4	0.04346545
109	0xbbaf3e68	-0.0053480156
110	0x3e094b78	0.13407695
111	0x3cf963cf	0.0304431
112	0x3bfc3efa	0.007697937
113	0x3c75682a	0.014978448
114	0xbb4b37db	-0.0031008634
115	0xbd613267	-0.054979708
116	0xbdc568e5	-0.09639148
117	0x3d5b8aaf	0.053599056
118	0x3d850b26	0.06496267
119	0xb50c4154	-5.224913e-07
120	0xbdb8233d	-0.08991096
121	0x3d175c09	0.036953006
122	0xbd830191	-0.06396783
123	0xbd65115a	-0.05592475
124	0xbd97f164	-0.074190885
125	0xbe489d55	-0.19591267
126	0xbdabeeb5	-0.08395139
127	0x3e6b9d8f	0.23009323

hyper_w2.0.weight f4 [64, 576]
0	0x3c29c204	0.010361198
1	0x3a925900	0.001116544
2	0x3cdd612a	0.02702387
3	0x3b86cb08	0.0041135587
4	0x3d071fb9	0.032989237
5	0x3cc2da6e	0.023785796
6	0x3b980180	0.0046388507
7	0x3cd9e5ee	0.026598897
8	0x3cd23e6a	0.025664527
9	0xbb5736b0	-0.0032838993
10	0x3c7e44a4	0.015519295
11	0xbd0abf97	-0.03387412
12	0xbca4c243	-0.020112162
13	0x3d10f21b	0.03538714
14	0x3ce7cd7e	0.028296228
15	0x3cd09492	0.025461469
16	0xbcf5dd56	-0.030012768
17	0x3c9c3dba	0.019072402
18	0xbced834e	-0.028993275
19	0xbd1799c6	-0.037011884
20	0x3cae0496	0.021242421
21	0xba826800	-0.0009949207
22	0x3be5bb40	0.0070108473
23	0x382fc000	4.1902065e-05
24	0x3b085530	0.0020802729
25	0x3c0811fc	0.008305069
26	0x3c8156be	0.015788432
27	0xbcf2a073	-0.029617524
28	0x3b783dd0	0.003787864
29	0x3b7c6480	0.003851205
30	0x3cdeba5a	0.027188469
31	0x3d213a9d	0.03936254
32	0xbc810b3e	-0.015752431
33	0x3c0ed020	0.008716613
34	0x3be29548	0.0069147684
35	0x3cbb92fa	0.022897232
36	0x3ae50c00	0.001747489
37	0x3c352ddc	0.011058297
38	0x3d00cc35	0.031444747
39	0x3c7510b4	0.014957596
40	0x3cc33db2	0.02383313
41	0x3d13989b	0.036034208
42	0x39efa180	0.0004570596
43	0xbc089254	-0.008335669
44	0xbb9d4188	-0.0047990717
45	0x3ce0a91a	0.027424384
46	0x3d034925	0.032052178
47	0x3c1275dc	0.008939233
48	0x3aaa8b80	0.0013011545
49	0x3c021f30	0.007942006
50	0x3cb204ca	0.0217308
51	0x3d1833e9	0.03715888
52	0x3ceb9926	0.02875955
53	0xbcf21b7b	-0.02955412
54	0x3bca3b18	0.0061715953
55	0x3c7c6bdc	0.015406575
56	0xbd10fd06	-0.035397552
57	0x3cb30dbe	0.021857139
58	0xbc719d56	-0.0147469845
59	0xba686300	-0.000886485
60	0x3c0ae0dc	0.008476462
61	0xbc1351cc	-0.00899167
62	0xbc3c59a6	-0.011495983
63	0x3c60c190	0.013718024
64	0x3c981188	0.018563047
65	0x3cb2165a	0.021739174
66	0x3a842d80	0.0010084361
67	0xbc9c7f7b	-0.019103756
68	0xbd259fc8	-0.040435582
69	0xbcd01963	-0.02540273
70	0x3d28c5c3	0.041204225
71	0x3d22d585	0.03975441
72	0x3cb2de62	0.021834556
73	0xbd245320	-0.040118337
74	0xbc5877e0	-0.013212174
75	0x3ca45fbe	0.020065185
76	0xbd07e03e	-0.03317284
77	0xbc920d96	-0.017828744
78	0xbd203a5b	-0.039118152
79	0xbb65ad50	-0.003504593
80	0xbce72440	-0.028215528
81	0x3d0b061b	0.03394137
82	0xbbf15a40	-0.007365495
83	0x3c935c72	0.017988417
84	0x3c9f6dde	0.019461568
85	0x3cbcb6f6	0.023036461
86	0xbd10b288	-0.03532651
87	0x3c01b7c4	0.007917348
88	0x3d160109	0.03662208
89	0xbd0fa2b2	-0.035067268
90	0xbcec1b88	-0.028821722
91	0xbd258f74	-0.04042001
92	0xbd17682a	-0.036964573
93	0xbc54c866	-0.012987232
94	0x3d0393d3	0.032123398
95	0x3c780c34	0.015139628
96	0xbc341b9c	-0.010992911
97	0x3d2a7ee1	0.041624907
98	0x3cf58992	0.029972825
99	0x3d0e6279	0.03476188
100	0x3d12761f	0.03575718
101	0x3b111790	0.0022139288
102	0xbd0a93de	-0.033832423
103	0xbbb75ce0	-0.0055957884
104	0x3cbc5326	0.022988867
105	0x3d183d6f	0.037167963
106	0x3d2526a7	0.040320065
107	0x3d11f1b9	0.035630915
108	0x3cfc8eb6	0.030829769
109	0xbbc2b358	-0.0059417896
110	0x3c674dbc	0.014117654
111	0x3b8df2a8	0.0043319054
112	0xbcb106c8	-0.021609679
113	0x3cd84f86	0.026405107
114	0xbc138674	-0.009004224
115	0xbbb212a0	-0.005434349
116	0x3d09bc3d	0.033626784
117	0x3d151579	0.03639743
118	0xbc6b9810	-0.014379516
119	0x3c4e3c74	0.012587655
120	0xbcf932e0	-0.030419767
121	0x3ca7a4de	0.020464357
122	0x3d2055f1	0.03914446
123	0x3b594680	0.0033153594
124	0x3ca69f62	0.020339672
125	0x3cb8b5da	0.022547651
126	0x3c749d9c	0.014930155
127	0x3ca388de	0.019962724
128	0xbc389c66	-0.011267757
129	0x3ba59ae0	0.005053863
130	0xbd10cb8e	-0.035350375
131	0x3c9cd012	0.019142184
132	0x3d28bab7	0.04119369
133	0x3cb73c56	0.022367638
134	0x3c195d74	0.00936066
135	0xbd169ccb	-0.036770623
136	0x3d0506c9	0.032477174
137	0x3c8a5ce0	0.01688999
138	0xbc968986	-0.018376123
139	0x3d0df987	0.034661796
140	0xbbe8bcc8	-0.0071025826
141	0x3c45dd40	0.012076676
142	0xbcd67098	-0.026176736
143	0x3d214c61	0.03937948
144	0x3b8ff6b8	0.004393425
145	0xbbefa678	-0.007313546
146	0xbd252f3c	-0.04032825
147	0x3c1205dc	0.00891253
148	0xbcecefeb	-0.028922996
149	0xbd230043	-0.03979517
150	0x3cdefbba	0.027219642
151	0xba38c900	-0.00070489943
152	0xbceaf28b	-0.028680107
153	0xbacc5f00	-0.0015592277
154	0xbcf2a4ee	-0.02961966
155	0xbc5c56dc	-0.013448443
156	0xbc4576c6	-0.012052244
157	0x3c5ae210	0.013359562
158	0xbc9651e8	-0.018349603
159	0x3d2a3bf1	0.04156107
160	0x3d230eed	0.039809156
161	0xbc6dfd1c	-0.014525678
162	0xbc533440	-0.012890875
163	0x3cc6fe8a	0.024291296
164	0xbcedba4e	-0.029019501
165	0xbced0c06	-0.028936397
166	0xbc378eac	-0.011203449
167	0x3c270180	0.010193229
168	0x3bed0198	0.007232856
169	0xbc5880cc	-0.013214301
170	0x3b902d08	0.0043998994
171	0xbcec9f63	-0.028884595
172	0x3cb57a62	0.022153083
173	0xbb332950	-0.0027337857
174	0xbbe73a40	-0.0070565045
175	0x3cee478e	0.029086854
176	0xbcb997b3	-0.022655344
177	0x3ca61c02	0.020277027
178	0x3c845a48	0.01615633
179	0x3ba31b00	0.004977584
180	0xbc7797f6	-0.015111914
181	0xbbe825c8	-0.007084582
182	0xbd2405d6	-0.040044628
183	0xbd0fb197	-0.035081472
184	0xbce945a6	-0.028475594
185	0x3c8d8470	0.017275065
186	0xbcadff0b	-0.021239778
187	0x3c757030	0.014980361
188	0xbc839b9b	-0.01606541
189	0x3c70925c	0.014683332
190	0xbd24037c	-0.040042385
191	0xbd084938	-0.03327295
192	0x3d24d185	0.040238876
193	0x3d132721	0.035925988
194	0xbcc75960	-0.02433461
195	0x3c9462da	0.018113542
196	0x3c234e44	0.00996739
197	0x3b612ad0	0.0034357794
198	0x3ce25d5a	0.027632404
199	0xbd1476fc	-0.036246285
200	0x3d0a3b2f	0.033747848
201	0xbc28d004	-0.010303501
202	0xbd0dc403	-0.03461076
203	0x3b2b24f0	0.0026114546
204	0x3bfb26e0	0.0076645464
205	0xba5bc8c0	-0.0008384101
206	0xbccaac88	-0.024740472
207	0xbaf8de80	-0.0018987209
208	0xbca665c0	-0.02031219
209	0xbc6cb206	-0.014446741
210	0xbc730d96	-0.014834782
211	0xbc5e01a6	-0.013550198
212	0xbd26e7a3	-0.04074825
213	0x3cd2a6c2	0.025714282
214	0xbc3ef9cc	-0.011656236
215	0xbccf1150	-0.02527681
216	0xbcf1c5ab	-0.0295132
217	0xbbaed088	-0.0053349175
218	0xbcd9c3c6	-0.02658261
219	0x3d1f4f67	0.038894083
220	0xbc6dea5c	-0.014521208
221	0x3cfdf952	0.031002674
222	0xbcd3817b	-0.025818577
223	0x3d1bf825	0.038078446
224	0x3d1e25c3	0.03861023
225	0xbd1cb8b8	-0.0382621
226	0xbc9b0138	-0.01892148
227	0xbb4941f0	-0.0030709468
228	0x3c92bb90	0.017911702
229	0xbc823b76	-0.015897494
230	0x3c16a73c	0.009195145
231	0x3d2491c1	0.040178064
232	0x3c8d705a	0.017265487
233	0x3bb8c5d8	0.005638819
234	0x3d0ecf95	0.034865934
235	0xbc942ad8	-0.018086836
236	0xbb49d9c0	-0.0030799955
237	0x3d1a5c5d	0.03768574
238	0xb9c08c00	-0.00036725402
239	0x3d04812b	0.032349747
240	0x3cbbed12	0.022940192
241	0x3d138621	0.036016587
242	0xbd14c3b3	-0.036319446
243	0x3cb62982	0.02223659
244	0xbcb807db	-0.022464683
245	0x3bccb6c0	0.0062473714
246	0x3d056279	0.032564614
247	0x3c6e6500	0.014550447
248	0x3abb55a0	0.0014292486
249	0x3d01e8d1	0.03171617
250	0xbbcac018	-0.00618745
251	0xbc3e014c	-0.011596989
252	0xbd155b14	-0.036463812
253	0x3b750540	0.0037387162
254	0x3d00cd43	0.031445753
255	0x3cae4eea	0.021277864

hyper_w2.0.bias f4 [64]
0	0x3d098ecf	0.03358346
1	0xbc775410	-0.015095726
2	0x3b9e71c0	0.0048353374
3	0xbc955fb6	-0.018234115
4	0x3b995f70	0.0046805665
5	0xbced1c86	-0.028944265
6	0x3ac946c2	0.001535617
7	0xbb56087c	-0.0032658866
8	0x3cef350e	0.029200103
9	0x3c8d21cc	0.01722803
10	0xbc33a190	-0.0109638125
11	0xbbcb7508	-0.0062090196
12	0xbd2504b4	-0.04028769
13	0x3b7120f0	0.0036793314
14	0xbc72376f	-0.014783724
15	0xbcfc7398	-0.030816838
16	0xbd1811ac	-0.03712623
17	0x3ba21de0	0.004947409
18	0xbd137ec4	-0.036009565
19	0x3cbb9d06	0.022902023
20	0x3ce727e9	0.028217273
21	0xbd406320	-0.046969533
22	0x3cdf9bd4	0.027295984
23	0x3ce39e65	0.02778549
24	0xbcaede20	-0.021346152
25	0x3afa3be4	0.0019091335
26	0xbd08b089	-0.033371482
27	0x3cd1fdaf	0.025633661
28	0x3c7fb10a	0.015606174
29	0xbc8f7800	-0.017513275
30	0x3d274561	0.04083765
31	0x3d0c7451	0.034290615
32	0x3d0ae9a1	0.033914212
33	0x3cf125a2	0.02943689
34	0x3d0cb888	0.03435567
35	0x3c86ce52	0.016455803
36	0x3c059d98	0.008155249
37	0x3d209149	0.039201055
38	0x3c6a0ab0	0.014284775
39	0x3bacc040	0.0052719414
40	0xbb105480	-0.0022023022
41	0xbcfe7588	-0.031061903
42	0xbd33efe1	-0.04392994
43	0xbc7ea7b3	-0.015542912
44	0xbc775f46	-0.015098399
45	0x3ccd0731	0.025027843
46	0x3bac3d20	0.00525631
47	0x3cc9165a	0.02454679
48	0xbc620fd0	-0.013797715
49	0x3d16c875	0.036812264
50	0xbc2dae07	-0.010600573
51	0xbd1aad97	-0.037763204
52	0x3c711c90	0.0147162825
53	0xbd00b296	-0.031420313
54	0xbd1552a2	-0.036455758
55	0x3acddde0	0.0015706383
56	0x3c69a6c1	0.014260949
57	0xbc23c51c	-0.009995725
58	0xbcdf1455	-0.027231375
59	0x3cdba136	0.02681027
60	0xbc1622cf	-0.009163572
61	0x3d159816	0.036521994
62	0xbc1261e4	-0.008934472
63	0xbc76e46c	-0.015069108

hyper_w2.2.weight f4 [32, 64]
0	0x3d66cdc0	0.056348562
1	0xbd52d4f0	-0.051472604
2	0xbd9321da	-0.07184191
3	0xbd99d0d8	-0.07510537
4	0x3d8ce738	0.06880039
5	0x3da02c3f	0.07820939
6	0x3ca3ee67	0.02001114
7	0x3d37dcb2	0.044888206
8	0xbdbe3626	-0.09287672
9	0x3d27c0ae	0.040955238
10	0x3d8dfa5a	0.069325164
11	0xbbb79920	-0.0056029707
12	0xbdd680ce	-0.10473786
13	0xbd06b138	-0.032883853
14	0x3c920662	0.01782531
15	0x3d918048	0.07104546
16	0xbd68995e	-0.056786887
17	0x3bea0900	0.007142186
18	0xba9ff7ab	-0.0012204548
19	0xbdf78596	-0.12086026
20	0x3ca2e4da	0.019884516
21	0x3c9b6d93	0.018973147
22	0x3daff4f0	0.0859164
23	0xbd6fcdea	-0.058545984
24	0xbd999ab0	-0.075002074
25	0x3de6d328	0.112707436
26	0xbdddc087	-0.10827737
27	0xbc5ee3c5	-0.013604109
28	0xbddcaf69	-0.10775644
29	0xbde9de34	-0.11419335
30	0xbd724fe4	-0.05915822
31	0xbd8fbb60	-0.07018161
32	0x3d9dd671	0.07706917
33	0xbdece452	-0.11566986
34	0x3d848335	0.06470338
35	0x3db0fe89	0.08642299
36	0xbd6af8b7	-0.0573661
37	0xbd4b749c	-0.049671754
38	0x3b04c500	0.0020259023
39	0x3c3991e0	0.011326283
40	0xbc8f5750	-0.017497689
41	0xbdbdccda	-0.09267588
42	0x3caaef34	0.020866014
43	0xbdc58987	-0.09645372
44	0x3cc90cb0	0.024542183
45	0x3cbcf555	0.023066202
46	0x3dfc299c	0.12312624
47	0x3dacf824	0.084457666
48	0xbcabbdd8	-0.020964548
49	0xbc432640	-0.011910975
50	0xbd424720	-0.04743111
51	0x3cb44268	0.022004321
52	0xbd9256fc	-0.07145497
53	0xbc1d1bec	-0.009589177
54	0x3d4e1cea	0.050320543
55	0xbdd3bf36	-0.10339205
56	0xbc4b8792	-0.012422459
57	0x3b591c40	0.003312841
58	0x3bd456db	0.0064800805
59	0xbdd8e46c	-0.10590443
60	0xbbf9649c	-0.0076108705
61	0xbb6bad69	-0.0035961515
62	0x3c8e8d78	0.017401442
63	0x3d1b5bd4	0.03792937
64	0xbda20190	-0.07910454
65	0x3d789d7c	0.060697064
66	0x3bc13c40	0.005897075
67	0xbda733d4	-0.08164182
68	0xbe08af47	-0.13348113
69	0xbc5d258c	-0.013497721
70	0xbcea02a7	-0.028565718
71	0x3c3c3867	0.011488057
72	0xbdf22d32	-0.118250266
73	0x3dad5ebb	0.08465334
74	0x3d37d584	0.04488136
75	0xbd723058	-0.059128135
76	0xbdd8fb3a	-0.10594793
77	0xbdad3202	-0.08456804
78	0xbc1c319b	-0.009533311
79	0x3af63b00	0.0018785894
80	0xbd88fe60	-0.06689143
81	0xbd2f73d0	-0.042835057
82	0x3dc064f6	0.09394257
83	0xbb0dd640	-0.0021642596
84	0xbd88cd7c	-0.06679818
85	0xbd851901	-0.0649891
86	0xbdcc9e24	-0.099911004
87	0x3de6a863	0.11262586
88	0xbd5a52a8	-0.053301483
89	0xbdb1ddde	-0.08684896
90	0x3e04bcc1	0.12962629
91	0x3de7b02b	0.11312898
92	0x3e02c42a	0.12770143
93	0xbdaac596	-0.08338468
94	0x3bed40c0	0.007240385
95	0xbd5f57dc	-0.05452715
96	0x3bae0e78	0.0053117834
97	0x3d9680dc	0.07348797
98	0x3c7e6c7a	0.0155287925
99	0xbda7a7c0	-0.08186293
100	0xbdaa8cc0	-0.08327627
101	0x3d42c81c	0.04755412
102	0xbd1c76f4	-0.03819938
103	0xbaa4dd00	-0.001257807
104	0xbb97e5c0	-0.0046355426
105	0x3dc1ad80	0.094569206
106	0x3dab9f9a	0.08380051
107	0x3b0e0945	0.0021673006
108	0xbd55a78c	-0.05216174
109	0x3d36805d	0.04455601
110	0xbdb18f2c	-0.08669886
111	0xbdd7f744	-0.10545209
112	0x3dc9f1a8	0.098605454
113	0x3dcd2cb6	0.100182936
114	0xbd39f286	-0.045397304
115	0xbcbc61f0	-0.022995919
116	0xbbdd343a	-0.0067506107
117	0xbde27abc	-0.11058566
118	0xbcedaef7	-0.029014094
119	0x3d7d21e4	0.0617999
120	0xbdcd9361	-0.10037876
121	0xbc440de0	-0.011966199
122	0x3cb89c27	0.022535397
123	0x3d912f04	0.07089046
124	0xbd9b4128	-0.07580787
125	0xbd98de32	-0.074642554
126	0xbce1ab98	-0.027547643
127	0x3d5daa54	0.054117516
128	0xbdb4e6e4	-0.088331014
129	0xbd95b694	-0.07310215
130	0xbdcb38b0	-0.09922922
131	0x3dcf32ce	0.10117112
132	0xbd457e42	-0.048216112
133	0xbddb5d9f	-0.10711216
134	0xbdaa583b	-0.0831761
135	0x3d331ea6	0.0437304
136	0xbdf10848	-0.11769158
137	0x3d7c3ff9	0.061584447
138	0x3d9144ac	0.07093176
139	0xbc0e62f0	-0.008690581
140	0x3dce1a16	0.10063569
141	0xbc493d50	-0.012282684
142	0x3a47eae0	0.00076262467
143	0x3d06d328	0.032916218
144	0xbd7d20e9	-0.061798964
145	0xbd9bcb44	-0.07607129
146	0xbde177e2	-0.11009194
147	0x3de5ec8e	0.1122676
148	0xbd3f7f92	-0.04675252
149	0xbd307814	-0.043083265
150	0xbdf1a3e4	-0.11798838
151	0xbd0fc793	-0.03510244
152	0xbd4da100	-0.05020237
153	0xbdc9c537	-0.09852069
154	0xbd1b3505	-0.03789236
155	0xbdd8e9f2	-0.105914965
156	0x3d0fa3a4	0.03506817
157	0xbcc31c60	-0.023817241
158	0x3b58e280	0.003309399
159	0xbd774138	-0.06036493
160	0x3cb3a573	0.021929478
161	0xbd7ba8b0	-0.06144017
162	0xbd18464e	-0.037176423
163	0x3d67089f	0.056404706
164	0xbbc11db1	-0.005893432
165	0x3dc165ec	0.09443268
166	0xbde4a984	-0.11165145
167	0x3d36d580	0.044637203
168	0x3de0200c	0.109436125
169	0x3d1659e8	0.036706835
170	0xbda9f93b	-0.0829949
171	0x3dbf6963	0.09346273
172	0x3da6c5d2	0.081432
173	0x3d3558c7	0.044274118
174	0xbd14c9e0	-0.036325336
175	0xbddecd54	-0.10879007
176	0x3c30f7d0	0.010801271
177	0x3d145f0c	0.036223456
178	0x3deb0a20	0.114765406
179	0xbd96f75a	-0.07371397
180	0xbd7885c4	-0.060674444
181	0x3d82b6a9	0.06382496
182	0x3d63fd10	0.05566126
183	0xbd4829f0	-0.04886812
184	0xbaf61a8a	-0.001877622
185	0xbd450c3c	-0.04810737
186	0x3d3436a6	0.04399743
187	0x3cd24ea0	0.025672257
188	0xbd68ef5f	-0.056868907
189	0x3dbd9c1a	0.0925829
190	0xbdbbfc84	-0.09179023
191	0xbd5243c8	-0.051334172
192	0xbde35478	-0.111000955
193	0xbddaeb16	-0.1068937
194	0x3dc44000	0.095825195
195	0x3da48f3c	0.08035132
196	0xbd55af65	-0.052169222
197	0xbdf6d8a4	-0.1205304
198	0xbdd4ad85	-0.10384659
199	0x3e059547	0.13045226
200	0x3de08428	0.10962707
201	0xbc48b3a8	-0.012249865
202	0xbde11db6	-0.10991995
203	0xbdd2884a	-0.10279901
204	0xbd34926c	-0.04408495
205	0xbd37bbb4	-0.044856742
206	0xbd1db206	-0.038499855
207	0x3d5bcf14	0.053664282
208	0x3d7b54ac	0.061360046
209	0x3d702c44	0.058635965
210	0xbca967de	-0.02067941
211	0xbd89e2ba	-0.06732698
212	0x3d893842	0.067001835
213	0x3dd751fa	0.10513683
214	0xbdb8e671	-0.09028328
215	0x3d2956d0	0.041342556
216	0xbb3c8d00	-0.0028770566
217	0x3dc4adc3	0.09603455
218	0x3dc7ed3d	0.097620465
219	0xbdf4cc94	-0.11953083
220	0x3cf1ed1c	0.029532008
221	0xbd24a8b8	-0.040199965
222	0x3dc41c8e	0.09575759
223	0xbdcea7b2	-0.10090579
224	0x3b8c1d8a	0.0042759823
225	0xbdd875ae	-0.105693206
226	0xbd623fd0	-0.055236638
227	0xbde8305c	-0.11337349
228	0x3dae0c3c	0.08498427
229	0x3dcf596c	0.10124478
230	0xbdbb85ce	-0.091563806
231	0x3dea132e	0.114294395
232	0xbd86763e	-0.06565522
233	0x3df5c968	0.12001306
234	0xbc9f5fdc	-0.019454889
235	0x3dfe9840	0.12431383
236	0x3de4a60e	0.11164485
237	0x3e042363	0.12904124
238	0xbde4af1e	-0.111662135
239	0x3d7fda68	0.062464148
240	0x3d69d354	0.057086304
241	0xbd644210	-0.055727065
242	0x3ddcf829	0.1078952
243	0x3df2fa3c	0.11864135
244	0x3db59105	0.08865551
245	0x3d5d8781	0.054084305
246	0x3c387a12	0.011259573
247	0x38846800	6.313622e-05
248	0xbc60c41f	-0.013718634
249	0x3d1f9858	0.038963646
250	0xbdba053f	-0.09083032
251	0x3d3c6bac	0.04600112
252	0x3a96c384	0.001150236
253	0xbda6c9b7	-0.08143943
254	0x3dd072da	0.10178156
255	0x3d9560ae	0.07293831

hyper_w2.2.bias f4 [32]
0	0xbfd46f94	-1.6596551
1	0xbfe96cae	-1.8236291
2	0x3ff44acb	1.9085325
3	0x3fef0aa9	1.8675128
4	0xbfaa66e0	-1.3312645
5	0xbfef46aa	-1.869344
6	0xbf84a066	-1.036145
7	0x3ff4c0af	1.9121302
8	0xbff314a6	-1.8990676
9	0xbfe8757c	-1.8160853
10	0x3fece82f	1.8508357
11	0xbff0d2a6	-1.8814285
12	0xbfe97aaa	-1.8240559
13	0xbff1d6db	-1.8893694
14	0xbfc04ca2	-1.5023386
15	0x3feb9d18	1.8407316
16	0xbff49153	-1.910685
17	0x3ff0b7a6	1.8806045
18	0x3fe228de	1.7668722
19	0xbfefb32c	-1.8726554
20	0x3ff432b8	1.9077978
21	0xbfefc7f5	-1.8732897
22	0x3feaea30	1.8352718
23	0xbfee542b	-1.8619436
24	0x3ff1df89	1.8896343
25	0xbff288d5	-1.8948008
26	0x3fe807c7	1.8127373
27	0x3fcf3308	1.6187449
28	0xbfe84307	-1.8145455
29	0x3fd5e106	1.6709297
30	0xbff3fe26	-1.9061935
31	0xbfe3de04	-1.7802129

hyper_b1.weight f4 [32, 576]
0	0x3d782c8b	0.060589354
1	0xbc0356fd	-0.008016345
2	0x3d6a9676	0.057272397
3	0x3b4f35b9	0.0031617715
4	0x3d143406	0.036182426
5	0x3d28670e	0.041113906
6	0x3d1f3903	0.03887273
7	0x3d867a49	0.06566293
8	0x3d7458c0	0.05965495
9	0x3c3617a3	0.011114034
10	0x3d70da2a	0.058801807
11	0x3c4456f5	0.011983623
12	0x3d235270	0.03987354
13	0x3cfa1822	0.030529086
14	0x3d7bf6f5	0.061514813
15	0x3d57f6e5	0.05272569
16	0x3bc96e98	0.006147217
17	0x3cc1838c	0.023622297
18	0x3d2e6730	0.042578876
19	0x3d758156	0.059937797
20	0xbb819988	-0.00395507
21	0x3c4b707a	0.012416953
22	0x3c69f922	0.014280589
23	0x3d3ff80f	0.046867426
24	0x3c1be93a	0.009516055
25	0x3a15c1d4	0.00057127816
26	0x3caf403d	0.021392936
27	0x3d1bc71e	0.03803169
28	0x3adc2d26	0.0016798123
29	0x3d6e5dd3	0.058194946
30	0x3d77a020	0.06045544
31	0x3d127702	0.035758026
32	0x3c3b1406	0.011418348
33	0x3d3e5fbf	0.04647803
34	0x3d0463ff	0.032321926
35	0x39eb786c	0.00044912414
36	0x3c3fa582	0.011697175
37	0x3d0ee6df	0.034888145
38	0x3c12de1f	0.008964091
39	0x3d4aa65f	0.04947507
40	0x3d35a3c2	0.044345625
41	0x3d4294fd	0.047505368
42	0x3d29d375	0.041461427
43	0x3d4f9b33	0.05068512
44	0x3c3abf53	0.011398154
45	0x3d8b9d74	0.06817141
46	0x3d2e3157	0.042527523
47	0xbb16b5a5	-0.0022996452
48	0x3d05e904	0.032692924
49	0x3d62a5c9	0.055333886
50	0xbcdf56fe	-0.02726316
51	0xbc82f57b	-0.015986195
52	0xbc5806f6	-0.013185253
53	0xbcfa5116	-0.030556243
54	0xbd08fce2	-0.033444293
55	0xbd26fe9f	-0.04077017
56	0xbcc3ad4e	-0.023886349
57	0xbbf5bc38	-0.007499244
58	0xbc972966	-0.018452358
59	0xbd2782ae	-0.04089611
60	0xbd8d24a3	-0.068917535
61	0xbc070a14	-0.008242149
62	0x3c5f4800	0.013628006
63	0x3d120be5	0.035655875
64	0x3d10cb67	0.03535023
65	0x3c9535c0	0.018214107
66	0xbd0de402	-0.034641273
67	0x3ce058ae	0.027386036
68	0xbc339ca0	-0.010962635
69	0xbc9bf983	-0.019039875
70	0x3d8abcf1	0.06774319
71	0x39e12ed9	0.00042950248
72	0xbc153302	-0.0091063995
73	0x3d6d2d22	0.05790437
74	0x3cb16822	0.0216561
75	0x3cbbd28a	0.022927541
76	0xbd622e0f	-0.055219706
77	0x3aa056df	0.0012232921
78	0xbd8815f3	-0.066448115
79	0xbcaadaee	-0.020856347
80	0xbd17a49e	-0.037022226
81	0xbcf2bfde	-0.029632505
82	0xbc2cf24c	-0.010555815
83	0xbd0a037b	-0.033694725
84	0xbd13cc5f	-0.036083575
85	0x3d0620fd	0.032746304
86	0xbd1e8c7c	-0.038708195
87	0xbc9fbf20	-0.019500315
88	0xbcf20878	-0.029545054
89	0x3bb27fdc	0.005447371
90	0x3cc6ce7e	0.024268385
91	0x3c3f3f2c	0.011672776
92	0xbcbdfae7	-0.023190929
93	0x3c39e134	0.0113451965
94	0x3d466524	0.0484363
95	0x3cb70917	0.022343202
96	0x3d7d6e99	0.061873052
97	0x3d8d540f	0.069007985
98	0xbccd9230	-0.025094122
99	0x3d0d29a3	0.034463536
100	0x3c83fa12	0.016110454
101	0xbbe244a8	-0.006905157
102	0xba0950c0	-0.0005238168
103	0x3cbb9e46	0.02290262
104	0xbc4e8e3c	-0.0126071535
105	0xbcd10618	-0.025515601
106	0xbd1370d8	-0.035996288
107	0xbc769db6	-0.01505225
108	0x3c4bfb20	0.01245001
109	0xbbfd629f	-0.007732704
110	0x3d0dc825	0.0346147
111	0xbd018e9a	-0.031630136
112	0xbb19f730	-0.0023493282
113	0x3d071865	0.03298225
114	0xbd1bf524	-0.03807558
115	0xbcaee2ee	-0.021348443
116	0xbc7b3f30	-0.015334889
117	0xbb34a2b0	-0.002756279
118	0x3d0aa50b	0.033848803
119	0xbb89c505	-0.0042043948
120	0x3caea54b	0.021319052
121	0x3d6b2181	0.057405
122	0xbc250454	-0.010071833
123	0x3abaf600	0.0014263988
124	0xbc47f366	-0.012204027
125	0x3c8299ce	0.01594248
126	0xbd5680c1	-0.052368883
127	0x3d21e6ad	0.03952663
128	0x3d231cbd	0.03982233
129	0x3ab99ea0	0.0014161654
130	0xbced8c50	-0.02899757
131	0xbc6325ac	-0.013863962
132	0xbd2707d0	-0.040778935
133	0xbd0a7440	-0.03380227
134	0xbd5bab60	-0.053630233
135	0x3cca814a	0.024719853
136	0x3cfd6976	0.030934077
137	0xbb0dd9c0	-0.0021644682
138	0xbbdfa398	-0.006824922
139	0x3b1cecc5	0.0023944837
140	0xbbcec820	-0.006310478
141	0xbca123b9	-0.019670354
142	0x3d87eefa	0.06637378
143	0x3d704fed	0.058669973
144	0x3d3cf2de	0.046130054
145	0x3d2514f0	0.04030317
146	0xbce5763e	-0.028010484
147	0x3ce74782	0.02823234
148	0xbd1fa169	-0.038972292
149	0xbc5dbab2	-0.013533281
150	0xbd1a11a4	-0.03761448
151	0xbc4bcc1c	-0.0124388
152	0xbd0e5ab3	-0.034754466
153	0xbc97efce	-0.018546965
154	0xbb07b4c0	-0.00207071
155	0x3d1f402d	0.038879562
156	0xbc6656ec	-0.01405881
157	0x3c3407b4	0.010988165
158	0x3c13ee24	0.009028945
159	0x3c5722a0	0.013130814
160	0xbceaa042	-0.02864087
161	0xbc3fd706	-0.01170898
162	0x3d0a6ef7	0.03379723
163	0x3d08a455	0.033359844
164	0xbd5ae564	-0.05344142
165	0x3c3c3dac	0.011489313
166	0x3c8bf7d0	0.01708594
167	0x3d0a3f19	0.03375158
168	0xbb4d62dc	-0.0031339442
169	0x3d0ae9be	0.03391432
170	0x3cb099ea	0.021557767
171	0x3ceb549a	0.028726865
172	0x3cbef866	0.023311805
173	0x3ba3e708	0.0050019063
174	0x3d14508f	0.03620964
175	0x3d0bfaa1	0.034174565
176	0x3c944b0a	0.018102188
177	0xbd027c64	-0.03185691
178	0xbc81edbe	-0.015860435
179	0x3cca6c2a	0.02470978
180	0x3bb0d9f8	0.0053970776
181	0xbca47b0b	-0.020078203
182	0xbcfdffa6	-0.031005692
183	0xba18c100	-0.0005827099
184	0x3c8363be	0.016038772
185	0xbbb94f18	-0.0056551807
186	0xbd3810c4	-0.044937864
187	0xbc96a8d3	-0.018391049
188	0xb9ca6200	-0.00038601458
189	0xbd1a9632	-0.037740894
190	0x3d464362	0.048404105
191	0x3aaacda5	0.0013031258
192	0x3d1ebf65	0.038756747
193	0x3d1cb2ef	0.038256582
194	0x3c859aa0	0.016309083
195	0xbe318cfb	-0.17338936
196	0x3c2e01d0	0.010620549
197	0xb9af1c80	-0.00033399835
198	0xbd0a3bd6	-0.03374847
199	0xbd2964cc	-0.041355893
200	0xbc11d0b4	-0.008899856
201	0x3c470d1c	0.012149122
202	0xbc76949c	-0.01505008
203	0x3d25dc63	0.04049338
204	0xbb85ff78	-0.004089292
205	0x3c67af74	0.014140952
206	0xbd26a60d	-0.040685702
207	0xbd09cba4	-0.033641472
208	0xbca0f876	-0.019649725
209	0x3d07efc9	0.03318766
210	0x3ce9471e	0.028476294
211	0xbc38ae66	-0.011272049
212	0xbcba0361	-0.02270669
213	0x3c5ab4bc	0.0133487545
214	0x3cf79bf0	0.030225724
215	0x3d151cb6	0.036404334
216	0x3d597750	0.0530923
217	0x3bb0d6b3	0.005396688
218	0xbbd44668	-0.0064781196
219	0xbccdd6a6	-0.025126766
220	0xbc8afe56	-0.01696698
221	0x3cf7e04e	0.030258324
222	0xbd29ac7c	-0.04142426
223	0xbc329640	-0.01090008
224	0x3ccc2d76	0.024924021
225	0x3c5b3510	0.01337935
226	0x3d1992cb	0.03749351
227	0xbe177e3d	-0.1479425
228	0xbc26a1b4	-0.010170389
229	0xbde09650	-0.1096617
230	0x3cef2886	0.029194128
231	0x3ceeb36a	0.029138286
232	0x3c6e9384	0.014561538
233	0xbcb9c38b	-0.02267625
234	0xbc88cfc6	-0.016700637
235	0xbd188a87	-0.037241485
236	0xbca72168	-0.020401672
237	0x3cb3e7c2	0.021961097
238	0x3c36a8f8	0.011148684
239	0x3c129b7f	0.008948206
240	0x3cfaf32e	0.030633535
241	0x3cb10b8a	0.021611948
242	0x3c7331ac	0.014843386
243	0x3cd30ed2	0.025763903
244	0xbce5825e	-0.028016265
245	0x3c8aa05e	0.016922172
246	0xbd0832f0	-0.033251703
247	0x3ce884f2	0.028383706
248	0x3d14154b	0.03615312
249	0xbcd978a8	-0.026546791
250	0x3c336444	0.010949198
251	0xbc9c7263	-0.019097513
252	0xbc4d2f76	-0.012523523
253	0xbc7dfb80	-0.015501857
254	0xb8df5600	-0.000106494874
255	0xbc28aa70	-0.010294542

hyper_b1.bias f4 [32]
0	0x3a8bf4f3	0.0010677859
1	0xbd1a35a0	-0.037648797
2	0xbce5369b	-0.02798014
3	0xbcd70571	-0.026247712
4	0xbc6eb802	-0.014570238
5	0xbd015ae0	-0.031580806
6	0xbc849b9a	-0.016187478
7	0xbaa6225b	-0.0012675034
8	0xbc9b468b	-0.018954536
9	0xbcea3748	-0.028590813
10	0xbbc0819c	-0.0058748256
11	0xbd9aac78	-0.07552427
12	0xbd325245	-0.04353549
13	0xbcfff175	-0.031243065
14	0x3a3708c2	0.0006982201
15	0x3b1ef011	0.0024251977
16	0xbd49f10e	-0.049302153
17	0xbd93e5aa	-0.07221539
18	0xbd8056bd	-0.06266544
19	0x3b7c7220	0.0038520172
20	0xbcf098ce	-0.029369738
21	0xba22799d	-0.00061979314
22	0x3a4d4b6e	0.00078313693
23	0xbc4a4c02	-0.012347223
24	0x3b52cd56	0.0032165847
25	0xbd8b555a	-0.06803389
26	0xbc85132e	-0.016244497
27	0xbcdd8fc7	-0.027046097
28	0xbd8bd788	-0.06828219
29	0xbda4bbfe	-0.08043669
30	0xbcf50632	-0.02991018
31	0xbd0d659e	-0.034520738

hyper_b2.0.weight f4 [32, 576]
0	0xbbae3898	-0.005316805
1	0x3d0560ed	0.03256314
2	0xbd1e1880	-0.038597584
3	0x3b269000	0.002541542
4	0xbc2abbc0	-0.01042074
5	0xbccdc886	-0.025120031
6	0xbc103964	-0.0088027455
7	0xbc0b866c	-0.008515935
8	0xbc56a906	-0.013101822
9	0x3cd240c6	0.025665652
10	0x3c2955d0	0.010335401
11	0xbc8fb2f8	-0.017541394
12	0x3d1630b5	0.036667544
13	0x3c57b0f0	0.013164744
14	0xbc19e600	-0.009393215
15	0xbb910660	-0.004425809
16	0xbcaac803	-0.020847326
17	0xbd03faca	-0.032221593
18	0x3a202140	0.000610847
19	0xbd22174e	-0.039573006
20	0x3c577c30	0.013152167
21	0x3d1d102f	0.038345512
22	0x3ccf4a52	0.025303993
23	0x3c35625c	0.011070814
24	0xbcae6746	-0.021289479
25	0x3d0eb4bf	0.03484034
26	0x3d0ba275	0.034090478
27	0xbc183120	-0.009289056
28	0xbc8f229e	-0.017472561
29	0x3c3ddc14	0.011588115
30	0x3c59f7bc	0.013303693
31	0xbce20163	-0.027588552
32	0x3c9a7de0	0.01885885
33	0xbc7e8290	-0.015534058
34	0xbcef34fb	-0.029200068
35	0xb9a63b80	-0.00031706318
36	0xbcbaab90	-0.022786885
37	0x3cce68c2	0.025196437
38	0xbd087a1c	-0.033319578
39	0x3ce9b332	0.02852783
40	0xbd11f503	-0.035634052
41	0x3a87e900	0.0010369122
42	0x3ce80f3a	0.028327573
43	0xbc0a5e9c	-0.008445408
44	0xbcda2596	-0.02662925
45	0xbd0c70f7	-0.03428742
46	0xbcdd95bb	-0.027048936
47	0xbb230b40	-0.0024878532
48	0x3ccacd22	0.024756018
49	0xbcc3cf83	-0.02390266
50	0xbd1438cb	-0.036186974
51	0x3cfa1fb2	0.030532692
52	0xbd05b447	-0.03264263
53	0x3caa53a0	0.020791829
54	0xbcdd7d7b	-0.027037373
55	0x3ca650a0	0.020302117
56	0xbba8cb08	-0.0051511563
57	0xbcf9edf6	-0.030508976
58	0x3c669944	0.014074627
59	0x3c7b0900	0.01532197
60	0x3c14969c	0.009069111
61	0x3d156467	0.036472704
62	0xbbe75780	-0.0070599914
63	0x3cdbe2da	0.02684157
64	0x3ca3b87e	0.019985434
65	0xbbd16300	-0.0063899755
66	0xbd15250f	-0.036412295
67	0x3d28de51	0.041227642
68	0xbcc04b56	-0.023473423
69	0xbd14ef63	-0.03636111
70	0x3b810f80	0.0039386153
71	0x3d05aa53	0.032633137
72	0x3cfb54ea	0.030680139
73	0xbce7d9de	-0.02830213
74	0x3c1ad104	0.009449247
75	0xbd280f4a	-0.041030206
76	0xbc39c31c	-0.011338022
77	0xbc0f5e9c	-0.008750584
78	0x3c28a920	0.010294229
79	0xbd20aab7	-0.039225306
80	0xbd04b75b	-0.032401424
81	0xbcb6dd6b	-0.022322377
82	0xbcb748e6	-0.022373628
83	0x3b296480	0.0025847256
84	0xbccc030b	-0.024903795
85	0x3c73a8bc	0.014871772
86	0x3be5b8c0	0.0070105493
87	0x3d0e34a3	0.034718167
88	0xbc803223	-0.015648907
89	0x3d047c65	0.032345194
90	0x3acad020	0.0015473403
91	0xbcda8968	-0.026676849
92	0xbd019623	-0.031637322
93	0xbcda6d48	-0.026663437
94	0x3b987680	0.004652798
95	0x3ce1233a	0.027482618
96	0xbd1de7e6	-0.038551234
97	0xbc5f4b6c	-0.013628822
98	0xbb89b8d8	-0.0042029433
99	0x3c9f74b6	0.019464832
100	0xbc59a946	-0.013284987
101	0xbcdeab00	-0.027181149
102	0xbc9872d6	-0.018609446
103	0xbc847223	-0.016167706
104	0x3c0df55c	0.008664455
105	0x3ca8b320	0.020593226
106	0x39f52480	0.00046757236
107	0xbcc90d78	-0.024542555
108	0xbb10ac10	-0.0022075213
109	0x3d098ccd	0.033581544
110	0xbcaada13	-0.020855939
111	0x3cf406a2	0.029788319
112	0x3b9d98f8	0.004809495
113	0x3ce16b62	0.027517024
114	0xbd034f60	-0.03205812
115	0x3c876cea	0.016531426
116	0xbd057070	-0.032577932
117	0x3cad9b96	0.021192353
118	0x396e7100	0.00022739545
119	0xbc758766	-0.014985895
120	0x3d23e331	0.04001159
121	0xbc65fa6c	-0.014036756
122	0x3c104850	0.008806303
123	0xbd0c0906	-0.034188293
124	0x3c6a4fc0	0.01430124
125	0x3c2505a0	0.010072142
126	0x3d08db3d	0.033412207
127	0xb965d800	-0.00021919608
128	0x3b580d90	0.0032967068
129	0xbcd87d43	-0.026426917
130	0xbd087a54	-0.033319786
131	0xbb6eda50	-0.0036446042
132	0xbb6a4290	-0.003574524
133	0x3b7e9110	0.0038843788
134	0xbc9fa49e	-0.019487675
135	0xbccf0d76	-0.025274973
136	0xbcdd3f06	-0.027007591
137	0x3d1ea989	0.0387359
138	0x3ca7c60e	0.020480182
139	0xbd160144	-0.0366223
140	0xbcf6b60e	-0.030116107
141	0xbc9b1ace	-0.01893368
142	0x3cc7d32a	0.024392683
143	0x3cf58362	0.029969875
144	0xbd016120	-0.031586766
145	0x3d21fac3	0.039545786
146	0xbcb7e893	-0.022449767
147	0xbbeec308	-0.007286433
148	0x3b52c3b0	0.0032160096
149	0xbcc9011e	-0.024536666
150	0x3d00bc01	0.031429294
151	0x3d210d4b	0.039319318
152	0x3b3afad0	0.0028530844
153	0x3bd97f78	0.00663751
154	0x3ccd0b82	0.025029901
155	0xbce320a0	-0.027725518
156	0xbc8a9688	-0.016917482
157	0xbd066a08	-0.032815963
158	0x3d02d11f	0.031937715
159	0x3ccc5722	0.024943892
160	0xbc7eae1c	-0.015544441
161	0x3cffaac6	0.03120936
162	0xbbc26ea8	-0.0059336014
163	0xbd2848e2	-0.04108513
164	0x3b120490	0.0022280551
165	0x3c9e6506	0.019335281
166	0xbcb65a9b	-0.02226
167	0x3d1a3239	0.037645552
168	0x3b1b2c70	0.002367761
169	0xbce204d3	-0.027590191
170	0x3cf024d6	0.02931444
171	0xbc2021cc	-0.009773683
172	0x3d051361	0.032489184
173	0x3c2c8b74	0.010531295
174	0xbc4b1f60	-0.012397617
175	0xbb18d840	-0.0023322254
176	0x3cceb126	0.025230955
177	0x3d1c556b	0.0381674
178	0xbcbcca16	-0.02304558
179	0xbc6ab65c	-0.014325704
180	0x3cff79ba	0.031185973
181	0x3cc95c6e	0.024580207
182	0x3ce501c2	0.02795494
183	0xbbe8aee0	-0.007100925
184	0xbc1d4114	-0.009598035
185	0xbc22d1f0	-0.009937748
186	0xbccf96d6	-0.025340479
187	0xbc6e5a4c	-0.014547896
188	0x3cf15fb2	0.029464576
189	0x3c8eb5c8	0.017420664
190	0x3c49d264	0.012318227
191	0xbcdc8858	-0.026920483
192	0x3c91412a	0.017731268
193	0x3d1c0c17	0.038097467
194	0xbc961ea3	-0.018325156
195	0xbca4c3c0	-0.020112872
196	0xbcb966e3	-0.022632068
197	0x3d28f721	0.041251305
198	0x3d164e0b	0.03669552
199	0xbd007b22	-0.03136743
200	0xbd279813	-0.040916514
201	0x3cebac32	0.028768633
202	0x3cdd13a6	0.026986908
203	0xbcadc05b	-0.021209886
204	0x3c158600	0.009126186
205	0x3d294069	0.041321192
206	0x3cca9f9a	0.024734307
207	0x3cd32a36	0.025776964
208	0xbc753ec6	-0.01496858
209	0xbbb0c2a8	-0.0053942986
210	0xbc983b90	-0.01858309
211	0x3b987628	0.004652757
212	0xbca2158e	-0.019785669
213	0xb9626300	-0.0002158992
214	0x3ae3d560	0.0017382316
215	0xbd162032	-0.036651798
216	0xbbaa1360	-0.005190298
217	0x3cec7a8a	0.028867025
218	0xbd24ad9a	-0.04020462
219	0xbd1df52b	-0.03856389
220	0x3cefc54e	0.029268887
221	0xbd045adc	-0.032313213
222	0xbced64eb	-0.028978785
223	0x3d23b25f	0.03996503
224	0xbca49026	-0.020088267
225	0x3cfe076a	0.031009395
226	0x3cfccfea	0.03086086
227	0x3bff5120	0.0077916533
228	0xbcbb6b48	-0.022878304
229	0x3d1209c1	0.035653833
230	0xbd1621a8	-0.03665319
231	0xbc17d7a0	-0.009267718
232	0xbcecc046	-0.028900277
233	0x3d1495dd	0.036275733
234	0x3cfc2fce	0.030784514
235	0x3b14f470	0.0022728704
236	0x3a984660	0.0011617653
237	0x3c3c9280	0.011509538
238	0xbbb27f28	-0.005447287
239	0x3ba5e700	0.0050629377
240	0xbb8fd0e0	-0.0043889135
241	0x3d134e3d	0.035963286
242	0xbc1f9bc4	-0.009741727
243	0x3d1a541f	0.03767788
244	0x3d1879e9	0.037225638
245	0xbd047867	-0.032341387
246	0xbcfadb30	-0.030622095
247	0xbc4c4bbc	-0.012469228
248	0xbce05a38	-0.02738677
249	0x3cde4016	0.027130168
250	0xbbe2ad08	-0.0069175996
251	0x3d00941d	0.03139125
252	0xbc19b7bc	-0.009382185
253	0x3cee9aba	0.029126514
254	0xbcc76b70	-0.024343222
255	0xbbdaff48	-0.006683264
