models/v2/target_qmix_net.pth (torch, 834236 bytes, 13 tensors)

hyper_w1.0.weight f4 [64, 1024]
00000000: b47e 13bc aea5 b9bc fa34 8ebc 16cc 83bc
00000010: a0d3 21bb b86b 4cbc 3eea f43c f40d 6abc
00000020: 8060 f4ba 001f 22bb 1ae5 f8bc 76de dbbc
00000030: 70ee 613c f093 c13c d0db 4a3b 0c47 523c
00000040: 98b8 34bc 8ca6 0f3c 0692 ae3c 58da 6fbc
00000050: 3434 adbc b8a7 303c 52a2 81bc 805a baba
00000060: 2022 433c fc33 3d3c e0fd 51bc fe9b f4bc
00000070: 2406 ffbc 7638 e83c d2bf d83c 9297 b1bc
00000080: 66e7 933c ac5d 5d3c dcdc 753c 60a1 7d3c
00000090: 78be 2ebc 3a2b ba3c a081 9b3c 1489 683c
000000a0: 5a9a 923c f00a 37bc fa44 ae3c 9caf 86bc
000000b0: ec43 5dbc 8011 b7bc 9482 e33c a406 a53c
000000c0: d040 603c ea6f ee3c e84a e3bb 5083 cdbb
000000d0: 7ca4 1dbc c464 08bc 4056 e13a 02fc c33c
000000e0: 9484 583c 0434 2bbc b23e b13c 5ce8 be3c
000000f0: 4c65 cfbc 0032 c7b8 c0c1 903a 58db aa3b
00000100: 101c 96bc ccaa 98bc 48ef 34bc 30ab 1d3c
00000110: 2c17 afbc 98f4 9dbc ec3b 0abc c08a d83c
00000120: 80d4 9f39 82ce 95bc 4c97 40bc ac57 233c
00000130: d020 46bc a065 5b3b dcb6 cc3c 8002 7fbb
00000140: be1b e6bc 1afe cbbc aa63 813c 628d f13c
00000150: 00e6 50b9 d690 b23c 1c56 723c d4a0 94bc
00000160: a8bd 89bc 048f eb3c f043 863b 18bf 9f3c
00000170: 9022 3e3b acad 043c 4626 a13c 00f3 d6ba
00000180: 00e8 e2b7 74e7 3dbc a463 55bc b0ff 43bb
00000190: 4c01 3cbc e879 eabb 700f 7bbc 80e1 50bb
000001a0: 8240 a4bc 36ec d23c e031 073b 009e f638
000001b0: 88c0 b5bc 00ab ed3a ec16 c7bc 14ad 8ebc
000001c0: 7ae6 e6bc e4ca 8cbc 90cf c43c e04c 2abc
000001d0: 7c57 6fbc 38fa abbc 2ca1 1cbc c228 f33c
000001e0: 3049 c33b 4659 8abc e8dc 073c a02b ca3c
000001f0: 50d1 4ebb 0c02 023c a8be 90bb c083 68ba
00000200: 1eba a63c 6c7d d8bc 2e1f a63c d05c 1d3b
00000210: 104b eb3b 0cda 073c a47d c33c 4c86 0e3c
00000220: 9e19 a83c c8e1 89bc e815 133c e044 4f3c
00000230: c458 3f3c c88e 133c b0c2 95bb 389b cabc
00000240: a4af 313c a884 af3b c81a 053c 58c9 e1bc
00000250: 44bc cebc e4ae c93c debd d6bc 58db 0abc
00000260: ce6a b1bc fcee 9cbc d054 bbbb 2058 f1bb
00000270: a48f b3bc e040 d83b 5c88 12bc 40eb 963c
00000280: 2413 cd3c 5454 a1bc 009a fb39 96c6 c43c
00000290: c265 c53c 3cb7 293c 3ccd a3bc 0034 0ebc
000002a0: 341e cdbc 389d a23c b803 e43c 3403 f2bc
000002b0: 90b5 983c 3841 903c acd1 64bc 00b4 73b9
000002c0: 0072 b83c 185f 57bc 8402 a2bc ee65 d3bc
000002d0: c489 d8bc 2461 593c 903a e9bc 582c f2bc
000002e0: a0bb a63b 12d7 bb3c 8241 f03c 5004 b5bb
000002f0: 86fb b8bc 30a9 e33b 64c6 4e3c f0cf 053c
00000300: 6a3b ad3c 1431 14bc 4423 ca3c 8896 fbbb
00000310: c03b 0dbb 5a2f 93bc 0089 d439 30dd 1dbc
00000320: b69c 843c 944d 12bc f8e4 47bc 5c57 8c3c
00000330: 94c8 98bc 7c83 07bc 2034 803a e887 373c
00000340: cc83 e73c 14c6 133c 0213 c93c 7066 b13b
00000350: 0a9c 853c 08f7 e13b e0dc 63bb bc75 8ebc
00000360: 883a a1bb 085b 75bc cab0 993c 800c 14bc
00000370: 7ca4 bd3c d06b f63c 5acd ea3c 4432 bfbc
00000380: 6eff 98bc feea dc3c 1c31 22bc a433 463c
00000390: 7893 72bc f0fe aebb 680e cf3c 46ae b0bc
000003a0: d67f 87bc 70cb 713b 1ed1 a1bc 9078 66bb
000003b0: 4045 c33b 68fc bcbb b0d6 efbb 1cf8 b43c
000003c0: a8fd ad3b 68db ac3c 3cb1 d43c 96f0 b63c
000003d0: 103d cabc 101a 3abc 2845 833b b690 e43c
000003e0: f048 043b 3825 cabc e84d a1bc 9080 803c
000003f0: 2453 cb3c 7a0d ae3c 2448 78bc 60dc 92bb
-0.009002376 -0.02266201 -0.017359246 -0.016088527 -0.0024692789 -0.012476854 0.029896852 -0.014285553
-0.0018644482 -0.0024737716 -0.030382682 -0.026839476 0.013789758 0.023630112 0.0030953772 0.012834322
-0.011030339 0.008767735 0.021309864 -0.01463946 -0.021143056 0.010782175 -0.01582447 -0.0014217645
0.0119099915 0.011548039 -0.012816876 -0.02985954 -0.031130858 0.028347235 0.026458655 -0.02167872
0.018054675 0.013511103 0.01500627 0.015480369 -0.0106655285 0.02272569 0.018982708 0.014192838
0.017895866 -0.011172041 0.021273125 -0.016441159 -0.013504963 -0.022347212 0.027772225 0.020144768
0.0136873275 0.0291061 -0.0069364198 -0.006271757 -0.009621736 -0.008324806 0.0017191842 0.023923878
0.013215203 -0.010449413 0.02163634 0.023304157 -0.025316857 -9.498373e-05 0.001104407 0.005214136
-0.018323928 -0.01863613 -0.011043377 0.009623334 -0.021373354 -0.01928167 -0.008437138 0.026433349
0.00030485168 -0.018286947 -0.011754822 0.009969633 -0.012092784 0.0033477321 0.024989538 -0.0038911402
-0.0280894 -0.024901439 0.015794594 0.029486362 -0.00019922107 0.021797579 0.014791038 -0.018143095
-0.016814068 0.028754719 0.0040974542 0.0195003 0.00290123 0.008098047 0.01967157 -0.0016399324
-2.7049333e-05 -0.011590827 -0.013024244 -0.002990704 -0.011474919 -0.0071556456 -0.015323505 -0.003187269
-0.020050291 0.0257474 0.0020629093 0.00011759624 -0.022186533 0.0018132627 -0.024302922 -0.017416514
-0.028186072 -0.01718659 0.024024755 -0.010394305 -0.01460826 -0.020993337 -0.009559911 0.02968252
0.0059596524 -0.016888272 0.008292414 0.024679005 -0.0031557865 0.007935058 -0.0044172592 -0.000886973
0.02035242 -0.026426993 0.02027854 0.002401162 0.007180579 0.0082917325 0.023863621 0.008699011
0.020520028 -0.016831294 0.008977391 0.012650698 0.011678878 0.00900621 -0.0045703277 -0.024732217
0.010845099 0.00535639 0.008124061 -0.027561828 -0.025236256 0.024619527 -0.026213583 -0.008475147
-0.021657374 -0.019156925 -0.0057168975 -0.0073652416 -0.02191908 0.0065995306 -0.008943643 0.018422723
0.025033541 -0.019693531 0.0004798919 0.024020474 0.024096373 0.010358628 -0.019995324 -0.00867939
-0.025038816 0.019850358 0.027833804 -0.029542543 0.018641263 0.017609224 -0.013966005 -0.00023241341
0.022515297 -0.013145231 -0.01977659 -0.02580544 -0.02643288 0.013267789 -0.028470308 -0.02956216
0.0050882846 0.022929702 0.029328112 -0.0055241957 -0.022580873 0.006947659 0.012620542 0.008167252
0.021146495 -0.009044904 0.02467502 -0.007677857 -0.0021550506 -0.017966915 0.00040537864 -0.009635255
0.016188007 -0.008929629 -0.0122005865 0.0171315 -0.01865033 -0.008271094 0.000978116 0.011201836
0.028261088 0.0090193935 0.024545196 0.005413823 0.016309757 0.0068959035 -0.0034769103 -0.017390124
-0.0049203075 -0.014975317 0.018761057 -0.009036183 0.023149721 0.030080706 0.028662372 -0.023339398
-0.018676486 0.026967522 -0.009899404 0.012097273 -0.014805667 -0.0053404495 0.025275424 -0.021567475
-0.01654045 0.003689494 -0.019753035 -0.0035167076 0.005959183 -0.005767394 -0.007319294 0.022090964
0.005309779 0.021100715 0.025963418 0.022331517 -0.02468732 -0.011358753 0.004006047 0.027901035
0.0020185076 -0.02467595 -0.019690469 0.015686303 0.024819918 0.02124666 -0.015153918 -0.004481837

hyper_w1.0.bias f4 [64]
00000000: 0ac2 b23c ac50 4dbc d68e 9f3c 6401 523c
00000010: 6655 c2bc 189b bc3b 7034 a43b ae85 973c
00000020: 544f 7f3c 5687 8dbc 30d8 093b 7a63 a33c
00000030: c828 c53b 78d8 4abc 786f cd3b 4cfe 2abc
00000040: 701a 04bb 8013 60ba 3299 923c 2241 a4bc
00000050: 6830 acbb 20a4 99bb be21 b0bc 00fd c83b
00000060: a038 f9ba ec70 e6bc 88fe f93b 40f3 2bbc
00000070: 809e 7bbb 207a 8dbc b42b 9d3c 1c85 16bc
00000080: f405 eabc a013 e13a c494 ce3c b04f 533c
00000090: 4436 62bc 10b8 ca3c 48ed 8dbb 8625 aabc
000000a0: 6a40 acbc fe06 ffbc a8c3 223c 040e 62bc
000000b0: e48f 40bc 12a5 d83c fc7b 3ebc e87d 2a3c
000000c0: 48dc 6ebc 7e53 b9bc 5068 6fbc 4854 84bb
000000d0: 5c05 16bc 1c08 0cbc 345b 913c 0c55 7a3c
000000e0: 0003 1b3b 8004 a53b b2dc e63c 72e6 b33c
000000f0: e21f ffbc 6086 fe3b c0da f1bc be98 b1bc
0.02182104 -0.012531441 0.01947729 0.012817714 -0.023722362 0.0057557933 0.005011134 0.01849636
0.015582878 -0.017276447 0.0021033399 0.019944895 0.0060168244 -0.012380712 0.0062693916 -0.010436606
-0.002015736 -0.00085478276 0.017895315 -0.020050589 -0.005254794 -0.0046887547 -0.021500465 0.0061336756
-0.0019014068 -0.028130017 0.0076292194 -0.010495007 -0.0038394034 -0.017270148 0.019185878 -0.009187009
-0.028567292 0.0017171986 0.025217421 0.012897417 -0.013806883 0.024745971 -0.0043312646 -0.020769846
-0.021026809 -0.031131264 0.009934343 -0.013797287 -0.011753056 0.0264459 -0.01162624 0.010405995
-0.014578886 -0.02262282 -0.014612272 -0.0040383674 -0.009156551 -0.008546855 0.017743684 0.015279066
0.0023652911 0.005035937 0.028181408 0.02196047 -0.031143133 0.0077674836 -0.029523253 -0.021679278

hyper_w1.2.weight f4 [128, 64]
00000000: 4001 d5bb 0a72 c73d 2c30 463d 62b7 c6bd
00000010: 5417 523d 0ebb 8abd 003c 92b9 fe49 ca3d
00000020: 8057 843b 7eed a9bd fa51 e13d 4c99 f3bd
00000030: 42bc b0bd 1cee a53d 2238 9fbd 60c3 263c
00000040: 609f 433c 6818 e0bc 747f 81bd d027 82bc
00000050: f086 703d 98c1 d6bd d0df f3bc 166b d9bd
00000060: 5ce4 fc3d 208d d63b 5c9e 09bd 3caf fc3d
00000070: ae3b e73d d28e 85bd ba77 da3d f066 6dbd
00000080: 80b6 dcbb f4b3 4bbd 9091 aabd 002b 7e3d
00000090: f6d3 fabd 64b8 ccbd b4f4 1f3d 3020 64bd
000000a0: 7097 503c 4468 6a3d 9047 e3bd cc0c 15bd
000000b0: a0cd 64bd 4cba f1bd a80c d3bd 90d7 99bc
000000c0: c027 e9bc 3ac8 b9bd 60b0 313c c0c0 85bc
000000d0: ccda 413d 40a0 d1bd 807c 7abd a857 a5bd
000000e0: 78d2 c63c 6a3c bc3d 8c16 633d 80a4 923d
000000f0: fe60 d53d 001e 4e3c f4a7 e13d 38ed 8abd
00000100: 6810 e9bd 50a0 db3c 9855 fe3d 00dc 1739
00000110: e031 7dbc 6e93 ea3d fc7a 3a3d f8ff c4bd
00000120: 946d 763d a6f0 823d 4caf 9abd bc8a 903d
00000130: 3478 5fbd 024a c7bd d6e6 913d 7888 073d
00000140: 80f3 e93a 4450 153d 6896 6f3d 188b 8c3d
00000150: d007 07bd 4040 a03c c064 273d b6d8 f33d
00000160: fc3d 68bd 2c95 7e3d 6045 00bc 001a 75bb
00000170: 007a c23b 0e20 86bd b0fa ccbc d872 fa3c
00000180: 588e ce3d 0237 99bd 1633 86bd b848 aabd
00000190: 5c67 143d e076 6abc 8025 ea3a 0066 99bc
000001a0: f48a d73d f0a0 2bbc 0e77 b1bd c4cc 983d
000001b0: 600e eabd 90cb ae3c 0631 dcbd 006f babc
000001c0: 4851 e1bc 201a 033c a6b1 d23d 3aca 923d
000001d0: 74ee 59bd 14f1 41bd fa34 e73d 8a2f e33d
000001e0: 0a61 d1bd 7c2f 013d 24a3 373d 5022 863c
000001f0: a463 f2bd 182e 15bd fe01 bcbd 947e ca3d
00000200: 90e5 83bd 30fd 65bc 22c7 9a3d 8003 cb3b
00000210: d07a 763d 70bd a83c ecde ff3d 062b f5bd
00000220: e04d 3fbd 4efd 9a3d f0d4 9cbc 8009 d7bd
00000230: 5049 efbc 50af e63d 1804 49bd 2875 f33d
00000240: 726f ce3d a894 40bd 0ec9 d93d 36ae f53d
00000250: b0ad 14bc 44db 213d d2fe 9cbd 9ca9 42bd
00000260: 7816 d9bd 62a4 c93d 2436 62bd f822 f13c
00000270: 9039 f0bc c4cb e0bd 0a91 963d 3c64 823d
00000280: 305c 59bd 5cbb 523d 18e1 efbc 5467 abbd
00000290: f840 5d3d 30e1 43bc a225 dcbd ca6a cd3d
000002a0: 0499 8b3d 90b0 54bd 9843 913d 38ca b2bd
000002b0: a0e8 33bc 4670 e9bd e479 023d b067 403d
000002c0: 1a15 843d c4bf 2c3d d087 75bd 0047 07bd
000002d0: 4046 08bc 344b 0f3d d8c8 f13d 4e0a d23d
000002e0: 4ca7 bdbd 3095 133c 96a4 92bd 622b da3d
000002f0: a067 60bc 70c5 1e3c 6865 9ebc 8c58 1e3d
00000300: 6220 f63d b85b be3c 2404 4a3d 4045 f1bc
00000310: cc8d 06bd c878 d83c 6896 4bbd 6601 abbd
00000320: b08b 56bc 72d7 dbbd 3c1d 9b3d d27c 85bd
00000330: 361a dc3d 3e57 a5bd 34ed 05bd be0c d93d
00000340: b689 ca3d 80c2 bd3b 8043 e9bc 0010 4539
00000350: fc95 acbd 489e 0abd 1c32 ce3d 88eb d1bc
00000360: 589c c0bd 8881 f23c 2093 dcbb a03f dbbb
00000370: 60ca 2bbd 6886 ae3d d42d 5d3d c4a1 c73d
00000380: ec1f 32bd d4d1 a7bd d0c5 3d3c 62e9 bc3d
00000390: 7e3e febd dacc c2bd 9ac7 e1bd 587e 85bd
000003a0: 20e1 9b3c ee64 aa3d 764e cebd 4a85 c5bd
000003b0: 0c08 0b3d d0fe 193d f8f7 0bbd b4df a4bd
000003c0: 78f1 043d 963b bcbd 50d5 d63c bcbd 02bd
000003d0: daee fcbd ce87 e03d 9cdf b83d dccb 7f3d
000003e0: f82b b9bc 30d2 3fbd 069c febd f0c3 273c
000003f0: 7842 53bd 4e78 f9bd 08c0 a2bd ac71 503d
-0.006500393 0.09738548 0.048385784 -0.09702946 0.05129178 -0.06773959 -0.00027891994 0.09877394
0.004038751 -0.08297251 0.11001964 -0.118944734 -0.08629657 0.081020564 -0.07774378 0.010178417
0.011939853 -0.027355388 -0.06323138 -0.015888125 0.058722436 -0.10486144 -0.029769808 -0.10616128
0.123482436 0.006547585 -0.03359829 0.12338111 0.1129068 -0.065213814 0.10667367 -0.057959497
-0.006735623 -0.049732164 -0.08328545 0.062052727 -0.122474596 -0.09996107 0.039051726 -0.05569476
0.012731418 0.05722834 -0.11097634 -0.036389157 -0.05586016 -0.118031114 -0.10305148 -0.018779546
-0.028461337 -0.09071393 0.010845274 -0.016327262 0.0473278 -0.102356434 -0.06115389 -0.0807336
0.024270281 0.091912106 0.055441424 0.07160282 0.104188904 0.012580395 0.11018363 -0.06783527
-0.11380082 0.026809841 0.124186695 0.00014482439 -0.015453786 0.11453901 0.045527443 -0.09619135
0.060163096 0.06393556 -0.075529665 0.070577115 -0.054557994 -0.09730913 0.071241066 0.03308913
0.0017849058 0.0364535 0.058493048 0.068624675 -0.032966435 0.019561887 0.040867567 0.11906569
-0.056699738 0.06215398 -0.00782904 -0.003739953 0.0059349537 -0.06549083 -0.02502188 0.03057234
0.10085744 -0.07481195 -0.065527126 -0.08314651 0.036231384 -0.014310569 0.0017863959 -0.018725395
0.1052455 -0.010475382 -0.08665286 0.07460931 -0.11428523 0.0213373 -0.10751538 -0.022758007
-0.027504578 0.008001834 0.1028779 0.07167478 -0.053205922 -0.04734905 0.11289401 0.11093052
-0.10223587 0.031539425 0.044833317 0.016373783 -0.11835411 -0.03642091 -0.091800675 0.09887424
-0.0644027 -0.014037415 0.07557513 0.0061954856 0.060175717 0.020598143 0.12493691 -0.11971097
-0.046705127 0.07567845 -0.019144505 -0.10499859 -0.029209763 0.11263907 -0.04907617 0.1188758
0.1007985 -0.04701677 0.10634051 0.11996119 -0.009074613 0.03951575 -0.076657906 -0.047525033
-0.10599989 0.09845807 -0.055227414 0.02943562 -0.029324323 -0.10976365 0.07351883 0.063667744
-0.053066432 0.05144821 -0.029282138 -0.08369318 0.054017037 -0.011955544 -0.107493654 0.10030134
0.06816295 -0.051926196 0.070929706 -0.087299764 -0.010980755 -0.113983676 0.031854525 0.046973884
0.06449337 0.04217507 -0.059943974 -0.033026695 -0.00831753 0.03498383 0.11805886 0.10255872
-0.09260425 0.009007737 -0.071602985 0.10652806 -0.013696581 0.009690627 -0.019335464 0.038658664
0.12017895 0.023237094 0.049320355 -0.029451966 -0.03285007 0.02642478 -0.049703985 -0.08349876
-0.0130948275 -0.10734452 0.075739354 -0.06517948 0.10747187 -0.08073281 -0.032696918 0.105981335
0.098895475 0.0057910085 -0.02847457 0.00018793344 -0.08427045 -0.033842355 0.10068151 -0.025625005
-0.0940482 0.029602781 -0.006731406 -0.0066909343 -0.041941047 0.0852173 0.053998783 0.09747651
-0.043487474 -0.081943184 0.011582807 0.09224202 -0.12414263 -0.095117286 -0.11024399 -0.06518239
0.019028246 0.08320032 -0.10073559 -0.096445635 0.03394322 0.037596524 -0.03417203 -0.080504805
0.032456845 -0.091910526 0.026224762 -0.031919226 -0.12350245 0.10963403 0.09027025 0.062450275
-0.022603974 -0.04683131 -0.12432103 0.010239586 -0.05157706 -0.121811494 -0.07946783 0.050889656

hyper_w1.2.bias f4 [128]
00000000: cc5b 53bd cc6e 823d 9aef e93d 001b 6bbc
00000010: 888c 0abd de59 adbd 102a f3bd 1e8b e33d
00000020: 0885 163d c6f6 f73d 00f6 dabd f866 143d
00000030: 8cb0 f8bd d0c7 7dbd 32d6 ea3d a0cb 6fbc
00000040: b2c9 c23d 7478 44bd c868 a5bd b4bb dfbd
00000050: 746b 6cbd a465 04bd d8c3 7bbd 4e6c 8abd
00000060: b02c f0bd 1841 cbbd 18f0 b7bd 1280 febd
00000070: 5471 523d 9cd8 593d 08e2 dcbd ac99 84bd
00000080: b03f 2a3c 40a8 c93c 0051 753a 985b 8f3c
00000090: 78fa 063d aefe a8bd 02d8 cfbd ce67 d93d
000000a0: 8cd6 ce3d 169c f4bd bed9 f9bd 20c2 adbb
000000b0: e846 cebc 6a8a d73d 4809 89bd f080 2e3d
000000c0: cc9a 083d 9622 ebbd d832 eabc d02b 443c
000000d0: fee0 9e3d 4ebf d4bd be49 ff3d ecff ce3d
000000e0: c654 e1bd 8048 fa3b 9619 ec3d 1c83 54bd
000000f0: a0e6 ba3b 4009 9a3d 5081 4b3d ac7d 963d
00000100: 10dd e33c 7e96 a93d 3891 e93d 6691 e33d
00000110: 0058 74bb 409a f43b f0be c83d d0f9 2bbd
00000120: 44e6 1ebd c07e 3ebd 808c 80bd 2c41 ec3d
00000130: 54c2 2bbd c858 c83d 20b7 a1bd 2491 8fbd
00000140: aa43 f13d c063 58bb 4a12 82bd 8aa1 a9bd
00000150: e81f 2a3d 40c1 6fbc 7023 d53c 1ef6 b13d
00000160: c260 ad3d 90a6 48bd f081 62bd 4e2d bdbd
00000170: 7cc9 b33d 90cc 853c bce3 f53d 7442 d03d
00000180: 1c8f de3d 084b e63d 5ad3 cebd 40f8 5b3d
00000190: c6ef dd3d a8a6 08bd f06e 13bc 80a2 60bb
000001a0: 40f3 923b c058 513d c095 50bb 6e61 eabd
000001b0: 3e54 abbd 3803 d4bc cc0b 87bd 0077 1f3b
000001c0: dc09 28bd 427c 993d e064 d63d 6c34 273d
000001d0: 1051 8ebc 8c02 87bd 78ed 8fbd ce54 fb3d
000001e0: 4ed1 a7bd 6c7d 08bd d6bb 8e3d a465 623d
000001f0: 5e62 83bd 6e79 c2bd 6679 ed3d c05f d63c
-0.051601216 0.06368789 0.114226535 -0.014349699 -0.033825427 -0.084644064 -0.11873257 0.11110519
0.036747962 0.12107615 -0.10691452 0.03623101 -0.12143049 -0.061958134 0.11466636 -0.01463595
0.095111266 -0.047966436 -0.08076626 -0.109244734 -0.057719663 -0.032323495 -0.061466068 -0.06758939
-0.117272735 -0.09924525 -0.08981341 -0.12426771 0.05137761 0.05318509 -0.107852995 -0.06474623
0.010391161 0.02461636 0.0009358078 0.01749973 0.03295371 -0.08251701 -0.10148622 0.10615502
0.10099515 -0.119438335 -0.12199734 -0.0053026825 -0.025180295 0.10524447 -0.066912234 0.042603433
0.03335075 -0.11481206 -0.028588697 0.011973336 0.077577576 -0.10388051 0.12465237 0.10107407
-0.110024974 0.007638037 0.11528318 -0.05188285 0.005703762 0.075212955 0.04968387 0.07348189
0.027815372 0.08280657 0.114046514 0.11111717 -0.0037283897 0.007464677 0.098020434 -0.041986287
-0.038793817 -0.046507597 -0.06276798 0.11535868 -0.041933373 0.09782559 -0.078962564 -0.07010105
0.11780484 -0.003301844 -0.063511446 -0.08282764 0.041534334 -0.014633477 0.026017874 0.08689521
0.08465721 -0.04898697 -0.0552997 -0.09237157 0.087786645 0.016332895 0.120063275 0.10168925
0.1086714 0.1124478 -0.10098906 0.053703547 0.10836749 -0.03336206 -0.0089986175 -0.0034276545
0.004484564 0.05111003 -0.003182754 -0.114443645 -0.08365677 -0.025880441 -0.06594047 0.0024332404
-0.041025028 0.074944034 0.10468459 0.040821478 -0.017372638 -0.06592283 -0.070277154 0.122720346
-0.081942186 -0.033322737 0.069694206 0.055272713 -0.064152464 -0.09495817 0.115954205 0.026168704

hyper_w2.0.weight f4 [64, 1024]
00000000: 6050 a63b 3eeb 9c3c 4860 ed3c e8a6 e6bb
00000010: 2007 b3ba 20c5 a03c e01b 21bc 8400 7b3c
00000020: f857 1d3c ca12 bebc 40a6 27bc 2809 fa3c
00000030: 0078 263a 94fc bcbc 98c2 dc3b fe56 aebc
00000040: 424f e23c ead5 8f3c 00a1 053a d0a7 44bb
00000050: 28ef 9bbb 28b4 2abc 5434 7fbc 6c0a 0abc
00000060: 90b2 5dbc ae21 e5bc e075 23bc de3f c13c
00000070: 6863 f23b 0007 b2ba 4e1b adbc d446 8e3c
00000080: d879 dbbc 50e0 1fbc 6049 583c 68db ce3c
00000090: c0a5 a6bb 88b1 dd3b b0a6 abbb 0685 cd3c
000000a0: 0041 87b9 c0c3 e73a 0415 96bc 808e 4b3b
000000b0: 2061 063c b295 89bc 6090 c53a e63c e2bc
000000c0: ce31 f63c 860d f23c 20d6 0cbc c0f5 663c
000000d0: da93 e93c aa62 a2bc 90de 3fbc f056 d2bb
000000e0: 98dd cbbb b8cd f53b a0b5 57bb 809c ac3b
000000f0: 5010 bf3c b022 0e3c a05e a2ba d87c f33b
00000100: c492 b63c de32 883c 5699 bcbc 56a2 a63c
00000110: 709e 46bc d6f8 d5bc 4836 eabb 06da 9b3c
00000120: c8ad e7bc d096 69bb 2c48 0f3c 5adb c03c
00000130: a032 e33b a034 b5bb 5411 a9bc 90cb adbc
00000140: e874 ebbc 9053 96bb fe30 8c3c c8a6 79bc
00000150: 083f 0b3c 30ec e23c ba72 d6bc d4aa c93c
00000160: 621f e93c f8c7 eabc 685c db3c a478 8c3c
00000170: a030 55bc 6aa2 d53c 8022 d0ba 0854 a1bb
00000180: 0495 af3c 9887 8a3b 3a61 9e3c 6c20 cc3c
00000190: 8ae0 8fbc da6d 9c3c aab3 bdbc c0a3 363c
000001a0: 907e 4ebc 465f 953c fc2b f83c 760b 8b3c
000001b0: b20c b33c 6038 4c3b b8ed e4bb 68fa 4bbc
000001c0: 601b bd3b 68b8 9fbc 8c68 64bc 5819 ed3c
000001d0: ce0b e0bc 0653 833c b627 c33c 505f b03b
000001e0: a0a1 1cbc ec17 113c 109d f93b ee09 e73c
000001f0: d890 47bc 2e25 85bc 287b aabc 662e b33c
00000200: 9087 e13c 1232 913c 70bd f9bb 48f5 c93c
00000210: 1810 0abc 4a2e a23c 9a7b ff3c 6243 933c
00000220: e041 243c 8281 b13c 08af f5bc 288d 52bc
00000230: e0bc c73a 0877 c43c e067 ac3a e060 983c
00000240: 3464 65bc 18a8 22bc 40ed b03a 2631 8f3c
00000250: fa28 ce3c a8d1 7b3c 960f a1bc c6c0 e5bc
00000260: 80c6 ca3a e023 043b 54cc ea3c f08a e4bc
00000270: 2832 713c 9073 e93c 9097 cebb 3454 e5bc
00000280: c81b a4bc 002c ceb8 38a5 4b3c 3c6f c73c
00000290: d851 403c 8c66 ebbc 5cdd 373c 6a63 9fbc
000002a0: 8019 a33b bec0 b13c c8a8 42bc 2289 d4bc
000002b0: 022b 93bc 0e42 c63c a0fd be3a 28f7 b2bb
000002c0: 7c68 a8bc 2812 21bc c03b 1e3b 348d f73c
000002d0: 94ba 1e3c 5262 dfbc 4ad1 a2bc 5c8c 2c3c
000002e0: 9840 74bc 4006 383c b2d0 983c 34c7 7fbc
000002f0: 047c 50bc 16be d63c 388b e23b 7a05 e0bc
00000300: 54fd 723c 7031 8abc 7e1f bd3c 0051 9eb9
00000310: fc7c 09bc 7017 463b 60cd 993c 0c7a 573c
00000320: 208f 5abb 30d3 dc3c 805e 7b3a 2634 823c
00000330: 92d3 e0bc c8da 92bc fa53 e63c d48c 78bc
00000340: c00d e43a 14b0 053c 0cbb e0bc 9c3b d5bc
00000350: 30d2 433b fede 9f3c 90ba 95bc 5808 ad3c
00000360: 72b9 883c 3430 71bc 5a58 803c 1093 9ebb
00000370: e6d6 d33c 9078 e2bc 42c7 9c3c 3c3f cb3c
00000380: e8b0 f4bc 182c 7f3c 3c30 713c de24 d33c
00000390: 1258 d43c 9427 d23c 84ea 20bc 1a94 d5bc
000003a0: ecf3 723c 9420 313c a439 5bbc 483f b93c
000003b0: 80ee e53c da54 a53c dc05 45bc 0e75 fabc
000003c0: 5633 b63c 0459 28bc 12e8 f13c 1c03 623c
000003d0: 6603 b93c ca04 b0bc 80bd 7ebc c23a 87bc
000003e0: 6004 d43c b8a2 83bb a840 173c 86d3 f53c
000003f0: 8e56 bfbc c840 e1bc 0ed0 863c ae72 d4bc
0.0050754994 0.019155141 0.028976575 -0.0070389397 -0.001365874 0.019625247 -0.009833306 0.015319947
0.009603493 -0.023202319 -0.010232508 0.030521944 0.0006350279 -0.023069657 0.0067370646 -0.021281715
0.027625684 0.017558057 0.0005097538 -0.003000725 -0.0047587343 -0.010418929 -0.015576441 -0.008425336
-0.013531342 -0.027970161 -0.009976834 0.023590025 0.007397104 -0.0013582408 -0.021131184 0.017367758
-0.026791498 -0.00975807 0.013201088 0.025251105 -0.005085677 0.006765548 -0.0052383766 0.025087845
-0.00025797635 0.0017682239 -0.018320568 0.0031060278 0.008201867 -0.016795013 0.0015072934 -0.02761693
0.030053046 0.029547464 -0.008595973 0.014096677 0.028512884 -0.019822437 -0.011710778 -0.006419055
-0.0062214844 0.00750133 -0.0032914653 0.0052676797 0.023323208 0.008675262 -0.001238782 0.007430654
0.02228678 0.016625818 -0.023022335 0.02034108 -0.012122735 -0.02611963 -0.007147584 0.01902486
-0.028281108 -0.003564287 0.008745234 0.023542095 0.006933525 -0.005529955 -0.020638146 -0.02121523
-0.028742269 -0.004587598 0.017113205 -0.015237518 0.008498915 0.027700514 -0.026177753 0.02461759
0.028457347 -0.028659806 0.026777461 0.01714737 -0.013012081 0.026078422 -0.0015879422 -0.0049233474
0.02143336 0.00422759 0.01933347 0.024917804 -0.017563123 0.01909535 -0.02315696 0.0111474395
-0.012603417 0.018233906 0.03029441 0.016973238 0.02185664 0.0031161532 -0.006986346 -0.012449838
0.0057710856 -0.019497111 -0.013940942 0.028942749 -0.027349379 0.0160308 0.023822647 0.005382456
-0.009560019 0.008855801 0.0076176003 0.028202977 -0.01218053 -0.01625308 -0.020810679 0.02187271
0.027530462 0.01772407 -0.0076214597 0.024653092 -0.008426689 0.019797463 0.031186868 0.017976467
0.010025471 0.0216682 -0.029990688 -0.012851037 0.0015238784 0.02398254 0.0013153516 0.018600881
-0.014000941 -0.009927772 0.001349844 0.01747949 0.025166024 0.01536981 -0.019660752 -0.028046023
0.0015470535 0.0020162985 0.028661884 -0.027898282 0.014721431 0.028497487 -0.0063046888 -0.027994253
-0.020032778 -9.831041e-05 0.012429528 0.024345033 0.011738263 -0.028735422 0.01122221 -0.019456584
0.004977405 0.021698352 -0.011881061 -0.025944296 -0.017964844 0.02420142 0.0014571436 -0.005461592
-0.020557635 -0.009830989 0.00241445 0.030218698 0.009688038 -0.027268562 -0.019875187 0.010531511
-0.0149079785 0.011231959 0.018654201 -0.015611459 -0.01272488 0.026213687 0.006913569 -0.027346361
0.014830906 -0.016869277 0.023086306 -0.00030196458 -0.008391615 0.0030226372 0.018774688 0.013151657
-0.003334947 0.02695617 0.0009588972 0.015894007 -0.027444635 -0.017926589 0.028116215 -0.015170295
0.0017399117 0.008159656 -0.02743294 -0.0260294 0.002987992 0.01951551 -0.018277436 0.021122143
0.01668999 -0.014720965 0.01566713 -0.0048393086 0.025859307 -0.02764538 0.019137982 0.024810426
-0.029869512 0.015574478 0.014720973 0.025774416 0.025920901 0.025653638 -0.009821538 -0.026071597
0.014828663 0.01081099 -0.013380442 0.022613183 0.028067827 0.020182062 -0.012025323 -0.030573394
0.022241276 -0.010275129 0.029529605 0.013794687 0.022584628 -0.021486659 -0.01554811 -0.01650751
0.025880992 -0.0040172003 0.009231724 0.030008089 -0.023356702 -0.02749671 0.01645663 -0.02593359

hyper_w2.0.bias f4 [64]
00000000: 5e4e ef3c 80dd c7bc 2089 cbba b88c 8cbc
00000010: 02ef df3c 92d2 acbc 7062 e93c 5231 a7bc
00000020: ee50 f53c 0cd7 6f3c 68e8 6f3c c02e 893c
00000030: 8cab 853c f09f 9bbc 68e9 cf3b f81f 8e3c
00000040: eab2 e8bc f06b cd3b ccdf 7c3c 18b9 ca3c
00000050: c84c 8a3c 447d 6bbc ba2f afbc 08b9 893c
00000060: 3282 9c3c 90c9 123c 2c72 d13c 08f9 a43c
00000070: dabe ba3c fa5d b1bc 3650 d9bc 389e 8c3c
00000080: d866 c3bb 520b ac3c a47c a0bc 4050 b5bb
00000090: 32a3 d93c aef5 da3c 2000 f03b 927c a1bc
000000a0: 101d 62bb c616 be3c f81a 94bb 3832 fb3c
000000b0: 4012 a53b bef3 fabc 6c96 883c 509d 48bc
000000c0: 7896 a3bc 00f1 b73b 4423 64bc 7ec1 f2bc
000000d0: e6cf acbc 16ef 8fbc 54e6 84bc 00e2 963c
000000e0: 0072 55bc 208e 643b 0cb8 723c c87c aabb
000000f0: b8c9 c3bc eaa3 f8bc 6cb2 a03c 28b3 d4bb
0.029212173 -0.024397612 -0.0015528537 -0.017156944 0.027335647 -0.021096501 0.028489321 -0.02040926
0.029945817 0.0146386735 0.014642812 0.016745925 0.016317151 -0.018997163 0.006344963 0.017349228
-0.028405625 0.0062689707 0.015434217 0.024746463 0.016882315 -0.014373127 -0.021385062 0.016811863
0.01910505 0.008959189 0.025567137 0.020138279 0.022796083 -0.021651257 -0.026527505 0.017165288
-0.0059631877 0.021001492 -0.019590683 -0.005533248 0.026567075 0.026728477 0.0073242337 -0.01971272
-0.0034502186 0.023204219 -0.0045198165 0.030663595 0.005037576 -0.030633803 0.01667329 -0.0122445375
-0.01996921 0.0056134462 -0.013924424 -0.02963328 -0.021095227 -0.01757006 -0.01622311 0.018418312
-0.013027668 0.0034874752 0.014814388 -0.0052028634 -0.023899898 -0.030351598 0.019616328 -0.0064910837

hyper_w2.2.weight f4 [32, 64]
00000000: 449c 9dbd 3e1b b8bd 3cf5 cd3d 6439 9ebd
00000010: 5c2d 9d3d 6816 493d 5041 403d 4aef f83d
00000020: 7cea b13d 0050 79bd f037 4bbc b4f2 75bd
00000030: 8641 eb3d 78fc b53d e0a4 963c acfd 81bd
00000040: 6497 f4bd 3892 5dbd b0d7 25bc 92e6 f0bd
00000050: d809 dbbc 902d d03d 40be 373c 465a 9abd
00000060: 7a8b 863d e087 2fbc b4f3 c13d d0cc a8bd
00000070: ac16 183d 2e9c ddbd 8cf5 ebbd 52c4 8c3d
00000080: 8010 f3bc 72e6 c1bd 24ad afbd 9ac1 e8bd
00000090: 5e23 9c3d c0a7 833c d879 20bd e84e aebc
000000a0: 1e85 9abd a05f a2bd 8862 963c 704b a73d
000000b0: 5edb a0bd 607a 763d c249 cbbd d896 99bc
000000c0: 18d7 5fbd 24d6 12bd 80f0 8b3d c419 993d
000000d0: 20ff 16bc 645f f9bd b022 5ebc 4837 35bd
000000e0: 4abe c33d d870 803d f09f bd3c a0f4 2a3d
000000f0: 00fe a839 ead5 f3bd 30c5 87bd 283a 97bc
00000100: d8b8 bdbc 02c1 f53d e63c b8bd 60d1 9abb
00000110: 94cf 563d 30e4 8dbd 2c85 e43d 00ab 4d3a
00000120: e01d d63d a284 e43d c021 c43d cab3 cdbd
00000130: 9c0b 5dbd 4850 2fbd fcee e93d 6ed1 e6bd
00000140: 80e5 0cbd d264 edbd 2414 fc3d c845 3f3d
00000150: 040d 2fbd 4c60 e23d 785a b63c 900d 2abc
00000160: e62d bcbd 2c75 9f3d 68d5 57bd c051 d8bc
00000170: 40ac 853b e0bf aa3d 62fd c1bd a636 963d
00000180: a010 8e3b 4695 e53d e002 5dbd 300b 8d3c
00000190: 082e c7bc 20a2 023d b2f4 e3bd de2a da3d
000001a0: b8a4 d5bd 5095 acbd 64e8 9e3d 3864 ad3c
000001b0: e8dc c23d 34c9 3d3d 3c2b e53d 6c6b 06bd
000001c0: 0885 5dbd c4c6 b1bd 0c7a 223d 6028 c9bd
000001d0: 1c84 543d eee3 83bd 60b4 183d 50d7 64bc
000001e0: 50c3 2fbd 08f4 aebd 76c1 913d 30f4 723c
000001f0: 7261 f0bd 1cad 58bd 6c38 ce3d f0d4 a63c
00000200: bab4 a1bd 66de c93d 90fb 60bd 949d 0bbd
00000210: 0ef9 883d ec0e 76bd e0f3 10bc bc71 fdbd
00000220: 146f 563d 900b 5d3d 20f3 d4bb ac10 313d
00000230: 54f4 cabd e271 a0bd 4819 aa3c 7825 aa3c
00000240: b01e 4abd 3ec6 e5bd e88b 91bd d4bd 45bd
00000250: b4dc 6abd 4e97 873d ca9e ec3d f02e 2cbc
00000260: 90d2 f23d a21d fd3d 4225 d13d ba7a cebd
00000270: 98b2 fa3d a4bd 69bd 263b db3d a04e 263d
00000280: 2c1b ec3d 005f 3aba 3ac0 8fbd 844e 4dbd
00000290: 3498 593d 2eda e13d 74a3 debd 9c86 73bd
000002a0: 348f 5e3d 3873 d9bc e025 bc3d 1eb0 d43d
000002b0: 1c28 c8bd 6ea2 c13d 588d a03d 407e 6d3b
000002c0: ae91 bd3d 98ab 7fbd cc7f 053d 8c1f 273d
000002d0: 2264 853d 789b 9abd f02f 69bc 3057 d9bd
000002e0: e007 7dbd e02d 473c 4a84 d3bd d2c7 fe3d
000002f0: e2b4 b2bd 16c1 ce3d a8f2 213d 505e 1d3c
00000300: 9003 e0bc c8e1 633d 28bb 47bd b221 e33d
00000310: 20ff 6bbc a04b 57bc 0810 f23d 701f c3bc
00000320: f8c6 e8bd 487e a83d 5678 fb3d a4a5 26bd
00000330: ec3b adbd 3ab2 f43d e0dc 893b 205f 113c
00000340: 9c95 b9bd f0c1 773d 527b bd3d 56a7 9cbd
00000350: 0aa5 a13d a8fb 2abd 0a5a e83d f478 81bd
00000360: e8d4 21bd 00ed 01bc 04d7 7f3d eca1 d83d
00000370: d009 d2bd 001d e53a 14c8 653d 8ac6 cebd
00000380: 6003 6a3d 2006 943c 4092 a53d 685d 0dbd
00000390: 02d7 ac3d 30b9 74bc 28e0 20bd 64d5 60bd
000003a0: 2864 10bd 3c85 803d f815 c3bc 002f 97ba
000003b0: 54b3 a5bd fc3a f3bd 2853 a83c 4e97 863d
000003c0: 7a04 88bd 08d5 acbc e0fb bf3d a8d4 1fbd
000003d0: 408e 683b 1049 46bd 1812 03bd c40b e0bd
000003e0: f0ec 70bc 247a fabd f4b1 c93d 60e4 d43d
000003f0: 5c03 a63d a0d6 883b e8f3 17bd 24fd 34bd
-0.07695821 -0.08989571 0.1005654 -0.0772579 0.07674667 0.049093634 0.046937287 0.12155016
0.086873025 -0.06086731 -0.012403473 -0.060045913 0.11487107 0.08886045 0.018389165 -0.06347212
-0.11942938 -0.054094523 -0.010122225 -0.11762728 -0.026738092 0.1016494 0.011214793 -0.075367495
0.06569572 -0.0107135475 0.09470311 -0.0824219 0.037130997 -0.108208045 -0.11521444 0.06873383
-0.029670954 -0.09467782 -0.08577946 -0.113650516 0.07623933 0.0160712 -0.0391787 -0.02127786
-0.07544921 -0.07928395 0.01835753 0.081686854 -0.07854341 0.0601753 -0.099261776 -0.018748686
-0.05464849 -0.03584875 0.06832981 0.074756175 -0.0092161 -0.121763974 -0.013558075 -0.044242173
0.09557779 0.06271523 0.023147553 0.0417372 0.00032232702 -0.11906035 -0.066294074 -0.018460348
-0.02315943 0.11999704 -0.089959905 -0.0047246665 0.052444056 -0.06928289 0.11158213 0.00078456104
0.10454917 0.1115811 0.0957675 -0.10044058 -0.05396615 -0.04280117 0.11422536 -0.11270414
-0.034398556 -0.115914956 0.12308529 0.046697408 -0.042737022 0.110535234 0.022259936 -0.01037921
-0.09188442 0.07786021 -0.052693754 -0.026406169 0.0040793717 0.083373785 -0.09472157 0.07334642
0.004335478 0.11210112 -0.05395782 0.017217249 -0.024313942 0.031892896 -0.11130656 0.106527075
-0.10431808 -0.084269166 0.07759169 0.021165952 0.09514791 0.04633446 0.11189887 -0.03281729
-0.054081947 -0.0868049 0.039667174 -0.09822154 0.0518838 -0.064399585 0.037281394 -0.01396735
-0.042910874 -0.08542639 0.07116978 0.014828727 -0.11737336 -0.052899465 0.10069355 0.020365208
-0.07895799 0.09856872 -0.05492741 -0.034085825 0.066881284 -0.060072824 -0.008847207 -0.12375209
0.052352026 0.053966105 -0.0064987093 0.04322879 -0.09909883 -0.078342214 0.020764008 0.02076982
-0.049345672 -0.11219452 -0.07106763 -0.048276737 -0.057339385 0.06620656 0.11553724 -0.010509238
0.11856568 0.12359168 0.102121845 -0.10082002 0.12241095 -0.05706562 0.10704641 0.040602326
0.1152862 -0.0007109493 -0.07019086 -0.050123706 0.053123668 0.110279426 -0.1087102 -0.059454545
0.054335788 -0.026544198 0.091869116 0.10385154 -0.09773275 0.09454809 0.07839459 0.003623858
0.09256302 -0.062419504 0.03259258 0.04080157 0.065132394 -0.075491846 -0.014232621 -0.10612333
-0.06177509 0.012156934 -0.103279665 0.124404564 -0.08725907 0.10095422 0.039538056 0.009605005
-0.027345449 0.055635244 -0.04876247 0.11090411 -0.014404088 -0.013140589 0.11819464 -0.023818702
-0.11366075 0.08227211 0.12278812 -0.04068531 -0.08458695 0.119480565 0.0042072386 0.008872777
-0.09061739 0.060487688 0.09252037 -0.07649104 0.07892807 -0.041743904 0.113452986 -0.06321898
-0.039509684 -0.00793004 0.062460914 0.10577759 -0.10255778 0.0017479956 0.056099012 -0.10096462
0.057132125 0.018069327 0.080845356 -0.034512907 0.08439447 -0.01493673 -0.039276272 -0.054891005
-0.035251766 0.062754124 -0.023814186 -0.0011534393 -0.08090845 -0.11876485 0.020547464 0.06571828
-0.06641479 -0.021097675 0.09374213 -0.039021164 0.0035485178 -0.04840952 -0.031999677 -0.10939744
-0.014704928 -0.12230328 0.09848395 0.103951216 0.081061095 0.004175976 -0.03709784 -0.044186726

hyper_w2.2.bias f4 [32]
00000000: 6859 efbc 18b2 c9bd 0448 9abd aaef f73d
00000010: 0c9b e9bd 028c f53d a22f b3bd ac4a 0abd
00000020: f0d9 b4bd dcba e93d 08a8 3d3d e44d a03d
00000030: d624 a43d 1c85 fbbd 744e 47bd faaa 84bd
00000040: e278 ba3d 70dd b1bc e88f eabc 4adc e43d
00000050: 9670 a1bd 244a 39bd f424 2fbd 0448 27bd
00000060: c8b5 f4bd 84a7 eabd be9c b0bd ac33 a9bd
00000070: e89f 4bbd 9452 683d 6aaf e4bd b0a9 3cbc
-0.029217437 -0.09848422 -0.07533267 0.12106259 -0.11406526 0.11989595 -0.087493196 -0.03376262
-0.08830631 0.11412594 0.046302825 0.078273565 0.080148384 -0.12281248 -0.048658803 -0.06477924
0.09105088 -0.021712035 -0.028633073 0.11174829 -0.07882802 -0.04523672 -0.04275985 -0.040840164
-0.119487345 -0.11457732 -0.08623646 -0.08261809 -0.049713045 0.056719378 -0.1116627 -0.011515066

hyper_b1.weight f4 [32, 1024]
00000000: e609 83bc bc22 2bbc 62a2 ce3c e6e7 fa3c
00000010: 0ccb 293c 5080 afbc 6000 1a3b ea81 aa3c
00000020: 10d1 09bc 4c42 04bc 50b9 32bb 207f 5bbc
00000030: 1c65 3dbc 98e6 82bc 30be 643c 9cc9 d53c
00000040: 60a4 9a3c 6e49 8f3c f022 e7bc 5829 ac3c
00000050: d02d febc f40b 793c ec6d da3c 6031 c63b
00000060: 48ba 34bc 8042 6abc 1820 de3c 3406 1bbc
00000070: 4084 7b3a 5417 fdbc fc60 bd3c dabf cf3c
00000080: 0048 94b9 4c0f 4f3c aeca b53c 1005 b7bc
00000090: 223a 9bbc 5047 e0bb d010 88bc 68d9 b9bc
000000a0: c6bb dc3c 98a8 f8bb 0c89 b1bc e25d fabc
000000b0: 08f3 e4bc 5025 c1bb 708d 113c f4bd 19bc
000000c0: ec1e 5e3c 3872 f4bb 9623 aebc 7c39 ee3c
000000d0: 6813 7f3c 6000 a43b bc26 5d3c b882 a73b
000000e0: 0070 f2b8 b628 d53c 5cad ef3c ced7 fcbc
000000f0: 80e8 c8ba c0a9 1f3c 80fb 3e3a 4603 9cbc
00000100: 6c2b 09bc b2b7 9d3c 38c6 8bbc b835 a03b
00000110: d023 66bc f051 0abb 285a f23b 02a8 99bc
00000120: f05a 6b3c a4f4 9bbc 8898 013c ccf9 033c
00000130: 9030 683c 2053 a2bb 14de e23c 2216 87bc
00000140: 544d 293c 5459 d13c 649b 8d3c 927e 8d3c
00000150: b034 94bc 80ad dfba 302f 923b b857 2a3c
00000160: 4445 ed3c b2d0 fabc fcb0 b6bc eaf9 fdbc
00000170: 0046 c138 7cea d6bc f4e5 7fbc 3459 c43c
00000180: e006 57bc 7c75 95bc e88e 653c d03d 96bc
00000190: e094 98bc 80b5 3dbc 9a5b fcbc ccf7 963c
000001a0: 081f 4d3c c437 3f3c c8ac c3bc e07d c73b
000001b0: 5672 ec3c 80a9 47bb c887 f0bb 2808 d5bb
000001c0: e0cb 0a3c 887a dabc c0f7 cb3b 3067 d13b
000001d0: d03c 9f3b a42c 7f3c e046 a4bc 605a bbbc
000001e0: febd a53c b455 2c3c 0c90 98bc 80a7 d93a
000001f0: 7044 d5bc 8c7d 67bc dc10 8d3c 401e 173b
00000200: 9e99 ec3c 0c65 ccbc 7020 123b 34b5 0dbc
00000210: ea72 f8bc 2610 963c 1805 cb3b a068 693c
00000220: 6026 44bb 0ce1 8ebc fc58 a3bc 3093 593b
00000230: 80d1 d6ba 585c 46bc 0a4e a93c e0ab 123b
00000240: 2409 3ebc a0fa 2c3b 5097 203b b023 773b
00000250: 60f3 85bc c210 c83c 4206 813c e41f 2dbc
00000260: c8af 923b 8ad9 c2bc 5c4b 2b3c a05a bd3a
00000270: 30f9 ed3b e089 6d3b 3000 6d3b 666b d9bc
00000280: 508f 7a3b 0842 8cbc 9c29 dcbc e0ce a9bc
00000290: a015 76bc c4f4 843c 9494 b5bc 8e75 8fbc
000002a0: f823 203c 1806 adbb aa62 983c 3402 653c
000002b0: 403c a03b 5a3b d93c 00ee be39 c456 d8bc
000002c0: 009d 33bc fa5d c2bc 5494 8d3c 040d 92bc
000002d0: 4444 413c 8293 fbbc f0a8 e5bb 286d 31bc
000002e0: 9865 583c a8c4 b2bc 38b4 dabb ea76 cdbc
000002f0: e416 22bc c21d b53c 9056 47bb f0f4 ed3b
00000300: e02f e4bc 7200 d1bc acbb 453c 86c9 c53c
00000310: 88fa e03b 5a6e 913c a026 20bc 48a5 91bb
00000320: d093 fb3c 2c75 4cbc f063 3ebb 803e ef39
00000330: c8b2 f0bc 3021 50bb 2e56 d4bc 0014 f438
00000340: 604d ca3a e463 4c3c 84fe 2e3c fcfa 41bc
00000350: c818 debb da0e df3c 78e2 abbb 6c2f 703c
00000360: baa6 a03c c4b9 993c 5cd9 bdbc 68ea 2cbc
00000370: cc0a 26bc 6c75 13bc b896 b43b c811 cdbb
00000380: 7ca5 6c3c c8a8 aa3c 7ac6 bbbc 7c99 bcbc
00000390: 40ac a5ba d49d 99bc 00ac bb3a 54d4 0f3c
000003a0: 00c4 9039 b02c 3ebb bc93 81bc 7884 3d3c
000003b0: dcad 4bbc c0d7 35ba e091 fe3b 10f2 8fbc
000003c0: a88c bebc d0ae a43c d632 a93c f03d 273b
000003d0: f8fc c83b 421b 8a3c 08ef 7dbc de8e aabc
000003e0: 08c8 dd3c aa5d a8bc 2018 213b 20f8 833c
000003f0: c005 d7ba 40d9 f33b 76fd f4bc aecd b1bc
-0.01599593 -0.010445293 0.025223915 0.030628156 0.010363352 -0.021423489 0.0023498759 0.020813901
-0.008411661 -0.008072447 -0.00272711 -0.013397008 -0.011559751 -0.015979096 0.01396136 0.026097111
0.018877208 0.017491069 -0.028214902 0.021015808 -0.031027704 0.015200604 0.026663743 0.0060483664
-0.011030741 -0.014298081 0.027114913 -0.009461928 0.0009594597 -0.030894913 0.023117535 0.025360037
-0.00028282404 0.012637924 0.022191372 -0.022341281 -0.018948618 -0.0068444386 -0.01660958 -0.022686675
0.026945006 -0.0075884573 -0.021671794 -0.030562345 -0.027947918 -0.0058943406 0.008883819 -0.009383667
0.013557177 -0.007459905 -0.021257203 0.029080145 0.015568592 0.0050049275 0.0134980045 0.0051120184
-0.00011560321 0.026020389 0.029257469 -0.030864622 -0.001532808 0.009745061 0.0007285401 -0.01904453
-0.008372169 0.019252632 -0.017062292 0.0048892163 -0.014046624 -0.0021105967 0.0073960014 -0.01875687
0.014364943 -0.019037552 0.007909901 0.008055162 0.014171734 -0.004953757 0.027693786 -0.016490046
0.010333378 0.02555529 0.01728601 0.017272267 -0.01809153 -0.0017065257 0.0044611916 0.01039689
0.028963692 -0.030617092 -0.02230119 -0.031002957 9.215996e-05 -0.026234858 -0.01561879 0.023968317
-0.013124198 -0.018244497 0.014011122 -0.018340021 -0.018625677 -0.0115789175 -0.030805398 0.018428706
0.012519605 0.01167101 -0.0238861 0.0060880035 0.028863113 -0.003046602 -0.007340405 -0.0065012164
0.008471459 -0.026669756 0.0062246025 0.0063904747 0.0048595443 0.015574608 -0.020053327 -0.022870243
0.020232197 0.01051848 -0.018623374 0.0016605705 -0.02603361 -0.014129054 0.017219953 0.0023058802
0.028881844 -0.024950527 0.0022297166 -0.008649159 -0.030328233 0.018318247 0.0061956756 0.014246136
-0.00299301 -0.017441295 -0.019939892 0.0033199303 -0.001638934 -0.012106977 0.020667095 0.0022380278
-0.011598859 0.0026394501 0.0024504252 0.003771048 -0.016351402 0.024422053 0.015750054 -0.010566685
0.004476521 -0.023785371 0.010454979 0.0014446564 0.0072623715 0.003624551 0.0036163442 -0.02654047
0.0038232394 -0.01712133 -0.02687531 -0.020728528 -0.015019804 0.016229995 -0.022165574 -0.01751211
0.009774201 -0.0052802674 0.018601734 0.013977576 0.004889995 0.026517559 0.00036416948 -0.02640856
-0.010962725 -0.023726452 0.017282642 -0.017828472 0.011796061 -0.030709986 -0.0070086643 -0.0108292475
0.013207816 -0.021822289 -0.006674316 -0.025081117 -0.009893153 0.022108916 -0.0030416586 0.007261865
-0.02785486 -0.025512908 0.01206867 0.024143945 0.006865803 0.017752815 -0.009774834 -0.004444752
0.03071013 -0.012479108 -0.0029051267 0.00045632198 -0.029382125 -0.0031758063 -0.02592 0.00011638552
0.0015434437 0.012474988 0.010680798 -0.0118396245 -0.0067778565 0.027228761 -0.005245503 0.014659744
0.019610751 0.018765338 -0.023174934 -0.010553934 -0.01013441 -0.0090001635 0.005511131 -0.006258223
0.014443751 0.020832434 -0.02292179 -0.023022406 -0.0012639835 -0.018752016 0.0014318228 0.00877865
0.00027611852 -0.0029018335 -0.015817516 0.011567228 -0.012431588 -0.00069367513 0.0077688545 -0.01757148
-0.02326043 0.020102888 0.020654123 0.0025519095 0.006133672 0.0168587 -0.015498884 -0.020820078
0.027072921 -0.020552475 0.002458103 0.016109526 -0.0016404912 0.0074416697 -0.029906016 -0.021704521

hyper_b1.bias f4 [32]
00000000: 8e15 99bc 1c06 61bc d842 e93c f0a0 30bb
00000010: cc72 36bc 8e0f 9abc 04be e53c 604c 8d3c
00000020: 9034 ee3b 54ae 603c e27d f13c fa83 8e3c
00000030: f83b ce3b 8045 38ba deed d43c 5830 a6bc
00000040: 442b 5d3c dc84 0d3c 802a 693c a890 fc3c
00000050: 70bf c73c 643d 573c 2e45 dd3c 400c 24ba
00000060: 1aec f93c 76ac d1bc 002f b53a f45c e73c
00000070: 9475 cbbc 084b 23bc f808 ae3b 562b af3c
-0.018687036 -0.013734367 0.028474256 -0.0026951395 -0.011135768 -0.018806245 0.028044708 0.017248333
0.0072694495 0.013713438 0.02947897 0.017396916 0.00629377 -0.0007029399 0.02599233 -0.020286724
0.013499085 0.008637633 0.014231324 0.030830696 0.024383277 0.013137195 0.027010527 -0.0006257929
0.03050809 -0.025594931 0.0013823211 0.028242566 -0.024836339 -0.009966619 0.0053111278 0.021382969

hyper_b2.0.weight f4 [32, 1024]
00000000: d0a4 42bb b402 643c 0eb5 983c 94ab 31bc
00000010: 305b bb3c a0ff 783c 6043 d1bb 7045 a7bc
00000020: f266 ad3c 6816 c9bc a012 ea3a dc25 b6bc
00000030: 2ce0 7e3c f034 763c 40b6 a63b 8489 163c
00000040: 2635 e6bc 8055 abbc 8478 783c 6434 d2bc
00000050: 846e 67bc 2aab a8bc c8fc 63bc 007a 8339
00000060: 629a a3bc c047 6fbc b0ba 35bc f08e 89bc
00000070: 1c3e 503c 100a 5d3c e0e5 2cbb 8c41 103c
00000080: 46d6 c9bc 2028 cabc 28d6 21bc 4c35 40bc
00000090: 640c 4cbc a8a6 a53c bebd b4bc 82ed ed3c
000000a0: 920d 93bc 16f0 ad3c 2074 473b f88f b83c
000000b0: 3045 083c 6c9a ccbc c037 31ba f0b1 95bc
000000c0: 4885 e33b 0ee6 ab3c 086d 5c3c 8c33 973c
000000d0: 7082 ad3c 60c6 f63a 602d 843c 848e 343c
000000e0: 46b6 f9bc 7cdb be3c 70d7 473b 845a c6bc
000000f0: 00ed 2c3c 4ab9 f5bc 0a48 f13c b846 0cbc
00000100: 4017 ef3c 5044 adbc 3889 27bc 44d7 943c
00000110: 00cf 42ba e077 76bb 5225 e53c f8c6 edbc
00000120: 5018 5c3b 50b7 083c be88 d8bc 38a0 4fbc
00000130: 5630 abbc 70f1 063c a02d 7dbc 70cb dabb
00000140: 8cf0 e33c 6ed2 a8bc eccf 33bc 6061 913a
00000150: ac3a 743c 609c c8ba e0cc 5c3b 0088 f0bc
00000160: f251 fc3c 9a00 893c 80b0 c8bb d055 0f3b
00000170: 603a 07bc 04c9 973c cca5 e73c c8bf f3bc
00000180: 380d bbbc 5e22 c6bc 54a5 e83c ca4a 9cbc
00000190: 206e 4f3c 5c4b b3bc f858 12bc 121d f63c
000001a0: b4ef e63c 400a dabc 5a35 dd3c b8f5 c83c
000001b0: e467 58bc 6019 ecbc 00a5 0339 90ec 9fbb
000001c0: 84b7 a23c bca1 4cbc 0426 183c 88a0 7c3c
000001d0: 2c3e 823c b2d9 ee3c e231 c7bc c055 66bc
000001e0: 786b b83c 4680 c7bc f0b4 c53b c6d5 80bc
000001f0: 2c46 6abc 9a6b cdbc 9eb0 fcbc b0e5 713b
00000200: fad5 98bc 58de 9bbc 38ae 8cbc 2097 dbbc
00000210: ec01 303c d45e 4b3c 202c b1bc 2ee1 c93c
00000220: 0c10 743c bcca 04bc eaf4 eebc 7a4d a33c
00000230: c890 0f3c 9006 c53b 064d 983c 081c ea3c
00000240: c8bd 96bb 12f5 fabc ce6e a63c 82d5 823c
00000250: 2823 933c 1480 a5bc 3077 d43c ec57 2b3c
00000260: f450 d23c 40b6 36bc 8039 e6b9 90d9 a73b
00000270: 9481 583c 7a9d b6bc 6036 e1ba e09c 053b
00000280: dca0 ee3c 8450 ba3c e0c4 7b3c 3013 473c
00000290: f8e7 6ebc ec13 5e3c 8022 f63a d0c6 e63c
000002a0: c2e1 923c 58f0 92bb 6cf5 8c3c 6435 853c
000002b0: 0a06 cfbc 2447 07bc ba2c fe3c 4087 493b
000002c0: 9026 113b a0f0 10bb 2004 393b 6a74 863c
000002d0: ca3e e2bc 5c74 89bc d4d0 533c ce23 b2bc
000002e0: b2d3 cf3c 60fc 87ba 2ceb 2ebc dee7 a9bc
000002f0: 0c2e b73c 785f ae3c 8606 ddbc 8003 d63c
00000300: cc96 97bc 9a89 e53c e69b 81bc f818 f33b
00000310: 96fa a63c f0e2 ba3b 90af 68bb 000b f6bb
00000320: 6e6f b3bc f8f8 b0bc 18b2 763c 703f 223c
00000330: 50c7 fcbc de1c c03c b84e c23c defa e63c
00000340: 00d4 c13b 18b4 c23c 4407 683c 624b fe3c
00000350: 4265 b2bc 7013 e93b 0a90 87bc d84e c93c
00000360: d8a0 bf3b 7c73 fd3c c0b0 e93b 348f d83c
00000370: 82fc d73c 8c4f 343c c0a4 a53b 7a66 91bc
00000380: c02a 0fbb 925f acbc 80c5 1fba 2cb6 363c
00000390: 2a7f 98bc 8425 07bc 0882 043c 7096 c9bb
000003a0: 64ca 353c 1c5a cabc d03a 0fbc c4a6 f13c
000003b0: 8ce1 043c 80fb 2ebc d462 5fbc 68c6 2f3c
000003c0: 4010 b23b 0456 a7bc 1650 f3bc 088e e5bb
000003d0: c827 353c f86d 8fbc 2c53 3dbc 9c09 143c
000003e0: d800 1d3c 70ce 2cbc e877 93bb c6e2 efbc
000003f0: 762f ae3c e4ab e73c 2293 853c f051 cd3c
-0.0029700287 0.01391666 0.018641021 -0.01084413 0.02287063 0.0151976645 -0.0063862056 -0.020418853
0.021167252 -0.024546817 0.0017858334 -0.02223485 0.015556376 0.01502727 0.005087644 0.00918806
-0.028101515 -0.020914793 0.015165452 -0.025659747 -0.01412547 -0.02058943 -0.013915248 0.00025077164
-0.019971076 -0.014604509 -0.011091873 -0.01679179 0.0127101205 0.013491169 -0.0026382133 0.00880469
-0.024638306 -0.024677336 -0.009877719 -0.011731457 -0.012454126 0.02022107 -0.022063132 0.029043917
-0.017950807 0.021232646 0.0030434206 0.022529587 0.008317277 -0.024975978 -0.00067603216 -0.018273324
0.0069433786 0.020983722 0.013453729 0.018457197 0.021180362 0.0018827431 0.016134918 0.0110203065
-0.030482423 0.023298018 0.00304934 -0.024213083 0.010554552 -0.02999558 0.029453296 -0.008561783
0.029185891 -0.021150738 -0.010225587 0.018169053 -0.0007431358 -0.0037608072 0.027971897 -0.02902554
0.0033583827 0.008344486 -0.026432391 -0.0126724765 -0.020897072 0.008236274 -0.015452772 -0.0066770837
0.027824663 -0.020608153 -0.010974865 0.0011091642 0.014906567 -0.0015305392 0.003369145 -0.029361725
0.030800793 0.01672392 -0.006124556 0.0021871217 -0.008253664 0.018528469 0.0282773 -0.029754534
-0.022833452 -0.02418631 0.028399147 -0.019078631 0.012660533 -0.02188652 -0.008932345 0.030043159
0.028190471 -0.026616216 0.02700298 0.02453123 -0.013208363 -0.028820693 0.00012554601 -0.0048804954
0.019862898 -0.012489732 0.009286407 0.015419133 0.015898786 0.02915654 -0.024315778 -0.01405853
0.022512183 -0.024353158 0.0060335323 -0.015726935 -0.014298957 -0.025075722 -0.030845936 0.0036910586
-0.01865672 -0.01902692 -0.017172918 -0.02680546 0.010742646 0.0124127455 -0.021627486 0.024643507
0.014896404 -0.008104976 -0.029169519 0.019934405 0.008762546 0.006012745 0.018591415 0.02857782
-0.0046002604 -0.030634437 0.020316508 0.01597095 0.0179611 -0.020202674 0.02593574 0.010457974
0.025673367 -0.01115185 -0.0004391186 0.005122371 0.013214488 -0.022291888 -0.0017182343 0.0020387694
0.029129438 0.022743471 0.015366763 0.012150571 -0.014581673 0.013554554 0.0018778592 0.028170973
0.017929915 -0.0044842176 0.01720687 0.01626081 -0.025271434 -0.008256707 0.031027187 0.0030750781
0.002214823 -0.002211608 0.0028231218 0.016412932 -0.02761783 -0.016779117 0.0129282065 -0.021745589
0.025369499 -0.0010374896 -0.0106761865 -0.020740446 0.022360824 0.021285757 -0.02698065 0.026124716
-0.018504523 0.028019715 -0.015821408 0.007418748 0.02038316 0.0057033226 -0.0035505034 -0.0075086355
-0.02190372 -0.021603093 0.015057109 0.00990282 -0.030856758 0.023451265 0.023719177 0.028195795
0.005915165 0.023767516 0.0141618885 0.031041805 -0.0217768 0.007112913 -0.016548175 0.024573728
0.0058480315 0.030938856 0.007131666 0.026435472 0.026365522 0.011005294 0.00505504 -0.01774906
-0.002184555 -0.021041665 -0.00060947984 0.011151832 -0.018615324 -0.0082486905 0.0080876425 -0.0061519668
0.011095617 -0.02470117 -0.008742049 0.029498465 0.008110415 -0.010680079 -0.013634402 0.010728456
0.005434066 -0.020426758 -0.029701274 -0.007005457 0.011056848 -0.017508492 -0.011555474 0.009035494
0.009582721 -0.010547265 -0.004500378 -0.029282939 0.021262866 0.028280206 0.01630551 0.025063485

hyper_b2.0.bias f4 [32]
00000000: 7845 4ebc 0280 98bc 807b ab3b d074 b4bb
00000010: 1880 b1bb 0848 0bbc 046c 6b3c 9035 823c
00000020: 38de cdbc 782e 17bc 0ccc febc c8db e43b
00000030: c8bc 5e3c ccde 3a3c c202 9fbc 0a92 ce3c
00000040: 1659 aa3c dc7e 76bc 1c1a 8ebc 8410 2c3c
00000050: 107a bcbb aa4a 883c c046 e73a 3c3c e33c
00000060: 50f1 7f3b 6a32 ddbc 9ce3 b9bc 2414 623c
00000070: 7070 133b a0e4 f2bb 140e f3bc 3e16 88bc
-0.012589805 -0.018615726 0.005233228 -0.005507089 -0.0054168813 -0.00850106 0.014369015 0.015894681
-0.025130376 -0.009227388 -0.031103157 0.006984208 0.013594814 0.011405658 -0.019410495 0.025216121
0.020794433 -0.015044894 -0.017346434 0.0105019845 -0.0057518557 0.016637165 0.0017644987 0.027738683
0.0039053746 -0.027001578 -0.02269154 0.013798747 0.0022497438 -0.007412508 -0.029669799 -0.016612168

hyper_b2.2.weight f4 [1, 32]
00000000: 0096 343d 2cdf 803d 0ead b33d f830 16be
00000010: 5c2a 793d 08c2 a5bd 808f 5fbd 641a 03be
00000020: 945e 663d f450 dbbd 8a3a c63d 833b 2b3e
00000030: fe6a 9f3d 4b57 153e a1d3 1b3e e64f 90bd
00000040: de85 ea3d 281d 583d 4b93 033e 70c3 a03c
00000050: 9e5f f5bd 003e 67bc a0d6 07bd 8004 36bb
00000060: 7f66 283e 10f1 1fbd d270 b33d 84d7 663d
00000070: a9ef 213e 3080 febd dddc c3bd 1594 153e
0.044088364 0.06292567 0.08773242 -0.14667118 0.060831413 -0.08093649 -0.05458021 -0.12803036
0.05624254 -0.107088 0.09679134 0.1672192 0.07784079 0.14584081 0.15217449 -0.070464894
0.114513144 0.05276218 0.12849157 0.019624442 -0.11981128 -0.014113903 -0.033163667 -0.0027773678
0.16445349 -0.039048254 0.08761753 0.056357875 0.1581408 -0.124267936 -0.09563611 0.1460727
