models/v2/target_qmix_net.pth (torch, 834236 bytes, 13 tensors)

hyper_w1.0.weight f4 [64, 1024]
00000000: 5856 bebc 2835 97bb 44b6 ae3c fa3a edbc
00000010: caaf ff3c 1863 d6bc 383b 523c 008b d83a
00000020: 4044 caba 60e5 9f3b 306d f83c 780d babb
00000030: a2e5 c8bc 0818 fbbb 7865 b1bc c61a a5bc
00000040: 9a4b fc3c b8bb edbc 807f 1a3c e044 d13a
00000050: 686e c0bb cc91 643c 8c54 69bc 4cf4 e0bc
00000060: 3020 543b 506c 213c 10c1 3dbb ee8e 85bc
00000070: ea8f f33c e250 9fbc 38f9 5fbc 843c fdbc
00000080: 0e48 d63c 7a17 ef3c 20dc b63c 3804 8d3b
00000090: f679 953c 56d0 bdbc 34c6 f9bc 4e8c cf3c
000000a0: 30c0 8e3c 00bd b0bb 6a12 e1bc 44df c43c
000000b0: 4034 d9bb 8050 feba 4ac0 83bc 306f 49bb
000000c0: 0e4c 9d3c 40c9 5b3a 78f1 ab3c 2032 a93a
000000d0: 8cfe 7ebc 9e2a dfbc 4c07 27bc d017 443b
000000e0: d8b0 f3bb d20e e9bc 785f c5bc 68c5 e73b
000000f0: 8804 d9bc ccec b9bc 8c39 2d3c e055 cb3b
00000100: 8033 ccba c6b6 ae3c ec89 8ebc 2642 d73c
00000110: ce7b 8fbc 5af6 a13c d204 a6bc 006b 6bbc
00000120: 58ba 973c b871 7c3c 4892 3d3c 5428 aebc
00000130: 98bd a7bc 8895 59bc c0d5 873c 3041 76bb
00000140: b056 d43b e66b b33c f264 87bc d836 e4bc
00000150: 2448 a7bc 4ad2 8abc f0e4 98bc 50c5 1fbc
00000160: 4004 31ba fa96 a43c f89c f53c 2434 8abc
00000170: 3015 b8bb 4e80 eabc de3b 873c e6b8 f6bc
00000180: b8f8 92bc 98cf f7bb 1085 d5bb f8ec 8f3c
00000190: e019 aebc 029c 85bc 804d c53a 18d6 3b3c
000001a0: 026e bb3c 683c 803c 80d8 5c3a 008c 9dba
000001b0: c4ba 12bc e8b1 95bc b0a5 5abc 96aa 84bc
000001c0: d8d5 cb3c ac55 4abc 6afb c63c c20c 903c
000001d0: 8019 f939 c6bd e9bc f04a a7bb f032 1d3b
000001e0: 88c1 2fbc e2ad bb3c bc90 f4bc 9099 7cbb
000001f0: 28d3 58bc 80fc f9ba 80e9 3d3a 4c49 703c
00000200: d00e 62bc 206e b03c 2831 cd3b 7004 98bb
00000210: 98b9 bb3c c075 46bc d804 cf3c bc00 96bc
00000220: 42c6 8c3c b041 6bbb 8e5c fd3c 38ed 683c
00000230: 3485 1c3c c6c9 e8bc d04e 9ebb 0097 0abc
00000240: c84c 85bc 2818 e2bc 00f0 373c 4047 3b3a
00000250: e247 80bc 3ca7 293c 9866 773c 8010 903a
00000260: 2094 6f3b 306a 0d3b 422e fdbc c416 c23c
00000270: a21c bd3c e8e4 4a3c 48c6 4ebc bc34 66bc
00000280: a8f1 833c 70d1 2fbb 8cc9 543c 52cb bfbc
00000290: c076 eebc 24cb ff3c 00af 6eba bc8b d23c
000002a0: 0c98 b73c 9040 903c 20c0 c73a a6a4 c43c
000002b0: 840a 20bc a083 783b 148c f83c 6c25 edbc
000002c0: c237 d73c 98c5 9d3b 66a0 f03c c06b 1bbb
000002d0: 1e29 b23c 9c62 3e3c 108d a7bb 38a9 083c
000002e0: 5485 6d3c 305b 753c 5890 a33c f476 65bc
000002f0: 70ed 2f3c 9cf1 50bc a047 60bb 90f6 ab3b
00000300: 46d9 f6bc e84e 233c ea59 ca3c 1087 02bc
00000310: e4ed 80bc 18bf e03b a8af ebbb 909a aa3b
00000320: 34f6 e03c 705e a2bb 301f e1bc 2a4d d2bc
00000330: a811 b2bb c00e 413b ec13 9cbc e6c9 bc3c
00000340: d433 c6bc b0a8 99bc f24b c7bc 8e22 ef3c
00000350: ac18 7e3c fc86 823c b818 b93b 0051 c73b
00000360: 7289 a0bc f23f a3bc 2863 ddbc fa53 e33c
00000370: 1615 db3c d09c cebc 1427 2dbc e0a8 a33c
00000380: 10c2 433c a4f5 1e3c 00e9 083b 7a31 dbbc
00000390: 7c34 863c 18d3 a73c d261 f6bc 92f1 cbbc
000003a0: 98d8 693c 0624 ee3c 2080 823a fc80 2fbc
000003b0: 808c 77ba 282f d73c 742b 45bc d09e 963b
000003c0: 80b3 feb9 504e 91bb 12c5 d43c dce6 13bc
000003d0: 1804 853c 6a19 8e3c 1e47 fdbc e802 9ebc
000003e0: c09f dbbc fc21 a13c 3ca8 5b3c b438 ddbc
000003f0: 7092 2abc bc07 d33c d440 5e3c 1c05 22bc
-0.023234531 -0.004614491 0.021327145 -0.028958786 0.031211752 -0.026170298 0.012831502 0.0016520917
-0.0015431717 0.0048796386 0.030325502 -0.005677875 -0.02452356 -0.007662777 -0.02165483 -0.020154368
0.030797768 -0.029020175 0.009429812 0.0015965961 -0.0058725365 0.013950776 -0.014241349 -0.02746024
0.0032367818 0.009852484 -0.0028954186 -0.016303506 0.02973171 -0.019447748 -0.013670258 -0.030912645
0.026157405 0.029186 0.02232176 0.0043034814 0.018246632 -0.023170631 -0.030490018 0.025335457
0.017425627 -0.0053936243 -0.0274746 0.024032243 -0.006628543 -0.0019402653 -0.016082902 -0.003073644
0.019201305 0.00083841756 0.020989165 0.0012908615 -0.015563618 -0.027242001 -0.010194611 0.002992142
-0.007436853 -0.02844945 -0.024093375 0.007073093 -0.026491418 -0.022695921 0.010572802 0.0062053055
-0.0015579313 0.021327388 -0.01739975 0.02627666 -0.01751509 0.01977079 -0.02026597 -0.0143687725
0.018521473 0.015407972 0.011570521 -0.021259464 -0.020476148 -0.01328028 0.016581416 -0.0037575476
0.0064800605 0.021902036 -0.016527627 -0.027858183 -0.020420142 -0.016945977 -0.018663853 -0.009751633
-0.00067526475 0.020091522 0.029982075 -0.016870566 -0.00561776 -0.028625634 0.01650804 -0.030117463
-0.017940864 -0.007562589 -0.0065161064 0.01756905 -0.021252573 -0.016309742 0.0015053004 0.011464618
0.022879604 0.015653804 0.0008424595 -0.0012019873 -0.008955661 -0.018273309 -0.013345167 -0.016194623
0.024882242 -0.012349527 0.024289805 0.017584208 0.0004751198 -0.028532874 -0.005105369 0.002398666
-0.010727294 0.022910062 -0.029854171 -0.0038543679 -0.013233937 -0.0019072443 0.0007244572 0.014665913
-0.013797477 0.021536887 0.0062619634 -0.004639201 0.022915646 -0.012113035 0.025270864 -0.018310897
0.01718438 -0.0035897307 0.030927923 0.014216714 0.0095532425 -0.028416526 -0.0048311725 -0.008458853
-0.016271964 -0.02759941 0.011226654 0.0007144101 -0.015659276 0.010354813 0.015100144 0.0010991246
0.0036556795 0.0021578185 -0.030905847 0.023692496 0.023084942 0.012383677 -0.012620516 -0.014050659
0.016106442 -0.0026827715 0.012987506 -0.02341238 -0.029109359 0.031224795 -0.00091050565 0.025701396
0.022411369 0.01760891 0.0015239753 0.024004292 -0.009768132 0.0037920251 0.030340232 -0.028948508
0.026271705 0.004814815 0.029373359 -0.0023715347 0.021748122 0.01162019 -0.0051132515 0.008341126
0.01449712 0.014975354 0.01996629 -0.014005411 0.010737762 -0.012752917 -0.003422238 0.0052478984
-0.0301329 0.009967543 0.024701077 -0.007966772 -0.015738435 0.0068587177 -0.0071925707 0.0052064136
0.027461149 -0.0049551055 -0.027480692 -0.02567156 -0.0054342337 0.0029458255 -0.019052468 0.023045491
-0.024194635 -0.018757194 -0.024328206 0.029191282 0.015508812 0.015933506 0.0056486987 0.006082654
-0.019596789 -0.019927952 -0.02702482 0.027750004 0.026743453 -0.025221258 -0.010568399 0.019977987
0.011948124 0.00970212 0.0020890832 -0.02675699 0.016382448 0.0204864 -0.030075941 -0.024895463
0.014272831 0.029069912 0.0009956397 -0.010711905 -0.00094432384 0.026267603 -0.012034286 0.0045965686
-0.00048580393 -0.0044343844 0.025972877 -0.009027209 0.016237304 0.017346103 -0.0309177 -0.019288495
-0.026809573 0.019669525 0.013406809 -0.027004577 -0.01041089 0.025760524 0.013565261 -0.0098889135

hyper_w1.0.bias f4 [64]
00000000: e8f9 d73c 1cea c23c e88e 91bc 60a9 66bc
00000010: 6a36 a53c 504a f0bb a878 ce3c ccc8 fbbc
00000020: c47d 3d3c 5a6d c4bc 8c88 debc 4683 f53c
00000030: 024a 9c3c 60df b23a e6b1 d13c 3040 78bb
00000040: 1237 b5bc 6450 1ebc 60da ceba 006e 98b9
00000050: 10f4 f53b 5ca9 78bc 9c68 2bbc 16ad afbc
00000060: f049 13bb bc1f aa3c 3666 a6bc 608f 023c
00000070: f666 973c 5435 583c d000 3dbb 10d3 53bc
00000080: ba44 f1bc 30f6 9bbb 44b6 d1bc cae2 ddbc
00000090: 405b a33a 9aca 8bbc 3c12 ebbc 48ec b93c
000000a0: 0885 b83b 1cec ec3c 583c d93b cc5c 743c
000000b0: dcbd c5bc da78 913c 5c30 aebc c07c 40bc
000000c0: c2fb eebc c4cc b33c 186b 86bb 50ed b33c
000000d0: d85d adbc 389d f1bc d060 c5bb 0447 b83c
000000e0: 7093 df3b 20bb d2bb 2437 57bc 4c8e 6a3c
000000f0: 20e5 9c3a 701a 193b 0416 dcbc 2a2c 91bc
0.026364282 0.023793273 -0.017768338 -0.014078468 0.020167548 -0.0073330775 0.025204018 -0.030735396
0.011565629 -0.023977924 -0.02716472 0.029969823 0.019078258 0.0013646893 0.025597524 -0.0037880056
-0.022120986 -0.009662721 -0.0015781634 -0.00029073656 0.007505901 -0.015177097 -0.010461953 -0.021444838
-0.002247449 0.020767085 -0.02031241 0.007968754 0.018481713 0.013196308 -0.0028839596 -0.012928739
-0.029451717 -0.0047595724 -0.025599606 -0.02708568 0.0012463108 -0.017064381 -0.028695218 0.022695675
0.005631093 0.02892118 0.006629508 0.014914703 -0.024138384 0.017757822 -0.021263294 -0.011748493
-0.029172782 0.021948226 -0.004102122 0.021963745 -0.021162912 -0.029493913 -0.006023504 0.0224948
0.006822996 -0.0064309984 -0.013135705 0.014316153 0.001197014 0.0023361705 -0.026865967 -0.017721254

hyper_w1.2.weight f4 [128, 64]
00000000: 46e6 c23d 800e ab3a 0015 5dba 0075 033d
00000010: 3803 633d 3efc c4bd a870 58bd 441e 1abd
00000020: ec96 e13d 808a ccbb 74a5 e4bd 18b4 fabc
00000030: 0037 a03c 90f8 35bc 542a fbbd 6058 e43d
00000040: 80ea 8dbb b8c4 6dbd 8866 d53c 403a acbb
00000050: 2046 a43d 8c72 dabd d887 9ebc 18d8 acbc
00000060: c671 893d 9c9e 96bd b6f7 de3d d8fd 6bbd
00000070: b6fa b6bd 00b4 e83a 34ea c7bd 4a77 983d
00000080: 78f4 b2bc 70ee 8c3c 406a d93d 30ff b5bd
00000090: 04ef f9bd 10b5 dabc 6ce8 103d d0eb 103d
000000a0: 3006 283d 0050 e6b9 7822 f23d 88ca fe3d
000000b0: 384e d9bd b8bd 32bd 1c5c 4c3d c247 9dbd
000000c0: 5c64 42bd 346d c53d 3c14 69bd 96be c83d
000000d0: 8813 ea3c 268c afbd 206c e53b 6c9e 6a3d
000000e0: 4e1e afbd 0048 88bd 2072 d2bb 1018 d8bd
000000f0: 486a 8ebd 18ea f23d 5263 ee3d 34a8 113d
00000100: b858 9bbc 2405 f6bd 3021 303d fc69 d1bd
00000110: 907b 33bc e0ba f6bb 2464 c43d 98e3 ffbc
00000120: 8c07 67bd e809 dc3d 40c0 203b 5cb7 acbd
00000130: 3ca7 f3bd 00b0 4739 a09c bdbb 882a 573d
00000140: a85e c03d c007 80bb 90ab 543d 50c2 083c
00000150: 80eb a9bc e0a0 2c3c 4048 423c 3434 023d
00000160: 78ae 4e3d 506f c13d 8873 a43c 9cd5 3d3d
00000170: 801d 393c 9817 b83d 647e 7f3d a04b 5cbd
00000180: d4ea e8bd 1026 3bbc 5885 b3bd 1e7b 8fbd
00000190: 1812 dcbc 20ec 8fbd b032 293d ac11 e0bd
000001a0: 16b2 ea3d 8479 dfbd 9660 9a3d 36ea be3d
000001b0: 9cbf d43d a041 63bc 9854 c53c c065 2cbd
000001c0: b00a fe3d 0a2f 87bd 98b9 323d 440c e6bd
000001d0: 58f1 46bd 5aed 85bd 00be 40bc e69a bfbd
000001e0: f026 42bd f0db 28bd f675 f1bd 6ec0 adbd
000001f0: f461 5d3d 60fd d7bb 68e1 b0bd 646e afbd
00000200: 507d be3c a830 ddbd 7070 f53c 0092 653c
00000210: f08f cabd 14e9 73bd f46f 703d aefb adbd
00000220: 043c 9a3d c09c da3d c0f2 983d 348a 273d
00000230: c049 9fbc c0d1 d03b 38f5 b8bd c0de 8a3d
00000240: a63a e1bd 007d d93b 3c5b 0ebd d24d 983d
00000250: 720c 96bd 8247 f9bd ba9a c8bd 122e d63d
00000260: dcdc 54bd 4414 543d d455 52bd 4820 9ebc
00000270: f03c 84bc da68 90bd 7cea 263d d08f d6bc
00000280: f861 b23c c09e dbbd 9223 b2bd 98a2 cabd
00000290: 00f3 8dba 0020 93b8 c8e4 b13c c060 05bc
000002a0: 201e 8f3b 6aaf f9bd 88b0 593d 5858 72bd
000002b0: d461 653d 0cf8 16bd b891 debc f88f 7b3d
000002c0: 689c b33c b497 26bd ae01 9e3d 521a ff3d
000002d0: 2c3d 4c3d 50af 66bd 1c9f b63d f833 9fbd
000002e0: e284 be3d e0f6 56bc ba24 933d 04b2 f6bd
000002f0: 4472 a33d 3e20 b43d 409e dabd fc4b e7bd
00000300: 90ab f8bd e4c5 613d 6c42 993d 7022 f3bd
00000310: 68f2 033d 0000 e0b4 58ec bc3c 869d e2bd
00000320: 30f3 5fbd 2c12 4a3d e497 03bd 0edd ad3d
00000330: c8d3 85bc 4034 d43d 8029 713c ec2a 093d
00000340: 38f3 043d d6ea 98bd 06d4 a23d 004f 093c
00000350: b86c 913c 00fa 9bba 5c80 733d 5069 9cbd
00000360: 0eff 823d 16aa bc3d bcf2 d33d 6411 8abd
00000370: a02e 683d f89b dfbd 7838 de3d 0055 b7ba
00000380: f854 c8bd 9a1f ca3d 363c ae3d d4c0 a7bd
00000390: 986a 8c3d 8a31 ac3d e01a f23b eaa3 943d
000003a0: b442 31bd 1cd0 88bd 58dd e63d b0ea 7fbc
000003b0: 808c 923a 741a 173d 7efa 973d 9004 debd
000003c0: f0c6 e83c 2a6d 8a3d a0ec 1b3d a4c5 033d
000003d0: c063 88bd 581f 99bc b424 ed3d ccf5 a7bd
000003e0: 38f7 4cbd 580f 663d da9a d73d 8c3b fc3d
000003f0: 5619 b13d 0060 c03b 2e9e 9e3d 90c0 693d
0.095165774 0.0013050586 -0.000843361 0.032094 0.05542299 -0.09618424 -0.052841812 -0.03762652
0.11015114 -0.0062420964 -0.1116437 -0.030603454 0.019557476 -0.011106625 -0.12263933 0.11149669
-0.004330933 -0.058048934 0.026049867 -0.0052559674 0.08021188 -0.10666379 -0.019351885 -0.021099135
0.06711154 -0.07354471 0.10887091 -0.05761513 -0.08934538 0.001775384 -0.097614676 0.074446276
-0.021845087 0.01720354 0.10615969 -0.08886564 -0.12203792 -0.026697665 0.035377905 0.03538114
0.041021526 -0.00043928623 0.11822981 0.124409735 -0.10610622 -0.04363796 0.04989253 -0.07679702
-0.04745899 0.096399695 -0.056904063 0.098019764 0.028573766 -0.08571653 0.007001415 0.05727999
-0.08550702 -0.06654358 -0.006422296 -0.105514646 -0.06953865 0.11861056 0.116400376 0.0355608
-0.018963203 -0.12012699 0.0430004 -0.10225293 -0.010954753 -0.0075296015 0.09589413 -0.031236455
-0.05640368 0.10744077 0.0024528652 -0.084334105 -0.11897132 0.00019043684 -0.0057864934 0.052530795
0.09393054 -0.003907174 0.051921427 0.008347109 -0.020742178 0.010536402 0.011858046 0.031788066
0.050459355 0.09445059 0.02007462 0.046346292 0.011298537 0.08988875 0.062376395 -0.05378306
-0.11372915 -0.011422649 -0.08765668 -0.070059046 -0.026864097 -0.07027459 0.041308105 -0.10940871
0.114597484 -0.10911849 0.075379536 0.09322016 0.10388109 -0.013870627 0.024088189 -0.042089224
0.12404382 -0.06600769 0.043634027 -0.11232808 -0.048570007 -0.06539412 -0.0117640495 -0.093557164
-0.047400415 -0.041225374 -0.117900774 -0.08483969 0.054048494 -0.006591484 -0.08636743 -0.08565977
0.023253113 -0.10800296 0.029960841 0.01401186 -0.09890735 -0.059548452 0.058700517 -0.0849527
0.07530978 0.10674429 0.07468176 0.040903285 -0.019444346 0.0063726604 -0.09031147 0.067807674
-0.109975144 0.0066372156 -0.034754977 0.07436718 -0.073265925 -0.12171842 -0.09795137 0.10458006
-0.05196844 0.05177714 -0.051351383 -0.019302502 -0.016142339 -0.07051249 0.040750965 -0.026191622
0.02177523 -0.107236385 -0.08698191 -0.098942935 -0.0010829866 -7.015467e-05 0.021715537 -0.008140743
0.004367605 -0.12191661 0.05314687 -0.059166282 0.0560015 -0.03685765 -0.027169093 0.061416596
0.021925166 -0.04067202 0.07715164 0.12456192 0.049863026 -0.056319535 0.089170665 -0.07773584
0.09302689 -0.013120383 0.071847394 -0.120456725 0.07980779 0.08795212 -0.10674715 -0.1129379
-0.12142098 0.055120364 0.07483372 -0.11871803 0.0322136 -4.172325e-07 0.023061916 -0.110652015
-0.05467528 0.049333736 -0.032127276 0.084894285 -0.016336337 0.103615284 0.014719367 0.0334882
0.032458514 -0.074666664 0.079505965 0.0083806515 0.017752036 -0.0011900067 0.059448585 -0.07637274
0.06396304 0.09212129 0.10349032 -0.06741598 0.05668509 -0.109184206 0.10850614 -0.0013987124
-0.097818315 0.09869309 0.08507578 -0.08191076 0.06856269 0.08407886 0.0073884577 0.072578266
-0.043276504 -0.06680319 0.11272687 -0.015619919 0.0011180788 0.036890462 0.074208245 -0.10840714
0.028415173 0.06759103 0.03806746 0.032170907 -0.06659651 -0.018691704 0.11579266 -0.08201179
-0.050040454 0.056166977 0.105275825 0.12316045 0.086474106 0.005870819 0.07745014 0.057068408

hyper_w1.2.bias f4 [128]
00000000: d446 25bd 7a0a b43d 2e2d a8bd 20d4 cb3b
00000010: daee 803d 1034 1dbc f857 683d 30a1 813d
00000020: b82f 803c 0ea5 a83d 803b 82bc 42c3 9fbd
00000030: 087b 5a3d 984b b63c e835 e0bd 90bd d2bc
00000040: 487a 1dbd e2b7 c9bd a2bf f83d 68a5 903d
00000050: 2cb2 4c3d d0d0 72bc e0d9 803c 506f c7bc
00000060: 640b fbbd 9441 07bd 1414 743d 4498 633d
00000070: c0b7 bebc 802f 53bd 3cd3 a0bd 580c 99bd
00000080: f0f6 39bd 208b 953d eedd a03d 8056 00bb
00000090: 082f f53d c0f1 bfbb 6015 ba3d b409 6bbd
000000a0: c8fd eabd 98eb b6bc f4ca 033d 2cd8 46bd
000000b0: 4257 a4bd 0633 883d 383b 1ebd 04bc ec3d
000000c0: a0ab be3b d849 8a3d 00de 443d ee7e ca3d
000000d0: acd3 f53d b8bd 8cbc 083a a0bd 68a5 663d
000000e0: 408d 823b 00bd 49bb 105b ef3d bc20 dfbd
000000f0: c0ed fcbb a011 2b3c c4e1 df3d 1489 2a3d
00000100: 8c17 44bd 2c0b 3f3d 9212 d23d 4e34 b23d
00000110: 0028 48b9 4ab3 dcbd ced5 cfbd b0ee 863d
00000120: 1008 5fbd 0cfb 743d f220 e1bd 8c76 6f3d
00000130: 80db 2d3b fcce 8c3d 7253 bd3d ec55 d13d
00000140: 805d cfba 509d 043d d090 f43d 4ca7 bfbd
00000150: 4c77 ba3d 26c1 f43d 5c04 d63d e092 42bc
00000160: c029 0ebd 82e1 e33d a8f2 34bd 4eea 9ebd
00000170: 5045 f6bc 04dc 213d 4ade 8a3d ea83 923d
00000180: 20c9 65bc 683c cebc 4097 bbbb fcc3 2cbd
00000190: d820 b7bc 00f5 7dbd 7e92 8cbd c0d2 24bb
000001a0: c405 aa3d 5875 d33d 08d4 583d 70fa c33c
000001b0: b4bc c63d e0f8 023d 7437 84bd d049 fbbd
000001c0: c871 94bc 3230 cfbd 3a6f e6bd ae0b 93bd
000001d0: b2ad 8c3d eac3 a43d 100e 1bbc d46f b6bd
000001e0: 20df 4a3c 80d7 a73a 0cd8 973d 12ae 87bd
000001f0: e017 ecbd 0c8c 29bd 0464 cfbd a0cd cebb
-0.04035075 0.08791061 -0.08211742 0.0062203556 0.06295557 -0.009594932 0.05672452 0.06329572
0.015647754 0.08234607 -0.015897512 -0.07800914 0.053339988 0.022252843 -0.10947782 -0.025725156
-0.038446695 -0.09849526 0.12145926 0.07062799 0.049974605 -0.014820293 0.01572889 -0.02434507
-0.12258032 -0.033021525 0.05958946 0.055565134 -0.023280978 -0.05155897 -0.0785279 -0.074730575
-0.045401514 0.073019266 0.0785483 -0.0019582808 0.11971861 -0.0058576763 0.09086108 -0.0573823
-0.11474186 -0.022329137 0.032175973 -0.048546 -0.080244556 0.06650357 -0.038630694 0.11559299
0.005818799 0.06752366 0.04806328 0.09887491 0.12003264 -0.017180309 -0.078235686 0.056310087
0.0039841235 -0.0030782819 0.11687291 -0.108949155 -0.0077187717 0.010441214 0.10931733 0.041634634
-0.04787402 0.046641514 0.10257448 0.087013826 -0.00019088387 -0.10776384 -0.10148202 0.06588495
-0.05445105 0.05980973 -0.10992612 0.058462664 0.0026528537 0.06875417 0.092444316 0.102214664
-0.0015820712 0.032376587 0.11941683 -0.09358081 0.09104785 0.11950903 0.1045005 -0.011875838
-0.034707785 0.111269966 -0.044176728 -0.07759534 -0.030062348 0.039516464 0.067806795 0.07154067
-0.014025003 -0.025175288 -0.0057248175 -0.042179093 -0.022354528 -0.06200123 -0.06863879 -0.002515003
0.08301881 0.10325116 0.052936584 0.023923129 0.09703961 0.031975627 -0.06455889 -0.12269938
-0.018120661 -0.101166144 -0.112516835 -0.07179962 0.06869067 0.0804518 -0.009463802 -0.08908048
0.012382299 0.0012805313 0.074142545 -0.06624998 -0.11527991 -0.041393325 -0.10126498 -0.0063111335

hyper_w2.0.weight f4 [64, 1024]
00000000: 4cd4 683c 6c59 753c eae1 fc3c ae49 b7bc
00000010: 6086 0fbc 5490 473c cc85 4c3c 0028 ecb9
00000020: 8044 203a feb2 e5bc b827 dabc 8834 efbc
00000030: 103c dd3c b203 b8bc 9a78 bb3c 9485 8bbc
00000040: 18d8 9fbc 882e 953b d207 f13c 8e54 9d3c
00000050: a0ea 383b d60a b6bc 2a6c c6bc b0a9 aabc
00000060: 0084 6d3b 8068 5abc b61d b83c dac3 e9bc
00000070: b0db 833b c8e2 e33c 7442 483c b8a9 39bc
00000080: 461a febc 309e dabc 004f ca3c 3a9e c3bc
00000090: c220 cf3c 8ca7 af3c 6015 56bb d07b b03b
000000a0: 5c2f 963c d018 613c 84b6 76bc 249f db3c
000000b0: f0ce 493b a05e 3f3b 42d5 b03c 1e7f df3c
000000c0: e87e eabc b0d5 983b da91 a9bc e4fa c1bc
000000d0: 3c97 3fbc 6a57 e6bc f0f2 173b 506e 493c
000000e0: 500c f5bb 1456 453c c682 aebc 0039 66ba
000000f0: 00a9 a439 9824 f5bc 2ab4 c43c 34fe b83c
00000100: a0c4 6ebc c00d 583c 42e7 923c 448d 60bc
00000110: 3205 f2bc 68d4 9dbb 8c54 5ebc 5611 c43c
00000120: 3058 b33c f810 5fbc d610 85bc 94c6 76bc
00000130: f8b6 c73c 78fd 533c 94b6 683c 18d2 dc3b
00000140: 789f bbbc 0079 0aba 6e6f a13c e2f5 97bc
00000150: 10a3 e6bb b8d8 8a3b 189c a0bb 64bc e23c
00000160: fab7 b8bc 2052 62bc 00e8 b6ba f6ef b13c
00000170: d85e f83c 9af8 9bbc 72ad a23c cc85 75bc
00000180: 50a1 3d3c dc10 10bc b85a 87bc d010 c4bb
00000190: e896 b03c a44e 68bc 5240 d83c c61b d3bc
000001a0: bcf6 6a3c 3a82 cebc 2037 953c 0869 a6bb
000001b0: cc5d 04bc 1098 803b 9887 91bb 02a3 d43c
000001c0: 20e5 44bc ee7b c33c 708d 4abb f0ab d4bb
000001d0: 9e83 c6bc e0ef fd3b 8078 c339 4cfc be3c
000001e0: 3421 ffbc 380b bbbb 84ea 633c 3432 37bc
000001f0: 3043 0abc 6ae4 cb3c b80f 9fbb 40d5 1c3c
00000200: a0aa 433b 3877 c4bc e6e5 d0bc 3243 f5bc
00000210: 4cae d2bc 2cf4 debc 5087 6a3c 3e32 ffbc
00000220: f480 38bc 103a 41bc 28ed 583c 3842 e4bc
00000230: 503f 55bc 80fc 503b 643f 0d3c 8a9e 86bc
00000240: 4877 babc 0270 ccbc 6881 ea3b fa69 bdbc
00000250: 1c24 45bc c0e1 36bc b45c bcbc ccbc 763c
00000260: 303c fabb e4f6 8fbc ac29 ed3c 7004 77bc
00000270: 02ff 8c3c ea2c c83c 0464 f43c 006f 163b
00000280: 3ac0 efbc 3071 cb3c 3af7 d53c e4dc d63c
00000290: 1005 1dbc 9cfd 8abc 3883 953c ba45 edbc
000002a0: de62 953c e001 f4bb 9051 e7bb 4098 063c
000002b0: d67b ef3c 007e 63b9 a8e2 a53b 6e3a ebbc
000002c0: 2e1c a3bc 3870 bd3c 800d bcbb e8bc e6bc
000002d0: fafe d7bc f8c8 363c 301e 94bc b689 d13c
000002e0: 24d8 23bc 3830 723c 1028 4b3b d0e2 8dbc
000002f0: 58a5 ecbc a460 213c 6cea 91bc 54b8 0bbc
00000300: 4866 98bb a462 1cbc 80b6 deba 6c30 fbbc
00000310: 50af 693c 6458 1f3c dcde 0c3c 6ae8 debc
00000320: 80ea b2bb 061a e0bc a017 53bb 563d b5bc
00000330: b42b 01bc c62f d13c 40c0 b43a 8064 0cba
00000340: d867 e83b 2a3b c4bc 98c0 963b 560b ec3c
00000350: b6ad 933c 8864 d9bb fcbb 45bc d8f2 d33b
00000360: 7046 31bb d4a9 23bc aca0 003c 10c4 b4bb
00000370: f005 afbb 54d5 b1bc f212 e1bc 700e d2bb
00000380: f2e9 f83c 523b d1bc 6a42 ca3c 00d3 41ba
00000390: 7893 30bc 244e d2bc fc89 e8bc 7805 ac3b
000003a0: b00f 6fbc 0c8b 64bc 7cb0 1f3c e833 f43b
000003b0: 289c c8bc e288 9a3c 1cd1 3f3c 2038 a23a
000003c0: 7cf9 f23c 90f5 91bc c0e4 d93c f809 e53b
000003d0: 2064 cb3b dce2 c73c 34fd 70bc 9ed1 a33c
000003e0: 78af 943c 8c00 263c 246d cf3c 2069 ed3a
000003f0: 3ad6 c23c b0d8 943c c6a6 963c 08b2 e33c
0.014210772 0.014974933 0.030869443 -0.022374 -0.008760065 0.012180407 0.012483072 -0.0004504323
0.0006113723 -0.028039452 -0.026630268 -0.029199854 0.02700618 -0.0224627 0.022884656 -0.017031468
-0.019512221 0.004552666 0.029422674 0.019205358 0.002821602 -0.022221964 -0.024221499 -0.020832866
0.0036242008 -0.013330579 0.022475105 -0.028535772 0.0040239915 0.027818099 0.012222875 -0.011331968
-0.031018388 -0.026686758 0.024695873 -0.02387916 0.025284175 0.021442197 -0.003266655 0.0053858534
0.01833313 0.013738826 -0.015058164 0.026809283 0.003079351 0.0029200688 0.021586064 0.027282294
-0.028624967 0.0046641454 -0.02069943 -0.023679204 -0.011693772 -0.028117854 0.0023185574 0.012294367
-0.0074782744 0.012044448 -0.021302592 -0.00087822974 0.00031406432 -0.029924676 0.02401169 0.022582151
-0.014573246 0.013186872 0.017932538 -0.013705555 -0.029543493 -0.0048165806 -0.013569962 0.023934048
0.021892637 -0.0136148855 -0.01624338 -0.015061993 0.024379238 0.01293885 0.014203686 0.0067389123
-0.022903189 -0.00052823126 0.019706454 -0.018549863 -0.0070384815 0.0042372607 -0.0049014203 0.027677722
-0.022548664 -0.013813525 -0.001395464 0.021720868 0.030318663 -0.01903944 0.019858096 -0.014985513
0.011574104 -0.008793082 -0.01652275 -0.0059834495 0.021556333 -0.014178906 0.026397858 -0.02577008
0.014341053 -0.025208581 0.018214762 -0.0050784387 -0.008079004 0.0039243773 -0.004441213 0.025956634
-0.012017518 0.023862805 -0.0030907057 -0.006490223 -0.024232682 0.0077495426 0.00037283078 0.023313664
-0.031143762 -0.0057081245 0.013910893 -0.011181403 -0.00843887 0.02488919 -0.0048541687 0.009572327
0.002985634 -0.02398263 -0.02550025 -0.029939268 -0.025717877 -0.02721604 0.014314488 -0.031151887
-0.011261214 -0.011793628 0.013240136 -0.027863607 -0.013015583 0.0031888783 0.0086210705 -0.01643302
-0.022761956 -0.024955753 0.0071565397 -0.023121823 -0.012032535 -0.011162221 -0.022993423 0.015059661
-0.0076365694 -0.017573781 0.028950535 -0.015076742 0.017211441 0.02443548 0.029832847 0.0022954345
-0.029266465 0.024834245 0.026118863 0.026228376 -0.0095837265 -0.016966633 0.018251047 -0.028963912
0.01823562 -0.0074465126 -0.0070592836 0.00821501 0.029233854 -0.00021695346 0.00506242 -0.028714385
-0.019910898 0.0231248 -0.005738914 -0.02816625 -0.0263667 0.011156313 -0.0180808 0.025578361
-0.010000262 0.014782004 0.003099922 -0.017320067 -0.028887436 0.009849701 -0.017811976 -0.008527834
-0.0046508648 -0.009545002 -0.0016991645 -0.030662738 0.014262989 0.009725664 0.008598056 -0.027210433
-0.0054600835 -0.027356159 -0.0032210127 -0.022123974 -0.007883955 0.025535475 0.0013790205 -0.0005355552
0.0070924573 -0.023953993 0.0046005957 0.028814 0.018027168 -0.0066342987 -0.012068745 0.006468158
-0.002705004 -0.009989221 0.007850807 -0.0055165365 -0.005341284 -0.021708168 -0.027474854 -0.0064104125
0.030384991 -0.025540981 0.024689872 -0.0007393807 -0.010777347 -0.025672026 -0.028386109 0.0052496754
-0.014591143 -0.013949167 0.009746667 0.007452477 -0.024488524 0.018864099 0.01170757 0.0012376346
0.029659979 -0.017817289 0.026598334 0.0069897138 0.006207004 0.024400167 -0.014708806 0.019997414
0.018150076 0.010131966 0.025320597 0.0018112995 0.023783792 0.01816973 0.01839007 0.027794853

hyper_w2.0.bias f4 [64]
00000000: 047a cabc 2cea 97bc 945f d03c fa1c 8abc
00000010: e62d e7bc f40f b8bc f8c1 933b 7cab bebc
00000020: 38e4 08bc 2c5e 0dbc 9c9a 453c 9e2f f53c
00000030: 74ee 51bc 1ecb d43c 003b b33b 6e2e adbc
00000040: 405c ffbc 1cb4 b53c b6bb b03c b6e2 e0bc
00000050: f410 54bc 2884 8d3b 0ceb a6bc b038 1abb
00000060: b0bb 1e3c f098 1bbb 0057 bfbb 40af 20ba
00000070: 489a 2bbc 5043 0fbc 8023 f73c 26ac 9e3c
00000080: 70f5 693b d090 c03b 86de 92bc 9c0a 763c
00000090: 74e6 25bc f82a dfbc f8ac 3ebc 602f 5d3c
000000a0: ea4a e73c 02ee e1bc 3491 413c dc4f fc3c
000000b0: 5898 f4bc c896 a5bb 6c80 333c 708a fdbc
000000c0: 3833 cd3b b005 d43c de6b bb3c f403 1f3c
000000d0: 449d ce3c ec6f b93c 542d 22bc 46b2 f33c
000000e0: 0034 46bc 6820 86bb d030 ca3c 806b a8bb
000000f0: 2c85 f83c c8b8 983b 687f 6e3c 04e5 d43c
-0.024716385 -0.018544279 0.0254362 -0.01685952 -0.028220128 -0.022468545 0.004509207 -0.02327513
-0.008355193 -0.008628409 0.0120607875 0.029929932 -0.012813199 0.02597576 0.00546968 -0.021140303
-0.031171918 0.02218061 0.021573883 -0.027451854 -0.012943495 0.004318733 -0.020375751 -0.0023532324
0.009688303 -0.002374228 -0.0058392286 -0.000612963 -0.010473795 -0.008744076 0.030168295 0.019369196
0.003569927 0.005876638 -0.017928373 0.015017178 -0.010125745 -0.027242169 -0.011637919 0.013500065
0.028233964 -0.027579311 0.011814404 0.030799799 -0.0298578 -0.005053375 0.010955911 -0.030949801
0.0062622093 0.025881618 0.022878584 0.009705532 0.025221474 0.022636376 -0.009898502 0.029748093
-0.012097359 -0.0040932186 0.024681479 -0.005139768 0.030336939 0.0046606995 0.014556743 0.02598811

hyper_w2.2.weight f4 [32, 64]
00000000: 6c9d c73d a01d 2b3d 868e b5bd 7444 f43d
00000010: 20a2 b8bd 6ce2 40bd e819 7a3d c041 003d
00000020: 3c82 d9bd fcd7 8c3d 78b3 40bd fc5a f7bd
00000030: dca8 40bd 04d6 11bd 1cf6 903d 783d 0a3d
00000040: 8441 9b3d 6044 813b 34b0 593d 90bd 123d
00000050: 28eb dfbd 7606 863d 5038 6dbc 06b6 c83d
00000060: 36a9 853d 9678 acbd b052 f4bc 54cb 293d
00000070: 50c3 953d b802 133d 4091 93bb cade 873d
00000080: e08c d9bd c81a e93d b08f 733c eefd fa3d
00000090: 28f5 dabd f22c ab3d 4833 3fbd 246c 4ebd
000000a0: c0a3 6dbd 2e6f c8bd f8ab 8d3c f0dd 143d
000000b0: b8be e7bc c213 84bd 640c 67bd 2673 8c3d
000000c0: c88d d73c 24e1 9abd 60cb 723d 164a ff3d
000000d0: ac09 913d 2a65 b83d 10d2 453d e802 a13c
000000e0: e03c 673d 0c3e d33d 701f 213c bae0 aabd
000000f0: 6288 a53d e095 703d a0bc 5c3d 0019 b7bd
00000100: 0006 d2ba a088 8e3d d82d 4bbd b0ce ad3c
00000110: c0d8 183b 2033 933b 84be 473d 7c0b 3e3d
00000120: f259 cd3d 3a5e 923d 50c7 8abc ec68 633d
00000130: b8e8 c9bd c49e 80bd f0de 453c d885 bdbc
00000140: b8a5 c83d b82a 993d 3849 e13d a80d 4c3d
00000150: ac06 6e3d 2839 733d 8623 963d 5a92 abbd
00000160: 3c84 4d3d 6e59 9d3d 74bd 5a3d 082c 5a3d
00000170: 38f4 cb3c 1423 973d 06d7 9cbd 8023 b73a
00000180: 0a39 bd3d f03f b83c 02ce fb3d 002c e23c
00000190: c463 30bd cc3d 2f3d 9888 84bd fc10 d33d
000001a0: 60da 06bd 4431 3b3d e812 dcbd d06e 5dbd
000001b0: a40c 8f3d 3890 703d fc8f abbd 5e45 fd3d
000001c0: e0aa 0cbc d8f0 15bd c073 fa3b 903f 77bc
000001d0: d6bd 87bd 3498 de3d 0c5c e03d 6a8a 9a3d
000001e0: 20eb 273d 3c79 eebd 62de e63d 1cf8 cfbd
000001f0: a8f1 24bd a0dd bfbd 2845 fbbc dcfd 65bd
00000200: 1cfb 00bd f27a c23d 600c abbc 70e7 7c3d
00000210: e2fb e3bd 449a e23d 7e39 d3bd 40cf aebb
00000220: 380b 62bd a44a 2bbd 4872 d8bd 3844 53bd
00000230: 268c d9bd 52ad 963d d208 96bd 6a45 b83d
00000240: be45 8b3d 78f9 a93c be87 963d d0cf 50bc
00000250: b009 dc3d b00d 4a3c a0fe a6bd 9411 c0bd
00000260: ce7d c13d 04ff 883d 50a0 e13c 38e4 edbc
00000270: d046 fa3d 849c 743d 6002 e6bb c450 13bd
00000280: 2a83 c63d ecec 4fbd a47f f2bd 5638 82bd
00000290: 1476 5e3d a07f 98bb 98ff 3cbd 14ce 4b3d
000002a0: a028 ed3d 7ca3 44bd 1802 9d3d 40f6 9c3c
000002b0: 78f6 fc3d d499 afbd e4e2 9dbd 3012 de3d
000002c0: 145f 93bd 2495 64bd d048 15bc 1019 45bc
000002d0: 4092 5d3c 401f e43b 1c3a e23d 0c15 fa3d
000002e0: 2858 3dbd 50e8 c7bc 10ff ac3c 00cd 423a
000002f0: 6075 01bc eed7 e93d 9817 993c 94ad 9b3d
00000300: 90c9 f0bc 4422 be3d 380e eebc e8dc d43d
00000310: 00c2 a7ba c0df 08bb b0ee b33c 3a72 ab3d
00000320: 9a1d d03d 809d d03c dcd5 35bd 5aba a7bd
00000330: 22c7 a8bd 3a97 d9bd 1eb9 ccbd 1a44 e3bd
00000340: 6851 553d 76b6 ecbd c07c f1bc 825f c1bd
00000350: 3412 08bd 00da 473c ee56 ce3d b4cc 1abd
00000360: a8bf 97bc 3c59 633d 2050 02bc 3257 83bd
00000370: e4ce 433d acda e9bd 188c 953d 5c5d 00bd
00000380: de04 8bbd 0826 373d 68f4 a4bc d6ff dd3d
00000390: ec7f a0bd e254 fa3d d6ba a6bd 1c83 ffbd
000003a0: ee07 b5bd ac3a b7bd 001f 96bb 30c9 a3bc
000003b0: a2d4 babd 6c63 f53d 5043 b5bd f038 69bc
000003c0: dab3 bd3d e07d 8ebc 86eb 873d 5066 fc3c
000003d0: 4ad4 d93d 403c 023c 20ec af3c f852 afbd
000003e0: a8de 333d 2a33 8abd 803f e2ba 4aba 86bd
000003f0: 40bd 63bb 50cd 4e3d 2024 cb3b 00c2 3bbd
0.09746823 0.0417763 -0.08865075 0.11927119 -0.09015298 -0.047090933 0.061059862 0.031312704
-0.10620543 0.06877133 -0.047046155 -0.12077901 -0.047036037 -0.03560449 0.07078192 0.033750027
0.075808555 0.0039449185 0.053146556 0.035825312 -0.10933524 0.06544201 -0.014478758 0.09800343
0.06526415 -0.084214374 -0.029824585 0.041453674 0.073126435 0.035891265 -0.004503399 0.066342905
-0.10622573 0.11382061 0.014865801 0.122554645 -0.10691291 0.08358182 -0.046679765 -0.0503961
-0.058017492 -0.09786831 0.017293915 0.03634447 -0.028289184 -0.06449081 -0.0564083 0.068579
0.026312724 -0.075624734 0.059275985 0.12465303 0.07081923 0.090036705 0.048296034 0.019654706
0.05645454 0.10314569 0.009834155 -0.083436444 0.080826536 0.058736682 0.053890824 -0.08940315
-0.0016023517 0.06959653 -0.049604267 0.02121672 0.0023322552 0.0044921786 0.048765674 0.04639767
0.10026921 0.071468785 -0.016940743 0.055519983 -0.09858841 -0.06280282 0.012077078 -0.02313511
0.09797233 0.07478851 0.110002935 0.04981771 0.05811183 0.05938068 0.07330994 -0.08377524
0.050174937 0.07683073 0.053403333 0.053264648 0.024896726 0.073797375 -0.076582 0.0013972372
0.09239395 0.022491425 0.12295152 0.027608871 -0.043063894 0.042783543 -0.06471366 0.10305974
-0.032923102 0.04570128 -0.107457936 -0.054060757 0.06984833 0.058731288 -0.08377072 0.12366746
-0.008585662 -0.03660664 0.007643193 -0.015090838 -0.06628005 0.10868874 0.109550565 0.07545932
0.040995717 -0.11644217 0.11272885 -0.10154745 -0.040269524 -0.093684435 -0.030672625 -0.056150302
-0.031489477 0.09496106 -0.020879924 0.061744153 -0.11132027 0.1106458 -0.103137 -0.0053347647
-0.05518648 -0.04181923 -0.105686724 -0.05157873 -0.10622434 0.07357277 -0.07325901 0.08997615
0.06800412 0.020748839 0.073501095 -0.012744859 0.10744035 0.012332365 -0.081540346 -0.09378353
0.094478235 0.06689265 0.027542263 -0.029039487 0.12220538 0.059719577 -0.007019326 -0.035965696
0.09692986 -0.050763056 -0.11840752 -0.063584015 0.054311827 -0.004653886 -0.04614219 0.04975708
0.11580014 -0.048007473 0.07666415 0.01916039 0.12351698 -0.08574262 -0.077092916 0.10843313
-0.07195869 -0.055806294 -0.009111598 -0.012029901 0.013523638 0.006961733 0.1104624 0.122110456
-0.04622665 -0.024402767 0.021117717 0.000743106 -0.00790152 0.114181384 0.018688008 0.07601467
-0.029392987 0.092838794 -0.029059514 0.10393697 -0.0012798905 -0.0020885319 0.021964401 0.08371396
0.10161896 0.025465727 -0.044393405 -0.081898406 -0.082411066 -0.10624547 -0.09996246 -0.11096974
0.05207959 -0.11558239 -0.02947843 -0.09442045 -0.033220485 0.012197971 0.10075174 -0.037792876
-0.018524006 0.055505022 -0.007953674 -0.064131156 0.04780473 -0.114186615 0.073021114 -0.031339034
-0.06788038 0.044714004 -0.020136073 0.108398125 -0.07836899 0.12223221 -0.08141105 -0.12476179
-0.08839403 -0.08946738 -0.004581332 -0.019993395 -0.09122588 0.11981854 -0.088507295 -0.014234766
0.092628196 -0.017394006 0.066367194 0.030810505 0.10636194 0.007948935 0.021474898 -0.08560747
0.043913513 -0.0674804 -0.0017261356 -0.065785006 -0.0034750253 0.05048877 0.006199375 -0.04583931

hyper_w2.2.bias f4 [32]
00000000: 4cd8 853d 928c f63d 9a3a 82bd e8ed adbd
00000010: 9c6d c03d 8074 9dbd b86c b0bc b4bb cabd
00000020: 6873 4dbd 845f 8cbd 4c9c b33d 5c2d a93d
00000030: f8db aa3d f02e 78bd 3c29 da3d 60e8 f83b
00000040: 4602 a0bd 283d b1bc c8a9 abbd 364e d63d
00000050: 82e3 923d f442 1ebd a0e7 aabc 000b a1bd
00000060: b018 d8bd 4057 e53b c20c b43d 00ec 43ba
00000070: e009 50bc d00c 49bd 8ccb 2a3d da67 8b3d
0.06535396 0.120385304 -0.063588336 -0.08492643 0.09395906 -0.07688236 -0.021536216 -0.09899083
-0.050158888 -0.06854156 0.08770046 0.08260605 0.08342737 -0.060591638 0.10652396 0.0075960606
-0.078129336 -0.021635607 -0.083819926 0.10464136 0.071723 -0.03863807 -0.0208624 -0.07863426
-0.10551584 0.0069989264 0.08791496 -0.00074738264 -0.012697667 -0.049084485 0.041698024 0.068069175

hyper_b1.weight f4 [32, 1024]
00000000: 74b1 b0bc 9a97 8c3c b0a6 4cbc a813 823b
00000010: b0f2 bb3b 1062 61bb 6056 fe3c 6ed2 d63c
00000020: 2800 3fbc c2be d2bc 0806 b2bb d20a 923c
00000030: 14df 1dbc 0845 4cbc f832 893b d44f febc
00000040: ecbf 65bc ec0a 1c3c 307d 5dbc 302e 00bb
00000050: 9020 953b 2419 023c 20af a5bc 04ec 2c3c
00000060: 0236 c7bc a0fd 403c d062 29bb ac9e 243c
00000070: 5802 d23b c01f 91bc 8c1c 43bc bc52 4a3c
00000080: c484 44bc cab4 95bc 402a a93c d0cb 99bb
00000090: 6062 ff3a 707d bebb 441a ba3c 1a2c f93c
000000a0: 807f f43b 6c9a bbbc 8c1c 6c3c 64f4 413c
000000b0: 02cf d3bc c0f8 c7ba 5c28 2f3c f638 ca3c
000000c0: c8b7 87bc 181f e1bc 1015 ebbc 703e 373b
000000d0: 8cce 70bc 24d0 973c 3cf9 803c 00f7 a43a
000000e0: fef9 fd3c 14e3 81bc a094 42bc 0abe 80bc
000000f0: 4824 5a3c f05f 933b ecd2 03bc cea6 84bc
00000100: bc44 f53c 40e9 bdbb b0ab 80bb d0be cabc
00000110: 5059 45bc c8ff ee3b 78fe f53c f28c b03c
00000120: d8a7 d23c c045 f5bc d0b2 8d3b 50cb a43c
00000130: de7b 9cbc 28d1 7e3c 0419 933c 0885 b1bb
00000140: 7ce6 063c 00b7 c9bc 78ed d4bb da30 96bc
00000150: b0b5 c1bb 50bc 653b 08ff f93b 28f6 bc3c
00000160: 7caf b3bc 0052 e6b8 126d 85bc 00fc c7b9
00000170: f856 343c b08a 883c 0aa1 e53c dcb5 70bc
00000180: 0014 29bb 0829 41bc b43a c83c 20e0 303c
00000190: 9c59 083c f425 4dbc 382d de3c b0b2 f13b
000001a0: 605e f5bb fea8 c2bc b219 eb3c c021 84bb
000001b0: 66bd fbbc fe30 963c dab3 95bc c03e 0f3c
000001c0: 8807 683c 905e 52bb 9815 15bc 606c 2abc
000001d0: a041 e23b e8ff c73c 7c33 11bc fa62 8abc
000001e0: 8e47 c0bc c803 18bc dcad 4e3c 409c 06bb
000001f0: c807 5c3c 769d 9bbc 0091 193a aefa 96bc
00000200: c882 653c 369d cdbc 80d4 c33a 86dd a8bc
00000210: 1a7c 813c 4079 62bc f06e c7bc 9883 b93b
00000220: 403e 903c 7866 b9bc e048 83ba 7cdf 87bc
00000230: 821a d4bc 9497 4ebc 36d8 9c3c e066 d73c
00000240: 5c1b f53c a28f de3c 90cf c53b e423 b1bc
00000250: 78f3 843c ea75 afbc 6cb0 bb3c c8f9 1ebc
00000260: 18bb f4bc 4245 bd3c 166d fabc 6c1c d83c
00000270: f60c f8bc 2041 1b3c 5ae6 91bc 3e59 fe3c
00000280: 1ab2 cfbc c683 f1bc e8c6 733c d02f ddbb
00000290: 88f6 fabb c032 47bb 2225 a93c 1cf4 6fbc
000002a0: c87e ddbc 80f8 d93c 30cb 5bbb fc26 313c
000002b0: 48dd 23bc 04b2 2fbc 58cf 173c c0f3 91bc
000002c0: 2094 603c 8c07 3f3c 2e03 b13c 300a d63b
000002d0: 505f a73c c0b6 d73a 7874 7f3c c470 45bc
000002e0: 1833 b3bc 34e5 7ebc 4a75 df3c b01f 39bb
000002f0: 58a8 433c 12ae fdbc 0c17 c73c 3675 983c
00000300: 7697 db3c aa15 b0bc a064 56bc 0435 efbc
00000310: 2201 d2bc f833 863c 8a6c 94bc 3003 963c
00000320: 3401 babc b8b9 7fbc 9073 e13c f001 803b
00000330: 10e2 083c 80e5 bfba dc72 893c 405a 2eba
00000340: 5036 a73c d4f6 b6bc 9648 8bbc 3003 19bb
00000350: 0065 acbb 5056 43bc 8e39 be3c b4bf ed3c
00000360: e405 4abc 04b5 cc3c 0084 f7b9 d0bd a73b
00000370: 6c18 8f3c 4c69 c0bc 9a5f a4bc f02e ad3b
00000380: 30ca 53bb d02a 58bc d054 96bb 64c4 f63c
00000390: 40ce 60ba 148d d73c 16f9 a63c 5a90 e6bc
000003a0: 324a cfbc cc73 34bc e05f 973b 7608 d3bc
000003b0: 8891 6ebc 566f c73c 9424 433c 445f 8dbc
000003c0: 0e36 fd3c b038 02bc a2ca e03c 6cfb d83c
000003d0: 3ada e23c 0253 fa3c 5c5e a4bc 1071 9f3c
000003e0: b05f cc3c 3628 ac3c f033 c13b 00e8 d039
000003f0: b4f6 45bc dc6d 48bc b8a4 9c3c 4880 2f3c
-0.021568991 0.017162133 -0.012490913 0.0039696284 0.0057357177 -0.0034390725 0.031047046 0.026223388
-0.011657752 -0.025725726 -0.005432848 0.017827425 -0.0096357055 -0.01246763 0.004186984 -0.031043924
-0.0140228085 0.009524088 -0.013518617 -0.001955878 0.004551001 0.007940564 -0.020225108 0.010554317
-0.024317745 0.011779219 -0.002584625 0.010047596 0.006408971 -0.017715335 -0.011908662 0.012348827
-0.011994544 -0.018274684 0.02065003 -0.004693486 0.0019484274 -0.005813293 0.022717603 0.030416537
0.0074614882 -0.022900783 0.014411103 0.011838052 -0.025855545 -0.0015256628 0.010690775 0.024685364
-0.016567126 -0.027480647 -0.028696567 0.00279608 -0.014697682 0.018531866 0.015743844 0.0012585819
0.031002995 -0.01585535 -0.011876255 -0.015715618 0.013314314 0.0044975206 -0.008045893 -0.01619282
0.029940002 -0.005795628 -0.0039267167 -0.02474919 -0.01204522 0.007293675 0.030028567 0.021551583
0.0257148 -0.029940486 0.0043242946 0.020116478 -0.019102033 0.015552796 0.017956264 -0.00541747
0.008233663 -0.024623394 -0.006498035 -0.018333841 -0.0059115514 0.003505487 0.007629279 0.023066595
-0.021934263 -0.00010982528 -0.01628736 -0.00038143992 0.011007063 0.016667694 0.028030891 -0.014691796
-0.0025799274 -0.011789568 0.024442054 0.010795623 0.008322146 -0.012521256 0.027121171 0.0073760375
-0.007488057 -0.023762222 0.028698776 -0.0040323436 -0.03072996 0.018333908 -0.018274236 0.008742988
0.014161952 -0.003209982 -0.009099387 -0.010401815 0.0069047958 0.024414018 -0.0088623725 -0.016892899
-0.02347162 -0.009278245 0.0126146935 -0.002053991 0.01342959 -0.018995982 0.00058580935 -0.01843008
0.014008231 -0.025099378 0.0014940649 -0.020613443 0.015806247 -0.013822854 -0.024344891 0.005661439
0.017607808 -0.022631869 -0.0010016225 -0.016586058 -0.025891546 -0.012609381 0.019146066 0.026294172
0.029920273 0.027168099 0.0060367063 -0.02162356 0.016229376 -0.02141853 0.022911273 -0.009703107
-0.02987437 0.023104314 -0.030569594 0.02638074 -0.030279618 0.009475976 -0.017810035 0.031048413
-0.02535348 -0.02948178 0.014878966 -0.0067500845 -0.0076587833 -0.003039524 0.02064759 -0.014645603
-0.027037993 0.026607752 -0.0033537857 0.010812517 -0.010001488 -0.010723595 0.009265743 -0.017816424
0.013707191 0.011659514 0.021607962 0.006531976 0.02043119 0.0016457662 0.015591733 -0.012050811
-0.02187495 -0.015557576 0.027277607 -0.0028247647 0.011941992 -0.030966792 0.024302982 0.018610578
0.02680562 -0.021494705 -0.013085514 -0.029200085 -0.025635306 0.016382203 -0.018118162 0.018312067
-0.022705652 -0.015608244 0.027520925 0.003906481 0.008354679 -0.001464054 0.016778402 -0.00066510215
0.02041164 -0.022334494 -0.017002385 -0.0023347847 -0.0052610636 -0.011922434 0.023220804 0.029022075
-0.012330506 0.024988659 -0.0004720986 0.005119063 0.0174677 -0.02348771 -0.020065118 0.0052851364
-0.0032316558 -0.013193801 -0.004587747 0.030122943 -0.00085756555 0.026312388 0.020382445 -0.028145004
-0.025303934 -0.011013936 0.0046195835 -0.02576087 -0.014561065 0.024345081 0.011910576 -0.01725734
0.030909564 -0.007948086 0.027440373 0.026487075 0.02769195 0.03055716 -0.020064525 0.019463092
0.024947971 0.021015268 0.005896084 0.00039845705 -0.012082744 -0.012233224 0.019121513 0.010711737

hyper_b1.bias f4 [32]
00000000: 8491 38bc 08ca 33bc e418 663c f063 083c
00000010: 80b0 733c 2a95 dabc a8d6 9cbb 305f a23b
00000020: 100d 8bbb 42d6 b23c 34b7 2cbc 4cad 713c
00000030: f89c c03c 54ce 623c 64c7 edbc 32f4 dd3c
00000040: 78fa f8bc 4636 be3c a809 c53c 44f4 bc3c
00000050: a8ea 7b3c b4c8 903c 50f5 0c3b f8ee a9bc
00000060: d8bf b93b 2a19 863c 68e8 d83c c0bd 733b
00000070: 228f f23c 9eb9 833c 9ab4 90bc f000 213c
-0.011265162 -0.010973461 0.01404402 0.008324608 0.014873624 -0.026682455 -0.004786331 0.004955195
-0.0042435005 0.021830682 -0.010541726 0.01475079 0.023512349 0.013843138 -0.02902574 0.02709398
-0.03039287 0.023219239 0.024052456 0.023065694 0.015375771 0.017673828 0.0021508522 -0.020743832
0.0056686215 0.016369421 0.026478007 0.0037191957 0.029609267 0.01607972 -0.017664243 0.009826884

hyper_b2.0.weight f4 [32, 1024]
00000000: 9e4e ec3c d0fb 9cbb f02b 85bc b480 623c
00000010: 80c4 5cba 8418 26bc 9c07 72bc 00eb c03b
00000020: 8044 dbbc 9a4e b8bc 6e9f 963c 8ccd e63c
00000030: a084 f6bc 1011 4dbb aa6c f13c 503b 5ebb
00000040: c02c e23b 64d5 d0bc 2a66 b43c 2041 d23b
00000050: b002 edbc 00d2 973a 9495 ee3c 10a3 04bb
00000060: b04a 01bc 3474 a5bc c0f1 49bc 8006 0e3a
00000070: eca2 eb3c b0f5 34bc 8031 8d3c 34d4 8e3c
00000080: 58ce 7abc e055 943a 008f c53c c40d f63c
00000090: b885 f83c 20d7 463c caad f03c bc23 a43c
000000a0: 388a 7b3c 2ea2 abbc 9826 993b 000d f93b
000000b0: 4e53 9a3c 3037 5c3c 1473 733c 5ce4 9c3c
000000c0: e4c5 3dbc b09d 02bc 5899 b43b e015 b03a
000000d0: 78ab 57bc 0863 683c 9e88 ff3c d0a2 9b3c
000000e0: 40b4 5a3b 8254 9cbc 04bb a93c 68ab 143c
000000f0: b0d7 22bb 3081 9abb 801a 2b3a bad2 d4bc
00000100: ee8e b4bc 585a 883b 30cc 9dbb 2046 f1ba
00000110: d0fa 793c 44b2 573c 8a32 ebbc 304a 63bc
00000120: 7c96 50bc e829 c6bb 2ced e23c 2062 2c3c
00000130: c033 193b 4025 ae3c 2286 c83c d220 eabc
00000140: 30c2 973b 80e1 873a 80d3 efbc 607b 6a3c
00000150: 0cef e1bc 0031 3cb9 6040 d9bb 103a 76bb
00000160: ec19 71bc 403d 55bc 5ef9 80bc b088 acbb
00000170: 0c0b 973c 4011 d2bc d80b d0bc c2f8 963c
00000180: 705e a7bb 1265 a53c 1467 2fbc 1823 8f3b
00000190: bc4f 53bc 5488 5e3c 0040 c93b 300e c7bb
000001a0: 50c8 903c 726b bdbc da1b c5bc 5a3c d83c
000001b0: c08d c33c b079 babc 6893 b6bb 6014 d43c
000001c0: b0b4 b8bc 78cd d03b 8a00 c63c eeb9 bcbc
000001d0: 5a68 b23c 90b8 453c b015 f43c c890 b83b
000001e0: 44cf dd3c 4cfe 643c 4e9e 863c 48f8 e03c
000001f0: 64d6 f5bc b09f 9bbb 7a31 8a3c 0cec b13c
00000200: 7aee ac3c f8fa acbc 70eb 503b 60f8 36bc
00000210: ac89 f4bc 106b aabb d852 a8bc 0e07 e6bc
00000220: dc01 e6bc 32be bfbc 506b 923b 40ae 8e3b
00000230: 640c b2bc 68b4 07bc 74e3 59bc a890 66bc
00000240: 40df b9bc aa7f b6bc 6caa 1b3c facd ee3c
00000250: fedd dfbc 302e 89bb 3ecd d9bc 00f4 51bb
00000260: b463 babc 38f5 f4bb b883 043c aaae d13c
00000270: 70f4 553c c0f1 173a b283 ec3c e4f2 33bc
00000280: 1879 bdbb 1c69 d23c 92ee fa3c 00ab 4abb
00000290: b4bc 893c 5008 6e3c e87b b5bc c831 053c
000002a0: 42a9 d3bc 3cfe 303c a031 983c 7622 bfbc
000002b0: 4cc4 e83c 4eed f73c beb7 8ebc 3079 403b
000002c0: 801e f7ba c0db b83a 38a6 45bc 967a b13c
000002d0: 605f 73bb 3add b23c 68e1 823c fe09 b63c
000002e0: 207c df3b b295 f0bc d471 ba3c 2ac4 9c3c
000002f0: cc52 2cbc fac1 d83c d004 0bbc 0c4e a9bc
00000300: 700d 83bb 9017 5d3b 2e71 eabc e419 a93c
00000310: b4d7 533c 5c84 b93c 00ff c83a b0b9 243c
00000320: 3833 e8bc 40fe e9ba b4c6 b93c 70e1 923b
00000330: 4a11 8a3c a0bb 543c da61 c53c 6062 baba
00000340: 809b 2fba 5c39 253c 1a41 b23c bcda ccbc
00000350: 30ee 5d3b 2c1c 6e3c 7cc5 703c ece4 f9bc
00000360: e82f c2bb e437 82bc 7063 1e3b 2641 bd3c
00000370: 3816 4cbc da7f 88bc a87a 3cbc 40e4 9ebb
00000380: 40fb 823b 885f e6bc cc76 bdbc fc67 51bc
00000390: 6826 d83c f833 3bbc f82f cd3b 365d b53c
000003a0: d6ca b0bc d6d5 abbc 867d f73c bc61 efbc
000003b0: ac89 873c d891 88bc f4dc 00bc a0a9 d73c
000003c0: d0e2 1fbb e8c9 f5bc 740b a93c 2433 f0bc
000003d0: 08d0 e9bc f46a 3bbc 2c7d 09bc 6035 413b
000003e0: 9c81 ffbc f42f f93c a209 983c 2460 04bc
000003f0: 2c3d 4cbc 6c9d 8dbc c2a0 aabc 30c1 1ebb
0.028846081 -0.0047907606 -0.016256303 0.0138246305 -0.0008421615 -0.010137681 -0.014772322 0.005887389
-0.026766062 -0.022498418 0.018386569 0.028174184 -0.030092537 -0.0031290688 0.02947076 -0.0033909865
0.0069023073 -0.025492378 0.022021372 0.006416455 -0.028931946 0.0011582971 0.029124059 -0.0020238794
-0.007891342 -0.020197012 -0.012325704 0.00054178387 0.02876421 -0.011044905 0.017235518 0.01743517
-0.015307985 0.0011317097 0.02411604 0.03003586 0.0303372 0.012136251 0.029379744 0.02003657
0.015352778 -0.020951357 0.00467379 0.0076004267 0.01883855 0.013440892 0.01485898 0.019151859
-0.011582825 -0.007972166 0.005511444 0.0013434254 -0.01316344 0.014183767 0.031193074 0.018998533
0.0033371598 -0.019083265 0.020719059 0.00907407 -0.0024847798 -0.0047151074 0.0006527081 -0.025979389
-0.02204081 0.0041611604 -0.004815601 -0.001840774 0.015257552 0.01316506 -0.028710622 -0.013872668
-0.012731191 -0.006047476 0.027700983 0.010521442 0.0023376793 0.021257997 0.024478022 -0.028580103
0.0046313033 0.0010366887 -0.029275656 0.014311641 -0.027579807 -0.00017947331 -0.0066299886 -0.003757123
-0.014715653 -0.013015091 -0.015743908 -0.005265318 0.018437885 -0.025642991 -0.025396273 0.018429164
-0.0051076934 0.020189796 -0.010705728 0.004368197 -0.012897428 0.013582308 0.0061416626 -0.0060746893
0.017673641 -0.023122523 -0.024061132 0.026395965 0.023871303 -0.022763103 -0.0055717714 0.025888622
-0.022547096 0.00637215 0.024170179 -0.023037877 0.021778274 0.012067929 0.029795498 0.0056324936
0.027076371 0.013976645 0.016432907 0.02746214 -0.030009456 -0.004749261 0.016869295 0.021719001
0.021109808 -0.021115765 0.0031878613 -0.011167616 -0.029850803 -0.005200751 -0.020547315 -0.028079536
-0.028077058 -0.023406122 0.004468359 0.0043542683 -0.021734424 -0.008282758 -0.013298858 -0.014072575
-0.022689462 -0.022277672 0.009501081 0.029150952 -0.027327534 -0.004186414 -0.026587125 -0.0032036304
-0.02275262 -0.0074755214 0.008088045 0.025595982 0.013058767 0.00057962164 0.028871391 -0.010983203
-0.0057822578 0.025684886 0.030631337 -0.0030924678 0.016813613 0.014528349 -0.02215381 0.008129545
-0.025837544 0.010802802 0.01857835 -0.023331862 0.028413914 0.030264523 -0.0174216 0.0029369108
-0.0018853694 0.0014103577 -0.012063555 0.021664899 -0.0037135705 0.021834005 0.015976623 0.022221562
0.006820217 -0.029368255 0.022759356 0.019136507 -0.010517787 0.026459683 -0.008485034 -0.020667098
-0.0039994046 0.0033735968 -0.028618421 0.020642228 0.012929846 0.022646122 0.0015334785 0.010054037
-0.028344736 -0.0017852262 0.022677757 0.0044824407 0.016853947 0.012984186 0.02409451 -0.0014219992
-0.00066988915 0.010084476 0.021759558 -0.025006644 0.0033863895 0.014533084 0.014695521 -0.030504666
-0.005926121 -0.015895791 0.0024168156 0.023102354 -0.012456469 -0.016662527 -0.011503853 -0.004848987
0.0039972365 -0.028121725 -0.023127936 -0.012781139 0.026385501 -0.0114259645 0.006261822 0.022139173
-0.021581095 -0.020975988 0.030211221 -0.029221408 0.01654514 -0.016671106 -0.007865179 0.026326
-0.0024396665 -0.030003503 0.020635344 -0.02932126 -0.02854158 -0.011439074 -0.00839166 0.0029481277
-0.031189732 0.030418374 0.01855928 -0.008079562 -0.012465756 -0.017286979 -0.020828608 -0.0024224035

hyper_b2.0.bias f4 [32]
00000000: 2c42 503c aca3 7c3c fc91 813c f2a4 ca3c
00000010: b6c8 ccbc 3eb7 c63c c651 e83c 7007 70bc
00000020: d0ba 8cbb 12c8 eabc 0008 62b9 f805 10bc
00000030: cc3f c0bc fe73 8c3c d21c c03c d01e 343b
00000040: 40b5 1a3b 607a f5bb 2457 413c 10d6 04bc
00000050: b8bb f1bc d8e5 9d3c fa35 c7bc c063 4b3c
00000060: 8090 2eba 561d 993c 00a2 d739 a887 cc3c
00000070: 6cd4 f93c 3806 b0bc 6675 f2bc f82e a43b
0.012711089 0.015419882 0.015816681 0.024736855 -0.02499805 0.024257299 0.028359305 -0.014650211
-0.0042947307 -0.028659854 -0.0002155602 -0.008790486 -0.02346792 0.017145153 0.023451243 0.0027484186
0.0023606569 -0.007491395 0.011800561 -0.008107677 -0.029508457 0.019274637 -0.02431773 0.012413919
-0.00066591054 0.018690746 0.00041128695 0.02496703 0.030496798 -0.02148734 -0.029596996 0.005010482

hyper_b2.2.weight f4 [1, 32]
00000000: f8a1 0abe 9e17 bf3d 8763 82bd d8c6 fabc
00000010: 5268 883d d0b9 393d 50be 2b3c c715 00be
00000020: 6e20 c93d 1376 ecbd 9fd7 04be 8034 efbb
00000030: 320a 07be b4ff 813d b804 0cbd 7058 22bd
00000040: beab f93d c8d7 993c edad 1b3e 32e5 a83d
00000050: 451a cdbd 4d5d 1b3e b131 243e afa8 b0bd
00000060: 04a8 7d3d 50e1 183c 16e3 a1bd 2af4 0abe
00000070: 04b4 1abe 8e40 973d 305a 10bc cd6a 143e
-0.13538349 0.093306765 -0.063666396 -0.030612394 0.066605225 0.04534322 0.010482386 -0.12508307
0.098206386 -0.11545958 -0.12972878 -0.0072999597 -0.13187483 0.063475996 -0.034184188 -0.03963512
0.1219096 0.01877965 0.15203066 0.082468405 -0.10014776 0.1517231 0.16034581 -0.08625924
0.06192781 0.009331062 -0.07904641 -0.13569704 -0.15107733 0.0738536 -0.008810565 0.14493866
