models/v2/target_agent_net.pth (torch, 87192 bytes, 4 tensors)

fc1.weight f4 [64, 326]
00000000: 40dc 953c 937f 0bbe e9b3 bf3d bbee f93c
00000010: bf9c 6a3d 9b83 093c 8a85 b7bb 6b8a f1bb
00000020: e5ca 78bd 45d4 853b a4be ae3b 15f4 c63d
00000030: 0197 82bd 6a11 94bd 8e64 06bc 736d a63d
00000040: 77b3 1e3d 8846 01bd d614 9f3d 9a79 8ebd
00000050: e303 39bd 0dea b43d 3adf 3f3d 9968 213d
00000060: 7ddd 4bbd cb3b 73bc f802 013d 7449 1f39
00000070: 727f 93bc c7fa 15bd c24e 053d 4a16 2b3d
00000080: 5273 5c3d f2b4 abbc afc8 cb3d 2d31 203d
00000090: dae5 0d3c f5e8 36bd 238a 9c3d 530f 573d
000000a0: 979c 8dbd dc9d 2b3d 1b07 8dbc a9db 613d
000000b0: d3aa efbd b43d 803d 5116 b23d 798f d03d
000000c0: f5af b73b 77b0 0dbd 5b86 dc3c 260f 83bd
000000d0: 18c2 463c 71fc 9bbc b59d 653d 3774 ae3b
000000e0: b613 feb9 e109 71bd 2101 3a3b caea 953d
000000f0: 7ce6 b23d 8715 d7bc d12b c7bc 5196 8a3d
00000100: 6839 9cbd a15d 9d3c 90c4 2f3d fdf7 143d
00000110: ed05 da3c e0b1 ca3d 0dde 23bd 6562 c4bb
00000120: 9a04 f93d 7a11 05bd 66e8 7c3d 8ee8 a6bc
00000130: 734e acbb da31 15bd 62f2 353d 0fb1 b3bd
00000140: fb08 1cbd f647 a93b a960 483d da31 0cbe
00000150: 2e16 803d 490e b03c 5a94 9ebc e456 b2bc
00000160: bc00 933b da0c 5e3d 8559 1bbd 1a2a 7c3d
00000170: aeae 7c3d 9cb0 19bd c496 723c c705 d1bc
00000180: 0d20 923c 6e36 5b3d c24b 143d 645d 55bd
00000190: 5268 5cb9 ee83 66bd 3f92 95bc 1570 bdbd
000001a0: b183 f5bc dc6d 0e3d cfd0 8b3c b74b c2bc
000001b0: baae 263d caaa 643d 9031 013d 7218 a5bd
000001c0: 49be 413d 1e6d 9f3d b20d f53c 9be3 f2bc
000001d0: e3e3 ae3d 5b09 7cbd 357d 80bd 935b ecbd
000001e0: b041 27bd 050d 84bc fe2c 1a3e 2cdd 10bc
000001f0: 2475 c6bd 7c5e 743d 906a cc3b 4bdc 013c
00000200: 46e5 42bd 80d2 5d3d 40a1 f13d 2afc 343c
00000210: 9521 283d 9b43 7f3d 8d01 863d b0d9 993d
00000220: 9cc7 d73c e959 623d a3de 9ebd 4b9b f7bc
00000230: 27f9 a83c 929f 8d3d 171d 9b3c 1022 ce3d
00000240: 735e 143d caa4 063d cd79 2b3d f82a 69bd
00000250: dea3 203d a2f0 57bc 775c 023d 64bf 82bc
00000260: fb46 9bbc ad53 e9bc 78d6 6a3c 312d 763d
00000270: 8768 963d cd1a fcbd f740 8b3a 6812 103d
00000280: e39a 95bc e77a ab3b 157e 63bb 9055 dabc
00000290: 1f46 573d db61 b73c 7845 523d d2e0 52bb
000002a0: 14e8 083d aa05 3cbd 80c0 20be 41c4 18ba
000002b0: d10e 523b aad3 33bc 5f6e f7bb b7e6 15be
000002c0: 7457 9b3d 5c2b 9d3b 1d46 d1bc 89b2 1bba
000002d0: 9a75 0e3c a644 b3bc 6561 c53c 4320 31bd
000002e0: cb6b 433b d3d1 89bd 9313 c0bd f43b 9a3d
000002f0: d2fa 613c 2ca0 063d e879 aa3b e0d2 02be
00000300: e0da 7dbd 89da a4bd 6730 353d 9894 9c3d
00000310: 3b59 12bd 5ef9 0a3d 7578 8c3d 1551 18bd
00000320: 3b98 f63d e2ca c8bc 3afb 463d 2417 ca3c
00000330: a5e8 0f3d 08bb 2dbd e317 f3bd 6c1e 9d3b
00000340: 8b33 f7bb dcc5 983d f21f f3bb 6a08 edbc
00000350: 215b b0bc 61ff 2ebd 50ad 33ba 087f ab3d
00000360: 6191 293d 4721 44bc a274 8d3c 1a4c 4e3d
00000370: c3cd 063c 9d9a 7bbc 0db1 e8bc 96c6 503d
00000380: 2e8c 9b3b 83c4 9ebd e127 32bd 755c dfbd
00000390: db17 a43d bd83 9c3c 7f09 93bc 229b b6bc
000003a0: 020a 29bd f3b8 3cbd 219b 9bbd af39 123c
000003b0: 82aa 0b3d 55ba eb3c 0fa2 373d 3450 9fbd
000003c0: df20 133d 52dc 4d3d d2dd 163d 6af5 633b
000003d0: 2288 893c 8fe9 483d cddc 083d a7d6 31bd
000003e0: 5f36 2dbd 2600 bbbc d9d3 0b3d aa86 09be
000003f0: f3f2 393d 4146 3fbd 514d b3bd 3610 60bd
0.0182935 -0.13622884 0.09360487 0.030509343 0.05727839 0.008393194 -0.005600636 -0.007371237
-0.06074037 0.0040841424 0.0053327847 0.09714524 -0.06376458 -0.07229884 -0.008202685 0.081263445
0.03874537 -0.031561404 0.07767646 -0.069567874 -0.045169722 0.08833704 0.046843745 0.039406393
-0.049771775 -0.014845799 0.03149697 0.00015190785 -0.018005107 -0.036616113 0.032545812 0.041769303
0.053820916 -0.020960305 0.09950387 0.039109398 0.008660758 -0.04465576 0.07643535 0.05250485
-0.06914633 0.041898593 -0.017215302 0.055141125 -0.11702504 0.06261769 0.08695663 0.10183615
0.0056056925 -0.034592118 0.026919534 -0.06399374 0.0121312365 -0.019041272 0.056058604 0.0053239125
-0.0004846134 -0.058847312 0.002838202 0.07320173 0.08735368 -0.026255382 -0.024312885 0.06766952
-0.07628137 0.019209685 0.042912066 0.036369313 0.026614154 0.09897208 -0.040006686 -0.005993175
0.12159081 -0.03248737 0.06174507 -0.020374563 -0.0052583753 -0.036424495 0.044420607 -0.087740056
-0.038094502 0.005166049 0.048920307 -0.13690892 0.062542304 0.021491187 -0.019357849 -0.021769948
0.0044861715 0.054211475 -0.03792717 0.06156359 0.061690025 -0.037521943 0.014806453 -0.02551545
0.017837549 0.053518705 0.03620506 -0.052091017 -0.00021019697 -0.05627816 -0.018258212 -0.092498936
-0.029970022 0.03477274 0.017067341 -0.023717744 0.040693976 0.05582694 0.031541407 -0.08061303
0.04730061 0.07784484 0.029913757 -0.029649546 0.0853956 -0.06153236 -0.06273881 -0.11540904
-0.04083413 -0.01611949 0.15056226 -0.008841794 -0.096903116 0.05966042 0.006238289 0.007926057
-0.047581933 0.054155827 0.11798334 0.011046449 0.04104765 0.062320333 0.065432645 0.07512224
0.026340298 0.055261526 -0.07757308 -0.030225417 0.020626618 0.06915201 0.01893477 0.10065091
0.036222886 0.032872 0.041864205 -0.056925744 0.039218776 -0.01317993 0.031826463 -0.015960403
-0.018954745 -0.028482283 0.01433336 0.06010169 0.07344156 -0.12309799 0.001062422 0.035173804
-0.018262332 0.005233157 -0.0034712602 -0.026652128 0.052557107 0.022385528 0.05133578 -0.003217746
0.033424452 -0.04590384 -0.15698433 -0.0005827584 0.0032052288 -0.010975758 -0.007550999 -0.14638792
0.0758504 0.0047964286 -0.025546128 -0.00059393846 0.008695031 -0.02188332 0.024094293 -0.043243658
0.0029818888 -0.06729474 -0.093787335 0.075309664 0.01379271 0.032867596 0.0052025206 -0.12775755
-0.061976314 -0.08049495 0.044235613 0.076455295 -0.035729628 0.03392922 0.06858913 -0.0371867
0.120407544 -0.024510805 0.048579432 0.024669237 0.035133976 -0.042414695 -0.118697904 0.0047948863
-0.007543986 0.07459614 -0.0074195797 -0.028934676 -0.021527829 -0.042724017 -0.00068541337 0.08373839
0.04139841 -0.011970825 0.017267529 0.050365545 0.008227768 -0.015356687 -0.028404737 0.050970636
0.0047469353 -0.077523254 -0.043495063 -0.10906307 0.080123626 0.019105786 -0.017948864 -0.02229077
-0.04126931 -0.04607482 -0.07597948 0.008924886 0.034098156 0.028775373 0.044832285 -0.077789694
0.03592002 0.050258942 0.036832638 0.003478373 0.016788546 0.049050864 0.033413697 -0.0434176
-0.04228818 -0.02282722 0.03413758 -0.13430277 0.04539771 -0.04669786 -0.08754981 -0.05470296

fc1.bias f4 [64]
00000000: 0000 0000 0000 0000 0000 0000 0000 0000
00000010: 0000 0000 0000 0000 0000 0000 0000 0000
00000020: 0000 0000 0000 0000 0000 0000 0000 0000
00000030: 0000 0000 0000 0000 0000 0000 0000 0000
00000040: 0000 0000 0000 0000 0000 0000 0000 0000
00000050: 0000 0000 0000 0000 0000 0000 0000 0000
00000060: 0000 0000 0000 0000 0000 0000 0000 0000
00000070: 0000 0000 0000 0000 0000 0000 0000 0000
00000080: 0000 0000 0000 0000 0000 0000 0000 0000
00000090: 0000 0000 0000 0000 0000 0000 0000 0000
000000a0: 0000 0000 0000 0000 0000 0000 0000 0000
000000b0: 0000 0000 0000 0000 0000 0000 0000 0000
000000c0: 0000 0000 0000 0000 0000 0000 0000 0000
000000d0: 0000 0000 0000 0000 0000 0000 0000 0000
000000e0: 0000 0000 0000 0000 0000 0000 0000 0000
000000f0: 0000 0000 0000 0000 0000 0000 0000 0000
0.0 0.0 0.0 0.0 0.0 0.0 0.0 0.0
0.0 0.0 0.0 0.0 0.0 0.0 0.0 0.0
0.0 0.0 0.0 0.0 0.0 0.0 0.0 0.0
0.0 0.0 0.0 0.0 0.0 0.0 0.0 0.0
0.0 0.0 0.0 0.0 0.0 0.0 0.0 0.0
0.0 0.0 0.0 0.0 0.0 0.0 0.0 0.0
0.0 0.0 0.0 0.0 0.0 0.0 0.0 0.0
0.0 0.0 0.0 0.0 0.0 0.0 0.0 0.0

fc2.weight f4 [5, 64]
00000000: 60ac 6a3e a3e8 20be ebe2 0f3e b1ff 333d
00000010: 26a1 4f3e 278f 36bc 34df d1bc 49ce fa3d
00000020: 5d8b 063a b732 ed3d d4fc fd3d 440f 3dbd
00000030: b0ec 63be b3a0 223c 2718 56bd 25cc 993d
00000040: 8425 173e e59e 9b3c 9b57 643e fd1b 713d
00000050: 0cd2 2d3e c5c7 2abd 8caa 6bbb 217a 95be
00000060: 61b9 50be 5faa 97bc 9961 bdbc d9b1 7bbe
00000070: 9fce f7bb 82b7 063e 704f 4f3e a61e 843e
00000080: 3ff7 763d 47ff b53d 2dbe a2bc 9006 a7bd
00000090: 47dd c9bd b514 bb3b b1f4 abbc e32e ccbd
000000a0: a338 a0bd 88e9 09bd dffd cdbd 7d57 0bbd
000000b0: d769 013c 6952 08be f12d fbbd 2ee2 0e3d
000000c0: dfb0 463e 00b9 c43d c4bc b5bc d8ca b1bd
000000d0: 0adc b53d eb98 dbbd c5fe 433d a85d a6bd
000000e0: 1ce4 ef3c 958b db3b 48aa fabd 036a 24be
000000f0: b4ab a13e ffb1 0dbe 49c7 09bd 3148 85bc
00000100: 7938 8bbe 15e5 abbd 982c afbc c3cd 9cbd
00000110: 6f82 cdbd 62d3 043e 37ae 4fbc 1854 0cbe
00000120: 222f 84bd 5642 0dbe 3e6d 57bd 1734 1e3d
00000130: ded9 35bd 854e 2b3d da3d 973d 0919 69bd
00000140: 5096 ef3c afe6 99bc 48ff 583d fe1c 133d
00000150: 5f0a 3b3e d462 85bc 6ec9 19bd 51d1 a4bc
00000160: aed5 d3bc a809 21bc f9f1 fc3d 52b9 a73c
00000170: b726 58be 6948 7e3b f373 0d3e c0d9 20bd
00000180: db06 b2bd 2779 9b3e da8a 6d3c 970d 9f3d
00000190: abed b83c 8bc3 2c3d ff53 8fba f737 063e
000001a0: 18e8 14bd 615e e2bd 1b90 34bd 64f8 4b3e
000001b0: 5809 89be 7080 403d e055 703d 1bf1 2bbe
000001c0: 6aa9 5a3e c9de 3d3e 76cd 933e 94ad 143e
000001d0: 54ba 803e 17ee 70bc aafb a83d cb6a fb3d
000001e0: d7ef e5bd 1a02 bf3c d017 babd 578b 073d
000001f0: ea0f 39bd 9d2e 13be 2c7c 8c3e 4a48 2cbe
00000200: e665 ffbd 1c26 2d3e a0b5 6fbc 4bf0 9e3b
00000210: b24e 61bd 1808 24bd 4656 303c 8267 9dbd
00000220: 9ba0 bf3d 3b50 5c3e 4487 a5bd 75da dabd
00000230: 7edc 8bbd 6fbf 733d 1ad3 d33d 01f7 49be
00000240: 01e1 00be 784c bdbd 2b65 58be 300c 31be
00000250: 5425 06be 3fd6 d2bc bfcf 093e 4a4a 283c
00000260: fc06 dcbd 7397 fdbd 22ff bfbe 1e59 dabc
00000270: 4e2c 9abe 3be3 a63d 82fe cebd c544 71bd
00000280: 6d6a 893d 18cd c3bd 87f6 103d 094b 9f3c
00000290: c7f4 753c a0ee 90bd c5fa 8f3e c187 cdbb
000002a0: c7b1 143e 9136 29be 1c26 c1bd 3a9f 193d
000002b0: 8eca d23d 7fb0 b7bd b2c4 c8bd 6de7 923d
000002c0: f0ce 1b3e b587 2d3c 5e66 5fba 2ee0 b6bd
000002d0: a75e 943d de99 3dbe 4ff5 babd 9f9b 8dbc
000002e0: a885 65be f407 c43d 1605 6dbe 1533 42bd
000002f0: 264d d23d d15e 46bd 61bc 81bc e751 b8bc
00000300: 0ab0 4f3c 777a 273d f224 193d 212a 883e
00000310: ceda 52bd 4a52 033a 8181 d2bd cecd c5bd
00000320: 57e2 973e a487 23be 75c3 6f3c 1c66 133e
00000330: 5d35 96bd 67a9 d93d b4e8 5cbe 0d48 e23b
00000340: d012 043d 9a9e e5bc 1f7e 903d 59d7 403e
00000350: 3d3c 4c3c bc98 03bd 35fe 61be f6c6 163d
00000360: 0d34 8bbd d480 d13d afe9 0cbe 6976 05bd
00000370: 6874 babe 2930 033d e29d 9b3d 07f9 e93c
00000380: 5a0d 813c 9d78 3e3d a34b 18bd ffc8 7abe
00000390: 0c45 babc 263c 123e f607 bf3c b7b4 da3d
000003a0: 7132 573e b00f 0dbe 2b2b 00be 2bc0 91bd
000003b0: 0a1d 2ebd 0d50 803e 025b e5bd da67 2e3c
000003c0: f266 babd b8c8 c13d 62d5 96bd 2422 e9bc
000003d0: 36b1 80be 13aa c53d 3c8a 21bd 31ad e9bd
000003e0: 468f c93d 086f db3c a8ae 0f3d ffc7 5f3e
000003f0: b1fc e1bb a88c 573d cda3 933d bda6 103d
0.22917318 -0.15713744 0.14051406 0.04394502 0.20276317 -0.011142529 -0.025619127 0.12246377
0.0005132461 0.11581939 0.12401739 -0.046157137 -0.22258258 0.009926009 -0.052269127 0.075096406
0.14760405 0.018996665 0.22299044 0.058864582 0.16974658 -0.04169442 -0.0035959808 -0.2919474
-0.20383216 -0.018513856 -0.023117827 -0.24579562 -0.007562473 0.1315594 0.20245147 0.25804633
0.060294386 0.08886581 -0.019866074 -0.081555486 -0.098566584 0.0057092556 -0.020990701 -0.099698804
-0.078233026 -0.03366998 -0.10058188 -0.034018982 0.007898769 -0.13312687 -0.12264622 0.03488367
0.19403408 0.096055984 -0.022184737 -0.086812675 0.0887986 -0.10722526 0.04785039 -0.08123332
0.029283576 0.006699989 -0.1223951 -0.16056065 0.31576312 -0.13837431 -0.03363732 -0.016269775
-0.27191523 -0.08393303 -0.021383569 -0.076564334 -0.10034644 0.12971261 -0.012675813 -0.13703954
-0.06454302 -0.13794836 -0.052594416 0.038623895 -0.044397227 0.04182293 0.07384844 -0.05690864
0.02924648 -0.018786756 0.05297783 0.03591632 0.18265675 -0.016282476 -0.037545614 -0.020119341
-0.025858726 -0.009828962 0.1235084 0.02047411 -0.21108519 0.0038800484 0.13813762 -0.039270163
-0.08692714 0.3036587 0.014498437 0.07766264 0.022574266 0.04217867 -0.0010935067 0.13107286
-0.036354154 -0.110531576 -0.044082742 0.19918972 -0.2676494 0.046997488 0.058675647 -0.16791193
0.21353689 0.18542017 0.28867692 0.1451934 0.25142157 -0.014705203 0.08251126 0.122762285
-0.112273864 0.023316432 -0.09086573 0.03309187 -0.045181192 -0.1437325 0.27438486 -0.16824451
-0.124706075 0.16909069 -0.014630705 0.0048504225 -0.05500669 -0.04004678 0.010762757 -0.07685758
0.09356805 0.2151498 -0.080824405 -0.106861986 -0.06829165 0.059508737 0.10342999 -0.19723131
-0.12585832 -0.09243101 -0.21132343 -0.17289805 -0.13100177 -0.025736926 0.13458155 0.010271618
-0.1074352 -0.12382402 -0.37499338 -0.026653823 -0.30111927 0.081488095 -0.10107137 -0.058903474
0.06709752 -0.09560603 0.035391357 0.01944496 0.015011973 -0.07076764 0.2812101 -0.0062722866
0.14520942 -0.16524722 -0.09431097 0.037505366 0.102925405 -0.08969211 -0.09803142 0.07173047
0.15215659 0.010591437 -0.0008522029 -0.08929478 0.07244616 -0.18515727 -0.0912882 -0.01728612
-0.22414267 0.095718294 -0.23146471 -0.047411997 0.10268621 -0.048430268 -0.015836896 -0.022499992
0.012676248 0.040888276 0.03738875 0.26594642 -0.0514782 0.00050095154 -0.10278607 -0.09658395
0.2966487 -0.15969712 0.014634003 0.1439442 -0.07334397 0.10628014 -0.21573144 0.006905562
0.032244503 -0.028029729 0.07055306 0.18832149 0.012465534 -0.03212808 -0.22069629 0.036810838
-0.06797037 0.1022965 -0.13761018 -0.032583628 -0.36416936 0.03202835 0.07598473 0.028561128
0.015753437 0.046501745 -0.037181508 -0.24490736 -0.022738002 0.14280757 0.023319226 0.10679
0.21015336 -0.13775516 -0.12516467 -0.07116731 -0.042508163 0.25061074 -0.11198999 0.010644877
-0.091016665 0.09462112 -0.07364918 -0.028458662 -0.251352 0.0965158 -0.03943847 -0.11409987
0.0984178 0.026786342 0.035078675 0.21853636 -0.0068965782 0.052624375 0.07208977 0.035315264

fc2.bias f4 [5]
00000000: 0000 0000 0000 0000 0000 0000 0000 0000
00000010: 0000 0000
0.0 0.0 0.0 0.0 0.0
