models/v2/target_qmix_net.pth (torch, 832955 bytes, 13 tensors)

hyper_w1.0.weight f4 [64, 1024]
00000000: 008e d338 1863 9ebc 8047 1d3c 28b8 953b
00000010: bea8 923c cedb b73c 4c29 6f3c e8b8 e2bc
00000020: 80a9 16bb 3ae9 bdbc 38c7 30bc 685a d83b
00000030: aa68 edbc 206b dbbb b4cd c93c 8079 303b
00000040: a84a 993b b81b b13c c650 babc b8e8 82bc
00000050: 121c d93c 947b 3d3c 542f 52bc a26b a23c
00000060: 7896 993b a87b 113c f646 bebc 249f d83c
00000070: cefd c93c a6d0 b7bc c0a8 d8bb a8e9 2f3c
00000080: 26e5 8cbc 082e 8c3c 8815 603c f847 49bc
00000090: 6655 d13c 4c24 c83c 3a27 c2bc 9a5e e63c
000000a0: 44dc 193c 1257 9a3c fc82 52bc f028 1fbc
000000b0: 5e2f e8bc 1a71 dd3c 0857 d4bb c093 ec3c
000000c0: c054 d7bb aaed efbc 3cdc 68bc 5003 8a3b
000000d0: 32fa 8f3c 949f 573c 44f5 d8bc b658 f23c
000000e0: 606a b83a 7492 0a3c 8086 b939 c093 5fba
000000f0: bcdf 943c 4a7c 8d3c 6c79 b8bc f4d3 663c
00000100: 0c27 fa3c 26a3 8dbc a09b a23a 7472 3cbc
00000110: a08d d73c 34bf 36bc 2093 e0bb 5a8b 92bc
00000120: 60fd faba ae94 c9bc 24d3 d13c e822 46bc
00000130: f0d8 73bb d0e4 12bb e0b9 943a 7e5d c03c
00000140: 3602 c9bc 50c5 103b e872 423c 6001 b2ba
00000150: 40d5 eaba 681b cd3b d0c3 78bb 9046 fb3b
00000160: a002 d53c 484d abbb 2e3f 84bc fc3c 1a3c
00000170: b012 5f3c 12c0 ed3c b0ea 1a3c c03c 9ebb
00000180: e476 42bc 20db dbbb 6c48 7fbc 1c4a b9bc
00000190: 4056 1fbb 807f 33bc 7497 d9bc 1058 b5bb
000001a0: d843 a4bc 9847 bcbb 96d5 c53c 7e28 943c
000001b0: 8043 0cbc 0477 403c 7200 e23c 80f2 163b
000001c0: 946c 40bc ace9 4a3c 78fa 5dbc 2026 f83a
000001d0: 90ab 6d3b 60cd 40bc 38b3 4dbc 90ee 7cbc
000001e0: 0089 8c3c ac32 e83c 38bd 66bc ecdd 3e3c
000001f0: 0c20 573c b23a 873c 2ec1 97bc 48d2 d03c
00000200: 5c34 3abc e0d9 d73a a45d 1ebc 0cb1 dbbc
00000210: 10b7 2d3b 9483 25bc fe69 d1bc bade a3bc
00000220: 2643 863c 54b2 6dbc 202d d83c e096 99ba
00000230: 20e3 95bb 10a9 5ebc 9eb7 f23c 1c4b c6bc
00000240: 54f9 55bc 2868 3f3c 00e5 a23a 4488 f0bc
00000250: bafd b2bc d870 163c d0bd 04bc b6e8 9bbc
00000260: 0827 28bc 9204 963c 8c96 963c d052 3e3b
00000270: 06cb e6bc 7c52 3ebc 3491 333c 9c9c f5bc
00000280: d292 ffbc 74bb b7bc 1af8 fe3c 9c96 c0bc
00000290: be59 c7bc 70e7 8b3b 7224 a0bc 9a61 e5bc
000002a0: 00a7 4439 d0ed 09bc 3c39 73bc 867f bc3c
000002b0: e036 e63b 0e65 d0bc c0fb fc3a 7413 313c
000002c0: d47f 2d3c d893 8e3c 2651 9e3c c0c8 be3c
000002d0: 78b8 b43b 669b b3bc 8ecf a8bc 98aa a73c
000002e0: b0f1 563c 52f6 dcbc e49d 3dbc 8e45 cc3c
000002f0: fe54 8abc b8d6 ed3b 3891 b5bb 686c cb3b
00000300: d0a9 d23c 10b3 eabc c0b2 513c 123e ddbc
00000310: 38cf 9cbc e859 9e3c ac16 9abc 107e 443c
00000320: b26e 83bc 0caf 2cbc 589a d1bb 56b2 d43c
00000330: d476 65bc 603e c93b 32a1 c9bc 3cb0 c83c
00000340: 9657 fe3c 3649 ff3c 5ea7 f0bc 70ac bf3b
00000350: fcc4 803c 4255 a73c 8080 233c a020 87bb
00000360: a034 5b3b 7cdf b8bc 3419 e13c 78b3 333c
00000370: c04c b5bb a0e8 a33a 30fc 673c 801a f73b
00000380: 50cb b03b 20f5 913a 3c90 6abc 68d4 a73c
00000390: 884c e53b fa4e 97bc 0049 013c d4e9 9bbc
000003a0: 5cd8 60bc 88c9 df3c 80d2 aebb 8c9c ad3c
000003b0: 48cc f83c 22d4 89bc 94f1 25bc 2c10 2b3c
000003c0: 586a f83c c4eb 6d3c 009c 2738 38c2 59bc
000003d0: 1c90 e13c 5066 fcbb d6e3 e9bc 3864 a7bc
000003e0: a8df ddbb d84f 7b3c 10d4 533c b488 1e3c
000003f0: 6872 213c d6fd 943c 0030 1137 b448 d23c
0.000100877136 -0.019334361 0.009599566 0.0045690723 0.017902728 0.022443678 0.014597248 -0.02767606
-0.0022989213 -0.0231825 -0.010789685 0.006602574 -0.028980572 -0.00669612 0.02463422 0.0026927888
0.004678089 0.021619663 -0.022743594 -0.01598011 0.026502643 0.011565108 -0.012828667 0.019826714
0.0046871267 0.00887958 -0.023227196 0.026443072 0.024657156 -0.022438359 -0.0066119134 0.01073686
-0.01719911 0.017111793 0.013677008 -0.012285225 0.025553416 0.02443137 -0.023700345 0.028121281
0.009390894 0.018840346 -0.012848612 -0.00971435 -0.028342899 0.02703147 -0.0064801015 0.028879046
-0.0065713823 -0.029288132 -0.014212664 0.0042118207 0.017575357 0.013160605 -0.02648414 0.029583316
0.0014069788 0.008457769 0.0003538616 -0.00085287914 0.018173091 0.01727118 -0.022518836 0.0140886195
0.030536197 -0.01728971 0.0012405999 -0.011501897 0.02631265 -0.011153985 -0.006853476 -0.017888714
-0.0019148998 -0.024607029 0.025613375 -0.012093283 -0.0037208162 -0.0022414215 0.0011346899 0.02348208
-0.024537187 0.0022090264 0.011868216 -0.0013580732 -0.0017916337 0.0062593706 -0.003795851 0.007668324
0.026002228 -0.0052277185 -0.016143408 0.009413954 0.013615295 0.02902225 0.009455368 -0.0048290193
-0.011869166 -0.0067094713 -0.015581232 -0.022618346 -0.0024312884 -0.010955691 -0.026561476 -0.0055341795
-0.020051882 -0.0057458393 0.024149697 0.018085714 -0.008561015 0.011747126 0.027588103 0.0023032725
-0.011744637 0.012384813 -0.013548486 0.001893226 0.003626559 -0.011767715 -0.012554936 -0.015437737
0.01715517 0.028344475 -0.014083199 0.01164959 0.013130199 0.01650748 -0.018524732 0.025490895
-0.0113650225 0.001646813 -0.00966588 -0.026817821 0.0026506819 -0.010102171 -0.025563236 -0.020003665
0.01638944 -0.014507849 0.026388705 -0.0011717938 -0.0045741946 -0.013590112 0.029628571 -0.024205737
-0.013059933 0.011682548 0.0012427866 -0.029361852 -0.021849502 0.0091821775 -0.008101895 -0.019031864
-0.010263212 0.018312726 0.018382333 0.002904106 -0.028172981 -0.0116163455 0.010959912 -0.029981904
-0.031197939 -0.022428252 0.031124163 -0.023509316 -0.024334785 0.004269533 -0.019548628 -0.028000642
0.00018754229 -0.008418515 -0.014845189 0.023010027 0.0070255846 -0.025438812 0.0019301102 0.010807861
0.010589559 0.017404482 0.019325804 0.023289084 0.0055151545 -0.021924686 -0.020606782 0.020467088
0.013119146 -0.026972923 -0.011573289 0.02493551 -0.01688623 0.0072582625 -0.005540993 0.0062079914
0.025715739 -0.028649837 0.012798965 -0.027007136 -0.019141778 0.01932998 -0.018809639 0.011992946
-0.016043995 -0.010539781 -0.006396573 0.025963943 -0.014005382 0.006141469 -0.024612997 0.024498098
0.031047624 0.03116284 -0.029376682 0.0058494136 0.01571893 0.020426396 0.009979367 -0.0041237622
0.0033448115 -0.022567503 0.027477838 0.010968082 -0.005532831 0.0012505241 0.014159247 0.007541001
0.0053953305 0.0011135675 -0.014316615 0.020487025 0.0069976486 -0.018470276 0.00789094 -0.019032396
-0.013723459 0.027317777 -0.005335152 0.021192811 0.030370846 -0.016824786 -0.0101283975 0.010440867
0.030324146 0.014521543 3.996119e-05 -0.013290934 0.027534537 -0.0077026263 -0.028551023 -0.02043353
-0.0067710467 0.01533886 0.012928978 0.009676147 0.009853937 0.018187445 8.653849e-06 0.025669433

hyper_w1.0.bias f4 [64]
00000000: 585b 41bc f0fe b93b 8066 75bc 344c 713c
00000010: 94e8 66bc 56dc f33c 3073 c03b 86e8 cb3c
00000020: f0ac fabb 8eef f43c ec67 55bc 8653 a9bc
00000030: 20e0 e2bb a041 67bb c40c a6bc f816 a7bc
00000040: ce4d ba3c e028 ceba 70b0 12bb 0457 153c
00000050: f806 873c 42c2 f7bc 7875 bf3c 70ae d2bc
00000060: c8c8 96bc c22a 973c d89a 9dbc c85a 403c
00000070: 2204 8b3c 3c4b 943c 6021 3f3b 083f 81bb
00000080: 5cd7 05bc 00f6 8938 5859 a83c 8cce 8cbc
00000090: 0c90 bbbc c060 703b 7e26 eebc 0097 e93a
000000a0: 9c07 2a3c 7664 d7bc 00d3 7cb9 a6f8 d93c
000000b0: c87c a7bb 2cce 3bbc 2011 833b f65b e73c
000000c0: f01e a53c e4df b33c 0c04 dabc 98da ed3c
000000d0: b06d 06bb a0ed a5ba aa99 ed3c 707a 79bc
000000e0: f4e2 963c 5086 a43c 90bb 433c 4870 e6bb
000000f0: 8cc6 12bc cc8a b2bc f626 c2bc 00bd 6dba
-0.011801563 0.005676143 -0.014978051 0.014727641 -0.014093537 0.02976815 0.0058731064 0.02489115
-0.0076500103 0.029899385 -0.013025265 -0.02066971 -0.0069236904 -0.0035286918 -0.020269759 -0.020396695
0.022742178 -0.0015728734 -0.0022382997 0.009114984 0.016482815 -0.030243997 0.023371443 -0.025717944
-0.018406287 0.018453006 -0.019238874 0.011740394 0.016969744 0.01810228 0.002916418 -0.0039442815
-0.008169021 6.57849e-05 0.020550415 -0.017188333 -0.022895835 0.0036678761 -0.029071089 0.0017821491
0.010377791 -0.02629302 -0.00024111196 0.026607823 -0.0051113106 -0.011462729 0.003999844 0.028242093
0.020156354 0.021957345 -0.026613258 0.029034898 -0.0020512156 -0.0012659319 0.029003937 -0.015226945
0.018418767 0.020083576 0.011946574 -0.007032428 -0.00895847 -0.0217947 -0.023700219 -0.0009068996

hyper_w1.2.weight f4 [128, 64]
00000000: 984b aebc c818 83bd cad8 d1bd bcf7 9ebd
00000010: e453 37bd 580a 363d ee67 e5bd 1690 9bbd
00000020: d8d4 3f3d f88f f83c 547a 333d c4cb 643d
00000030: e8b7 12bd 4a20 d13d 84c3 223d 301d 693d
00000040: 5832 b0bc f0c4 8c3c 5689 a7bd c0bb aabb
00000050: ba06 ec3d d690 f0bd b666 adbd 809f 0a3d
00000060: 00e0 9d3c 4064 d3bd 0058 e2bd 00f2 613d
00000070: 8c14 723d 805e f13b c25c d53d 9882 96bc
00000080: a849 4cbd e041 5f3c c02d d33c 30e2 403d
00000090: c641 fcbd bccc 4fbd 8c65 5ebd 4c88 6f3d
000000a0: 3e88 a83d 084b a43c 08e3 e8bd 5ef6 93bd
000000b0: 4cef 423d 8454 bf3d 98dc fa3c 00ec 1739
000000c0: 000e f93b ce33 913d ee03 a63d c0d0 9ebd
000000d0: f6e9 8f3d e09d 72bd 0c72 30bd 1e62 aa3d
000000e0: 7c61 ba3d b664 823d 14e5 c13d 262e f5bd
000000f0: f260 c8bd 4eb5 a63d 30a1 6f3d 905b 1bbc
00000100: fae9 89bd 8052 71bd 6cc0 ddbd 80bb 6c3d
00000110: 5ae0 863d f480 8cbd 64a4 fbbd fa39 b13d
00000120: 3cd5 15bd aa76 ffbd 04cf 3b3d fa0b cd3d
00000130: 1007 b73d d00f 68bd 0055 913c 9c98 e23d
00000140: 3881 b2bd 3214 c23d 2051 253d b823 fa3d
00000150: 0c99 d3bd 3023 9e3d f061 153c ec6a 2f3d
00000160: d051 ab3c 8ed9 893d 6c71 8f3d e079 853d
00000170: 52d5 9b3d 0069 153a d49f 8fbd 6e26 ca3d
00000180: 20a2 893c d4bf 23bd d03f 263d ea56 e33d
00000190: 909b 943d d057 06bd 501b 2abc 68c4 f83d
000001a0: e418 de3d 7021 96bd c4a7 fb3d ce51 ae3d
000001b0: fcc7 38bd e0c0 a2bc 5e83 d13d 6cde 2d3d
000001c0: 2efe f13d c081 e2bc b034 903d 4624 bb3d
000001d0: 6ad7 bbbd d0ba 4abc 88b5 a13d 444a c43d
000001e0: 3e5f b7bd 24c2 3d3d 4473 3e3d 589c 58bd
000001f0: 9645 c0bd acd9 f8bd 7a83 cc3d 40b2 52bc
00000200: 0a2a c4bd b0c2 113d a80d d5bd 746d d43d
00000210: 148d 903d 5ee6 973d f0de 953d 0c46 bf3d
00000220: 5c60 bf3d 1012 9fbd c0c5 d7bd f0fd ff3c
00000230: fc40 47bd 9a54 ccbd 9ce0 f33d 3c50 80bd
00000240: 003e 8d3b c84f 483d b8ab e53d 46cb 913d
00000250: 6816 3dbd c097 a1bb 0459 9c3d a0ac 3ebc
00000260: 701d 353d 1819 e23c 7eb2 dabd baf5 b0bd
00000270: 78b5 debc fefb b33d e051 cabd 4072 9a3c
00000280: 00a5 673d be91 bbbd cc5a 143d 94b1 2fbd
00000290: 96fc 9f3d 98b2 8e3d 3c12 3cbd 5ce1 23bd
000002a0: 6846 b13d d496 0cbd b440 57bd d420 ad3d
000002b0: 04da 243d ec53 c7bd 803c 333b 7007 3c3d
000002c0: 103e 0b3c e673 f2bd 3c91 6abd fa7f babd
000002d0: f038 0d3c 446c e23d a4a9 da3d 8ca6 473d
000002e0: 00c8 aa3b e6f2 833d 7ee7 d4bd 046c 7d3d
000002f0: 0c13 c93d 8ae1 fbbd 3e97 ee3d 0e18 ac3d
00000300: f0f5 bd3d e800 86bc 2413 1fbd a0e6 d4bd
00000310: 529c 9a3d 80b7 2a3b 28c5 b3bd 0064 8dbc
00000320: 0ade ce3d daae fe3d 606c a53b 98c6 fbbc
00000330: 40ba 29bd 8e21 d7bd 2e7c ce3d 04dd 1d3d
00000340: 2acd a63d a442 4b3d 28be 11bd 4e21 aabd
00000350: 7864 b73d 8813 61bd 6cb1 3bbd 58a3 043d
00000360: e8c3 833d d613 8abd 2ca8 f53d 0ca8 463d
00000370: 2060 59bc 3cc1 723d e812 85bc ac30 82bd
00000380: 70e8 12bd 081f 79bd c063 6fbc e4d4 d53d
00000390: f858 f8bd 5c3a 2dbd e2cf dabd 74ac ebbd
000003a0: b804 b83d fc1d 813d 0ec1 d93d 0836 f13d
000003b0: 088f 2c3d 682d 8e3d 28de e03d 628c c6bd
000003c0: c024 213c f4d9 20bd b27e f63d 8c6e 2dbd
000003d0: 302b 89bc d06b ff3c 20fd 91bb be70 ca3d
000003e0: c0ff eb3b bee0 883d 9028 3bbc e231 89bd
000003f0: e8db 76bd 26c9 febd cc14 3a3d d43c 3abd
-0.02127628 -0.06401211 -0.10246427 -0.07762095 -0.04475774 0.04444346 -0.11201464 -0.075958416
0.046833843 0.030342087 0.043817833 0.05585839 -0.035819918 0.10211237 0.03973724 0.0569126
-0.02150838 0.01718375 -0.081804916 -0.00521037 0.115247205 -0.11746375 -0.08466856 0.033843517
0.01927185 -0.103218555 -0.11051941 0.05516243 0.059101626 0.0073660016 0.10418083 -0.018372819
-0.04987493 0.013626546 0.025778651 0.04709071 -0.12317233 -0.05073236 -0.05429606 0.058479592
0.08229111 0.020055309 -0.11371428 -0.07224725 0.047591493 0.09342292 0.030622765 0.00014488399
0.007600546 0.07089959 0.08106218 -0.0775466 0.070270464 -0.059232593 -0.043077514 0.083194956
0.09100625 0.06366865 0.09467521 -0.11971693 -0.09784116 0.0814005 0.05850333 -0.009482279
-0.067340806 -0.05891657 -0.10827717 0.057796 0.065857604 -0.06860533 -0.122872144 0.08653636
-0.03658031 -0.12473805 0.045851722 0.1001205 0.08936894 -0.056655705 0.017740726 0.11064264
-0.08716053 0.09476508 0.04036057 0.12213844 -0.10331926 0.07721555 0.009117588 0.042826578
0.020913035 0.067309484 0.070040554 0.065173864 0.07609047 0.0005699545 -0.07012907 0.09870611
0.01680094 -0.039977863 0.0405882 0.11100562 0.07256234 -0.03279859 -0.010382488 0.121468365
0.10844591 -0.073305964 0.12287858 0.08511697 -0.045112595 -0.01986736 0.102301344 0.042448446
0.11816059 -0.02764976 0.07041299 0.09137778 -0.09171946 -0.012373641 0.078959525 0.095844775
-0.08953713 0.046327725 0.046496645 -0.052883476 -0.093882725 -0.121508926 0.09986015 -0.012859881
-0.09578331 0.03558606 -0.10402995 0.10372439 0.070581585 0.07416986 0.073179126 0.09339532
0.09344551 -0.07767117 -0.10535765 0.031249017 -0.04864596 -0.09977074 0.11908075 -0.062653035
0.0043103695 0.04890421 0.112143934 0.071188495 -0.046163946 -0.00493142 0.07634166 -0.011637837
0.044217527 0.027599856 -0.10678576 -0.086406186 -0.02718614 0.08788298 -0.09878898 0.018853307
0.05655384 -0.091586575 0.036219403 -0.04289396 0.07811849 0.06967658 -0.045915827 -0.04000984
0.08656007 -0.03432353 -0.05255194 0.08453527 0.04024698 -0.09732804 0.0027349293 0.04590553
0.008498684 -0.11838512 -0.057267413 -0.09106441 0.008619532 0.11055806 0.10676888 0.048742816
0.00521183 0.064428136 -0.10395716 0.06187059 0.09818086 -0.122988775 0.11649941 0.084030256
0.092754245 -0.016357854 -0.038836613 -0.10395551 0.07549347 0.0026049316 -0.08777839 -0.017259598
0.10100944 0.12435694 0.0050483197 -0.030734345 -0.041437387 -0.10504447 0.10082279 0.038540855
0.08144601 0.0496241 -0.035581738 -0.083071336 0.0895471 -0.054950267 -0.0458235 0.03238234
0.064338505 -0.06742065 0.11994967 0.048500106 -0.013267547 0.059266314 -0.016244367 -0.0635694
-0.0358662 -0.06082061 -0.014611185 0.10440996 -0.121263444 -0.042291984 -0.10684182 -0.11507502
0.08985275 0.06304547 0.106325254 0.11777884 0.042128593 0.06942254 0.10979873 -0.09694745
0.009835422 -0.039270356 0.12035884 -0.042341754 -0.016744226 0.031179339 -0.0044552237 0.09884785
0.0072021186 0.06683491 -0.011423245 -0.066989675 -0.060268313 -0.1244071 0.04542999 -0.045468166

hyper_w1.2.bias f4 [128]
00000000: 3097 b2bd c4d1 76bd e098 393d b02d eb3d
00000010: ae50 a43d 00bb 40bc 0c10 6bbd 98ca 5fbd
00000020: 4c9e 69bd 80f9 233b fe2e d93d a874 dabc
00000030: 8cfb 30bd 22b1 bf3d 68d8 953c d803 3bbd
00000040: 20bc e9bb f660 99bd f092 f43d 8084 3a3c
00000050: aa40 b8bd 4082 6fbd 0462 5dbd f041 21bd
00000060: 4e8c f23d 9ac5 e2bd 5223 8dbd f479 1cbd
00000070: 4cfe 47bd 78a7 73bd 7c4b c53d 949d 683d
00000080: dcf7 02bd 26bb 83bd b296 a3bd b6ed 953d
00000090: c073 3f3c d06a 9fbd c0dc 8c3c 30b5 3bbc
000000a0: 8011 a23a ec42 d9bd 0ab1 e8bd 6c5e 88bd
000000b0: 50af e73d b489 b7bd 5c38 e5bd 24c2 af3d
000000c0: 4c72 5b3d a821 303d 9ef2 debd a088 b6bc
000000d0: 60a7 eebb 0818 4c3d 2452 e63d d009 fdbd
000000e0: 34ed ffbd 1a92 8b3d d07d 313d ac5e 25bd
000000f0: 6c2d f53d 50d3 363c d87c 34bd 000e 883c
00000100: a204 d03d 22a5 a63d e636 97bd 56c6 a23d
00000110: a004 b13c a445 72bd 3251 d4bd 4462 cabd
00000120: 2e00 ea3d d812 d63c 6079 9a3d 7a7b 92bd
00000130: 3a04 943d 0263 acbd 64fa b1bd 6ab5 be3d
00000140: e084 883c 4e99 c7bd b003 8bbc ec1e cc3d
00000150: 0451 f3bd 94e8 133d 40fb 57bd 6c07 2f3d
00000160: 668c b9bd 12dc fb3d 1e43 94bd e04e c03c
00000170: 8a6d e7bd 60e5 45bd 56f6 ffbd 40ce 5abd
00000180: 900c 7e3c a429 333d 4cb6 ca3d c006 adbb
00000190: a40d 4c3d 2651 cb3d b09c 65bc a20e 993d
000001a0: ac37 abbd 48ad a4bd 00e0 f4ba 800b d6bc
000001b0: 1023 143d b0f6 ae3c 7e75 9dbd 1eb9 96bd
000001c0: c466 fd3d ee60 f0bd 38c3 84bd 622b cabd
000001d0: 0048 f438 30c6 3a3d da8f 85bd 5825 a73d
000001e0: 8cb0 c83d 7021 db3c 14b9 c8bd e601 f8bd
000001f0: 3476 963d e84a 033d 8027 77bb 3025 663c
-0.08720243 -0.06025864 0.04531181 0.114833236 0.08023201 -0.011763334 -0.05738835 -0.054636568
-0.05703573 0.002502054 0.10604666 -0.026666954 -0.043208644 0.09359957 0.018291667 -0.045657963
-0.007133022 -0.07489197 0.119420886 0.0113841295 -0.08996709 -0.058473825 -0.054048553 -0.039369524
0.11843167 -0.11072846 -0.068915024 -0.03820224 -0.0488265 -0.059485883 0.09633538 0.056790903
-0.03197466 -0.0643218 -0.07987727 0.073207304 0.011685312 -0.07784045 0.017195106 -0.011456773
0.0012364835 -0.106084675 -0.113618925 -0.066586345 0.11312735 -0.08961812 -0.1119239 0.08581951
0.0535758 0.043000847 -0.10886119 -0.022281945 -0.0072831362 0.049827605 0.11246136 -0.12355387
-0.12496415 0.06814976 0.043332875 -0.04037349 0.11971554 0.011158779 -0.044064373 0.016608238
0.10157134 0.08136965 -0.07383518 0.07947986 0.02160865 -0.059148446 -0.10367049 -0.09882024
0.114258155 0.026132032 0.07542682 -0.071524575 0.07227369 -0.08417322 -0.08690336 0.09311946
0.016664922 -0.097460374 -0.016969532 0.099668354 -0.11880687 0.036110476 -0.052729845 0.042731687
-0.09059982 0.122978345 -0.07239364 0.02347511 -0.1130019 -0.048314452 -0.12498157 -0.05341935
0.015505925 0.043740883 0.098980516 -0.0052803457 0.049817696 0.09927587 -0.014014408 0.07473494
-0.08360228 -0.08040863 -0.001868248 -0.02612853 0.03616625 0.021357864 -0.076884255 -0.07359527
0.123731166 -0.11737238 -0.064825475 -0.09871556 0.00011648238 0.045599163 -0.06521578 0.0816142
0.09799299 0.026749343 -0.09800926 -0.12109737 0.07346764 0.032053858 -0.0037712753 0.014046952

hyper_w2.0.weight f4 [64, 1024]
00000000: 1457 24bc 142b 3b3c 1067 a03b f0d6 f03c
00000010: 30fd 753b 4035 5b3a f25f b2bc 500a 0dbb
00000020: 7a0a f1bc fa5d a13c 40f8 443a 2084 c93b
00000030: c0fa 11ba cc11 a1bc 4433 c13c e064 12bc
00000040: 90f5 25bb 40a2 413b f83b 6dbc 9cdd 46bc
00000050: 40e5 a03a e8d5 533c bc21 2ebc c8df e63c
00000060: 1065 0d3c 5cf6 b03c aae9 c83c a25b a3bc
00000070: d457 d3bc 900b 843c fc40 97bc e065 60bc
00000080: b8e8 04bc a892 5a3c ac50 2cbc 5cee 01bc
00000090: 48c0 3bbc 2cc9 403c 9261 a43c 2021 c23a
000000a0: 9053 c43c 00c2 9f3b 10e8 cbbc 30b5 2ebc
000000b0: c0ee 69bc 005c bbbc 7030 2d3c 9e26 ed3c
000000c0: 00bf 583a a04c 703b ac2f 17bc 2eb9 853c
000000d0: a879 d33b 2ea0 9cbc a015 bdba a8e8 40bc
000000e0: 0098 70b9 1c09 45bc 6012 683b 88f7 823b
000000f0: 9e4f c9bc e2e9 9f3c e07d 3abc 36b5 cebc
00000100: fe29 833c e8e0 9e3b 9c2e bc3c 8082 deba
00000110: 8ca0 b5bc 5ed6 9ebc 08a3 bcbb 62c0 c03c
00000120: 80df 163c 0410 fe3c b011 58bb be6a 82bc
00000130: aad1 94bc b4d7 54bc 741c 0ebc b43d 583c
00000140: a4ce 0a3c 4209 a5bc d44d ccbc ec88 22bc
00000150: f0f1 f53b f827 b1bc 9a52 933c 1c1e 2d3c
00000160: 40d8 63bc dee0 863c 0ee7 81bc 00b6 cabb
00000170: 88c4 ba3c 54c3 3a3c 78f0 bcbb e4ee 1d3c
00000180: 16d5 ebbc 6c52 4dbc 2873 3dbc 0040 afbc
00000190: 6cd4 e2bc 34bd 003c 5e21 d33c 040c d73c
000001a0: a0d7 96bb 1cd5 77bc e01b a0bb a094 2b3b
000001b0: 7801 d13b a49f 183c 06d3 c4bc a4ca eb3c
000001c0: f498 84bc 50b7 6cbb 1a9f f5bc f0a9 dd3c
000001d0: 0837 82bc 601c 92bb d846 1fbc 6215 fabc
000001e0: 805c a13b 506c 6abb d847 863b 8eb2 ad3c
000001f0: 8035 ae3c 3428 ccbc 0089 64b9 40af 553b
00000200: 04b0 cfbc 3af6 8b3c a2a8 9a3c b0e9 313b
00000210: 1c37 903c 0253 e33c 54cb 593c 1886 ce3c
00000220: d062 9ebb 0c13 283c f423 13bc 6a38 fd3c
00000230: 009e 443c 8c77 e9bc 40b3 14ba 2812 eb3c
00000240: e4c2 e73c 68bb dfbb a039 d7ba 92ee d63c
00000250: b878 a9bb 8474 fc3c 8023 90ba 0011 9eb9
00000260: fe28 b93c ac3d e7bc 10e1 6abc 4c0d e13c
00000270: 68cf 68bc 6013 bd3c fcce 12bc 1456 3dbc
00000280: 3eb3 fbbc 68f0 7b3c 40c2 a8bb 38c9 9bbb
00000290: 40ee 643a b888 c6bc 8891 e73c 783d 2e3c
000002a0: 8cab d73c 6cb6 673c 601b d63a 78ee b5bc
000002b0: c400 233c 7244 ed3c 663d 81bc 2844 123c
000002c0: c8cd c8bc 08bf 043c 76b6 ee3c 741c b7bc
000002d0: 5afc dbbc 3a0a f83c 2000 2fbc 7ade 933c
000002e0: c85e 98bb d097 ddbc 92b7 aabc ace4 863c
000002f0: fc12 283c da20 823c aebc 95bc d047 18bb
00000300: 90e8 f03b 32dc e23c b2e4 9abc 30d3 c8bc
00000310: 5093 233c 8cbb a8bc 8023 733a de5b e03c
00000320: 503b 04bc 0ec4 bbbc 72c7 b53c 3ad0 b83c
00000330: cc4d 3e3c 3473 623c 8e51 883c cc39 77bc
00000340: 50ac 433c c076 cd3b 002c d7bc 88c6 6e3c
00000350: 3c2a 23bc 9006 4b3b 9cf2 5abc 0077 6e39
00000360: 9c18 0ebc 4c50 cb3c 9ed0 f1bc 80bb d13b
00000370: 1cbf 173c fc53 d63c 6e3b b63c 7026 e0bc
00000380: 2c07 893c c0dd 26ba 5cde 85bc 3cf9 2ebc
00000390: 4c25 1cbc f0d3 a6bc e006 5abc 1c31 d83c
000003a0: 740b f5bc a8ba e93c 3065 febc 6a10 f2bc
000003b0: 9880 dd3c 76be bebc d02b 4dbc 08c7 753c
000003c0: 087f 3c3c d4d8 523c 9416 b0bc 8072 f439
000003d0: 2cdf c5bc 4af4 f8bc c880 82bb 5c2a 0dbc
000003e0: f6d4 e03c b03a f13c d058 dcbc a08b fcbb
000003f0: e806 aabc d6aa 83bc 6039 8f3b 1866 b53c
-0.010030527 0.011423845 0.0048950985 0.029399365 0.0037534945 0.0008362122 -0.021774266 -0.002152104
-0.02942394 0.019698132 0.0007513799 0.0061497837 -0.00055686757 -0.019661807 0.023584016 -0.008935183
-0.0025323369 0.0029546171 -0.01447963 -0.012137797 0.0012275353 0.012929417 -0.01062816 0.02818288
0.008630052 0.021601848 0.024525482 -0.019941155 -0.025798716 0.016118795 -0.018463604 -0.013696164
-0.008112125 0.01334063 -0.010517281 -0.007930364 -0.011459418 0.011766713 0.020066056 0.0014810897
0.023965627 0.0048754215 -0.02489093 -0.010663316 -0.014278114 -0.022871017 0.01057063 0.028949078
0.00082682073 0.0036666766 -0.009227674 0.016323652 0.0064537115 -0.019119348 -0.0014426 -0.01177422
-0.00022944808 -0.012026098 0.0035411343 0.003996793 -0.024574097 0.019520704 -0.01138255 -0.025232892
0.016011234 0.0048485883 0.022971444 -0.0016976148 -0.022171281 -0.019389328 -0.0057567395 0.023529235
0.00920856 0.031013496 -0.0032969527 -0.01592004 -0.018166382 -0.012990881 -0.008673776 0.013198305
0.0084721185 -0.020146016 -0.024939455 -0.00992034 0.007505648 -0.021625504 0.017983723 0.010566261
-0.0139065385 0.016464647 -0.015857246 -0.006186247 0.022798792 0.011399109 -0.005765971 0.0096394755
-0.02878813 -0.012531858 -0.0115631 -0.021392822 -0.027689181 0.00785761 0.025772747 0.026250847
-0.004603341 -0.015126493 -0.0048861355 0.0026181117 0.006378349 0.009315405 -0.024026405 0.02878315
-0.016186215 -0.0036120005 -0.029983092 0.027058572 -0.015895382 -0.004458949 -0.00972148 -0.030527774
0.004924357 -0.0035770126 0.00409792 0.021203306 0.021265745 -0.024921514 -0.00021794811 0.0032605678
-0.025352485 0.017085183 0.018879239 0.0027147345 0.017604403 0.027749542 0.013293106 0.025210425
-0.0048335567 0.010258447 -0.00898074 0.03091069 0.012000561 -0.028499387 -0.0005672462 0.028695181
0.028291173 -0.0068277605 -0.0016420372 0.026236806 -0.0051718615 0.030817278 -0.0010996908 -0.00030148774
0.022602554 -0.02822765 -0.014335886 0.02747216 -0.014209606 0.023080528 -0.008960482 -0.011556167
-0.030725118 0.015377142 -0.0051501095 -0.0047542118 0.0008733012 -0.024235114 0.028267637 0.0106347725
0.026326917 0.014142614 0.0016335063 -0.022208437 0.009948913 0.028963301 -0.015776347 0.0089273825
-0.024512187 0.008102186 0.029139739 -0.022352435 -0.026853729 0.030278314 -0.010681182 0.018050421
-0.0046499707 -0.027049929 -0.020839486 0.016466461 0.0102584325 0.015884805 -0.018278446 -0.0023236163
0.0073519424 0.027692888 -0.018907879 -0.024514765 0.0099838525 -0.020597242 0.0009275004 0.027387556
-0.008070782 -0.022920635 0.02218983 0.022560228 0.011615228 0.013821412 0.01664045 -0.015089463
0.011942938 0.0062702596 -0.026266098 0.014573701 -0.0099588 0.0030979253 -0.013363507 0.0002274178
-0.0086728595 0.024818562 -0.029518422 0.0064005256 0.009261873 0.026163094 0.022245135 -0.027362078
0.016727053 -0.0006365441 -0.01634138 -0.010679539 -0.009530377 -0.020364732 -0.013307303 0.026390605
-0.029912688 0.028531387 -0.03105411 -0.029548842 0.027038857 -0.023284178 -0.012522653 0.015001066
0.011504896 0.012869079 -0.021495141 0.00046624616 -0.024154268 -0.030389924 -0.003982637 -0.008616056
0.027445298 0.02944693 -0.026897818 -0.0077070743 -0.020755246 -0.016072672 0.0043708533 0.022143409

hyper_w2.0.bias f4 [64]
00000000: e0e2 8fbb 68b2 51bc ecb7 383c b490 b53c
00000010: 8646 e73c 74d9 4a3c b841 ec3b dcea 5d3c
00000020: ccaa aa3c f62e a6bc 405c 2cbb ac0e 84bc
00000030: 00f5 e53c f204 e83c 3a2d d33c 9c07 6f3c
00000040: 2228 cebc 8ee5 ef3c 24c1 fcbc c0eb 363b
00000050: 441c 863c d6b7 fabc c089 97ba 4076 443a
00000060: 10f9 283c bc30 7cbc 103f 1cbc 361c cebc
00000070: 8267 c63c b041 e0bc f094 353b e01a ae3a
00000080: d054 923c 107f 213b f269 c73c b83f 23bc
00000090: f899 eabb d87b 05bc 6876 12bc 00e0 beb9
000000a0: 966a b43c e809 cb3b 28e7 b5bb c2ac ecbc
000000b0: 3220 adbc 703e f2bc 20fa dbba 2e8d b43c
000000c0: 705b 663c 2a68 99bc 0825 80bb 949b b53c
000000d0: 3222 f53c e097 2b3c 327f b6bc 961a 9ebc
000000e0: d82c f53b 18ec 5c3c 78bb f1bb 70e0 3ebc
000000f0: 70e2 20bc 7e4c d73c ee04 babc 32b7 9c3c
-0.0043910593 -0.012798883 0.011274319 0.022163726 0.02823187 0.012380946 0.0072099827 0.013544764
0.020833395 -0.020286065 -0.0026300102 -0.016120277 0.028070927 0.02832267 0.025778402 0.014589217
-0.025165621 0.029284265 -0.030853815 0.0027911514 0.0163709 -0.030605238 -0.0011561438 0.0007494427
0.010313287 -0.015392479 -0.00953652 -0.025159936 0.024219278 -0.027375072 0.0027707182 0.0013283156
0.017862707 0.0024642386 0.02434251 -0.009963922 -0.007159468 -0.008147202 -0.008939363 -0.00036406517
0.02202348 0.0061962493 -0.0055512376 -0.028890971 -0.021133516 -0.029570788 -0.0016782917 0.022039976
0.014059886 -0.018726427 -0.0039106645 0.022168912 0.029923532 0.010473222 -0.022277448 -0.019299787
0.0074821524 0.0134840235 -0.0073770843 -0.01165019 -0.009819612 0.026281592 -0.022707429 0.019130323

hyper_w2.2.weight f4 [32, 64]
00000000: f6af af3d ae9c b2bd 5629 933d 7ca4 453d
00000010: e6eb 843d da9b e0bd 803b a73d 7002 e9bc
00000020: c002 103d 8085 313d 8259 c83d a84d 693d
00000030: c088 a33b a477 883d 4465 d4bd 40bc 14bc
00000040: 08fa ca3c a23c 84bd 3c19 9fbd e6dd cabd
00000050: 6aa7 e2bd b83f ea3d 944e d93d 0ec8 d63d
00000060: 980f 6e3d 2019 703c 703e 3abc 58be ca3d
00000070: 4e10 e73d 9cb9 d03d 5851 b73c 58ef 73bd
00000080: d27d 9b3d 30c1 32bc 1443 fcbd 04a2 76bd
00000090: a0b7 87bd 2092 f73c b81a d03d e0c8 6fbd
000000a0: 5cad 5e3d 6a5f bfbd dc68 83bd 2e6f aa3d
000000b0: 1001 293c 3608 953d c0b5 893c a05a 053d
000000c0: 60c6 f6bb 665e b63d 2810 7abd 900d 493d
000000d0: ac91 35bd b6a3 a7bd c0fe 25bc 1c3e f03d
000000e0: e8b3 72bd e409 7a3d c093 94bc 9699 ae3d
000000f0: 64a6 ff3d acff 813d 04f6 cebd 40e7 4f3c
00000100: 6c72 aabd e8e3 223d 3083 fdbd 5ac2 923d
00000110: 34c0 2a3d f84b 153d c89f 0ebd fe22 f13d
00000120: 40f0 aabb c26b ec3d 40b1 b8bc ec62 45bd
00000130: a61c 9dbd 5a11 97bd 10e9 d5bc 021a c93d
00000140: c6e9 d7bd f03f 623d a02e fabd 14b3 97bd
00000150: 6ecb 893d a40e 7dbd 2e2c 9e3d 0093 cbba
00000160: 9451 58bd 74b4 513d 486a 9a3d a406 423d
00000170: a0fe fe3d 38fd 6abd 36b7 a9bd f07e 34bc
00000180: d6d3 9e3d ac3a f2bd 24ce b63d 9403 e03d
00000190: 78c6 ff3c c2ea cb3d 16c9 b3bd 9e3e dc3d
000001a0: 6002 b73c a8dc 683d a4bc c5bd c0d5 bd3c
000001b0: 38a5 97bc 7698 c53d 6aa8 b33d f495 fb3d
000001c0: fcbc 26bd 7eb6 d6bd 0842 bfbd 5844 c0bc
000001d0: c8e5 783d 38d0 6a3d 6cf4 54bd a4f8 e1bd
000001e0: 3cb0 a53d 9841 bd3d be90 d3bd 4005 c6bb
000001f0: 18f8 eb3d ead8 b9bd 8ac5 833d c2f2 b03d
00000200: 022a da3d acd6 42bd 9e81 ab3d 280f 363d
00000210: 5291 e33d 5060 913c 58fb ba3d fe54 8a3d
00000220: 9ace cabd c81d 79bd 0449 37bd 007e 99b9
00000230: e870 d13c 2ced 103d c0da 8ebc 9671 c1bd
00000240: 8093 f7ba 5281 91bd 481d 293d 74a2 303d
00000250: 00f0 4438 d68e a7bd 542a cdbd e0f6 c63c
00000260: 2ea1 a93d c0df 35bd 9407 ad3d a8dc dc3c
00000270: 28b2 9bbc 8846 bdbd d816 363d ccb5 71bd
00000280: 783d e43d 884e babd c4bc 6e3d 8848 f7bd
00000290: d012 473c faeb 983d 90ef 643d f060 f6bc
000002a0: 744d e13d dec9 c13d c2de b5bd 1e10 b13d
000002b0: 80af e5bb fecd 8a3d 7415 013d 0eb7 fbbd
000002c0: e8b5 92bd e04d 883d 9ca5 4b3d 5ae9 9f3d
000002d0: 2090 b33c d013 29bc 602c 193c 6097 2c3c
000002e0: 30c9 2abc f4a7 cebd d24f debd 96c7 e5bd
000002f0: c065 cb3c 007d cabc ec12 d6bd 3836 d1bc
00000300: 18a6 823c 7880 ddbd 6c33 a23d 381e e73d
00000310: 0cb7 13bd e446 ab3d a8bb 79bd 384b f73c
00000320: 6af1 f0bd a677 f1bd 14c9 dd3d 1413 dfbd
00000330: a0b4 4f3d 4ca6 4bbd ecde 533d 6e36 b1bd
00000340: a483 e1bd 321c f33d 9cd7 a7bd 9c9b 1dbd
00000350: 4824 683d f21b ba3d f460 0f3d f411 ea3d
00000360: 9ccd 08bd 3883 8fbc 267e d8bd 32d0 80bd
00000370: 4036 efbb 8cbe acbd bcf3 363d 3090 023d
00000380: f829 0f3d 5651 bfbd 6270 853d ce74 fcbd
00000390: 868a ff3d d0b4 e7bc 5839 f53d eac2 b8bd
000003a0: 0636 ff3d d866 b3bc a0c8 afbc 78f4 7cbd
000003b0: b265 a6bd 04a3 e03d 38b8 b2bd e2ec e43d
000003c0: 98ed 26bd 001f 423a 20eb 0dbc 186f 91bd
000003d0: be53 80bd d08b 36bc d6af d53d 2ed0 a7bd
000003e0: d00c 513c 1072 10bd 66f6 e03d 1c62 aebd
000003f0: 04be 5ebd 5896 80bc a827 323d 2434 e2bd
0.08578484 -0.087212905 0.071856186 0.048252568 0.064903066 -0.10967226 0.081656456 -0.028443545
0.035158873 0.043340206 0.09782697 0.056958824 0.004990667 0.06663445 -0.103708774 -0.009078085
0.024777427 -0.06456877 -0.07768485 -0.09905605 -0.11067088 0.11437935 0.10610691 0.10487376
0.05812034 0.014654428 -0.011367425 0.098995864 0.11282407 0.10191652 0.022377655 -0.059554428
0.07592358 -0.010910317 -0.12317482 -0.060213104 -0.066268206 0.030221045 0.10161346 -0.05854118
0.054364547 -0.09344371 -0.06416485 0.08321987 0.010315195 0.07276957 0.016810298 0.03255713
-0.0075309724 0.08904724 -0.061050564 0.0490852 -0.044328377 -0.08185522 -0.010131538 0.117305964
-0.059253603 0.06104459 -0.018136859 0.08525388 0.12482908 0.06347594 -0.101055175 0.012689412
-0.083226055 0.03976813 -0.12378538 0.07165976 0.041687205 0.036449403 -0.034820348 0.11774252
-0.0052166283 0.11543991 -0.022545457 -0.048190042 -0.0767148 -0.073763564 -0.02611211 0.09819414
-0.105426356 0.055236757 -0.12215924 -0.07407203 0.06728254 -0.06178154 0.0772327 -0.001553148
-0.052812174 0.051197484 0.07539803 0.047369614 0.124509096 -0.057370394 -0.08286898 -0.011016592
0.07755248 -0.11827597 0.08926037 0.109381825 0.031222567 0.09956886 -0.087785885 0.10754131
0.02234 0.05685106 -0.09655121 0.023173213 -0.0185114 0.0964822 0.08772357 0.12284461
-0.040707573 -0.10484026 -0.09338766 -0.023470089 0.06076601 0.05732748 -0.05199091 -0.110337526
0.08090255 0.09241027 -0.10330342 -0.0060431063 0.115219295 -0.09074576 0.06434162 0.086400524
0.106525436 -0.04756801 0.08374332 0.044448048 0.11111702 0.01774612 0.09129971 0.06754492
-0.09902687 -0.060819417 -0.044747368 -0.0002927631 0.025566533 0.035382435 -0.017438293 -0.09445493
-0.0018888563 -0.07104744 0.04128769 0.043123677 4.695356e-05 -0.08181541 -0.10017839 0.024287641
0.08282696 -0.044402838 0.08448711 0.026960686 -0.01900585 -0.092419684 0.04445538 -0.059011266
0.11144537 -0.0909701 0.05828549 -0.12074381 0.012150481 0.07466884 0.055892527 -0.03007552
0.11001101 0.09462331 -0.08880378 0.08645652 -0.0070094466 0.06777571 0.0315146 -0.12290774
-0.07163602 0.066554785 0.049718484 0.0780818 0.02191931 -0.010319665 0.009348959 0.0105341375
-0.010423943 -0.10090628 -0.10855068 -0.112197086 0.024828792 -0.024717808 -0.10452828 -0.025538549
0.01594834 -0.10815519 0.07919964 0.11285061 -0.03606324 0.08363131 -0.06096998 0.030187234
-0.11764796 -0.11790399 0.10829368 -0.10892311 0.050709367 -0.04971914 0.051726267 -0.0865296
-0.110114366 0.11870612 -0.08195421 -0.03847848 0.056675225 0.090873614 0.03500457 0.114292055
-0.03339921 -0.017518625 -0.10570936 -0.0628971 -0.0073001683 -0.084347814 0.044666037 0.03187579
0.034952134 -0.093416855 0.06515576 -0.12326966 0.12477593 -0.02828446 0.11973828 -0.09021552
0.12461476 -0.021899626 -0.02145797 -0.06175658 -0.081248656 0.10968593 -0.08726543 0.11177994
-0.04075393 0.0007405132 -0.008662015 -0.071012676 -0.062659726 -0.011141732 0.10433929 -0.08194004
0.012759402 -0.03526503 0.10984497 -0.08514807 -0.05438043 -0.01569669 0.04349485 -0.11045101

hyper_w2.2.bias f4 [32]
00000000: c832 c83c 3808 f4bc 74ae 3cbd 20d7 79bc
00000010: 40dc e33d c07b b2bb 0ee5 923d 84ff e03d
00000020: f455 eb3d 1400 4dbd aae9 fd3d a02f 943d
00000030: fc03 3e3d 1429 8dbd 9006 8ebd b884 9b3d
00000040: 383e ac3d 8870 553d 5c7c 153d c276 b0bd
00000050: 8000 eebc f0c3 7abd 2a33 803d 305d dbbd
00000060: 9041 d93c 40ba 88bb e066 80bd f84b a9bc
00000070: 0030 80ba 0005 603c 083b 363d 686a d23d
0.024438277 -0.029789075 -0.04606481 -0.015249044 0.11125994 -0.005446881 0.07172595 0.10986236
0.11491004 -0.050048903 0.123980835 0.07235646 0.04639052 -0.06892601 -0.069348454 0.075936735
0.08410305 0.05210927 0.03649555 -0.08616401 -0.029052973 -0.061222017 0.06259759 -0.107111335
0.02652052 -0.0041725934 -0.06269622 -0.020666108 -0.000977993 0.013673067 0.04448989 0.10274202

hyper_b1.weight f4 [32, 1024]
00000000: 66f3 b9bc a61d b5bc 047b ca3c 16b0 c3bc
00000010: 0064 85bc 1094 c1bb c8a6 86bc 7ed1 e1bc
00000020: 6c0f b53c f012 2b3b ecda db3c 3ef9 fdbc
00000030: fa24 a4bc c8f1 8e3b 02bc f23c d073 e8bb
00000040: 4431 003c c049 2cba 2cd9 15bc 0007 fcb9
00000050: 6417 ce3c ccd5 9dbc 382c 9ebc 929d ff3c
00000060: 10be 523b 58bb a33b 4064 fa3b f2b3 af3c
00000070: 523f a43c fc8d 55bc bc39 99bc e055 24bc
00000080: 8448 983c 243e eebc ce91 ffbc f01b f73b
00000090: 6045 a5bc fe77 bcbc 744e e23c 046c 0c3c
000000a0: 4e26 bd3c a03b 2dbb 6ed5 c03c ae77 973c
000000b0: bc51 e9bc 0039 cabc c83a fa3b 92e8 ccbc
000000c0: 4e3f ed3c 9cb5 a6bc 8410 703c d0fa a93b
000000d0: a073 343c 609e 27bb 147e 5bbc 38ce 59bc
000000e0: 70b5 79bb 80c6 b0ba 32f7 c3bc 489d afbb
000000f0: 44c3 9cbc 403f d23c e86e b5bc 0e31 d33c
00000100: f011 9abb 6c34 86bc a864 c9bb c672 89bc
00000110: 3400 d33c 0007 33bb 48fb e13b e0fc 94bc
00000120: 2cb3 05bc 0668 b6bc 589e 0dbc 2e9c e63c
00000130: 860e de3c 2af6 dfbc 904c a2bb 74da 83bc
00000140: a098 4dbc 84f1 d9bc f46f 523c 0a1b d03c
00000150: e098 f8ba d4ef b3bc b45b 8fbc c0ce 433c
00000160: a4e4 523c e8e0 f3bb 7005 19bc f465 463c
00000170: fc55 483c 9c7d 653c 88e6 e5bb ec6f d9bc
00000180: 2433 59bc d06f a13b 6448 7e3c e03e 32bb
00000190: 9094 9fbb e4ea f2bc ce33 e83c f043 5abb
000001a0: 5448 803c 806a bf3a a02f 3b3b 2005 813a
000001b0: 92d4 a7bc 8834 d9bc 9c6e a5bc e816 793c
000001c0: 80bf 8039 1aac da3c 2cd6 73bc d8f6 963b
000001d0: 6863 f23b 7c21 a93c 184c 923b a067 0a3b
000001e0: 0045 e4ba 7c6e f9bc 50af 40bc b0e2 453b
000001f0: 6013 b7ba 48fa f13c f81f 053c cc1a 79bc
00000200: 2052 403b 3c69 f33c 1cb0 50bc 84de 08bc
00000210: d8f0 1d3c b2d9 c83c f086 6dbb 5020 913c
00000220: 880a 23bc b63b cfbc c0f9 dbbc 2c29 e9bc
00000230: fc81 42bc f815 a2bc a083 d9ba 0893 c63b
00000240: 00cd 3e3c 962e cd3c ac1b 87bc aa98 f53c
00000250: 56ad 8ebc 80df bfb9 18d9 263c 9407 06bc
00000260: a01f 8e3c 16fd f8bc 6cf9 cd3c 4044 e93c
00000270: 081c 993c 48bf 453c 1ce6 a43c 3c6b 3d3c
00000280: 0649 8fbc c03a 39bb 666e df3c 96a3 a63c
00000290: 7049 bcbc e07d f8bc f6b5 a03c b0fc f93b
000002a0: 8217 c33c 24d8 7d3c f069 ccbb 4087 35bc
000002b0: b8f9 d4bb 1c26 b13c 6498 93bc d021 763b
000002c0: 98ba 9abb cc98 6fbc 1058 883b fcd6 9fbc
000002d0: e04d b3ba 365c b13c 00ee 49b9 e094 853a
000002e0: 5641 e53c fc1b 323c b850 6c3c f01e af3b
000002f0: 9012 4bbb dec3 d63c e46f f7bc 3037 a4bb
00000300: 76af f8bc 8a87 b1bc 1290 f63c e0b7 f93c
00000310: a8e7 87bc 485b b63b 76e1 c8bc e4b2 473c
00000320: 7890 b6bb 9077 8dbc 70f5 9fbc a041 f6bc
00000330: 7801 9dbb 92d8 8fbc 64d9 eabc ba0b dd3c
00000340: 84d4 3ebc ec01 3e3c a4eb e3bc 2029 b43a
00000350: ac7d 1f3c d844 67bc b675 d1bc 00d4 89bc
00000360: 5412 2bbc ace4 fabc 2628 833c e40e 913c
00000370: 0e18 d13c 0086 40b9 aeac 923c d8c1 f13c
00000380: 20ef e83a 9ac7 f1bc 8abe 863c da75 f23c
00000390: 20fc 293b 88d6 5f3c 788f 48bc 10dd 093c
000003a0: 3018 5bbb 0e53 e73c e81b b3bc 3ca9 e23c
000003b0: 7874 953c 40e5 5b3c d2b4 983c f80a 17bc
000003c0: 9012 45bc a4bf be3c a002 f83b 1c4b eabc
000003d0: f835 0e3c b623 c13c f6b4 9dbc 6098 16bc
000003e0: 584a 09bc 1620 9c3c 8c4f 343c 8c8d 53bc
000003f0: 1487 793c 58c1 b53b 5067 33bc 3a5d e9bc
-0.02269907 -0.022108864 0.024716862 -0.023887675 -0.016283035 -0.005907543 -0.01643695 -0.027565714
0.02210208 0.0026103817 0.026837789 -0.031002637 -0.020037163 0.0043623187 0.029630665 -0.007093884
0.007824246 -0.0006572269 -0.009146016 -0.000480704 0.025157638 -0.019266985 -0.019308195 0.031203065
0.0032156743 0.0049966983 0.0076413453 0.02144811 0.020049725 -0.01303434 -0.018704288 -0.01003024
0.018589266 -0.029082365 -0.031197455 0.007541172 -0.020174682 -0.023006435 0.0276253 0.008570675
0.023089554 -0.0026433244 0.023539271 0.018489685 -0.028481357 -0.024685383 0.007636402 -0.025013242
0.02896085 -0.02035027 0.014652375 0.00518737 0.011013895 -0.0025576577 -0.013396759 -0.013293795
-0.003810253 -0.0013486892 -0.023921583 -0.0053593256 -0.019136079 0.025664926 -0.02214761 0.025780227
-0.0047018453 -0.016382419 -0.0061460324 -0.016778361 0.025756933 -0.0027317405 0.00689641 -0.018186986
-0.008160394 -0.0222664 -0.008643709 0.028150644 0.027106535 -0.02733906 -0.0049529746 -0.016095378
-0.012548596 -0.026604421 0.0128440745 0.025403518 -0.0018966459 -0.021964945 -0.017499782 0.0119511485
0.012871895 -0.0074425824 -0.009339675 0.012109268 0.0122275315 0.014006998 -0.007016007 -0.026542626
-0.013256822 0.004926659 0.015520189 -0.002719812 -0.004870005 -0.02965302 0.028345015 -0.0033304654
0.015659489 0.0014603883 0.0028562322 0.0009843446 -0.020487104 -0.026514307 -0.020194344 0.015203215
0.0002455674 0.026693393 -0.0148826055 0.004607063 0.007397104 0.02064585 0.0044646375 0.0021118894
-0.0017415583 -0.03044819 -0.011760548 0.003019493 -0.0013967566 0.029538289 0.008125298 -0.015204143
0.0029345825 0.029713266 -0.0127373 -0.008353833 0.009639941 0.024517868 -0.003624376 0.017715603
-0.009951241 -0.025297027 -0.026852489 -0.028462015 -0.011871811 -0.019785866 -0.0016595013 0.006060008
0.0116455555 0.025046628 -0.016492687 0.029980022 -0.017416637 -0.0003659688 0.010183595 -0.008180518
0.017349064 -0.030394118 0.025143348 0.028474927 0.018690124 0.012069531 0.020129256 0.011561211
-0.017490875 -0.0028263777 0.027274322 0.020341676 -0.022984236 -0.03033346 0.019618016 0.0076289997
0.02381492 0.0154934265 -0.0062382147 -0.011079609 -0.0064994954 0.021624617 -0.018017001 0.0037556775
-0.0047219507 -0.014623832 0.0041608885 -0.019511692 -0.0013679825 0.021650415 -0.00019257516 0.0010191463
0.027985256 0.01087093 0.014423542 0.005344264 -0.0030986406 0.026216444 -0.03020472 -0.0050114617
-0.030357104 -0.021671075 0.030097995 0.030483186 -0.016589954 0.005565081 -0.02452157 0.012188647
-0.0055714212 -0.017268926 -0.019526213 -0.03006059 -0.004791435 -0.017559323 -0.028668113 0.02698313
-0.011647347 0.011597138 -0.027822323 0.0013745166 0.009734552 -0.014115535 -0.025568824 -0.016824722
-0.0104413815 -0.030626617 0.016010355 0.017707296 0.025524165 -0.00018360466 0.017904606 0.029511377
0.001777146 -0.029514123 0.016448278 0.029597212 0.0025937632 0.013661988 -0.012241237 0.008414522
-0.0033431165 0.028237846 -0.021863893 0.027668588 0.018244013 0.013421357 0.01864091 -0.009218924
-0.012028351 0.02328474 0.0075686723 -0.028600268 0.008679859 0.023576599 -0.019251328 -0.0091916025
-0.008379541 0.019058269 0.011005294 -0.012912165 0.015229959 0.00554673 -0.010949925 -0.028486837

hyper_b1.bias f4 [32]
00000000: 8846 98bb 28b6 09bc 60c8 703c 60d6 373c
00000010: e8a9 093c 2ca0 bf3c 481c 2c3c 586f 37bc
00000020: f8b4 53bc b82c 10bc 4447 a13c b057 803b
00000030: ac0b 3ebc 9e38 df3c d8a4 16bc a051 123c
00000040: 38c4 3abc dc60 633c 3641 ed3c c8d2 bcbb
00000050: ac01 ec3c 306f 2fbc 7440 17bc 9e7c 983c
00000060: ce1d c13c 6eb0 bc3c 9042 fbbc 24e1 16bc
00000070: 50d1 37bb fc0b f2bc d6ad 84bc 4c10 1e3c
-0.00464708 -0.008405246 0.014696211 0.011220545 0.008402325 0.023391806 0.01050479 -0.01119598
-0.012921564 -0.008799724 0.019687302 0.003916703 -0.0115994625 0.027248677 -0.009194575 0.008930594
-0.011399321 0.013878074 0.028961759 -0.005762432 0.028809391 -0.0107076615 -0.009231675 0.01861411
0.023573782 0.023033347 -0.030671388 -0.009208951 -0.0028048344 -0.02954673 -0.016196173 0.00964744

hyper_b2.0.weight f4 [32, 1024]
00000000: b44a 18bc 782b 903c 7651 b83c 541a 7f3c
00000010: 002b 453c f4de bbbc dc14 a6bc 2252 b5bc
00000020: c050 fdba 00bc 7a39 c667 a13c 08e0 153c
00000030: 00de 6c3a b860 b5bb 00eb e3bb 4e9a cd3c
00000040: 7e5c fbbc e089 65bc 744a 7a3c ea36 893c
00000050: 006e 31b9 9447 1c3c 4cd0 06bc aa42 b4bc
00000060: 8c4a 433c 4021 90bc faac 9d3c 4c16 673c
00000070: 4c31 edbc 60c0 d83c e0e4 9c3b 0aae 99bc
00000080: ac11 a1bc 903d 97bc e21a af3c f08e 7bbb
00000090: 6ee9 ffbc a47e 57bc 4025 203a 2258 bcbc
000000a0: 324d d03c f426 9fbc a4c6 80bc 8069 c3bc
000000b0: 8414 553c 4282 bebc 444a 523c e0d8 5c3c
000000c0: 68df 8c3c 0ea3 a9bc 7077 423c 74d1 2c3c
000000d0: 1e7b b63c 201a 7ebc 4890 9c3b 4851 fcbb
000000e0: 4a31 813c 3eff d7bc 0078 4dbb ae87 b13c
000000f0: 9c68 ac3c 46ca c4bc 8c7b 47bc 40a0 ccbb
00000100: 8c61 babc 8876 00bc 3697 f13c 244e 3cbc
00000110: da4a d83c 805e 023a 8ede 9abc 0c4d 3e3c
00000120: bc34 efbc acb7 dabc 44c3 0f3c 4cdd 46bc
00000130: c82d 623c b871 3e3c d00a e53c f0e0 9d3b
00000140: daef d1bc dc9d c9bc c0c9 a63a 6e84 aa3c
00000150: 44a8 b73c ca98 f83c 507e 3bbb f0b1 49bb
00000160: 703a 04bc fcda cb3c 50dd 093c 44b5 fa3c
00000170: 62ce 8d3c d89d 9dbc 7c0b f93c 8ab7 e63c
00000180: 00f3 c33c 58a4 c73c 00f9 2f39 00fd 9bbc
00000190: cc6e d8bc 6a13 ad3c ecd7 2cbc d0e8 4e3c
000001a0: a0cb a23a 4842 c2bc 401e 13ba 86ca ef3c
000001b0: 200f a53a 08fe a83b 1cf1 e03c 6cfa 5cbc
000001c0: a0d1 513c 3257 803c 6484 8b3c a0bb 15bc
000001d0: 7809 b33c 9c1d 783c 60ea ffbb a866 ad3c
000001e0: 4c67 e9bc 1843 d3bb 9463 c43c 88d3 7d3c
000001f0: b491 443c 447d 96bc c08e 11bc 3095 7d3b
00000200: e420 033c 5600 b6bc 08ef b13b 40cc 8ebc
00000210: a827 a8bc 2084 aa3c a06c adbb 28ba c4bc
00000220: 3cca e33c 9c45 d23c 1005 053b 04bb ccbc
00000230: 3810 7cbc f03f 83bc fe3d ee3c 1474 bd3c
00000240: 8675 f1bc 740c e6bc 48af 61bc 308a f13c
00000250: 6e4b 9cbc 7274 ce3c c4d5 28bc c817 c43b
00000260: 2836 cc3c 0478 a53c 8cc3 f13c d838 f8bb
00000270: 00eb d43a b842 6bbc fe8b e7bc c0cf 7f3b
00000280: 78a9 d2bc 00a2 fd3a 6c53 11bc 4230 f1bc
00000290: 00be 7d3b 74d0 803c 6464 313c c4c9 f1bc
000002a0: faba b5bc c4ca fd3c 04b3 c7bc 200f cd3b
000002b0: 3685 e1bc ccad c03c f889 163c 6442 c33c
000002c0: 38ba f2bc 4061 933b e041 47bb 6854 443c
000002d0: 48df 303c a288 87bc 30a2 cfbb f0d5 fb3c
000002e0: c0bb df3c e0e9 d6ba ceeb bbbc bc4b 383c
000002f0: a0d4 de3b f8e3 cb3b 84d0 ad3c 88eb acbc
00000300: 2e01 f2bc 0864 fcbb 00ab b0ba 3ef4 d63c
00000310: 0edf d7bc c053 6b3b ee16 adbc 10f5 4a3c
00000320: 48f4 f7bb a498 18bc 8861 e43c 5cb4 f23c
00000330: bc34 69bc ccf9 14bc 24ab bbbc 607c a9bc
00000340: 405c 0b3b 7693 81bc 8c38 6ebc 56ce a0bc
00000350: cc0c 57bc 8c13 21bc 32e0 ed3c f0aa 98bc
00000360: 9c4d 423c c673 953c 5e67 c0bc b84b c53c
00000370: 36ec 813c 366d 8e3c 301c 0bbc 988b e03c
00000380: da30 8ebc 3077 503b e8ad 323c 2058 a83b
00000390: a82f 833b d0aa 333b be7a ecbc 3863 58bc
000003a0: 0c49 d33c dc67 9dbc 3cef 7fbc f072 de3b
000003b0: e081 0c3b a84b 48bc 626b 80bc 1494 403c
000003c0: 488b 9b3c 1efe e33c f63c e83c 980d c63c
000003d0: 52b7 8fbc 8a5a e03c a837 6c3c b0a2 2bbc
000003e0: d4e1 4dbc 20f5 49bb ac97 d03c 06f8 f13c
000003f0: c8b0 e93c 1823 d6bc 305b 563c 24d0 5abc
-0.009295154 0.017598853 0.022499781 0.015570242 0.012034178 -0.02293346 -0.020273618 -0.02213389
-0.0019326434 0.00023911893 0.019702803 0.0091476515 0.0009035766 -0.0055352114 -0.0069555044 0.025097992
-0.030683752 -0.014009923 0.01527654 0.016749818 -0.00016921014 0.00953855 -0.008228373 -0.022004444
0.011919629 -0.01759398 0.01924752 0.014104437 -0.02895417 0.026458919 0.004788026 -0.018759746
-0.019661747 -0.018461972 0.021375123 -0.0038384758 -0.031239238 -0.013152752 0.00061090663 -0.022991244
0.025427435 -0.019427754 -0.01571972 -0.023854017 0.01300538 -0.023255471 0.012835089 0.013479441
0.017196372 -0.020707633 0.011869296 0.010547984 0.022275504 -0.015509158 0.004777942 -0.007700119
0.015770573 -0.026366826 -0.0031352043 0.021671142 0.021045975 -0.024022233 -0.012175452 -0.006244689
-0.022751592 -0.00784076 0.029491048 -0.01149324 0.02640288 0.0004973188 -0.01890495 0.011615049
-0.02919995 -0.02669891 0.008774582 -0.012137722 0.01380486 0.011623792 0.027959257 0.0048180744
-0.025627065 -0.024611406 0.0012724921 0.0208151 0.022419102 0.030346293 -0.0028609224 -0.0030776225
-0.008070573 0.024884693 0.008414581 0.030604012 0.017310325 -0.019240305 0.030400984 0.02816369
0.023919582 0.024370357 0.0001678206 -0.019041538 -0.02642002 0.021127421 -0.010549527 0.012628749
0.0012420304 -0.023713246 -0.00056121126 0.029271375 0.0012593009 0.005157236 0.02745872 -0.01348744
0.012806326 0.015666578 0.017030902 -0.009138972 0.021855101 0.015143778 -0.007809922 0.021167114
-0.028491639 -0.006447207 0.023973264 0.0154923275 0.011997629 -0.018370278 -0.008884132 0.003869366
0.008003447 -0.022216957 0.005430106 -0.017431378 -0.020526722 0.020814955 -0.00529249 -0.024014547
0.027806394 0.025667958 0.0020297207 -0.02499152 -0.015384726 -0.016021699 0.029082295 0.02312664
-0.029474985 -0.02808211 -0.0137747 0.029484838 -0.019078936 0.02520201 -0.010304872 0.0059842803
0.024928167 0.02019883 0.02951219 -0.0075751357 0.0016244352 -0.014359169 -0.028264996 0.003903374
-0.025715575 0.0019350648 -0.008869987 -0.029441956 0.0038717985 0.015724398 0.010827158 -0.029515155
-0.022183884 0.030980475 -0.024377353 0.0062579066 -0.02752934 0.023520373 0.009188168 0.023835368
-0.029629812 0.004497677 -0.0030404255 0.011983015 0.010795422 -0.016544644 -0.006336473 0.030741662
0.027311206 -0.0016396604 -0.022939589 0.011248525 0.006800249 0.0062222444 0.021217592 -0.021108404
-0.029541578 -0.0077023543 -0.0013478696 0.02623951 -0.026351478 0.0035908073 -0.021129098 0.012387529
-0.0075669624 -0.009313736 0.027878538 0.029627018 -0.014233764 -0.009092759 -0.022908755 -0.02068919
0.0021264702 -0.015817385 -0.014539849 -0.019629639 -0.01312561 -0.0098313205 0.029037569 -0.018636197
0.011859324 0.018243682 -0.02348679 0.024083957 0.015859704 0.01738606 -0.008490607 0.027410313
-0.017357279 0.0031809323 0.01090572 0.0051374584 0.004003484 0.0027415045 -0.028867122 -0.013207249
0.025791667 -0.019214563 -0.015621003 0.006788604 0.0021439716 -0.012225069 -0.015676204 0.011754055
0.018987313 0.027831133 0.028349381 0.024176404 -0.017543469 0.027386922 0.014417566 -0.010475799
-0.012566049 -0.0030816272 0.025462948 0.029537212 0.028526679 -0.02613978 0.013083264 -0.013355289

hyper_b2.0.bias f4 [32]
00000000: baf2 813c 44d1 72bc c87e b13c 74ab 64bc
00000010: c061 e9bc 1440 0cbc a071 cd3c 00ef c2ba
00000020: 86f3 c2bc c03f 093c 4066 dcbb b484 ecbc
00000030: 2025 5fbc 10b2 8b3c ea83 d93c aa9f b23c
00000040: 98de dfbc c25a cabc 8ef8 ec3c b64f cf3c
00000050: 1283 e83c 0048 823b 82c0 873c 481c 9f3b
00000060: 7a57 93bc 98a9 8a3b 42f4 f0bc 0085 36b9
00000070: 388a ee3c 8029 ad3b e01c 2d3c 1422 f9bc
0.015862811 -0.014820401 0.0216669 -0.013956893 -0.028488994 -0.008560199 0.025078595 -0.0014872253
-0.023797762 0.008377016 -0.0067260563 -0.028871872 -0.013619691 0.01705268 0.02655216 0.02180465
-0.02732782 -0.02470148 0.028927114 0.025306564 0.028382812 0.003975868 0.016571287 0.0048556663
-0.017986048 0.004231643 -0.029413346 -0.00017406419 0.029118642 0.005284488 0.010565966 -0.030411758

hyper_b2.2.weight f4 [1, 32]
00000000: 5a3b b7bd c87c 9e3c 4fa1 a6bd be22 e2bd
00000010: 3a53 62bd 68c5 b2bc 581f 91bc 3035 20bd
00000020: 514b ecbd 8ca8 7f3d dcd8 0f3d 1f33 003e
00000030: 27a2 cbbd 6faf c9bd 0034 e339 db1c 16be
00000040: b391 333e 8117 0b3e 6a3d 01be e6de 32be
00000050: 7b3b 183e 62d1 e9bd 9378 293e 0023 2fbe
00000060: 9043 4cbd dea7 2abe e775 193e ecf8 13bd
00000070: eec8 c93d 8400 babd 7851 eb3c 75d5 26be
-0.08946867 0.01934661 -0.08136236 -0.11041783 -0.055255152 -0.021822646 -0.017715141 -0.039113224
-0.11537803 0.0624166 0.035118923 0.12519501 -0.099430375 -0.098479144 0.00043335557 -0.14659445
0.17536049 0.13583185 -0.12621084 -0.17467842 0.1486644 -0.1141689 0.16549902 -0.17103195
-0.04986912 -0.16665599 0.14986382 -0.036126062 0.098527774 -0.090821296 0.02872537 -0.16292365
