models/v2/target_qmix_net.pth (torch, 523452 bytes, 13 tensors)

hyper_w1.0.weight f4 [64, 576]
00000000: ceb7 cd3c 454e 1e3d f6f7 a83c 00d4 56ba
00000010: 0826 af3b 94a8 143c caa2 e53c 2cb6 23bc
00000020: e8cd c9bc f0c9 283b 6b0b 0a3d d0d6 03bd
00000030: da48 c73c 252a 2a3d afca 063d bd7b 273d
00000040: 23d9 13bd 20aa c9ba 00be eaba 9457 05bc
00000050: aad2 de3c 80b8 453c 0072 953c 79a8 073d
00000060: 132a f1bc 6011 b23b dc8b 7bbc eab4 b43c
00000070: 292e 243d 1839 8e3b e63f afbc e0dd 00bc
00000080: 64a7 02bc c674 0bbd 56dd 56bc c831 8d3b
00000090: 90c8 0fbc 486a eabb cb08 ebbc 30ec 53bc
000000a0: 1b21 0f3d 66d5 f03c b41c 1fbd be94 ea3c
000000b0: 24b0 5b3c b07c 12bc 124b d63c 1ac4 9f3c
000000c0: cdb9 113d 63cc 8abc 78f4 b9bb f92f 023d
000000d0: 7236 f23c a60e db3c 728a b83c 40af 1b3b
000000e0: de5e ccbc 2b03 e4bc ae00 8a3c b38a abbc
000000f0: 2a77 cc3c 69f1 0f3d bd8b 2a3d 8e2a bfbc
00000100: 3a00 e23c bd9d 1f3d 587e db3b c623 2abd
00000110: e0a8 ba3a 4fbf 05bd 648d 663c 76bd f73c
00000120: 3580 283d 06ef e3bc e114 1c3d 70f6 9d3c
00000130: fe5b cdbc 2280 c33c 20b5 d0bc f003 62bb
00000140: 5355 96bc 73e2 02bd 3053 14bb b39d dcbc
00000150: d4bf 043c 3432 01bc d6b0 22bd b6a7 ed3c
00000160: ee43 9a3c 062e a5bc 78a5 cabc fa26 943c
00000170: 1fd1 103d 6acb d03c 59cf 0e3d 5a31 bc3c
00000180: 6627 d13c 46bc 9cbc 2aab d03c ab13 17bd
00000190: e0f6 4abc 66ea 9f3c 4b67 b6bc 7091 efbc
000001a0: 58da 8c3c cccf 18bd 607c 29bc 08ce c4bc
000001b0: 5e5d 8d3c 6425 243c 047f 113c 31a0 293d
000001c0: 4bbc 04bd b61a 5dbc 6e93 a73c b9d8 263d
000001d0: 2d0e 263d d628 55bc 7419 2f3c c023 663a
000001e0: 801b 2f3b 0a71 1fbd aac2 a53c 4e5c fbbc
000001f0: e246 0bbd 933c edbc b653 ac3c 0072 99b8
00000200: 978a 1bbd 8ca8 0bbd 3ab3 ca3c b0ff 203c
00000210: 7cb1 5fbc b045 11bb 8b16 e7bc d03f e2bc
00000220: d9ea 253d 880c 913b ccc3 5cbc 0011 6339
00000230: f340 103d 90a6 24bc ae4e 10bd 5606 c7bc
00000240: 8319 06bd 6025 f13b 6d1b 1f3d 5eb0 84bc
00000250: 80b2 dc3b 73fa dfbc fca4 6b3c e76e 17bd
00000260: 606d 453c 533b 1cbd 70ba 2d3c 9bfe 1c3d
00000270: 5b46 01bd 5c5b 21bc d010 c3bc d8fb a5bc
00000280: 00b2 e23a 80c4 3abb a646 4dbc a023 bebc
00000290: e402 413c f0bd d6bc b1f5 1e3d 60f5 80ba
000002a0: 2013 24bd d43f 003c 1e83 c53c 86d2 73bc
000002b0: 8880 c1bb d62d f83c d647 a63c e38e 0ebd
000002c0: ee4f abbc 2a34 ce3c c305 c6bc 00d8 6f3c
000002d0: e0d5 e1ba 3b41 1ebd 2bb0 8abc c02a e1bc
000002e0: a017 5e3c 32b7 15bd ac01 0ebd 00cc 0f3c
000002f0: 20be 8e3a 9ae1 ae3c 4031 b8bb 3359 19bd
00000300: d33e d7bc 78fc c93b ac6e 11bd e386 b9bc
00000310: f319 253d 322d e03c a0ba e83a 92e3 9a3c
00000320: 5287 10bd 4e3e febc 9be9 a2bc 7914 183d
00000330: e801 0ebd 3e13 e1bc 66d5 ffbc e08c e7ba
00000340: 808f 2e3b a348 243d a869 b63b 4c21 723c
00000350: 86f3 bd3c f384 15bd 1319 c7bc 00ab dd3a
00000360: 7868 28bd 0513 183d 339a a9bc ef09 1bbd
00000370: 3d8a 0d3d d2aa eb3c b913 0e3d 35cf 1c3d
00000380: 2769 163d 92e6 f13c 022f f33c 24cc 29bc
00000390: 9256 18bd ce35 08bd 30be ebbc 0bb5 183d
000003a0: 4310 213d 50f4 fcbc 80a5 a7bb 7ab0 d13c
000003b0: 635f ddbc c006 0d3a a444 583c 44d7 08bc
000003c0: b0fe 8abc 081b 0ebd 48a1 fbbc 30b0 f6bc
000003d0: a4fb 03bd c8ca a3bc e00b e5bc 129b bc3c
000003e0: 605c f53a 9b29 e6bc 5afa 0bbd 6bbb bfbc
000003f0: ab48 113d 4866 81bc 6a39 ab3c f89b e53b
0.025112059 0.038648862 0.02062605 -0.00081950426 0.00534511 0.009073395 0.028031725 -0.009992164
-0.024634317 0.002575513 0.033702295 -0.032187283 0.02432673 0.0415441 0.032908138 0.04088949
-0.03609575 -0.0015385784 -0.0017909408 -0.008138556 0.027200062 0.012067914 0.018242836 0.033119652
-0.029439008 0.0054342 -0.015353169 0.022058923 0.040083084 0.004340302 -0.021392774 -0.007865399
-0.007974479 -0.03404691 -0.013114294 0.004308913 -0.008775845 -0.007153783 -0.028690716 -0.012934729
0.03494368 0.029398631 -0.038845733 0.028635379 0.013408694 -0.008940861 0.026158843 0.019502688
0.035577584 -0.016943162 -0.005674895 0.03178403 0.029566977 0.026740383 0.022526953 0.002375558
-0.02494758 -0.027833542 0.016846027 -0.02094016 0.024959166 0.035142336 0.04163717 -0.023335721
0.027587999 0.03896879 0.006698411 -0.041538022 0.0014241003 -0.03265315 0.014071796 0.03024171
0.041137893 -0.027823936 0.03810585 0.01928255 -0.02506828 0.02386481 -0.025476992 -0.003448721
-0.018351233 -0.03195424 -0.0022632591 -0.026930666 0.008102376 -0.0078855045 -0.039719425 0.029010635
0.01883122 -0.020163547 -0.024737105 0.018084992 0.035355683 0.02548762 0.03486571 0.022972751
0.025531482 -0.019132745 0.025472242 -0.03688399 -0.012387961 0.01952095 -0.02226605 -0.029244155
0.017193958 -0.037307546 -0.010344595 -0.024024025 0.017256435 0.01001868 0.008880381 0.041412536
-0.032406133 -0.013495138 0.020456042 0.040734027 0.040540863 -0.013010224 0.010687221 0.0008779131
0.0026719272 -0.03892616 0.020234425 -0.030683663 -0.034003146 -0.028959548 0.02103601 -7.316843e-05
-0.037973966 -0.034096286 0.024743665 0.009826586 -0.013653155 -0.002216678 -0.028208992 -0.027618319
0.04050717 0.0044265427 -0.013474416 0.0002165474 0.03521819 -0.010049477 -0.035231285 -0.024295013
-0.032739174 0.007359192 0.038844515 -0.01619738 0.006735146 -0.027341103 0.014382597 -0.036971
0.012050003 -0.038142513 0.010603532 0.03832875 -0.031561237 -0.009848442 -0.023811728 -0.02026169
0.001729548 -0.002849847 -0.012529051 -0.023210347 0.011780474 -0.026213616 0.03880853 -0.0009838752
-0.0400573 0.007827718 0.024110373 -0.014881736 -0.0059052147 0.030295294 0.020297926 -0.034804236
-0.020912137 0.025171358 -0.02417267 0.014638901 -0.0017229877 -0.038636427 -0.016929707 -0.027486205
0.013555437 -0.03655166 -0.034669563 0.008776665 0.0010890402 0.02134781 -0.0056211054 -0.037438583
-0.026275074 0.00616413 -0.035505936 -0.022647327 0.04030795 0.0273653 0.0017755814 0.018907342
-0.0352853 -0.031035569 -0.019886782 0.0371289 -0.034669787 -0.027474996 -0.031229686 -0.0017665885
0.0026635826 0.040108334 0.0055667944 0.014778446 0.02318741 -0.036503743 -0.024303949 0.0016911924
-0.041115254 0.037127513 -0.02070341 -0.03785127 0.034555662 0.028767977 0.034686778 0.038283546
0.036721375 0.02952889 0.029685501 -0.010363612 -0.037191935 -0.033254437 -0.028777212 0.03728203
0.03932215 -0.030878216 -0.0051161647 0.025596846 -0.027023023 0.0005379729 0.013199959 -0.008352105
-0.016967148 -0.034693748 -0.030716553 -0.03011331 -0.032222405 -0.019994155 -0.027959764 0.023023162
0.0018719546 -0.02809601 -0.0341743 -0.023404798 0.035469692 -0.015795842 0.0209014 0.0070071183

hyper_w1.0.bias f4 [64]
00000000: b249 fb3c ae64 d1bc c0b7 17bb ceda 803c
00000010: ad91 073d a051 fdbc 6808 8b3c 4350 b1bc
00000020: 56b1 853c bab4 05bd 178d 28bd 2041 ccba
00000030: e0ce e5bc 14ce 09bd 20fa e0bc 5b40 0abd
00000040: a672 6ebc 0c9f 5fbc 740e 1d3c e862 9bbb
00000050: 585b 8d3c 2adc c93c 9008 623c 4724 06bd
00000060: dcad 70bc aa7b a53c bb8b d2bc 434e 92bc
00000070: 5a06 d53c f225 843c b392 223d 80d3 d339
00000080: 7079 1bbc 162c d73c fed6 9b3c 78fc a0bc
00000090: 127b b63c 6bc2 11bd 20a6 8d3a 3098 66bc
000000a0: a092 8f3a 00d0 4abc 60a3 2c3c 5680 fabc
000000b0: 848a 413c 9e0f e1bc 6a30 bd3c 6ede bebc
000000c0: e85a c7bb a8b2 eb3b 20f2 16bc b871 8f3c
000000d0: 1034 72bc aa05 bf3c c62c 4bbc 429c 8b3c
000000e0: c763 203d 02c5 e33c 3f83 233d 231b 233d
000000f0: 602a 88bb e058 7b3c 2073 0d3c 3e3b 04bd
0.03067479 -0.025560703 -0.0023150295 0.015729334 0.03309791 -0.03092271 0.016971782 -0.021644717
0.016319912 -0.032643057 -0.04115018 -0.0015583374 -0.028052747 -0.033643797 -0.027463019 -0.03375278
-0.0145537015 -0.01364876 0.009585965 -0.004742015 0.01725547 0.024641115 0.013795987 -0.03274944
-0.014689889 0.02020057 -0.025701394 -0.017859584 0.026004005 0.016131375 0.039690685 0.00040402636
-0.009489402 0.026266139 0.019023415 -0.019651636 0.022275481 -0.035585802 0.0010806955 -0.01407437
0.0010953732 -0.012378693 0.0105369985 -0.030578773 0.01181281 -0.027473267 0.023094375 -0.023299422
-0.006083835 0.0071929283 -0.009213001 0.01751028 -0.0147829205 0.02331813 -0.012400812 0.017042283
0.039157655 0.027803902 0.039920088 0.0398208 -0.004155442 0.015341014 0.008633405 -0.03228306

hyper_w1.2.weight f4 [256, 64]
00000000: e880 9fbd ca2b cd3d 74ca 5dbd 208f 2bbd
00000010: 0c1f e7bd 3886 b43c 5c98 cc3d 2419 f6bd
00000020: 1491 70bd 6ebd fa3d de23 913d 40c3 b83b
00000030: c6cd f53d e069 e03d 6e93 803d 2c86 b23d
00000040: bca8 af3d 00d3 26ba 94cf 883d f02a 20bc
00000050: fc85 bebd eced 783d a0ca a8bc 14b2 423d
00000060: 403b d0bd 00d2 97b9 6855 97bc fabd 8a3d
00000070: bcb2 2a3d 6025 6b3d 801b 86bd 1209 bdbd
00000080: f06d b9bc 60d1 573c 4898 88bd 3e60 d93d
00000090: 4a6c e7bd 7026 293c f890 c5bc 24b9 acbd
000000a0: ca64 cd3d 0ed9 b0bd 8229 adbd e420 6b3d
000000b0: 5c9a 033d 2c96 bf3d 02b7 acbd 60f9 65bc
000000c0: d47f a1bd 902d a73c 503c 92bc be4a d93d
000000d0: d293 c43d 4ed0 c83d d0d8 ca3d f8d6 eabc
000000e0: 00af 23bc deaa c4bd 2c11 0a3d e69c a1bd
000000f0: 70b9 863c 68c8 73bd 6416 50bd 40a1 9fbd
00000100: f6e5 c23d f0c3 833d 30d9 c1bc ea87 bc3d
00000110: acf2 29bd 70ab 55bc 30f0 4e3d fcf1 18bd
00000120: e840 a3bc 0021 b2ba 2097 41bc eab7 d3bd
00000130: 7c73 e53d 84e7 543d 721d 9c3d cc2f ab3d
00000140: 7086 35bd bcf3 993d 2034 c7bb 307d d83c
00000150: 1875 dd3d 348d 213d 966e b5bd c082 883c
00000160: c424 41bd f4b5 40bd 649e 253d bc5a 903d
00000170: 80b3 cbbd e6df 9fbd 4081 61bc 383b 553d
00000180: fcd2 f5bd 20ca 8cbd 72e5 9a3d 482c 47bd
00000190: 98de 6ebd c023 9e3d e2bd bc3d 2454 463d
000001a0: 7016 b1bd c06e 1cbd 68e9 14bd dc46 ae3d
000001b0: 7a42 a4bd b0b9 01bd 720d dd3d 8024 98bc
000001c0: a8ea bcbc 4023 4f3c a03b 6a3c d621 bebd
000001d0: 44ce c83d 3e3c e1bd e410 43bd 08ca 9a3d
000001e0: 109d 83bc ded7 cabd 20e1 a5bc b04f bc3d
000001f0: 9a01 94bd fa24 c9bd f4cf 84bd 7084 233c
00000200: faa1 b63d 80a0 1c3d 0873 adbc 3261 b0bd
00000210: dcd7 0fbd b025 e73d 305f 2cbc a066 2dbc
00000220: 1e03 edbd c061 1abb 66f6 ddbd 5c7b 2b3d
00000230: 648f 2cbd bcb3 c53d b0ae 18bc b8c9 983d
00000240: 023e e8bd 380e d4bc cce5 183d 04ba 7c3d
00000250: e0b6 8fbb 6aa9 9fbd d8f1 09bd d094 103c
00000260: e401 dcbd 88dd e3bd 9ca3 94bd daff d1bd
00000270: 6a68 ecbd 982b e8bc f0e9 733d 00b6 a3bc
00000280: d8f8 4bbd d4c6 01bd c060 b0bc 34d7 7b3d
00000290: 1441 c0bd 640f 10bd 248f 4fbd a04d c7bb
000002a0: c49f 923d 3c39 cd3d 647d d3bd a096 4e3d
000002b0: a00a 5fbc b0fa d2bc 409e b73c 5a8b c73d
000002c0: 34f9 e73d 482f 30bd 04f3 1c3d 9609 b03d
000002d0: 50b4 71bc 3ab4 d93d e046 afbd ac26 5b3d
000002e0: f8a2 89bc 2af3 febd 003f 163c 40e2 633c
000002f0: dcc3 48bd 4077 2a3d 581e 8bbc 00e9 063c
00000300: 32f9 973d 64f8 07bd 2c32 4d3d 060f a5bd
00000310: d056 6fbc e444 7bbd 9898 1d3d 18c0 df3c
00000320: f22b d7bd f653 e1bd 0077 5dbb 90c6 21bd
00000330: 648c c6bd eaa1 edbd 203b 10bc c6b9 9e3d
00000340: fa68 af3d 48da fd3c 7857 c6bc a014 593d
00000350: 0203 bdbd 0068 6ab9 3ea5 fd3d 38ed 97bc
00000360: 50cc 70bc 2003 8fbd 2eb0 ebbd 109c 183c
00000370: c459 5a3d 6074 f03d 40bd 383d 247f 9fbd
00000380: 72a6 e8bd 76a2 d63d d23b f4bd 2e76 a33d
00000390: 1044 523c a66b 933d 9a37 b53d b6ff c23d
000003a0: 545a 643d 5822 cebc 6454 9f3d 6008 ac3b
000003b0: 0a29 a3bd 7ece b2bd c059 8fbd 8a93 ff3d
000003c0: 50f5 723d 8014 fb3c 74b4 6fbd ccec 46bd
000003d0: ec6d da3d d0a2 b43c 103c 2fbc 2c0d 20bd
000003e0: 80d3 a63d 76ff cdbd ece7 273d 30a3 a63d
000003f0: 6460 18bd 003d db3a a05d c73b 3ee3 a7bd
-0.07788259 0.10018118 -0.054148152 -0.04188454 -0.112852186 0.022036657 0.09989998 -0.12016514
-0.058732107 0.12243162 0.07086919 0.00563851 0.12002139 0.10957694 0.0627812 0.087169975
0.085771054 -0.0006363839 0.066802174 -0.009775862 -0.09302899 0.060773775 -0.020604432 0.04753311
-0.10167551 -0.00028957427 -0.018473342 0.067745164 0.04167436 0.05740869 -0.06548214 -0.09230246
-0.02263543 0.0131724775 -0.0666967 0.1061406 -0.112999514 0.010324106 -0.024116978 -0.0843375
0.100289896 -0.0863515 -0.084551826 0.057404414 0.03212963 0.09354815 -0.084333435 -0.014036506
-0.078857094 0.020407468 -0.017851025 0.10609959 0.09598507 0.09805356 0.09904635 -0.028666958
-0.009990454 -0.09602903 0.033707783 -0.07891254 0.016445845 -0.059517294 -0.050802603 -0.07794428
0.09516518 0.064338565 -0.023663133 0.09205611 -0.041491196 -0.013041362 0.05052203 -0.03734015
-0.01992841 -0.0013590157 -0.011815816 -0.10337813 0.112036675 0.051978603 0.07622804 0.08358726
-0.044317663 0.07517192 -0.006079212 0.026426882 0.108133495 0.039441302 -0.08858983 0.016663909
-0.047154203 -0.047048524 0.040434256 0.07048556 -0.09946346 -0.07806377 -0.013763726 0.05205843
-0.12003133 -0.0687449 0.075632945 -0.048626214 -0.05831775 0.077216625 0.09215905 0.048420087
-0.08646858 -0.038191557 -0.036355406 0.08509609 -0.08020492 -0.031671226 0.1079358 -0.018572092
-0.023061112 0.012642682 0.014296442 -0.092837974 0.09804967 -0.109978184 -0.04762353 0.07558066
-0.016066104 -0.09904455 -0.02024895 0.09194887 -0.07226868 -0.09821506 -0.064849764 0.009980306
0.08917613 0.038239002 -0.021173015 -0.086122885 -0.03511797 0.11286485 -0.010520741 -0.01058355
-0.1157286 -0.0023556799 -0.108380124 0.04186569 -0.042128935 0.09653422 -0.0093189925 0.0746035
-0.11339952 -0.025885686 0.037328526 0.061700836 -0.004385814 -0.07795985 -0.033677906 0.008824542
-0.10742548 -0.11126238 -0.072577685 -0.10253878 -0.11543353 -0.0283411 0.059549272 -0.019984245
-0.049797863 -0.031683758 -0.021530509 0.06148453 -0.09387413 -0.035170928 -0.05067362 -0.0060822517
0.07159379 0.10020682 -0.10326651 0.050436616 -0.013613373 -0.025754303 0.022414327 0.09743376
0.113268286 -0.04301384 0.038317695 0.08595578 -0.0147524625 0.106300786 -0.0855844 0.053503677
-0.016801342 -0.124487236 0.009170294 0.013908923 -0.04901491 0.041617632 -0.016982242 0.0082342625
0.07420577 -0.033195868 0.050096676 -0.08059506 -0.0146081 -0.061344996 0.038475603 0.027313277
-0.10506429 -0.110023424 -0.0033792853 -0.039496005 -0.09694746 -0.11603148 -0.008803159 0.07750277
0.085649446 0.030987874 -0.02421163 0.052998185 -0.09229089 -0.00022354722 0.12385033 -0.018545732
-0.014697149 -0.06983018 -0.11508213 0.009314552 0.053308263 0.11740947 0.045102358 -0.07787922
-0.11359872 0.10480206 -0.11925472 0.07981525 0.01283361 0.07198267 0.08848496 0.09521429
0.055750206 -0.02516286 0.07779768 0.005250022 -0.07966812 -0.087307915 -0.0699954 0.12479313
0.05931598 0.030649424 -0.058521703 -0.04856567 0.10665497 0.022050291 -0.010695472 -0.03907506
0.08145809 -0.10058491 0.040992662 0.08136594 -0.0372013 0.0016726553 0.006084159 -0.0819764

hyper_w1.2.bias f4 [256]
00000000: 10ae 15bd dc00 88bd a488 03bd 80db 95ba
00000010: a88f 6b3d 38fc 903c 10b9 dcbd 5c12 69bd
00000020: 00c0 dc39 781d dfbd 88b6 9abd 4cb3 c5bd
00000030: e400 193d 4663 fd3d 746e 0c3d a8d0 f6bc
00000040: 360e b83d b05e 30bc 28a1 94bc f8b3 ef3c
00000050: a8cc 8e3c a4fe 7d3d d4d8 2bbd c8e3 a9bc
00000060: c89d fabd 2ca7 44bd 54e7 7d3d 4e44 a0bd
00000070: a050 babd f841 8a3c 44c4 bebd 6ab0 ad3d
00000080: e8fc 1c3d 3c18 4b3d e072 26bd f87c 583d
00000090: c0dd 4ebb 3228 fb3d 547b 843d d0ac d73c
000000a0: 5014 563c e06e 973d 901e 76bc 1469 bfbd
000000b0: 18c6 9a3c 88b0 ddbc 288e 4dbd 2a7f dfbd
000000c0: 14c7 e83d 7ce7 333d 029a db3d 1e51 c23d
000000d0: 84eb 37bd 3899 9fbc 4849 bfbc f80e 5bbd
000000e0: 966f e2bd a07a a03b a021 8ebc 349b e13d
000000f0: d8b6 98bc 5840 b6bc 404d efbd b8cd e23c
00000100: b87e d2bd 4456 e5bd 56f5 b23d 98d0 7e3d
00000110: 4ab0 c33d e8ca 8dbc 2061 f2bb 5cf7 d03d
00000120: e02e febb e0bc c2bc f642 99bd cc53 dcbd
00000130: 00e6 153d 2263 8a3d 584b ba3c fa4d cb3d
00000140: 0015 b4bc 0049 6abc 9ceb 343d 9049 0d3d
00000150: dc39 2e3d d0d9 213c 28dc 6a3d 48e5 70bd
00000160: 2c18 423d 9ce4 7abd c885 d53d 5436 07bd
00000170: 14df db3d 40ae 14bd 6867 96bd dceb 403d
00000180: f84e d1bc 6002 4ebc ac3b 303d ce7d be3d
00000190: 0403 533d c891 e13d 703f e03d 1080 cd3c
000001a0: 0056 8c3d 7246 e73d a419 5dbd f027 48bc
000001b0: d6b4 d2bd e63b 99bd 2c5c 633d 90d1 a4bd
000001c0: 94ba 303d 801e 95bc a840 b8bc 986d cb3c
000001d0: 9824 eabd da51 ed3d 02ca b23d 10d5 0b3c
000001e0: ce7c b53d c26e e3bd aad1 b13d 98ad 2ebd
000001f0: 405b a5bc 8678 9e3d 0065 c1bd f846 933c
00000200: e4be 4abd 84d7 2e3d 90f2 5bbd d0c4 50bd
00000210: 62a5 b6bd acad 4abd 901a 74bd d86b 80bc
00000220: 22be 8fbd 6066 713c d202 c6bd 80c7 c2bd
00000230: 323f 84bd 5c03 e73d c074 e83c 7c3d 1abd
00000240: f4fd 903d 20e6 ce3c 3001 30bc a04d d33c
00000250: c026 d73c bc59 4bbd 4cab 523d 707c 863c
00000260: 70df 2d3d 188d 6e3d b02c 82bc 949b cfbd
00000270: c257 933d 185f 2dbd b043 043d 2626 d43d
00000280: eccc d83d de2a 823d f04f 813c 82ff fcbd
00000290: b81a e6bc 1ae4 dabd a087 c93c f67c af3d
000002a0: 5c9a a13d 687d 93bc ccc4 b53d c85d cdbc
000002b0: d86e fc3d 207b 0b3c 5806 99bc 803f 4b3d
000002c0: c40b 983d d4cd 81bd f465 5e3d 9033 223c
000002d0: 4edc c43d ac6e cbbd 882d cbbd 0859 5fbd
000002e0: d446 513d f09a 5b3d c417 4ebd 16b2 f03d
000002f0: 6433 6f3d 24a1 173d 8c75 4f3d 6c9c 7f3d
00000300: cc0d 2cbd 60c0 7d3d 3aa0 f3bd f028 393d
00000310: 98a4 983d 4836 8bbd 661f d7bd a08c 03bc
00000320: 70e9 42bd 561a d53d bcb8 d73d 80de 7c3b
00000330: 381c de3d 96ca d13d b020 fc3c 18ca 823c
00000340: 1069 e4bc 5e69 f3bd 4c10 c7bd 86b4 ca3d
00000350: 1c97 523d 8024 e23a 4076 babb c8ec e5bc
00000360: 105a ccbd e82f dcbd 006c 7939 903f a23c
00000370: 0009 9c3c feb5 c8bd 08b8 d23c d0e0 9c3d
00000380: ce43 a53d 9eb0 85bd 20f9 2a3d 005e 4fbb
00000390: ac59 97bd f040 f83c c06b 383d 9cd8 be3d
000003a0: 0ce8 953d 58ad 7bbd ccfe a6bd 868f f9bd
000003b0: 9a5d d4bd e661 9bbd c045 89bd 5838 863c
000003c0: aa16 ad3d 08c9 b5bd 2004 9b3d 8022 a43a
000003d0: 5a13 a43d 4884 95bd 0480 4ebd 1c01 c4bd
000003e0: d05a 2dbd 2480 ec3d b2a2 e63d 704c b33c
000003f0: e21f b53d 10c2 fabc 3cb0 c9bd 4cfd fd3d
-0.036542952 -0.06640789 -0.032112733 -0.0011433214 0.05751005 0.017698392 -0.10777485 -0.056902274
0.0004210472 -0.108942926 -0.07554346 -0.09653339 0.037354365 0.123724505 0.034285024 -0.030128792
0.089870855 -0.010764763 -0.018143252 0.02926062 0.017431572 0.062010422 -0.04195483 -0.020738497
-0.12237126 -0.04801099 0.06198819 -0.07825528 -0.09097409 0.01687716 -0.093147784 0.08480914
0.038327128 0.04958366 -0.040636897 0.052853554 -0.0031565279 0.12263526 0.064688355 0.02632752
0.013066366 0.073941946 -0.015021935 -0.09346214 0.018893287 -0.027061716 -0.0501844 -0.109129265
0.11366096 0.043921933 0.10722734 0.09488128 -0.04490234 -0.01948224 -0.023350373 -0.053481072
-0.110564396 0.0048974305 -0.017350018 0.11015931 -0.018641874 -0.022247478 -0.11684656 0.027685985
-0.10278076 -0.111980945 0.087382 0.06221065 0.09555109 -0.017308667 -0.007396832 0.1020343
-0.007757053 -0.023771703 -0.07483475 -0.107581705 0.0365963 0.06757189 0.022741005 0.09926982
-0.02198267 -0.014299631 0.044170007 0.034493983 0.042535648 0.009878591 0.057338864 -0.05881241
0.047386333 -0.061253175 0.104259074 -0.033010796 0.10735908 -0.03629899 -0.07343942 0.047099933
-0.02555035 -0.012573808 0.043025658 0.09301339 0.051516548 0.11014134 0.109496 0.025085479
0.06852341 0.11292733 -0.05397953 -0.012216553 -0.10288398 -0.07482128 0.055507824 -0.080477834
0.043146685 -0.01820302 -0.022491768 0.024832532 -0.11432761 0.115878776 0.08729936 0.008534685
0.08861695 -0.1110511 0.08682568 -0.04264602 -0.020185113 0.07737832 -0.09443092 0.017978176
-0.049498454 0.042686 -0.053698123 -0.050968945 -0.08918263 -0.049482033 -0.059595644 -0.015676424
-0.07018687 0.014733881 -0.09668507 -0.09510708 -0.06457366 0.112799376 0.028375983 -0.037656292
0.07079688 0.025256217 -0.010742471 0.02579385 0.026263595 -0.049646124 0.051432893 0.016416758
0.042449415 0.058240026 -0.01589045 -0.10137096 0.07194473 -0.042327017 0.032291114 0.10358839
0.10585961 0.063558325 0.015785187 -0.12353422 -0.028088912 -0.10688038 0.024600804 0.08568756
0.0789077 -0.018004134 0.08875427 -0.025069132 0.12325829 0.008513242 -0.018679783 0.049621105
0.07424119 -0.06338087 0.05429645 0.009899989 0.09612332 -0.09933218 -0.09920794 -0.054528266
0.051092938 0.053614557 -0.050315633 0.11752717 0.05839862 0.03701891 0.05064921 0.062405035
-0.042005345 0.06195104 -0.11895795 0.045205057 0.07453269 -0.06797463 -0.10504036 -0.008029133
-0.047585905 0.10405414 0.10533282 0.0038584769 0.10845226 0.10243718 0.030777305 0.015965506
-0.027882129 -0.118853316 -0.09719905 0.09897713 0.05141364 0.001725331 -0.005690366 -0.028067008
-0.099781156 -0.10751325 0.00023786724 0.0198057 0.01904726 -0.09800337 0.025722519 0.07660067
0.08069573 -0.06527828 0.04174149 -0.0031641722 -0.073901504 0.030304402 0.045024633 0.09318659
0.0731965 -0.06144461 -0.081540674 -0.12185578 -0.103694156 -0.07587032 -0.06702757 0.016384289
0.084515885 -0.08876234 0.07569146 0.0012522489 0.080115035 -0.07300621 -0.050415054 -0.09570524
-0.042322934 0.115478784 0.112615004 0.021887034 0.08843972 -0.030610114 -0.09848067 0.12401828

hyper_w2.0.weight f4 [64, 576]
00000000: 600d 5b3c d05d 28bd 6b93 c4bc 8807 01bd
00000010: 3875 17bd 486a 8cbb 1cf8 55bc 6012 7a3c
00000020: ed78 0d3d 9e18 95bc 708d 523b 4c03 063c
00000030: e037 bf3a 14df 0d3c 320f b93c 3f10 1abd
00000040: 9b7c c9bc ebeb f2bc 0002 14ba d46e 743c
00000050: d489 21bc 7843 e53b b0ed 65bb 5d1e 113d
00000060: ecb6 6f3c c8c9 80bc 28f6 ec3b c016 1dbc
00000070: 826e b33c e22a 03bd 410d 293d a615 c53c
00000080: 1b41 273d d0f1 463c 7f8a 20bd 86ef 63bc
00000090: b689 f83c 7377 cfbc 5710 083d b673 0cbd
000000a0: 10f1 c0bc 4cc6 313c b2e8 cf3c 2324 e2bc
000000b0: 4cc0 11bd 3c49 54bc 44d9 1cbd 19c8 173d
000000c0: aa72 e63c 6166 223d 402f 3d3b d6d8 b93c
000000d0: d959 043d 3ca0 323c 3e73 ad3c 9066 3bbb
000000e0: d4d9 433c c005 fbbb b631 f63c 28b3 18bd
000000f0: 2c15 08bc a408 153c 5007 25bd 0000 4d3b
00000100: 0940 283d 3f87 003d 6dfe 1f3d 8e83 ef3c
00000110: d88e e5bc 33d0 f5bc 2e7c fabc d01d 2dbc
00000120: 0ba3 1f3d e172 163d 2436 2abd 5ac6 c73c
00000130: c06e aa3c 0074 2938 c013 ddbc c8c7 febc
00000140: 5a49 0ebd c005 0ebc fe7b 27bd a9f1 253d
00000150: ce93 a13c b98b 0f3d 9e02 f9bc c098 b5bc
00000160: 6a3c ed3c 8805 8c3c 8387 b4bc 4aea a43c
00000170: 6085 d5bb 2874 bfbb 40c0 183c 20ab 313c
00000180: 20fd dcba de90 853c 9089 7d3b 00c6 253a
00000190: 2876 a53b a893 bc3b 1278 c73c 9269 ea3c
000001a0: 51d4 183d 607d 9a3b ba83 15bd 8a02 903c
000001b0: 9811 86bc c0cc 7dba 26ae 66bc 64a2 7a3c
000001c0: 8823 26bd 707c 503b 63de eabc 96d5 a6bc
000001d0: 7098 1c3c 2c0f 323c 6429 4b3c 2d2c 0d3d
000001e0: 4ea3 da3c c6b6 fc3c 50eb 10bb b29f c63c
000001f0: d0e3 39bb 2349 0cbd a824 c5bb 989a cbbb
00000200: 0004 653b 3b4f 153d 3218 e83c a02a bdba
00000210: 5825 0cbd 613a 053d 0c19 2b3c 6485 0abd
00000220: 1357 113d b55f 033d 41c1 1b3d aeeb 17bd
00000230: 12be e13c 004f a93c d03d 30bc 6e4b 92bc
00000240: df0c 243d 3eff ea3c c076 aebc 6d7d 243d
00000250: 230c ccbc 9bc7 9bbc 35f8 223d 0cb6 2cbc
00000260: 50f4 71bb f532 233d a682 9bbc ede7 183d
00000270: 300b 02bb 18b8 1cbd f153 023d 8341 20bd
00000280: 85ba 1d3d c8f6 a93c 0cd3 6e3c a898 f43b
00000290: 006c 263a b6f2 a43c e025 7b3c 6e2a d43c
000002a0: b4f4 7f3c fc4b 0ebd 6a47 08bd 3595 1c3d
000002b0: 7c55 41bc 390f 083d ee96 e43c e090 e1bb
000002c0: ae36 983c 390e 033d b67e ef3c d83b 963c
000002d0: 004f 72bc f7c0 143d 74e4 473c 0675 e1bc
000002e0: 0049 98bc 5cf6 50bc 8044 e73b 2667 c53c
000002f0: 9397 263d 31da 233d 8a5a dc3c 7014 35bb
00000300: 414e 0a3d c889 9f3c a6fb f2bc e664 cdbc
00000310: a059 f4ba 7889 f33b ca4e 1fbd 2059 1cbc
00000320: f835 d23b 3897 00bd ae44 aebc 4837 b8bc
00000330: e480 4d3c 6367 d1bc 448e 2f3c d073 22bb
00000340: feff abbc 1834 89bc 6c03 5b3c 60f8 e2ba
00000350: aeab 13bd e055 4c3c 5053 a43c 1660 d03c
00000360: 4033 83bb c456 4e3c b011 00bc 8239 ca3c
00000370: b4c6 04bd 47e3 263d 60a3 033c 0012 cb38
00000380: 8fda 28bd 1091 693b 6eda b93c bad6 e83c
00000390: a253 0dbd d80b a83b 3873 dcbc 7aff be3c
000003a0: 0481 04bc 5001 20bc 5012 76bb 2026 353c
000003b0: 10b1 003b f21d a13c 6476 0b3c 5e89 e5bc
000003c0: 6321 99bc da83 c83c 6457 6f3c b30c 00bd
000003d0: d0ad f2bc f22d de3c 7612 5fbc 2cad 0a3c
000003e0: 003a f1ba ccf6 28bd b8a2 fdbb e0ab fdbb
000003f0: 17bf 1dbd dad1 01bd 38fb e1bb 58e0 bbbc
0.013369888 -0.04110509 -0.023996076 -0.031501323 -0.036977023 -0.0042851306 -0.013059642 0.01526317
0.034539152 -0.018200215 0.003212776 0.008179497 0.0014588796 0.008659143 0.022590254 -0.03761315
-0.02459555 -0.02965351 -0.000564605 0.014919002 -0.009859521 0.0069965683 -0.00350843 0.035429347
0.014631014 -0.015721217 0.0072314925 -0.009587944 0.02190328 -0.032023318 0.041272406 0.024058174
0.040833574 0.0121426135 -0.03919458 -0.013912087 0.030339103 -0.025325513 0.033218708 -0.034290038
-0.023552448 0.0108505 0.025379512 -0.027605122 -0.03558378 -0.012956914 -0.03829314 0.037056062
0.028130848 0.039648417 0.0028867275 0.022686403 0.032312248 0.010902461 0.021173116 -0.0028595068
0.01195379 -0.0076605976 0.030053 -0.03728023 -0.008305829 0.009096298 -0.040290177 0.0031280518
0.041076694 0.03137898 0.039061 0.029237535 -0.028022215 -0.030006504 -0.030576792 -0.01056619
0.03897385 0.03673065 -0.04155554 0.024386574 0.020804763 4.0400773e-05 -0.026986957 -0.031101122
-0.034737922 -0.008668363 -0.040889733 0.04051367 0.0197238 0.03504536 -0.030396756 -0.022167563
0.028959472 0.017092481 -0.022037273 0.020131249 -0.0065161437 -0.0058427043 0.00932318 0.010844022
-0.0016860105 0.01630443 0.003868673 0.0006323755 0.0050494857 0.0057549067 0.024349246 0.028614793
0.037311856 0.004714653 -0.036502577 0.017579336 -0.016365811 -0.0009681694 -0.014079606 0.015297506
-0.04056123 0.0031812452 -0.028670495 -0.020365518 0.009557828 0.010867875 0.012400005 0.034465957
0.026689198 0.030848872 -0.0022112913 0.02424607 -0.0028364547 -0.034249436 -0.0060163327 -0.0062134974
0.003494501 0.036452513 0.02833185 -0.0014432259 -0.0342153 0.032526378 0.010442983 -0.033818617
0.03548343 0.032073695 0.0380261 -0.037089996 0.027556453 0.020667553 -0.010756925 -0.017858233
0.040051337 0.028686162 -0.021296859 0.040158678 -0.024908131 -0.019016078 0.03978749 -0.01054145
-0.0036919303 0.03984352 -0.018983196 0.037330557 -0.0019843094 -0.038261503 0.031818334 -0.039124977
0.038507957 0.020747557 0.014576685 0.007464487 0.0006348491 0.020135265 0.015328854 0.025899138
0.015622307 -0.034740433 -0.03327123 0.038228232 -0.011800166 0.033217642 0.027904 -0.0068837255
0.01858076 0.031995986 0.029235225 0.018339083 -0.014789343 0.036316838 0.012200464 -0.027521621
-0.018589497 -0.012754049 0.0070577264 0.024097037 0.040671896 0.040003005 0.026898641 -0.002763059
0.033766035 0.019474879 -0.029661011 -0.025072526 -0.0018642433 0.007432159 -0.0388935 -0.009542733
0.006415125 -0.031394213 -0.021272983 -0.022487298 0.012542937 -0.025561994 0.010715071 -0.0024788268
-0.02099609 -0.016748473 0.013367515 -0.0017316453 -0.0360524 0.012471646 0.020059258 0.025436442
-0.004003912 0.012593929 -0.007816717 0.024685625 -0.03241606 0.040744092 0.008034557 9.683147e-05
-0.04122406 0.0035639443 0.022687163 0.028422702 -0.034503587 0.005128365 -0.02691041 0.02331518
-0.0080874 -0.009765938 -0.0037547536 0.011056453 0.0019636787 0.0196676 0.008512113 -0.028019603
-0.018692678 0.024476934 0.014608238 -0.03126211 -0.029623896 0.027121518 -0.013615241 0.008464139
-0.0018404126 -0.04125099 -0.007740345 -0.0077414364 -0.038512316 -0.03169427 -0.0068964027 -0.022934124

hyper_w2.0.bias f4 [64]
00000000: 5840 a43b 22aa 8a3c f025 a13c d322 aabc
00000010: 9117 033d 4b9e 80bc 00a2 1dbc 7874 a23b
00000020: 4ea2 863c 78a9 aa3c b6b7 67bc e03f c63b
00000030: 1356 fbbc 80e5 dabb f099 713c 605c ef3a
00000040: 90fb 4bbc 4473 26bd b393 0dbd fe80 f5bc
00000050: 8eff ac3c 63ff 10bd b811 c43b a8af dc3b
00000060: 8a76 f83c 7668 903c 9c75 22bd 40e6 223a
00000070: 7e0c e3bc a53a 003d d65b e4bc 10f5 463b
00000080: ebd2 20bd 78c1 e4bc 28da a33c e03a a8bc
00000090: bce0 153c ac92 3d3c 10ff 63bc 177d 0bbd
000000a0: 0878 f7bc c032 9e3c c213 823c 70dd 14bb
000000b0: db42 debc 9f3e 223d 52ec 29bd 5315 20bd
000000c0: 2606 ac3c c297 d73c 126d 863c cc6f 1fbd
000000d0: 54d1 153c 900a 0dbd f8b1 983c 3863 be3b
000000e0: 685a bfbb 51e6 123d 8332 95bc acff 3a3c
000000f0: c4d0 11bd 5089 6ebb 8cf6 5d3c 800c e13b
0.005012553 0.016926829 0.01967141 -0.020768559 0.032004897 -0.01570048 -0.009621143 0.004957732
0.016434815 0.020832762 -0.014142921 0.006050095 -0.030680692 -0.0066801906 0.014746174 0.0018261783
-0.012450114 -0.04063727 -0.034564685 -0.029968735 0.021117952 -0.035399806 0.0059835576 0.006734807
0.030329961 0.017627936 -0.039662942 0.00062141195 -0.027715918 0.031305928 -0.027875822 0.003035847
-0.039263647 -0.027924284 0.020001486 -0.020535886 0.009147819 0.011570614 -0.013915792 -0.03405484
-0.030208603 0.019311309 0.015878562 -0.0022714995 -0.027131489 0.0396105 -0.04148514 -0.039082836
0.020999026 0.026317481 0.01640943 -0.038924977 0.009144146 -0.0344339 0.01863955 0.0058101676
-0.0058396347 0.035864178 -0.018212562 0.011413496 -0.035599485 -0.0036397763 0.013547551 0.006867945

hyper_w2.2.weight f4 [32, 64]
00000000: ecca 643d 1ceb 8b3d 1c72 c63d 944a 363d
00000010: a06c 3cbd a8c7 08bd 8887 e33d b441 5bbd
00000020: 10b3 c43c d867 54bd 98ca 013d f868 94bc
00000030: 54d0 b83d d014 803d ccf0 66bd 5060 95bd
00000040: 306e fabd 82dc df3d 209e f3bc 38ef 8bbd
00000050: 645e 71bd 0c03 4abd 60e1 273c d0e6 ad3c
00000060: d423 8c3d a4e0 893d e083 9ebd b03d 25bd
00000070: 3eee 943d 3ca7 063d 2046 673d 649b ddbd
00000080: 7cf1 debd 289a e73c 2424 90bd 0caa b1bd
00000090: a83e eabd 56ca c93d c8da c6bc d8e2 c7bc
000000a0: 0064 583a 98f1 1f3d 204b 253c 603c 8cbc
000000b0: 46d0 b2bd 7029 e2bd 3c79 193d 2c52 c3bd
000000c0: ac10 fdbd cc7c e7bd 8a6c fc3d 28c4 283d
000000d0: 0e2e a8bd b4a6 b93d 4c25 273d 642d 88bd
000000e0: 90cb 493c 6430 083d f6b7 e0bd 20c5 ae3c
000000f0: 4046 6b3d 004c e339 d826 ecbd ba29 ff3d
00000100: 2031 6f3c 58e9 b03c e4b4 3f3d 4ce2 70bd
00000110: 0e1a e43d d84e cabd c483 a83d f463 7d3d
00000120: 048d c3bd 1034 6c3d 80ae 143d b883 09bd
00000130: 82f5 d2bd 98c2 8ebd b245 963d 5410 3f3d
00000140: 9c13 913d 4464 a33d c650 aa3d c05e e43d
00000150: 0a2b c4bd 6c32 853d 4835 e2bc 12aa ac3d
00000160: aea5 aabd aca5 e33d b25e 9c3d 0041 a53b
00000170: d018 80bd 38ae d83c 0855 88bd 5070 5e3d
00000180: 1c8f bbbd b0bf b0bc 7860 ce3c 1432 9dbd
00000190: f074 b7bd 2835 8b3c a8ad d1bc 1c74 87bd
000001a0: 00c9 593c ea83 d23d 0020 9337 2034 b3bc
000001b0: c074 de3d 2234 e93d 40c7 bb3d 105a f0bc
000001c0: 8834 a03c 7075 923c 00dd 6dbb 446e d83d
000001d0: b888 93bd 28d3 993c 5025 fbbd 6c52 cebd
000001e0: 6c1b 803d b0c7 ed3c 7af7 f3bd 622e d33d
000001f0: 88cc cfbd 7603 c93d 9026 ac3d 2407 46bd
00000200: c07c fa3d c0e4 d1bd c490 6d3d 04df 75bd
00000210: 644f ccbd c8ab 623d 60d8 693c cccd 3e3d
00000220: 2cb4 a03d 80d1 5dbd 70ef f6bc 128a e2bd
00000230: 88e7 98bd 4802 b6bd 605d 443c 8472 383d
00000240: 626d bb3d 187e b5bc 00f8 4e3a b040 b13d
00000250: 1eb6 993d 6aed df3d b6f9 f5bd 8ea3 babd
00000260: c478 123d 0271 e23d ce20 873d 445b acbd
00000270: 88a5 1fbd c862 c63d 10f0 6c3c 08cb 42bd
00000280: b621 f33d 2435 553d 6cb9 1c3d b04d 87bc
00000290: 6048 a2bc 6289 d3bd 3680 a0bd 34b5 36bd
000002a0: 30c7 3e3d a65b e73d 1e3c 8a3d 80c0 9abd
000002b0: 1eb0 8bbd e632 f3bd 580a a5bc b03c 8dbc
000002c0: b829 f83c e0e4 e9bb 88c5 bfbd b8e3 583d
000002d0: 7863 f43c 8ef1 f83d 68dc 6e3d 8027 be3d
000002e0: c06f bfbc b84c d3bc 8c1f f33d 48dd 3c3d
000002f0: 4465 27bd 745b 0abd b84a ec3c deff 813d
00000300: 805c e53c 3031 f13d e85e 3b3d a8ac fbbd
00000310: 1442 aebd 72c3 c33d 501b 2b3c 2e12 b33d
00000320: c627 d9bd 3858 113d fa75 ea3d 1c07 36bd
00000330: e8e1 be3d 4087 383b 7093 3fbd acd4 dcbd
00000340: d0ca 64bc e0a9 973d 208c 92bc 80ff bbbc
00000350: bc6c 88bd 3ca2 5fbd 40c9 24bc 18a9 b6bd
00000360: 6c0c 44bd 881c eebc 2816 52bd 80d1 913a
00000370: 9096 1f3c 88e6 753d 9ce5 273d c034 41bd
00000380: 1e64 913d 40a4 75bd b0b3 abbc ec41 c33d
00000390: b07f 8dbc 5ac6 c7bd 2e3b efbd b872 f7bc
000003a0: 00e7 9cba 38b2 753d 883a df3d c029 763d
000003b0: 10c3 d0bd a07c 21bd 70c2 023d d0ea ddbc
000003c0: 22f9 8d3d a841 c4bd a40c eb3d a0c9 12bc
000003d0: e011 273d 98e7 5ebd 46c4 cf3d 98db d03c
000003e0: e2e8 b03d 0849 d7bd 5019 cf3c 60f1 8abc
000003f0: 4813 75bd 00a4 0ebd 28bd a63c f0aa 97bd
0.055857584 0.06831953 0.096897334 0.044504717 -0.04600203 -0.033393532 0.11109835 -0.053529456
0.024011165 -0.051856846 0.03168735 -0.01811646 0.090241104 0.0625397 -0.056381986 -0.07293761
-0.12228048 0.109307304 -0.029738486 -0.06832737 -0.05892791 -0.049319312 0.010246605 0.021228224
0.06842771 0.067323 -0.07739997 -0.040342033 0.072720036 0.03287433 0.05646336 -0.10820654
-0.10885903 0.02827175 -0.07038143 -0.08675012 -0.11437732 0.09853046 -0.024274245 -0.02440016
0.0008254647 0.03904876 0.010088712 -0.017118633 -0.08731131 -0.1104306 0.037469134 -0.095371574
-0.123566955 -0.113031 0.1232539 0.041202694 -0.08211909 0.09064999 0.040807053 -0.066492826
0.0123165995 0.033249274 -0.10972588 0.02133423 0.057440042 0.00043353438 -0.11530846 0.124591306
0.014599115 0.021595642 0.04680337 -0.058809564 0.11137782 -0.098783195 0.08228257 0.0618629
-0.09548381 0.05766684 0.03629923 -0.033572882 -0.10300733 -0.069707096 0.07337512 0.04664643
0.07083818 0.079781085 0.083161876 0.11150885 -0.095785215 0.06503758 -0.027613297 0.08430876
-0.08332382 0.11115584 0.07635249 0.005043149 -0.062547326 0.026450261 -0.066568434 0.05430633
-0.09158155 -0.021575779 0.025192484 -0.07675567 -0.08957851 0.01699312 -0.025595501 -0.06613943
0.013292551 0.10279067 1.7538667e-05 -0.021875441 0.10862112 0.11386897 0.09168863 -0.02933982
0.019556299 0.017878264 -0.0036295056 0.105679065 -0.072038114 0.018777445 -0.12262976 -0.100743145
0.0625523 0.029025882 -0.11912437 0.10311581 -0.10146433 0.09815113 0.08405793 -0.048346654
0.122308254 -0.10248709 0.057999387 -0.060027137 -0.0997608 0.055339605 0.014272779 0.046582982
0.07846865 -0.054154873 -0.03014347 -0.11061491 -0.07466036 -0.08887154 0.011985153 0.045031086
0.091517225 -0.022154853 0.0007895231 0.08654916 0.07505439 0.10933955 -0.12010519 -0.09113227
0.035759702 0.11056711 0.06598054 -0.08415845 -0.038976222 0.0968681 0.014461532 -0.047556907
0.11871664 0.052052632 0.03826277 -0.016516536 -0.019809902 -0.10328938 -0.07836954 -0.044606403
0.04657668 0.112967774 0.06749748 -0.07556248 -0.06820701 -0.118749425 -0.020146534 -0.017240852
0.03029333 -0.0071378797 -0.09363848 0.052951545 0.029832587 0.12155448 0.058315665 0.09284878
-0.023368716 -0.025793418 0.118712515 0.046109468 -0.04086806 -0.033778623 0.028844222 0.06347631
0.027998209 0.1177696 0.045744807 -0.12288791 -0.08508697 0.095587626 0.0104435235 0.08743702
-0.10603289 0.035484523 0.114482835 -0.044440374 0.09320432 0.0028156787 -0.046771467 -0.107827514
-0.01396437 0.07405448 -0.017889082 -0.02294898 -0.066613644 -0.054598078 -0.010057747 -0.08918971
-0.04786341 -0.02906634 -0.05129066 0.0011125058 0.009740487 0.060034305 0.040990457 -0.047169447
0.07099174 -0.059971094 -0.020959705 0.09534058 -0.0172728 -0.097546294 -0.116812095 -0.03020607
-0.0011970699 0.059984416 0.10899836 0.06009841 -0.10193455 -0.039425492 0.03192371 -0.027089506
0.06932284 -0.095828354 0.114770204 -0.008959204 0.04078853 -0.054420084 0.10144858 0.025495335
0.08638169 -0.105119765 0.025280625 -0.0169608 -0.05983284 -0.03482437 0.020353869 -0.074056506

hyper_w2.2.bias f4 [32]
00000000: 58ba 5b3d b094 1a3c 926a dc3d 8057 5f3d
00000010: e019 e9bb ac1a a0bd 60f6 e4bd 6066 e23d
00000020: 4452 253d e46d ec3d 0812 ffbc e06c c1bd
00000030: 50ef 743c 8cfa 39bd fe46 eb3d e4c8 713d
00000040: 9cab 90bd accc 603d 8034 79bc 880f de3c
00000050: 404e 9cbd 66d9 86bd 6cbb 523d b049 71bd
00000060: da78 c73d bc01 88bd 68b0 0ebd 80bc 3fbd
00000070: 34a5 8cbd 1071 363c 6aad d23d e886 88bc
0.053644508 0.009434864 0.10762514 0.054526806 -0.0071136802 -0.07817587 -0.11179805 0.11054683
0.040361658 0.115443975 -0.031136528 -0.094445944 0.014949635 -0.045404956 0.1148815 0.059029475
-0.07063982 0.05488269 -0.015210271 0.027107015 -0.076321125 -0.06584434 0.05144827 -0.058908165
0.097398475 -0.06640956 -0.034836203 -0.046810627 -0.068674475 0.011135355 0.10286982 -0.01666589

hyper_b1.weight f4 [32, 576]
00000000: bafd 18bd 0a7f 18bd 10e7 18bd bd45 183d
00000010: ce89 fd3c 3000 993c 031b 193d 7205 f23c
00000020: c4bd 1dbd a096 ddba 3e48 963c 7894 1dbd
00000030: eb4a c4bc a0c2 8ebb f5c5 013d 51f4 1b3d
00000040: a6c6 983c d0fd 7c3b 0054 163a 3e23 8c3c
00000050: 6ede 893c 00f6 fdbb c0cd 693a 5e03 83bc
00000060: 86d9 f0bc 2157 113d 3407 793c de1f 98bc
00000070: c74c 00bd 008e 783b 4826 edbb 8314 2a3d
00000080: ea39 963c f466 403c 201d 903c 3300 263d
00000090: b029 8b3c 76f4 8e3c b838 98bc b444 343c
000000a0: 10e4 5dbb a04c 81bb 4c19 363c 000a a4bc
000000b0: e049 bebc 7009 2c3b f210 f33c f242 0cbd
000000c0: 8f26 17bd b097 74bc 088d af3b a044 a73a
000000d0: 3c09 0b3c 9888 84bb c0b4 3b3b 7294 b33c
000000e0: 00f2 1dbb 2782 223d 7596 293d 4b62 253d
000000f0: bcdc 01bd 6849 903b ae33 e8bc dd5f 113d
00000100: 4060 5cba f415 463c 9a4e fd3c f256 993c
00000110: 4828 dabc f754 26bd e6e8 fabc 79dc 193d
00000120: bb0b adbc c834 df3b 6b16 f6bc 20d2 9abb
00000130: 808d ec3b ad4c 013d c805 b33b f058 1a3b
00000140: a0f5 433c b458 7e3c 2c02 673c cb42 18bd
00000150: 521c da3c 1800 88bc 081c 9b3c 50c5 56bb
00000160: 30f3 2fbc 4467 723c 9217 b23c 8c59 48bc
00000170: 3ba6 acbc c3ab 96bc af30 01bd 700f 1a3b
00000180: 02d1 f13c 185e c13b 00c1 653b 5217 8e3c
00000190: 5cb1 033c 0007 1a3c cdb8 0a3d e01c b5bc
000001a0: e04d d83a c611 9dbc c0f7 33bb e038 97ba
000001b0: 5323 d1bc ea1e 16bd 798f 1f3d ac99 2abd
000001c0: e67e ed3c c01a 233b 0375 09bd 88c1 8a3b
000001d0: 40ac 7bbb 93dc cdbc 00dd 0dbc 3409 733c
000001e0: 9350 10bd f614 79bc 52ba c63c 43d3 073d
000001f0: 4b97 edbc 0ca1 023c c019 92bb d2c5 d13c
00000200: 0037 6139 155f 243d c083 153c 00e8 8ab8
00000210: adeb 103d ae64 eabc 4179 153d d0ab 5f3b
00000220: 863c 69bc fce8 6b3c 9d45 003d ea04 883c
00000230: 7906 183d 78a0 e2bc 602a 84ba e312 273d
00000240: 4224 f93c 00d0 ee38 2440 0c3c 20b7 21bc
00000250: d0a5 14bd d6ca aa3c 1eae ebbc fab9 20bd
00000260: f99e 103d 4260 d43c 3cdc 023c 002f dabc
00000270: 32e6 15bd 12c3 df3c d02c 26bd 5c9f 1d3c
00000280: d205 873c dc17 523c 5630 fe3c 1a59 d63c
00000290: 8007 63bc fe10 9f3c 0a18 b83c 560d 13bd
000002a0: 569e 933c a983 153d f66e d0bc 00fc aab9
000002b0: 12d0 843c 69e7 0c3d 4cf4 4bbc 8309 b0bc
000002c0: ecfb 1d3c 3e52 e43c f42e 6b3c 9d66 0c3d
000002d0: 992f 183d 0060 6938 364e f5bc d68c 7cbc
000002e0: 34eb 29bc 3639 02bd f62e 18bd 4b52 cabc
000002f0: 8c83 15bc 67d7 1dbd 1eb7 83bc dcf8 37bc
00000300: e9c5 0f3d 1055 903c e219 ea3c 0209 b33c
00000310: c41d 383c 7001 11bc 6a7d ae3c a96f 013d
00000320: ed5a 103d a48b 0bbc e39d babc f0db a03c
00000330: 95ae 123d d0cf 75bb 5eec ca3c 8d67 183d
00000340: 6a4b 20bd 6e79 ec3c 0a3c c43c 4683 ae3c
00000350: e067 123c 88b1 bdbc ba39 af3c 30a5 02bc
00000360: d0f3 a2bc c5ec 0d3d a089 97bc e8a6 bdbc
00000370: 1897 823b df78 023d 27d5 153d 5094 523c
00000380: fc78 48bc 10eb 24bd 0fa5 273d b382 1ebd
00000390: 8bb6 bfbc 3d5f 133d d677 e43c 706b cbbc
000003a0: deba ce3c 8084 7ebb 883c 983b 73fd 92bc
000003b0: ba91 b83c 5b75 273d 6905 123d f360 d0bc
000003c0: 733a acbc 5860 debc 1d96 123d 9067 073b
000003d0: b1dc 1a3d 83ac 263d 7822 fcbb 86ed fcbc
000003e0: 2903 1d3d a3a9 1b3d a02b edbb db2a 11bd
000003f0: 6432 06bc 802a 7c3b 0ba5 d2bc a8e1 d93b
-0.037351348 -0.03723053 -0.037329733 0.037175883 0.0309495 0.018676847 0.037379276 0.029543612
-0.038511053 -0.0016905852 0.018344995 -0.03847167 -0.023961505 -0.004356697 0.031682927 0.038074795
0.01864941 0.0038603432 0.0005734563 0.017106649 0.016829696 -0.0077502728 0.0008918904 -0.015992817
-0.029400598 0.035483483 0.015199471 -0.018569883 -0.03132322 0.0037926435 -0.0072372295 0.041523468
0.018338162 0.011743296 0.017592013 0.040527534 0.016987652 0.017450552 -0.018581733 0.011002708
-0.003385786 -0.003945902 0.01111443 -0.0200243 -0.023228586 0.0026250742 0.029671166 -0.03424353
-0.036902007 -0.014928743 0.0053573884 0.0012761541 0.008486088 -0.0040446036 0.002864167 0.02192137
-0.0024100542 0.039674904 0.041403253 0.040376943 -0.03170465 0.004403282 -0.028344955 0.035491813
-0.00084066764 0.012090195 0.03092127 0.018718217 -0.026630536 -0.040608373 -0.030628633 0.037563775
-0.021123758 0.006811712 -0.030039987 -0.004724756 0.0072190166 0.031567264 0.0054633357 0.0023551546
0.011960417 0.015524078 0.014099639 -0.037173074 0.026624832 -0.016601607 0.018934265 -0.0032771416
-0.010739133 0.014795128 0.021739755 -0.012228381 -0.021075359 -0.01839245 -0.03154057 0.0023507737
0.029518608 0.0059011094 0.0035057664 0.017345104 0.008037891 0.009401083 0.033867646 -0.022108495
0.0016502701 -0.019173514 -0.0027460903 -0.0011537336 -0.02552954 -0.036650576 0.038955186 -0.04165046
0.028991174 0.002488777 -0.033558857 0.0042344965 -0.003840223 -0.025129592 -0.008658648 0.014833737
-0.03523309 -0.015202751 0.024258766 0.03316046 -0.029002806 0.007972967 -0.004458636 0.025607023
0.00021478161 0.04012974 0.00912565 -6.623566e-05 0.035381008 -0.028612461 0.03649259 0.0034129508
-0.014235621 0.0143988095 0.03131639 0.016603906 0.037115548 -0.027664408 -0.001008343 0.040789496
0.030412797 0.000113874674 0.008560214 -0.009870321 -0.036290944 0.020848673 -0.028769549 -0.03923986
0.03530786 0.025924806 0.007987078 -0.02663374 -0.036596484 0.027314696 -0.04057008 0.009620514
0.016482268 0.012823071 0.031028908 0.026165534 -0.013856769 0.019417282 0.0224724 -0.03590139
0.018019836 0.036502514 -0.025443535 -0.0003261268 0.016212497 0.034400377 -0.012448382 -0.02148891
0.009642582 0.027871247 0.014354456 0.034277547 0.037154768 5.5640936e-05 -0.02994452 -0.015414437
-0.010371018 -0.03179284 -0.03715416 -0.024697443 -0.0091256015 -0.0385355 -0.016078528 -0.011228766
0.03510085 0.017618686 0.028576795 0.021854881 0.011237565 -0.00885044 0.021300036 0.031600628
0.035242964 -0.00851718 -0.022780364 0.019636124 0.035811026 -0.00375079 0.024770912 0.03720813
-0.03913442 0.028866496 0.02395441 0.02130283 0.008935899 -0.023155943 0.02138983 -0.007973954
-0.01989165 0.03464963 -0.018498242 -0.023150876 0.003985297 0.031853553 0.03658023 0.012852743
-0.012235876 -0.040263236 0.040928897 -0.038698863 -0.023402473 0.0359795 0.027889173 -0.024831504
0.02523559 -0.00388363 0.0046458878 -0.01794312 0.022530425 0.040883403 0.03564969 -0.025436854
-0.021023965 -0.02714555 0.03578769 0.0020661093 0.037808124 0.040691864 -0.0076945387 -0.030874979
0.038333092 0.038003575 -0.0072378665 -0.03544126 -0.008190725 0.003847748 -0.025713464 0.006649215

hyper_b1.bias f4 [32]
00000000: 5389 e9bc b6ec f63c 43de f4bc 00d9 e43b
00000010: 7661 dcbc f262 07bd 0613 eb3c a0b7 e1bc
00000020: af29 163d 2829 e9bb 8e45 ecbc c03d dfbc
00000030: fbc6 e9bc 00fa 0fbc 6ef5 ef3c a385 acbc
00000040: a034 a53b faa0 21bd c0e0 26bc a89b cbbb
00000050: 86d2 23bd f23f 1dbd d055 21bd 69a2 133d
00000060: 3331 233d de01 a2bc 983f 823c 9849 913c
00000070: ea98 29bd 400b 3bbc 2b9b 043d ec3a 60bc
-0.028507864 0.03014217 -0.029891139 0.006983876 -0.026901942 -0.033053346 0.028695595 -0.02755338
0.036660846 -0.007115502 -0.02884176 -0.027251124 -0.028537264 -0.008787632 0.029291835 -0.021059817
0.005041674 -0.03946016 -0.0101854205 -0.006213624 -0.039995693 -0.03839106 -0.039388478 0.03604356
0.039841842 -0.019776281 0.015899464 0.017735288 -0.041405596 -0.011416256 0.032374542 -0.013685923

hyper_b2.0.weight f4 [32, 576]
00000000: d871 12bd 4651 d1bc 820f c83c 005f 2739
00000010: 402c e7bb 1012 1ebb be31 813c 0004 78bb
00000020: 1a88 c13c ae46 bc3c 488b 0bbd 5a7a f83c
00000030: e043 d23a 5a8b d13c 4fef 1e3d 802e 17bd
00000040: 962f 69bc 9814 99bb c6d9 13bd a73a 1f3d
00000050: f2ae ce3c 1ae5 c83c 1a6a fb3c 2ee8 93bc
00000060: d4e0 293c d09b e2bc 6000 68bc 2964 163d
00000070: c30a bbbc e863 a23c 5086 bebc b069 73bc
00000080: c060 18bb c620 9cbc f6a9 5fbc e03e 84bc
00000090: 3d19 1f3d 8051 83b9 055a 083d 16fe b8bc
000000a0: 8b49 053d a89b a9bb 2090 903b f8b2 f3bc
000000b0: 285b e3bc 107a 343b 16f7 9a3c a811 11bd
000000c0: 408a a8bb 563d 9abc fc46 58bc 70ab 9ebc
000000d0: 78ad 22bd e25f b83c 4f6d 243d 3e55 0abd
000000e0: 705b 503b 2b1c d2bc 1a24 e63c ec52 14bc
000000f0: 1630 cf3c 46c9 d3bc d858 9dbb c6fd 1bbd
00000100: 53c3 f7bc 6615 06bd c20f ee3c a00e f33b
00000110: 98a0 f3bb 23f6 1ebd 4299 ef3c 80cc 8cbb
00000120: cd69 153d 88cb dfbc 921d de3c 8e12 ad3c
00000130: 2295 d13c 1220 b23c a3a3 e3bc d078 6b3b
00000140: 240d 333c b838 fcbc e764 15bd 8dea 083d
00000150: c6f1 df3c e023 ba3a c047 1bbd 992f 0a3d
00000160: 22a6 e43c da3e ba3c 8071 deb9 f98e 0a3d
00000170: 236e 063d 069a 3fbc fe37 26bd bdf4 203d
00000180: c5e7 1a3d dc39 0ebd 3688 7dbc 4e6f 823c
00000190: 937c 11bd 30da 73bb 5c18 243c 3069 d7bc
000001a0: 6ae2 f03c 207c 82ba 58ee 18bd 8050 edb9
000001b0: 5b48 d7bc 0a24 0ebd a078 c9bb 4892 973c
000001c0: d86e 8abb 8768 14bd a512 223d e33b f7bc
000001d0: 3814 8ebb ced0 bcbc 6098 ebbc dcbe 003c
000001e0: 3823 e4bb 4425 403c 304b 0fbd bb0b bdbc
000001f0: b8e8 cebb a66a ba3c 946f 403c 3055 393c
00000200: 9e43 9ebc ed96 1f3d 66d1 86bc 3067 a03c
00000210: 5abe f13c 3075 533b 78ce f73b c002 4dba
00000220: c750 04bd c5c9 223d 7bb2 a3bc 1586 053d
00000230: c0d4 523c 0a31 ff3c d825 aabc 53b2 173d
00000240: 444f 1ebc fc0b 40bc c36a a5bc a4cb 3a3c
00000250: ab17 a2bc 76e9 71bc 512f 0f3d 7645 e5bc
00000260: 8096 323b 31ec 243d 302b 58bb 366d f3bc
00000270: fc6f 12bc 86e7 fc3c a865 8cbc 0e19 83bc
00000280: 03d8 0dbd 8567 1a3d a632 5abc c8a4 bfbb
00000290: d274 d13c 82ec d83c 1bb1 223d ac58 4fbc
000002a0: 60b5 ffbb 80cf f239 b78c 11bd 1a58 f73c
000002b0: 61e8 083d 09b9 0e3d 4e4e cf3c f08c 0a3c
000002c0: db73 ffbc b65c d0bc 30d0 cbbc 00ed edba
000002d0: 90e5 9dbc 22e0 c03c aef2 b13c 8add 943c
000002e0: 80b5 593b c202 ed3c 4a17 12bd 20a6 e03a
000002f0: efdf 243d 105c 30bb 8755 183d 2803 853c
00000300: 03bb 0c3d de8f c6bc 1270 18bd 66b5 e8bc
00000310: 808b a13a 069b 42bc f0e6 2abb 33f6 dfbc
00000320: 4479 1a3c 5307 88bc 0215 d53c be83 c33c
00000330: e8a8 b0bc 90a6 29bd d099 01bc cddf 233d
00000340: c545 1b3d e3a7 b7bc d072 0fbd d0f6 77bc
00000350: 5e2c 853c c0d9 4dbc 2474 373c 400c bf3b
00000360: 724d 8e3c 123d 06bd 1d28 233d 90d0 423c
00000370: 8033 c6b9 c983 013d f61a a83c 1a31 14bd
00000380: e0dc 9b3c 8019 923a 4057 903b 1b4d e5bc
00000390: 792a 1b3d c03c 0d3c b0b6 1d3b 70f1 9d3c
000003a0: b2b6 13bd d069 cabc e84d 953c 0063 07bb
000003b0: 00a7 2539 8ff1 173d 05d3 043d 1411 213c
000003c0: 1bb2 b0bc 3067 063c a06f 623c fe36 cc3c
000003d0: 5307 0d3d faa7 f13c 02b2 0cbd 60ea 55bc
000003e0: 26d1 2bbc c881 dbbb 0567 1e3d 08be c2bc
000003f0: 48c6 f73b 882d 97bb f353 223d 00ca 96b8
-0.0357531 -0.02555145 0.024421457 0.00015961751 -0.0070548356 -0.0024119653 0.01577079 -0.003784418
0.023624469 0.022982921 -0.034068376 0.03033178 0.0016041957 0.025579143 0.03880244 -0.03690958
-0.014232537 -0.0046716444 -0.036096357 0.038874295 0.025229905 0.024523307 0.030690242 -0.018055048
0.010368545 -0.027662188 -0.014160246 0.036716614 -0.02283228 0.01982303 -0.023257405 -0.014856741
-0.0023251027 -0.019058596 -0.013651362 -0.016143262 0.03884243 -0.0002504699 0.033288974 -0.022582095
0.03254084 -0.0051760264 0.0044117123 -0.029748425 -0.027753428 0.0027538575 0.018916648 -0.03541723
-0.005143434 -0.018828075 -0.013200518 -0.019368857 -0.039716214 0.022506658 0.040143307 -0.0337727
0.0031792782 -0.025648197 0.028093386 -0.009052973 0.025291484 -0.02585281 -0.0048018508 -0.038083814
-0.030244505 -0.03273525 0.029060248 0.007417515 -0.0074349158 -0.038808953 0.029247884 -0.0042968392
0.036477853 -0.027318731 0.02711371 0.021127012 0.025583807 0.021743808 -0.027787989 0.0035930164
0.010928426 -0.030788764 -0.03647318 0.03342681 0.027336966 0.0014201365 -0.037910223 0.0337368
0.02791125 0.022735048 -0.00042427704 0.033827756 0.03281988 -0.011694437 -0.040580742 0.0392959
0.03781869 -0.034723148 -0.01547437 0.015922215 -0.035519194 -0.0037208907 0.010015573 -0.026295274
0.029404838 -0.0009955205 -0.037336677 -0.0004526414 -0.026279619 -0.03470234 -0.006148413 0.01850237
-0.0042246394 -0.036232498 0.039568562 -0.030179923 -0.0043359064 -0.023048785 -0.028759181 0.007858004
-0.006962206 0.011727635 -0.034983814 -0.023076883 -0.0063143633 0.022755932 0.011745352 0.011311814
-0.019319352 0.038962293 -0.01645727 0.019580454 0.029509712 0.0032265894 0.007562455 -0.0007820539
-0.032303598 0.039743204 -0.019982567 0.032598574 0.012868106 0.031151313 -0.020769998 0.037035298
-0.009662453 -0.011721607 -0.02019251 0.011401091 -0.019786676 -0.014765134 0.034957234 -0.027987223
0.002725035 0.040264312 -0.0032984726 -0.029715162 -0.008937832 0.030872118 -0.017138317 -0.016003158
-0.034629833 0.03769638 -0.01331774 -0.005848501 0.0255684 0.026479963 0.039719682 -0.012655418
-0.007803604 0.00046312436 -0.035534587 0.030193377 0.03342474 0.034844432 0.025305893 0.008456454
-0.031183174 -0.025434833 -0.024879545 -0.0018152297 -0.019274503 0.023544375 0.021722164 0.018172044
0.0033219755 0.02893198 -0.03566674 0.0017139353 0.040252622 -0.0026910342 0.03719094 0.016236857
0.034358036 -0.024238523 -0.037216254 -0.02840681 0.00123249 -0.011877781 -0.002607759 -0.027339077
0.009428326 -0.016605055 0.026010994 0.02386653 -0.021564916 -0.041418612 -0.007910207 0.040008355
0.037908334 -0.022418922 -0.035021603 -0.015134528 0.016256507 -0.012564123 0.011197124 0.0058303177
0.017370913 -0.032773085 0.039833177 0.0118905455 -0.00037803873 0.03161982 0.020520668 -0.03617964
0.01902622 0.0011146516 0.0044049323 -0.027990868 0.037882302 0.008620441 0.002406519 0.019280165
-0.036062904 -0.024708658 0.018225625 -0.0020658374 0.00015797839 0.037095603 0.032427806 0.009830732
-0.021569302 0.008203313 0.013820559 0.024928566 0.034430813 0.029499043 -0.03434945 -0.013056368
-0.010486877 -0.0066988207 0.038672466 -0.023772255 0.0075614788 -0.004613582 0.03963084 -7.190183e-05

hyper_b2.0.bias f4 [32]
00000000: b03a 503b b05c 3c3c a67e 80bc a6d2 cfbc
00000010: a827 a43c d8c6 8a3b 77ce 03bd 70e9 0e3c
00000020: 0ec8 c5bc e0ff 983b 64d4 26bc 52cd 15bd
00000030: fc9d 18bd a0fe 823c 1ebf 98bc 5e78 f7bc
00000040: 00c7 5b39 44ed 143c d831 d7bb ec6e 143c
00000050: a0ae 01bd b87d e83b 0e4a b63c 10e1 4a3c
00000060: 40b2 533c 042a 253c a1fa 043d a6b9 b13c
00000070: f42d 003c 20b0 493c e7bb 263d 446c 0dbc
0.0031773262 0.011496708 -0.01568539 -0.025369 0.02003844 0.00423513 -0.032179322 0.008722648
-0.024143245 0.0046691746 -0.010182474 -0.03657276 -0.03726004 0.015990555 -0.01864582 -0.030208763
0.00020959601 0.009089772 -0.006567221 0.009059649 -0.031660676 0.007095065 0.022252109 0.012382761
0.012920916 0.010080818 0.03246558 0.02169497 0.007823456 0.012310058 0.04070654 -0.00863177
