models/v2/target_qmix_net.pth (torch, 867516 bytes, 13 tensors)

hyper_w1.0.weight f4 [64, 1024]
0	0x3c932636	0.017962556
1	0xbb88bb78	-0.0041727386
2	0xbca043c4	-0.019563563
3	0x3c9c58f4	0.019085385
4	0x3c88d616	0.016703647
5	0xbce2c85e	-0.027683433
6	0xbca9fe94	-0.020751275
7	0xbb30f090	-0.0026998855
8	0xbcac3de8	-0.021025613
9	0xbc9d3b86	-0.019193422
10	0xbc157dac	-0.009124201
11	0x3b8c6c48	0.004285369
12	0xbb2b3c70	-0.0026128553
13	0xbc8c066a	-0.017092902
14	0xbc5a22ec	-0.01331399
15	0x3c648708	0.01394821
16	0x3ce862b8	0.028367385
17	0xbcb28f36	-0.021796804
18	0xbce5b996	-0.028042596
19	0xbc8e4b76	-0.017369967
20	0xbcf4639a	-0.02983265
21	0xbccf4cb0	-0.025305122
22	0x3cdee5ce	0.027209189
23	0x3cbc39e2	0.02297682
24	0x39c47a00	0.0003747493
25	0x3bcbe188	0.006221954
26	0x3bc18e68	0.0059068687
27	0x3ba24460	0.0049519986
28	0x3c2561b4	0.010094095
29	0xbced371c	-0.028956942
30	0xbc289340	-0.010289013
31	0xbceb00fc	-0.028686993
32	0x3a8730c0	0.0010314211
33	0x3c459fb4	0.012062002
34	0x3c5693ac	0.013096731
35	0xbcf15fca	-0.029464621
36	0xbcec2980	-0.028828382
37	0xbc829c08	-0.015943542
38	0xbcde9bd0	-0.027173907
39	0x3cd4dee0	0.025985181
40	0x3c27f70c	0.010251772
41	0xbc6b6914	-0.014368314
42	0x3c080ad8	0.008303367
43	0xbbf30c88	-0.0074172653
44	0x3bd1c6a8	0.0064018555
45	0x3ca04b88	0.019567266
46	0xbcaf9976	-0.02143548
47	0x3c8bece2	0.017080728
48	0xbcb32e80	-0.021872759
49	0xbcdfb99e	-0.027310189
50	0xbc851b7c	-0.016248457
51	0x3c991bcc	0.018690012
52	0xbce6fb26	-0.028195929
53	0xbcbbe636	-0.022936922
54	0x3ce07a78	0.027402148
55	0x3cd2c100	0.025726795
56	0xbcfe2a76	-0.031026106
57	0xbcd74466	-0.026277732
58	0xbcc209c0	-0.02368629
59	0xbc08b550	-0.0083440095
60	0xbcceea50	-0.025258213
61	0xbcd048be	-0.025425311
62	0x3be400e8	0.006958116
63	0xbc92aa6e	-0.017903533
64	0x3ce5c826	0.02804954
65	0x3c9a6968	0.01884909
66	0xbb863670	-0.004095845
67	0x3c7a3810	0.015272155
68	0xba77f740	-0.00094591454
69	0xb8b10000	-8.440018e-05
70	0x3c63fdc4	0.013915483
71	0xbcc9b9dc	-0.024624757
72	0x3ab37580	0.0013691634
73	0xbae2b600	-0.0017296672
74	0x3cc22330	0.02369842
75	0x3c35fc04	0.0111074485
76	0x3cac1b46	0.021009099
77	0xbcbbbce0	-0.022917211
78	0x3cf283d6	0.02960388
79	0x3ce9e0ec	0.028549634
80	0x3ce3d77e	0.027812716
81	0x3c4a4278	0.012344949
82	0x3c88881c	0.016666465
83	0x3ce83a10	0.028347999
84	0x3ceac542	0.028658513
85	0xbca204dc	-0.019777708
86	0xbcfa4fb4	-0.030555584
87	0x3b17cb10	0.0023161806
88	0xbc74f188	-0.014950164
89	0x3a3a3d80	0.0007104501
90	0xbc34ba04	-0.011030678
91	0x3cda6b74	0.026662566
92	0xbce3bb9c	-0.02779942
93	0x3b17c3c0	0.0023157448
94	0x3c0ef1cc	0.008724641
95	0x3c7ecc88	0.015551694
96	0x3caca102	0.021072868
97	0x3965d500	0.0002191849
98	0xbca2a9c4	-0.019856341
99	0xbcf2d18e	-0.02964094
100	0xbb921ff0	-0.0044593737
101	0x3c56f28c	0.013119351
102	0xbc8b1484	-0.016977556
103	0x3bd59498	0.006517958
104	0xbc561934	-0.013067532
105	0xbcf338d4	-0.029690184
106	0x3c9c48e2	0.019077722
107	0x3b62d3c0	0.0034611076
108	0x3cb16b74	0.021657683
109	0x3c3c1c00	0.011481285
110	0x3ce242e8	0.027619794
111	0xbc93d532	-0.018045995
112	0xbcefc41e	-0.02926832
113	0x3c323a9c	0.010878231
114	0xbbffa7c8	-0.0078019835
115	0xbc7ef6a4	-0.015561733
116	0xbb4c4cf0	-0.0031173788
117	0xbade3c80	-0.0016955286
118	0xbcda2e6e	-0.026633468
119	0x3bcf4d30	0.00632634
120	0x3c80f9ca	0.015744109
121	0xbbdd4f50	-0.0067538396
122	0x3cf77336	0.030206304
123	0x3c03b93c	0.008039769
124	0x3cbf2580	0.023333311
125	0xbcd3ecaa	-0.025869686
126	0x3ad8ae80	0.0016531497
127	0xba92db20	-0.001120422
128	0xbcbdb0ca	-0.023155589
129	0x3cff5996	0.031170648
130	0x3cbe03aa	0.023195107
131	0xbc04f208	-0.008114345
132	0x3b80bbe0	0.0039286464
133	0x3cd62c78	0.026144251
134	0xbbe767d0	-0.007061936
135	0x3cf4d566	0.029886913
136	0x3a6b0080	0.0008964613
137	0xbc9b5d14	-0.018965282
138	0xbce4369a	-0.027858067
139	0xbcc88fba	-0.024482597
140	0xbcff153e	-0.031138059
141	0xbc275244	-0.010212485
142	0xbc806792	-0.015674386
143	0x3b892ad8	0.0041860156
144	0xbc4580c0	-0.012054622
145	0xbce8537c	-0.028360121
146	0x3ce235a4	0.027613468
147	0x3c46e08c	0.012138497
148	0xbcca198c	-0.024670385
149	0x3b2f0a90	0.0026709177
150	0xbc9c87e6	-0.01910777
151	0x3cbbdd26	0.0229326
152	0xbcf35b16	-0.02970652
153	0xbcfd8dfc	-0.030951492
154	0x3c963c0c	0.01833918
155	0xbc4d0d18	-0.012515329
156	0x3c337498	0.010953091
157	0xbca3d2c4	-0.019997962
158	0xbabcec40	-0.001441367
159	0xbafea760	-0.0019428544
160	0xbccf841c	-0.02533155
161	0x3c855dca	0.016280074
162	0xbc396da8	-0.011317648
163	0x3c5f70fc	0.013637777
164	0xbc9a5354	-0.018838562
165	0xbcd345f4	-0.025790192
166	0xbc12631c	-0.008934762
167	0xbc8bebc6	-0.017080199
168	0x3c8fe23e	0.017563935
169	0x3ca39426	0.019968104
170	0x3cc07810	0.02349475
171	0x3cf82ca4	0.030294724
172	0x3ca89128	0.020577028
173	0x3cd4d3f4	0.025979973
174	0xbcead56c	-0.02866622
175	0x3c25b298	0.010113381
176	0x3be4b1d0	0.0069792047
177	0xbcf691d4	-0.030098833
178	0x3ce2668e	0.027636793
179	0xbad99d00	-0.0016602576
180	0xbc2fb2a4	-0.010723744
181	0xbc53bd24	-0.012923513
182	0x3b5d6ce0	0.0033786818
183	0xbcd48fc4	-0.025947459
184	0xbc299c54	-0.010352213
185	0xbcfc2558	-0.030779526
186	0xbcd25d76	-0.025679331
187	0x3ccdaa1a	0.025105525
188	0xbcc41182	-0.02393413
189	0xbc45e35c	-0.0120781325
190	0xbc3e1564	-0.01160178
191	0xbc36c38c	-0.01115502
192	0xbc37055c	-0.011170711
193	0xbcb578e2	-0.022152368
194	0xbcffde4e	-0.031233933
195	0xbc1a9964	-0.009435985
196	0xbcc6468a	-0.024203558
197	0x3cebe3f6	0.028795224
198	0xbc837710	-0.016047984
199	0x3cf9908e	0.030464437
200	0xbb798680	-0.0038074553
201	0xbcec9d18	-0.028883502
202	0x3cc22650	0.02369991
203	0x3cc245cc	0.023714922
204	0x3c6301b4	0.0138553865
205	0x3b14a740	0.0022682697
206	0xbc79fae0	-0.015257567
207	0x3c92b83a	0.017910112
208	0x3c111b44	0.008856598
209	0x3c2338c4	0.009962264
210	0x3c5d2d5c	0.013499584
211	0xbbd94b90	-0.006631322
212	0x3b801e30	0.0039098486
213	0x3cfc7990	0.030819684
214	0x3ba68d40	0.0050827563
215	0x3cb94406	0.022615444
216	0xbc0299b4	-0.007971216
217	0x3c3f48e4	0.011675093
218	0x3c345570	0.011006698
219	0xbbb5f688	-0.0055530705
220	0xbb9c26e8	-0.00476538
221	0xbc69fcf8	-0.014281504
222	0x3bfe4280	0.0077593923
223	0x3bf4b230	0.0074675307
224	0x3cb73fe8	0.02236934
225	0xbc2d1d28	-0.010566033
226	0x3c11cbe0	0.008898705
227	0x3c8d8aa0	0.017278016
228	0x3c3fb45c	0.011700716
229	0xbcab2dd0	-0.020895869
230	0xbc4677d0	-0.012113526
231	0x3a809fe0	0.0009813271
232	0x3ce574c4	0.02800978
233	0x3ca07d22	0.019590918
234	0xbbd761b0	-0.0065729246
235	0x3c541b04	0.012945894
236	0x3c889710	0.016673595
237	0x3c750838	0.014955573
238	0xbc44f7c8	-0.012021966
239	0xbb9f6990	-0.004864879
240	0xbbc9e070	-0.0061607882
241	0x3cf80f8e	0.030280855
242	0xbc77e924	-0.015131269
243	0xbb47f3d0	-0.0030510314
244	0xbcb3ca2a	-0.021946985
245	0x3baf8718	0.0053566806
246	0xbcaa38e0	-0.020779073
247	0x3c009968	0.007849075
248	0x3be95690	0.0071209148
249	0x3c58648c	0.013207566
250	0xbc48e828	-0.012262382
251	0xbac7ca20	-0.0015242733
252	0x3bf64630	0.007515691
253	0xbc54caa8	-0.01298777
254	0x3abc5a40	0.0014370158
255	0xbcae4902	-0.021275047

hyper_w1.0.bias f4 [64]
0	0xbc76c194	-0.015060801
1	0xbcb625d6	-0.022234838
2	0x3cdb9b0a	0.026807327
3	0x3ca9cdbe	0.020727988
4	0xbcc91c28	-0.024549559
5	0x3cd5293a	0.026020635
6	0xbceb03b4	-0.02868829
7	0x3c4c8fd0	0.012485459
8	0x3b250120	0.0025177673
9	0xbc1025f8	-0.008798115
10	0xbc0a95f4	-0.008458603
11	0xbc5d9358	-0.013523899
12	0x3cb41728	0.021983698
13	0xbc8a237e	-0.016862627
14	0xbc8689f6	-0.016423207
15	0xbc42cafc	-0.011889216
16	0x3c3ac460	0.0113993585
17	0x3cbe1310	0.02320245
18	0x3c0bff68	0.00854478
19	0x3ba56620	0.0050475746
20	0x3a12a980	0.00055947155
21	0x3a61b140	0.0008609481
22	0x3c415034	0.011798907
23	0x3cc5cfb0	0.024146885
24	0xbca3bc12	-0.01998714
25	0x3cd5870e	0.026065376
26	0x3bdf6de8	0.006818522
27	0xbc7fbe44	-0.015609328
28	0x3c7be780	0.015375018
29	0x3b7ca370	0.0038549565
30	0x3cf342c6	0.029694926
31	0xbc9f52f4	-0.019448735
32	0x3b649110	0.0034876503
33	0x3cceb36c	0.02523204
34	0xbc8c814c	-0.017151497
35	0x3a68fe00	0.00088879466
36	0xbce868a0	-0.028370202
37	0x3cb507cc	0.022098444
38	0xbcd6592a	-0.026165564
39	0xbb98b518	-0.00466026
40	0xbcac7508	-0.021051899
41	0x3c302b68	0.010752536
42	0x3cee46fc	0.029086582
43	0x3bdc6558	0.0067259483
44	0xbb418f00	-0.0029534698
45	0x3a126380	0.00055842847
46	0xbc7e6f2c	-0.015529435
47	0x3cda9520	0.026682436
48	0x3cf1e766	0.029529285
49	0x3ce861da	0.028366972
50	0x3c8023fe	0.015642162
51	0x3c76df84	0.015067939
52	0x3caedb32	0.021344755
53	0xbcc8c8d0	-0.024509817
54	0x3cfdb432	0.030969713
55	0x3cbe1e9a	0.023207951
56	0x3c098db8	0.008395605
57	0x3b51abd0	0.0031993277
58	0xbc78b9fc	-0.015181061
59	0x3bf1a228	0.007374067
60	0xbab40f00	-0.001373738
61	0xbc77ac20	-0.015116721
62	0xbc96c43e	-0.018404122
63	0x3c271ec0	0.010200202

hyper_w1.2.weight f4 [256, 64]
0	0x3d2f0aa4	0.042734757
1	0xbc6b1000	-0.014347076
2	0x3b244940	0.0025068074
3	0x3d032ad8	0.03202328
4	0x3dd7dec0	0.10540533
5	0xbce3b2f8	-0.0277953
6	0x3deadf5a	0.11468382
7	0x3db8c7ce	0.09022485
8	0xbda3c854	-0.07997194
9	0xbde4efd4	-0.11178556
10	0x3dc8b03e	0.097992405
11	0xbc86d390	-0.016458303
12	0x3d6ebc0c	0.058284804
13	0x3d31e008	0.043426543
14	0x3dc0730e	0.09396945
15	0xbc9c2bb8	-0.019063815
16	0xbd4521d4	-0.048127964
17	0x3ce73f98	0.028228566
18	0x3d9502e2	0.072759405
19	0xbdf91e50	-0.12163985
20	0x3dd26b50	0.102743745
21	0x3d12ada8	0.035810143
22	0x3d2e62cc	0.04257469
23	0xbdf182e2	-0.11792542
24	0xbd0eba80	-0.03484583
25	0xbcb8a8f0	-0.022541493
26	0x3b5de3c0	0.0033857673
27	0x3cf001b0	0.02929768
28	0x3bc1d460	0.0059152097
29	0x3d9288b4	0.0715498
30	0x3d4e87cc	0.050422475
31	0x3afff880	0.0019529015
32	0xbdf95e20	-0.12176156
33	0x3dd3c916	0.103410885
34	0x3cc94058	0.024566814
35	0xbd6a76a0	-0.057242036
36	0x3d81ec62	0.063439146
37	0xbd23140c	-0.03981404
38	0x3dcc0798	0.09962386
39	0x3d846b7a	0.06465812
40	0xbd7e1bc0	-0.062038183
41	0xbd818f76	-0.06326191
42	0xbd90c50c	-0.07068834
43	0xbdf7fa88	-0.12108332
44	0x3d5ad0f8	0.053421944
45	0xbd0ac600	-0.033880234
46	0xbcc48588	-0.023989454
47	0xbd4eb124	-0.050461903
48	0x3dd53430	0.104103446
49	0x3cca7568	0.024714187
50	0xbd16e94c	-0.036843583
51	0x3dbbcf1e	0.09170364
52	0xbb637b40	-0.0034710914
53	0x3d6003c4	0.05469109
54	0x3bf72780	0.0075425506
55	0xbd2014c0	-0.03908229
56	0xbd92c86a	-0.07167132
57	0xbc78fcb0	-0.015196964
58	0xbdffa540	-0.12482691
59	0xbda32c8a	-0.079674795
60	0xbcd024e8	-0.025408223
61	0x3de4f390	0.11179268
62	0x3d47fae4	0.048823252
63	0xbde029f2	-0.109455004
64	0xbdb917c4	-0.09037736
65	0x3dae99a4	0.085253984
66	0xbcf64c98	-0.03006582
67	0x3d868390	0.06568062
68	0x3d27f0c8	0.04100111
69	0x3cefd730	0.029277414
70	0xbdc60f7e	-0.09670924
71	0xbdd6dd24	-0.10491398
72	0x3bce1300	0.006288886
73	0xbcc47530	-0.02398166
74	0xbc8cb798	-0.017177388
75	0x3db20908	0.08693129
76	0x3aabfa80	0.001312092
77	0x3df6af98	0.120452106
78	0x3cf911a0	0.030403912
79	0xbdf6ee00	-0.12057114
80	0x3b5b8cc0	0.0033500642
81	0xb9502000	-0.00019848347
82	0xbd2d6588	-0.042333156
83	0xbdcc8e4e	-0.0998808
84	0xbcfa90c0	-0.0305866
85	0xbd30cc98	-0.043163866
86	0xbd52eca8	-0.051495224
87	0xbd2bcdc4	-0.04194428
88	0x3d3c9c20	0.04604733
89	0x3d9b8378	0.07593435
90	0xbde99768	-0.114058316
91	0x3acd7080	0.0015673786
92	0xbb782040	-0.003786102
93	0x3ddc8c90	0.10768998
94	0xbde44960	-0.11146808
95	0xbd017318	-0.031603903
96	0xbd0a6f3c	-0.033797488
97	0x3d6432a4	0.055712357
98	0xbdcd7b58	-0.100332916
99	0xbdaea7ae	-0.08528076
100	0x3daf21fc	0.08551404
101	0xbdea7036	-0.11447184
102	0x3d5a5ac8	0.053309232
103	0xbda264d0	-0.07929385
104	0xbdd085d2	-0.10181774
105	0xbd36e950	-0.044656098
106	0xbc94f938	-0.018185243
107	0x3bf22680	0.0073898435
108	0xbd078744	-0.033087984
109	0xbdb99b50	-0.09062827
110	0xbd810196	-0.062991306
111	0x3db4ed38	0.088343084
112	0x3dd0ac6c	0.10189137
113	0xbdad4482	-0.084603325
114	0xbd835ae2	-0.06413819
115	0x3d548298	0.051882356
116	0x3df185b6	0.117930815
117	0xbc314a80	-0.010820985
118	0xbd470b64	-0.048594847
119	0xbd26ea78	-0.04075095
120	0x3c0d8430	0.008637473
121	0x3d52d48c	0.05147223
122	0xbdb209c8	-0.08693272
123	0x3d475b24	0.048670903
124	0xbd6829a0	-0.05668032
125	0xbdfa5b3c	-0.12224433
126	0xbdb57c62	-0.08861615
127	0xbdefe8d0	-0.11714327
128	0x3dd9ca00	0.106342316
129	0xbc94ff30	-0.01818809
130	0x3ded995a	0.11601515
131	0x3d1f48f4	0.038887933
132	0xbd864f0e	-0.06558047
133	0x3dbbbb66	0.09166603
134	0x3dd9b3d2	0.10630001
135	0x3d986a66	0.07442169
136	0xbdd98e32	-0.10622825
137	0x3cbca538	0.023028001
138	0x3c803258	0.015649006
139	0xbcc8eb28	-0.024526194
140	0x3db793fc	0.08963773
141	0xbdaf7a94	-0.08568302
142	0x3c00a920	0.007852823
143	0xbcbfa8c0	-0.023395896
144	0xbaa7fe80	-0.0012816936
145	0xbd8c1ab4	-0.06841031
146	0xbd8a46ea	-0.06751807
147	0x3dc866b2	0.097852126
148	0xbda041ea	-0.07825072
149	0x3d6bff58	0.05761656
150	0xbd57e4b4	-0.052708343
151	0x3dc7b866	0.09751968
152	0x3de1226c	0.109928936
153	0xbce83f28	-0.028350428
154	0x3d3ab3b4	0.045581535
155	0x3dd97c1c	0.10619375
156	0x3cc6ed60	0.024283111
157	0xbcb3df30	-0.02195701
158	0xbc306f80	-0.010768771
159	0xbc8342d0	-0.01602307
160	0xbda0b9f4	-0.07847968
161	0xbdc34428	-0.09534484
162	0xbdaf5ed8	-0.08563012
163	0x3cd2b490	0.025720865
164	0xbc5afc10	-0.01336576
165	0x3d8305d6	0.063975975
166	0x3d88bce2	0.066766515
167	0x3d5c2dec	0.053754732
168	0x3debe0c4	0.1151748
169	0x3d870652	0.065930024
170	0x3d8c045a	0.068367675
171	0x3def3f04	0.11681941
172	0xbd0281e8	-0.03186217
173	0x3d5813dc	0.052753314
174	0xbdf8294c	-0.12117252
175	0x3dbd5e40	0.092464924
176	0xbc984928	-0.018589571
177	0xbda702ba	-0.08154817
178	0xbdc1c692	-0.094617024
179	0x3dc7d520	0.09757447
180	0x3db5c296	0.08875005
181	0x3cf33710	0.029689342
182	0x3d32d5c0	0.04366088
183	0x3d7f7b48	0.06237343
184	0x3d9637f4	0.07334891
185	0xbdd2edd6	-0.1029927
186	0xbca78778	-0.020450339
187	0xbdcc7982	-0.09984113
188	0x3da57c4c	0.08080348
189	0x3d1dea58	0.038553566
190	0x3d309a48	0.043115884
191	0x3dd55012	0.10415663
192	0xbc195860	-0.009359449
193	0xbb05b3c0	-0.0020401329
194	0x3dedfdba	0.1162066
195	0xbd159730	-0.036521137
196	0x3de37f90	0.11108315
197	0x3d7f31b8	0.062303275
198	0xbd5cf86c	-0.05394785
199	0x3c884170	0.016632766
200	0xbd3733f8	-0.044727296
201	0xbdf0a4f4	-0.11750212
202	0x3da3062a	0.0796016
203	0xbc046830	-0.008081481
204	0x3cf1ea98	0.029530808
205	0x3d48cad0	0.049021542
206	0x3cf4bf50	0.029876381
207	0x3d6ee4ec	0.058323786
208	0xbdfeb020	-0.12435937
209	0x3dccd00e	0.10000621
210	0x3de3940a	0.111122206
211	0xbdc115d4	-0.094279915
212	0xbd87aee0	-0.06625152
213	0xbc244d20	-0.010028154
214	0x3ccce0f0	0.025009602
215	0xbddb5f86	-0.10711579
216	0x3d148484	0.03625919
217	0xbd6781a0	-0.056520104
218	0x3d5eefc4	0.054427877
219	0x3d7c55bc	0.0616052
220	0x3d111594	0.03542097
221	0xbd0d20b0	-0.034455
222	0xbd9a191c	-0.075243205
223	0x3decf1ea	0.11569579
224	0xbd9932c8	-0.07480389
225	0x3d49912c	0.049210712
226	0xbc3a7680	-0.011380792
227	0xbda8ce76	-0.08242504
228	0x3c00a950	0.007852867
229	0xbd268088	-0.04064992
230	0xbd878160	-0.06616473
231	0x3dbd6f40	0.09249735
232	0xbd077d60	-0.03307855
233	0x3deaaeba	0.11459108
234	0xbbeacde0	-0.0071656555
235	0xbdef64c0	-0.116891384
236	0xbda08d42	-0.07839443
237	0xbdb92506	-0.09040265
238	0x3dd526aa	0.10407765
239	0xbd786fa8	-0.06065336
240	0xbdb848b6	-0.089982435
241	0xbd8b2726	-0.06794576
242	0x3d816e30	0.06319845
243	0xbd5b69d0	-0.053567708
244	0xbca320b0	-0.019913048
245	0xbd13a248	-0.036043435
246	0x3cc1cbe8	0.0236568
247	0x3dd10aca	0.10207136
248	0xbd46a78c	-0.04849963
249	0xbd53d4f0	-0.051716745
250	0x3db243be	0.08704327
251	0x3c05f290	0.008175507
252	0xbd0bbab4	-0.0341136
253	0xbd9c6bfa	-0.076377824
254	0xbcb60188	-0.022217527
255	0x3c98efb0	0.01866898

hyper_w1.2.bias f4 [256]
0	0xbce9caa8	-0.028539017
1	0xbdb7495c	-0.08949539
2	0xbc915460	-0.017740428
3	0xbc77dae0	-0.015127867
4	0xbdc51cea	-0.096246555
5	0x3af20900	0.0018465817
6	0x3dfdd220	0.12393594
7	0xbd219d6c	-0.03945677
8	0x3ba770e0	0.0051098913
9	0x3dc6c468	0.0970543
10	0xbd4e0140	-0.05029416
11	0xbdda32b6	-0.106542036
12	0x3d2bd6b0	0.04195279
13	0x3dad3344	0.08457044
14	0xbdb9b1d8	-0.09067124
15	0xbc657230	-0.014004275
16	0xbdb62f4c	-0.0889574
17	0x3c93aaa8	0.018025711
18	0x3db3e650	0.08784163
19	0x3c18f7d0	0.009336427
20	0x3de9f4ca	0.11423643
21	0x3d87f496	0.06638448
22	0x3d99b4ea	0.0750521
23	0x3dbf80ee	0.09350763
24	0x3deee0b4	0.116639525
25	0xbcef36b8	-0.029200897
26	0xbd9bd79e	-0.07609485
27	0x3dd9095a	0.10597487
28	0xbd7b0670	-0.061285436
29	0x3ddbd7d4	0.10734525
30	0xbc131c30	-0.008978888
31	0xbdfc77f4	-0.12327567
32	0xbd4ca090	-0.04995781
33	0xbd858474	-0.06519404
34	0xbdf6bfe6	-0.120483205
35	0xbda437ca	-0.080184534
36	0x3daf22d8	0.08551568
37	0x3c6254f0	0.013814196
38	0x3d62a9d0	0.055337727
39	0x3dd6db60	0.10491061
40	0xbc86b690	-0.016444474
41	0x3dbcc072	0.092163935
42	0x3cd9eae0	0.026601255
43	0x3c035080	0.008014798
44	0x3dd5894e	0.104265794
45	0x3d8bfb7c	0.06835076
46	0xbb4992c0	-0.0030757636
47	0xbdbc517a	-0.09195228
48	0x3b84f980	0.004058063
49	0xbc5dd210	-0.013538852
50	0xbd8c7a42	-0.06859256
51	0x3c052ea0	0.008128792
52	0xbd5e18bc	-0.054222807
53	0x3d839ee2	0.06426789
54	0x3deef108	0.11667067
55	0xbded97f8	-0.11601251
56	0xbd6fb41c	-0.058521375
57	0xbdaba30e	-0.083807096
58	0xbddb2464	-0.107003
59	0x3dbb414c	0.09143314
60	0xbd29e054	-0.0414737
61	0xbdab8662	-0.08375241
62	0x3dc8bb38	0.09801334
63	0x3d906494	0.07050434
64	0x3dd28b9a	0.10280533
65	0x3dd1a864	0.10237196
66	0xbd98c988	-0.07460314
67	0xbd9175f4	-0.07102576
68	0xb8ca5800	-9.648502e-05
69	0xbdcfb8e6	-0.101426885
70	0xbda65efa	-0.08123584
71	0xbcc09da0	-0.023512661
72	0xbde84084	-0.113404304
73	0x3d93eac6	0.07222514
74	0xbcd85208	-0.026406303
75	0x3d243bf8	0.040096253
76	0xbddfea60	-0.10933375
77	0xbd3e56cc	-0.046469495
78	0x3d41e3c8	0.04733637
79	0xbd61f308	-0.055163413
80	0x3d0579dc	0.032586917
81	0xbdb82340	-0.089910984
82	0x3d7fe2ec	0.06247227
83	0x3d69b5d4	0.05705817
84	0x3ca9c0c8	0.020721808
85	0x3dc3b93a	0.095568135
86	0xbd9659ee	-0.073413715
87	0xbdb9538a	-0.09049137
88	0x3c122660	0.008920282
89	0x3d1dfaa0	0.038569093
90	0xbd8f65ba	-0.07001825
91	0x3ca1bfd8	0.019744799
92	0x3c073a50	0.008253649
93	0xbdc17f88	-0.09448153
94	0x3d850afe	0.06496237
95	0x3db25ed6	0.08709495
96	0x3da6c0d8	0.08142251
97	0xbdf32ad8	-0.11873406
98	0xbdce286e	-0.10066305
99	0x3db4d808	0.08830267
100	0x3dc6f232	0.09714164
101	0x3d982fc6	0.07430987
102	0x3c90de58	0.017684147
103	0xbc9c82f8	-0.01910542
104	0xbdc3a764	-0.095534116
105	0xbdc6a750	-0.09699881
106	0x3cab8d88	0.02094151
107	0xbd0c987c	-0.034325108
108	0xbdd6921c	-0.10477087
109	0x3d6934f4	0.056935266
110	0xbd38a910	-0.045083106
111	0xbde80be2	-0.113303915
112	0xbd38f264	-0.045153037
113	0x3c77f100	0.0151331425
114	0x3beebae0	0.007285461
115	0x3ccddd68	0.025129989
116	0xbded25ca	-0.11579473
117	0xbddfdf34	-0.109312445
118	0x3b163d00	0.0022924542
119	0xbde96a70	-0.113972545
120	0x3d7fcd20	0.06245148
121	0xbde0babc	-0.10973117
122	0x3dad042a	0.0844806
123	0xbc081cf0	-0.0083076805
124	0x3d99f292	0.0751697
125	0x3d50f388	0.0510135
126	0x3beadbc0	0.0071673095
127	0x3df1448c	0.117806524
128	0x3df3f8e8	0.119127095
129	0x3d8247e8	0.06361371
130	0x3d316db8	0.043317527
131	0xbd1b2fb8	-0.037887305
132	0x3d900e3a	0.070339635
133	0x3d091698	0.033468813
134	0xbda61f0a	-0.08111389
135	0xbc370ed0	-0.011172965
136	0xbc634e10	-0.013873592
137	0x3dc437f0	0.09580982
138	0x3dcfb812	0.101425305
139	0xbdb41944	-0.087938815
140	0x3dec823a	0.11548276
141	0x3ddbaa2c	0.10725817
142	0x3da5eca6	0.08101778
143	0x3d868866	0.06568985
144	0xbdfb1250	-0.12259352
145	0x3d554208	0.052064925
146	0xbdb819b6	-0.08989279
147	0xbdb515f6	-0.08842079
148	0xbc234340	-0.009964764
149	0xbd42ede4	-0.04759015
150	0x3d5a4370	0.05328697
151	0xbdb255f0	-0.087077975
152	0x3ddb0e80	0.10696125
153	0x3d479774	0.04872842
154	0x3d1aca84	0.03779079
155	0x3dc41e00	0.095760345
156	0xbc563d80	-0.013076186
157	0xbdccafba	-0.09994455
158	0xbda2779e	-0.079329714
159	0x3d1a6c5c	0.037700996
160	0x3d1c7154	0.038194016
161	0xbdf13e04	-0.11779407
162	0x3de0f100	0.10983467
163	0xbd94b4f6	-0.07261078
164	0x3da73f7a	0.08166404
165	0x3dfdab04	0.12386134
166	0xbca29d50	-0.019850403
167	0xbd9e9fac	-0.07745299
168	0xbda0b418	-0.0784685
169	0x3da3b5da	0.0799367
170	0xbc0ec8a0	-0.008714825
171	0xbdc71388	-0.09720522
172	0x3d005d2c	0.031338856
173	0xbd38dd50	-0.045132935
174	0x3dff2e3e	0.12459992
175	0xbd9a856c	-0.075449795
176	0x3d6a64a8	0.0572249
177	0xbcd74858	-0.026279613
178	0x3d1a9a30	0.0377447
179	0xbd88213e	-0.066469654
180	0x3c30bfa0	0.010787874
181	0x3df4dec8	0.11956555
182	0x3dd0c6bc	0.101941556
183	0x3d615ce0	0.055020213
184	0xbd4e78ac	-0.05040805
185	0xbda7724a	-0.08176096
186	0xbd63f4d4	-0.05565341
187	0x3dfe688a	0.12422283
188	0x3da372c6	0.07980876
189	0x3df9e1de	0.12201284
190	0xbcc78338	-0.024354562
191	0x3d5340e8	0.05157557
192	0xbdeaeb5e	-0.11470674
193	0xbce3ca50	-0.027806431
194	0xbdf74e8a	-0.12075527
195	0x3dc681ce	0.09692727
196	0xbdcd68fe	-0.10029791
197	0x3c84b640	0.016200185
198	0x3dbb66c8	0.09150463
199	0xbdaa95e8	-0.083293736
200	0xbc53e2d0	-0.012932494
201	0xbd9427a0	-0.0723412
202	0xbddff392	-0.10935129
203	0x3c8b5ae0	0.017011106
204	0x3cbd1108	0.02307941
205	0x3d937ff6	0.07202141
206	0xbddcf02e	-0.10787998
207	0xbd025014	-0.03181465
208	0xbd25ee34	-0.04051037
209	0xbd1693fc	-0.036762223
210	0xbdc74ee2	-0.097318426
211	0x3d8d3516	0.06894891
212	0xba9a0880	-0.0011751801
213	0xbd18be28	-0.037290722
214	0x3d81f6aa	0.063458756
215	0x3c70ef20	0.014705449
216	0x3d901e2a	0.07037003
217	0xbd9183da	-0.07105227
218	0xbd793aa4	-0.06084694
219	0x3da1a0a4	0.07891968
220	0x3aa4b480	0.0012566
221	0xbdf2f25a	-0.11862631
222	0xbcf71f50	-0.030166298
223	0x3df94d4c	0.12172946
224	0xbda901d8	-0.08252305
225	0x3dddbd4e	0.10827123
226	0xbd6177a0	-0.055045724
227	0xbddeaf42	-0.108732715
228	0x3d6a7ffc	0.05725096
229	0xbce54018	-0.027984664
230	0xbde8ec18	-0.11373156
231	0x3cbb1b48	0.022840157
232	0xbd9b40a4	-0.075806886
233	0x3d96bb12	0.073598996
234	0xbdab4ca2	-0.08364226
235	0x3d80df90	0.06292641
236	0x3dcb86ee	0.09937845
237	0xbdd378bc	-0.10325763
238	0xbcf8e638	-0.030383214
239	0xbb5c0880	-0.0033574402
240	0xbcef4f08	-0.02921249
241	0x3c69e230	0.014275119
242	0xbdd376fe	-0.1032543
243	0xbc36f100	-0.011165857
244	0x3dbef9ca	0.09324987
245	0xbd7b27e8	-0.061317354
246	0xbdd692ec	-0.10477242
247	0x3ba51960	0.0050384253
248	0x3d8965cc	0.06708869
249	0x3db4b518	0.088236034
250	0xbdbda02e	-0.092590675
251	0xbd569b80	-0.05239439
252	0xbd8d2f44	-0.06893781
253	0x3d86ec4c	0.06588039
254	0x3d8e53f8	0.069496095
255	0xbdd45690	-0.10368073

hyper_w2.0.weight f4 [64, 1024]
0	0x3c2f379c	0.010694411
1	0x3c4af7a4	0.012388144
2	0x3cacb5b8	0.021082744
3	0xbce410c2	-0.027840022
4	0xbcf58ac0	-0.029973388
5	0xbc9b98d8	-0.01899378
6	0xbac59e40	-0.0015077069
7	0x3ccab8d0	0.024746329
8	0x3cfde792	0.03099421
9	0x3c4ddd4c	0.012564968
10	0x3ca07da0	0.019591153
11	0xbc59b3d8	-0.013287507
12	0x39f86080	0.00047374144
13	0xbcbaa8c6	-0.022785556
14	0xbabd36a0	-0.0014435835
15	0x3ce1f216	0.027581256
16	0x3cb2d166	0.021828365
17	0xbca3c5be	-0.019991752
18	0xbbfc5f30	-0.007701777
19	0x3c62ae90	0.013835564
20	0xbcbb9d1c	-0.022902064
21	0xbca2b14c	-0.019859932
22	0xbb0f1040	-0.0021829754
23	0xbc5f6158	-0.013634048
24	0x3b452380	0.0030080974
25	0xbc6548cc	-0.013994407
26	0xbc32a2b4	-0.010903049
27	0x3c1db2c0	0.009625137
28	0xbc08516c	-0.008320194
29	0x3c5ebfc8	0.013595529
30	0x3cef13e4	0.02918429
31	0x3c844326	0.0161453
32	0xbb73ee30	-0.0037220828
33	0xbce6b8ba	-0.028164256
34	0x3b6fe8e0	0.003660731
35	0xbbe8ed48	-0.0071083643
36	0x3cb69a2e	0.022290315
37	0xbcf087c8	-0.02936162
38	0xbc0dff08	-0.008666761
39	0x3c54057c	0.012940761
40	0xbc8272f8	-0.015923962
41	0x3c3a890c	0.011385214
42	0x3c80cc14	0.015722312
43	0x3cfc0d7c	0.030768149
44	0xbba04f28	-0.0048922487
45	0x3b922260	0.004459664
46	0xbce33f92	-0.027740274
47	0xbcffea06	-0.03123952
48	0xbcc6acac	-0.024252258
49	0x3c9a7362	0.018853847
50	0x3cb356cc	0.021891974
51	0xbc475d5c	-0.012168255
52	0xbcf61a32	-0.030041788
53	0xbcdba860	-0.026813686
54	0x3cc99898	0.024608895
55	0xbb44b8c0	-0.0030017346
56	0x398df880	0.00027078763
57	0x3cad73ee	0.021173444
58	0xbbf7fc10	-0.00756789
59	0xbc521348	-0.01282198
60	0xbbdef340	-0.0068039
61	0x3c19e788	0.00939358
62	0x3b819be0	0.0039553493
63	0x3c35736c	0.011074882
64	0x3c8675f8	0.016413674
65	0x3c0d6990	0.008631125
66	0xbb135730	-0.0022482388
67	0xbbd1ab30	-0.006398581
68	0x3c7be868	0.015375234
69	0x3cb024c8	0.021501914
70	0xbb526500	-0.0032103658
71	0xbc9b9de8	-0.018996194
72	0x3cf8e7b0	0.030383915
73	0xbcaebf2a	-0.021331389
74	0x3cadbe06	0.021208774
75	0x3ca381dc	0.019959383
76	0xbc8232cc	-0.015893362
77	0x3cc739ea	0.024319608
78	0x3c54474c	0.012956452
79	0x3ccc8fd2	0.024970923
80	0x39b92880	0.00035316125
81	0x3c0486e4	0.008088801
82	0xbc57bf04	-0.0131681
83	0x3cb9a44e	0.022661354
84	0x3cd9ce72	0.026587699
85	0x3c988a2e	0.018620577
86	0xbc9a21aa	-0.01881488
87	0xbcdc22d6	-0.02687208
88	0x3c545560	0.012959808
89	0x3c9aabd0	0.018880755
90	0x3c91dd56	0.017805737
91	0xbcd9b754	-0.026576675
92	0xbcbda73a	-0.023151029
93	0xbbd06c28	-0.0063605495
94	0xbc1f55bc	-0.0097250305
95	0x3c4b61e0	0.012413472
96	0x3cc622e4	0.024186559
97	0xbc6e63fc	-0.014550205
98	0xbce5d7cc	-0.028057002
99	0x3ba79738	0.005114462
100	0x3cd4a9ee	0.025959935
101	0xbc801bb2	-0.015638206
102	0x3cc9075c	0.024539642
103	0xbc4c41e0	-0.012466878
104	0x3c0616cc	0.008184146
105	0x3bd58310	0.006515868
106	0xbc2901ec	-0.0103154
107	0xbc912e68	-0.017722324
108	0xbca62ea4	-0.020285912
109	0xbcdbc250	-0.026826054
110	0xbca1887e	-0.019718405
111	0xbcc9354e	-0.02456155
112	0xbcab4030	-0.02090463
113	0xbc9c6f12	-0.019095931
114	0xbc95e482	-0.018297438
115	0xbcdea316	-0.027177375
116	0x3ce5d2e4	0.028054662
117	0x3cf530e4	0.02993054
118	0xbcb7f882	-0.022457365
119	0x3cd6029a	0.026124287
120	0xbc9a64ca	-0.018846888
121	0xbb6fd730	-0.0036596768
122	0x3c186770	0.009302005
123	0x3b3fa160	0.0029240474
124	0x3c29c894	0.010362763
125	0xbcc14f18	-0.023597285
126	0xbb91fa48	-0.0044548847
127	0xbcd83f9c	-0.026397519
128	0x3cbb75fa	0.022883404
129	0xbc96efec	-0.01842495
130	0xbc98a3f8	-0.018632874
131	0xbca42c16	-0.020040553
132	0x3bcf2cd8	0.0063224845
133	0xbbbbc698	-0.0057304613
134	0xbbd63f88	-0.0065383352
135	0xbb929790	-0.004473634
136	0x3be52800	0.0069932938
137	0xbcbc262c	-0.02296742
138	0x3cce0d64	0.02515287
139	0x3c003900	0.00782609
140	0xbcb1719a	-0.021660615
141	0x3b8f45f8	0.0043723546
142	0x3b1974c0	0.0023415536
143	0xbbdd4100	-0.0067521334
144	0xbc5888a0	-0.013216168
145	0x3cd7e0c8	0.026352301
146	0x3be06bb0	0.006848775
147	0xbcf637fc	-0.030055992
148	0xbb70a160	-0.003671728
149	0x3b192f80	0.002337426
150	0xbbd6e248	-0.0065577365
151	0xbc9544da	-0.018221308
152	0x3bec61c0	0.007213801
153	0xbcee44e2	-0.02908558
154	0xbca28bfe	-0.019842144
155	0xbcd1d34c	-0.02561345
156	0xbc8264d0	-0.015917212
157	0xbcd7c7a2	-0.02634031
158	0x3cf057e0	0.029338777
159	0xbc96bc30	-0.018400282
160	0xbc37586c	-0.011190515
161	0x3bf1cc88	0.0073791184
162	0x3c7216d4	0.01477595
163	0xbcdad686	-0.02671362
164	0xbc6904f4	-0.014222372
165	0x3b9b51c0	0.00473997
166	0x3c9c7e76	0.01910327
167	0x3bd748a0	0.006569937
168	0x3b6acc50	0.0035827346
169	0xbb0d7f00	-0.002159059
170	0xbc2d6b24	-0.010584626
171	0xbc83b014	-0.016075172
172	0x3c101cf0	0.008795962
173	0x3c3ae69c	0.011407521
174	0xbcd60264	-0.026124187
175	0xbb7dda10	-0.0038734712
176	0xb9d94800	-0.0004144311
177	0x3cfefdfe	0.031126972
178	0xbb004ff0	-0.0019578896
179	0xbcf7ea94	-0.030263223
180	0x3c47f7ec	0.012205105
181	0x3c8c90b0	0.017158836
182	0xbb2c9850	-0.0026335903
183	0x3cf3ebcc	0.029775523
184	0x3c1817bc	0.0092830025
185	0x3bd59698	0.0065181963
186	0xbbd75bc0	-0.0065722167
187	0xbcd554e6	-0.02604146
188	0xbcd4adb2	-0.02596173
189	0xbcac76a0	-0.021052659
190	0x3ca5c24e	0.020234253
191	0xbc91211e	-0.017715987
192	0x3c4730d8	0.012157641
193	0xbcd10524	-0.025515147
194	0xbce2f9be	-0.027706977
195	0xbcdfbcf4	-0.02731178
196	0xbcb874b8	-0.022516593
197	0x3ccda49c	0.025102906
198	0xbcc2dc62	-0.023786727
199	0x39a0e680	0.00030689314
200	0x3bd10a28	0.0063793845
201	0x3cb8a302	0.022538666
202	0x3c8b9510	0.017038852
203	0x3c87ed2a	0.01659258
204	0xbc8ab70a	-0.016932983
205	0xbcff3e46	-0.031157624
206	0x3c5f2c80	0.0136214495
207	0xbccc3c36	-0.024931055
208	0x3af00100	0.0018310845
209	0x3ca91096	0.020637792
210	0xbcd1bfd8	-0.025604174
211	0xbc815746	-0.015788686
212	0xbccbf20a	-0.024895687
213	0xb9b39080	-0.000342492
214	0xbc99602e	-0.01872262
215	0xbcdbab4a	-0.026815075
216	0x3c4b5f44	0.01241285
217	0xbc6b2690	-0.014352456
218	0xbcf98794	-0.030460157
219	0x3cb0acb4	0.021566726
220	0xbcee94aa	-0.029123623
221	0xbb425e80	-0.0029658377
222	0xbc70808c	-0.014679085
223	0xbcc43878	-0.023952708
224	0x3cd8fe76	0.026488524
225	0x3ca4dd78	0.020125136
226	0xbb0a2d30	-0.0021084063
227	0xbbd26f60	-0.0064219683
228	0x3bee3240	0.007269174
229	0xbce609c8	-0.028080836
230	0x3c960db2	0.018317077
231	0xbc7f6a70	-0.0155893415
232	0x3cbaa9f0	0.02278611
233	0x3ceba1b0	0.028763622
234	0x3babd448	0.0052438118
235	0x3ce65c7c	0.028120272
236	0xbca1ccf4	-0.01975105
237	0x3c82a982	0.015949968
238	0x3ce2f530	0.027704805
239	0xbcef7184	-0.029228933
240	0x3cf2a90a	0.02962162
241	0x3c632700	0.013864279
242	0x3cc9aee4	0.024619527
243	0xbc15b9d8	-0.009138547
244	0x3c9f3e7e	0.019438978
245	0x3c58f4b8	0.013241939
246	0x3c828706	0.015933525
247	0x3c775d98	0.015097998
248	0xbcba1ea2	-0.022719685
249	0xbbf7eff8	-0.0075664483
250	0xbbd34690	-0.0064476207
251	0xbc741af8	-0.014899008
252	0xbc935f16	-0.017989676
253	0x3a265400	0.00063449144
254	0xbca68f7e	-0.020332094
255	0x3c962b48	0.018331185

hyper_w2.0.bias f4 [64]
0	0xbafd61e0	-0.0019331537
1	0xbcdaa1bc	-0.02668845
2	0x3baceb18	0.005277049
3	0xbc77de00	-0.0151286125
4	0x3cad9a28	0.021191671
5	0xbcda0dd8	-0.02661793
6	0xbcbd9ebe	-0.023146983
7	0xbc9a6ee6	-0.018851709
8	0x3c8c75b6	0.017145973
9	0x3b486c90	0.0030582286
10	0x3ca456ca	0.020060915
11	0x3c8971c8	0.016777888
12	0xbbb46f60	-0.005506441
13	0xbc0c7368	-0.008572437
14	0xbce63ccc	-0.028105162
15	0x3bbc3288	0.0057433285
16	0x3ce30f5c	0.027717285
17	0xbcc99a32	-0.024609659
18	0x3cf07c24	0.02935607
19	0x3cd9950e	0.026560333
20	0xbc4abc18	-0.012373947
21	0xbcf30380	-0.029664755
22	0xbceb5cc0	-0.02873075
23	0xbc20de7c	-0.009818669
24	0xb93fd000	-0.00018292665
25	0x3b202d70	0.0024441145
26	0xbbef5b90	-0.0073046163
27	0x3c907470	0.017633647
28	0xbc4e0b5c	-0.0125759505
29	0x3cc73708	0.024318233
30	0x3c1119e0	0.008856267
31	0xbc0fa240	-0.008766711
32	0xbce85306	-0.028359901
33	0xbc84163a	-0.01612388
34	0xbc5905dc	-0.013246026
35	0x3c1dc4a0	0.009629399
36	0x3ae01420	0.0017095841
37	0x3c452818	0.012033485
38	0x3c2edd3c	0.010672864
39	0x3bebba60	0.0071938485
40	0x3c3e7334	0.011624146
41	0x3aad6c60	0.0013231151
42	0x3ce6a398	0.02815418
43	0x3cbed592	0.023295198
44	0xbc0a6da4	-0.008448992
45	0xbc744d90	-0.0149110705
46	0x3cd81cac	0.02638086
47	0x3cf57aba	0.029965747
48	0x3b705a20	0.0036674812
49	0x3c678050	0.014129713
50	0x3b1d0f30	0.0023965351
51	0x3c3a45c8	0.011369176
52	0x3ba00628	0.0048835464
53	0xbb9f52d0	-0.004862167
54	0xbcb7f7bc	-0.022456996
55	0x3ba42690	0.00500948
56	0xbc14a9a8	-0.009073652
57	0xbb8acde8	-0.0042359717
58	0x3b92a960	0.0044757575
59	0x3caf5298	0.021401688
60	0xbc45ded0	-0.012077048
61	0xbcddf62c	-0.027094923
62	0xbcc25e28	-0.023726538
63	0x3c37a4cc	0.011208724

hyper_w2.2.weight f4 [32, 64]
0	0xbc6cc900	-0.014452219
1	0x3dc7ca5a	0.097553924
2	0x3d10f390	0.03538853
3	0x3d35d8d0	0.04439622
4	0x3cb58140	0.022156358
5	0xbce99ef0	-0.02851817
6	0xbdb16b3c	-0.086630315
7	0x3dfb970a	0.12284668
8	0xbbcadd80	-0.0061909556
9	0xbc287130	-0.010280892
10	0x3d1b346c	0.03789179
11	0x3d8e8e9a	0.06960793
12	0xbdcf8e92	-0.10134615
13	0x3d14e690	0.036352694
14	0x3df75580	0.12076855
15	0x3db78272	0.08960427
16	0xbb0ae100	-0.002119124
17	0xbd987b26	-0.07445364
18	0x3dd418c0	0.10356283
19	0x3d950d1e	0.072778925
20	0xbd621e54	-0.055204704
21	0xbda47bb4	-0.08031407
22	0x399b1c00	0.00029584765
23	0x3cbf6850	0.02336517
24	0xbd238ef0	-0.039931238
25	0xbd2117f4	-0.039329484
26	0x3daa50b6	0.08316176
27	0xbda527ce	-0.08064233
28	0x3d2357ac	0.039878532
29	0xbd1a0800	-0.037605286
30	0x3dccfed0	0.10009539
31	0xbdb0b18e	-0.08627616
32	0xbd9b2c74	-0.07576838
33	0xbdff19e8	-0.12456113
34	0xbd4fab30	-0.050700366
35	0x3ba93d00	0.0051647425
36	0x3bb79ec0	0.0056036413
37	0xbddb0224	-0.10693768
38	0x3cc62540	0.024187684
39	0x3d8f3eee	0.06994425
40	0xbde42574	-0.11139956
41	0xbdbc93d4	-0.092078835
42	0xbc112420	-0.0088587105
43	0x3dc5f114	0.09665123
44	0xbd8b7d50	-0.06811011
45	0x3d4c83e0	0.049930453
46	0x3d89f50a	0.067361906
47	0xbd95501a	-0.07290669
48	0xbab54b00	-0.0013831556
49	0x3c5e2730	0.013559148
50	0xbdf4c796	-0.119521305
51	0x3d04a714	0.0323859
52	0xbda1b2b2	-0.078954116
53	0x3d913486	0.07090096
54	0x3d65a664	0.056066886
55	0x3dd6d7ca	0.10490377
56	0x3cb71b90	0.02235201
57	0xbdc6f674	-0.09714976
58	0x3d2250f8	0.039628
59	0xbd6c0cc4	-0.05762936
60	0xbdf5e55e	-0.12006639
61	0x3db9c0fa	0.090700105
62	0x3d4caed8	0.04997143
63	0xbb3136c0	-0.002704069
64	0xbdaae368	-0.083441556
65	0xbdac1414	-0.08402267
66	0xba8ed680	-0.0010897666
67	0xbda55efa	-0.08074756
68	0x3d90f8da	0.07078715
69	0x3cef8478	0.02923797
70	0x3dcd9606	0.1003838
71	0x3d508ab0	0.050913513
72	0x3d0e47dc	0.0347365
73	0xbd868c98	-0.06569785
74	0x3d24d344	0.04024054
75	0x3db644f0	0.088998675
76	0x3dbc9766	0.092085645
77	0x3d85f566	0.06540947
78	0xbdea4c28	-0.11440307
79	0xbcf6f560	-0.0301463
80	0xbdb8a184	-0.09015182
81	0xbd0b3654	-0.03398736
82	0xbdb3d7ee	-0.0878142
83	0xbb478540	-0.0030444413
84	0x3d9668b0	0.07344186
85	0x3dfedc20	0.12444329
86	0x3dcbfba6	0.099601075
87	0xbb179a40	-0.0023132712
88	0x3de15300	0.11002159
89	0x3dd9f750	0.10642874
90	0x3d34f088	0.0441747
91	0xbb2e2f00	-0.0026578307
92	0x3df2dea0	0.118588686
93	0x3bd782a0	0.006576851
94	0xbdf4fee4	-0.11962679
95	0x3d8a29a6	0.06746225
96	0xbd7fea1c	-0.062479123
97	0xbc982690	-0.018573076
98	0xbdf559ee	-0.11980043
99	0x3dcbf1e6	0.09958248
100	0x3dde78d2	0.108628884
101	0x3dac8e4c	0.084255785
102	0x3d9530c4	0.07284692
103	0x3d3c3a6c	0.045954153
104	0xbdf33672	-0.11875619
105	0xbdbaf6b8	-0.09129089
106	0x3d91b844	0.07115224
107	0x3cf80508	0.030275837
108	0xbd810340	-0.06299448
109	0x3dc3c0ec	0.09558281
110	0x3d3481f4	0.044069245
111	0x3ce29cf8	0.02766274
112	0x3da24aca	0.07924421
113	0x3dedbab2	0.11607875
114	0x3cf73420	0.030176222
115	0xbde1323a	-0.10995908
116	0x3da57ca2	0.080804124
117	0x3cb53e10	0.02212432
118	0x3dc196e2	0.09452607
119	0x3ccd2b08	0.025044933
120	0x3d962d3c	0.073328465
121	0xbbb10740	-0.0054024756
122	0x3d9332a0	0.0718739
123	0x3dcde1dc	0.10052845
124	0x3d08f5e4	0.033437625
125	0x3d432e4c	0.047651574
126	0x3dc7cce4	0.09755877
127	0x3daefdda	0.08544512
128	0xbdf7b53a	-0.12095113
129	0xbd03fecc	-0.032225415
130	0x3c845430	0.016153425
131	0xbdbaf6ea	-0.09129126
132	0x3c349990	0.01102294
133	0x3d37c694	0.044867113
134	0x3d4e527c	0.050371632
135	0x3dd56138	0.10418934
136	0xbdae500e	-0.08511363
137	0x3dd7d050	0.10537779
138	0xbd3b5e14	-0.045744017
139	0xbd617d10	-0.05505091
140	0x3dfbc5ea	0.122936085
141	0xbd5b3dd8	-0.053525776
142	0x3cbbdb78	0.0229318
143	0xbcce0680	-0.025149584
144	0xbbb14a20	-0.0054104477
145	0xbd3e98cc	-0.046532437
146	0x3d9bf8fc	0.076158494
147	0xbd8de586	-0.06928544
148	0x3d6d6654	0.057958916
149	0x3cffba68	0.031216815
150	0xbdf1882c	-0.11793551
151	0xbbfe9900	-0.007769704
152	0xbc487240	-0.012234271
153	0x3de0b266	0.10971527
154	0xbb1a0680	-0.002350241
155	0xbc335300	-0.010945082
156	0x3c9047c0	0.017612338
157	0xbddccfd8	-0.107818305
158	0xbc6dc630	-0.014512584
159	0xbd9a3860	-0.07530284
160	0x3d4b6048	0.049652368
161	0xbd7eba28	-0.06218925
162	0xbda02758	-0.07820004
163	0xbd385de0	-0.0450114
164	0x3d708b7c	0.058726773
165	0xbd2304d4	-0.039799526
166	0xbdfdcc78	-0.12392515
167	0xbcedd6f8	-0.02903317
168	0xbd8e92dc	-0.06961605
169	0xbdb3dca6	-0.0878232
170	0xbdc5d768	-0.09660226
171	0x3ad2d180	0.0016084164
172	0xbd9fd72e	-0.07804714
173	0x3d966b5e	0.073446974
174	0xbd18be40	-0.03729081
175	0xbddfde64	-0.109310895
176	0x3d780000	0.060546875
177	0xbde51804	-0.11186221
178	0x3d8f8718	0.07008189
179	0x3d652eec	0.05595295
180	0xbd8cf2f4	-0.06882277
181	0xbd95a7dc	-0.07307407
182	0xbde7ace8	-0.11312276
183	0x3c7f4e40	0.015582621
184	0x3d8116f0	0.06303203
185	0xbd833efc	-0.06408498
186	0xbc187830	-0.009305999
187	0x3dd2727c	0.102757424
188	0xbcd95780	-0.026530981
189	0x3df99dea	0.12188323
190	0xbb57fe40	-0.0032957941
191	0xbd50c190	-0.050965846
192	0xbdfed956	-0.12443797
193	0xbd8fab5a	-0.070151046
194	0xbdd6c4f6	-0.10486786
195	0x3d3b3474	0.04570432
196	0xbb9eb180	-0.004842937
197	0x3d0835c8	0.033254415
198	0xbd5deff4	-0.054183915
199	0x3dfbb39a	0.12290116
200	0xbdf288e8	-0.11842519
201	0x3d5a8c70	0.053356588
202	0x3d8e695e	0.06953691
203	0xbd8e7e8a	-0.06957729
204	0xbdfb5146	-0.12271361
205	0xbd211a44	-0.03933169
206	0xbb381000	-0.0028085709
207	0x3cbb0378	0.022828802
208	0xbcde8208	-0.027161613
209	0x3d44308c	0.04789786
210	0x3d5318f4	0.05153747
211	0x3dff74c0	0.1247344
212	0xbdfb63ca	-0.12274893
213	0xbcced668	-0.025248721
214	0xbdbe751e	-0.09299682
215	0xbbeffa40	-0.0073235333
216	0xbde8ec9a	-0.11373253
217	0x3d8c65c6	0.06855349
218	0xbc613e30	-0.013747737
219	0xbc4dbc90	-0.012557164
220	0x3d3e59d4	0.046472386
221	0x3d2b4fb4	0.041824058
222	0x3d875e4a	0.06609781
223	0x3dee4faa	0.116362885
224	0xbc96dbb8	-0.018415317
225	0xbd59598c	-0.053063914
226	0xbd96b556	-0.07358806
227	0xbd62f49c	-0.05540906
228	0xbd3ed440	-0.046589136
229	0xbcfd8bf0	-0.030950516
230	0x3db6f176	0.08932774
231	0xbd47b338	-0.0487549
232	0x3d8220da	0.06353922
233	0xbdd02dfc	-0.10165021
234	0xbdb7fc56	-0.08983676
235	0x3d41e960	0.047341704
236	0xbd48d198	-0.04902801
237	0xbc8c7a28	-0.017148092
238	0xbd9b69ce	-0.0758854
239	0xbd8e7b6c	-0.069571346
240	0xbdeeee48	-0.11666542
241	0x3d229e08	0.03970149
242	0x3cc74160	0.024323165
243	0xbde0644e	-0.109566316
244	0x3dd270d4	0.102754265
245	0x3bfb69c0	0.0076725185
246	0x3d08ee30	0.03343028
247	0x3ce6c170	0.02816841
248	0x3d440048	0.04785183
249	0xbd9d15da	-0.076701835
250	0x3d67fb28	0.056636006
251	0xbd30f9d0	-0.04320699
252	0x3d7aeb38	0.06125948
253	0xbd97647e	-0.07392214
254	0xbdbdbe9c	-0.092648715
255	0xbd2dbcc8	-0.042416364

hyper_w2.2.bias f4 [32]
0	0xbd932d68	-0.07186395
1	0xbd3e3380	-0.046435833
2	0x3dc20c90	0.09475052
3	0xbc7193c0	-0.014744699
4	0x3df016ba	0.11723085
5	0xbd958176	-0.07300083
6	0x3dbe82f4	0.09302321
7	0x3cbe9bc8	0.023267642
8	0x3df1504c	0.117828935
9	0x3d36e310	0.044650137
10	0xbca4e730	-0.02012977
11	0xbd48e1a0	-0.049043298
12	0x3d98ff06	0.07470517
13	0xbb72c2c0	-0.003704235
14	0xbcc13788	-0.02358605
15	0xbcc29e68	-0.023757175
16	0x3c037b00	0.008024931
17	0x3d6ea798	0.0582653
18	0xbd4b1038	-0.049576014
19	0x3dba1c92	0.090874806
20	0xbd813b92	-0.0631019
21	0xbd4c3fe4	-0.04986562
22	0xbd05fae0	-0.032709956
23	0x3dfe9e66	0.12432556
24	0x3dbcf5ca	0.09226568
25	0x3d95f6a2	0.07322432
26	0x3db69112	0.08914389
27	0x3c5e7be0	0.013579339
28	0xbd3363f0	-0.04379648
29	0xbdf832e2	-0.1211908
30	0xbddeba28	-0.1087535
31	0xbdcccd8a	-0.10000141

hyper_b1.weight f4 [32, 1024]
0	0x3c2274e0	0.0099155605
1	0xbb4df200	-0.003142476
2	0xbcec63a8	-0.028856114
3	0xbcf518d2	-0.029919062
4	0x3c1eb324	0.009686265
5	0xbb53a860	-0.0032296404
6	0xbca70106	-0.02038623
7	0xbb671cf0	-0.003526505
8	0xbb3d3a60	-0.0028873906
9	0xbc9857e6	-0.0185966
10	0x3b530a60	0.003220223
11	0x3bdad9a0	0.006678775
12	0xbc98edc0	-0.018668056
13	0xbca08626	-0.019595217
14	0x3b789d80	0.0037935674
15	0x3cfc0062	0.030761901
16	0xbcc56464	-0.024095722
17	0xbcbe3bf2	-0.023221944
18	0x3cb6bf8e	0.022308137
19	0xbce5ab48	-0.028035775
20	0x3c7186e8	0.014741637
21	0x3c24bbd8	0.010054551
22	0xbbb5ed78	-0.00555199
23	0x3cd7b128	0.026329592
24	0x3ae77840	0.0017659739
25	0x3bf87400	0.0075821877
26	0xbc4fcd44	-0.0126832165
27	0xbca2d216	-0.019875567
28	0x3c5aa590	0.013345137
29	0xbaa1d000	-0.0012345314
30	0xbcd97d7e	-0.026549097
31	0xbc1d10a4	-0.009586487
32	0xbcb5443c	-0.022127263
33	0xbc88a85e	-0.016681846
34	0x3c00d730	0.007863805
35	0x3ca53e70	0.020171374
36	0xbce235b0	-0.02761349
37	0xbb895398	-0.0041908734
38	0xbc867d28	-0.016417101
39	0x3cfcbee4	0.030852742
40	0xbc2e065c	-0.010621633
41	0x3c908100	0.017639637
42	0x3ca2915e	0.019844707
43	0x3c9012d0	0.017587095
44	0x3cb3aeb0	0.021933883
45	0x3cf5e80a	0.030017871
46	0x3bccc060	0.006248519
47	0xbcac93f0	-0.021066636
48	0x3ce60f68	0.028083518
49	0x3ba01080	0.0048847795
50	0xbcb0f100	-0.021599293
51	0xbc1e42f0	-0.009659514
52	0x3cfa2cba	0.030538905
53	0xbcc6d7e8	-0.024272874
54	0xbb87b600	-0.004141569
55	0xbc25a7c0	-0.0101107955
56	0xbc88ed98	-0.016714856
57	0x3c401d40	0.011725724
58	0x3c9832c8	0.018578902
59	0x3cf60fb4	0.030036785
60	0xbc884f1c	-0.016639285
61	0xbc8c8192	-0.017151628
62	0xbceef354	-0.029168762
63	0xbcc75222	-0.024331156
64	0xbcbf62a4	-0.023362465
65	0x3c5881bc	0.013214525
66	0x3c40e2f0	0.011772856
67	0x3c7618dc	0.015020575
68	0xbaac6d80	-0.0013155192
69	0xbcdd5822	-0.027019564
70	0xbb01a6d0	-0.0019783266
71	0xbcccfd1c	-0.025023036
72	0x3b285d40	0.0025690347
73	0xbc2670c4	-0.010158721
74	0x3ce40190	0.027832776
75	0x3ce212e6	0.027596902
76	0xbc67f958	-0.014158569
77	0x3c612c24	0.013743434
78	0x3c538a78	0.0129114315
79	0xbc3657b4	-0.0111293085
80	0x3cba0190	0.022705823
81	0xbcd8de64	-0.026473232
82	0x3ca683e4	0.020326562
83	0x3c62c000	0.013839722
84	0x3c8e54ba	0.017374385
85	0xbba3e3f8	-0.005001541
86	0x3c88d738	0.016704187
87	0xbc6d4928	-0.014482774
88	0x3c7e0108	0.015503176
89	0xbc64adec	-0.013957482
90	0xbc2687d8	-0.010164224
91	0x3cf58920	0.029972613
92	0xbbc02688	-0.0058639683
93	0x3c83eb5e	0.016103443
94	0xbca0067c	-0.019534342
95	0x3cc4fed4	0.024047293
96	0xbb2c3ab0	-0.0026280098
97	0xbce78bda	-0.028264929
98	0x3bc6ec58	0.006070655
99	0xbcbbd5da	-0.02292912
100	0xbb15bc50	-0.0022847839
101	0x3c8b0b36	0.01697312
102	0x3b67b360	0.0035354719
103	0xbb155d50	-0.0022791214
104	0xbc239824	-0.009985004
105	0x3c3fddac	0.011710566
106	0xbc99807c	-0.018738024
107	0x3c708784	0.014680747
108	0x3c6bee78	0.014400117
109	0xbb892898	-0.0041857474
110	0x3cd4be34	0.025969602
111	0xbc5b6fd4	-0.013393361
112	0xbc92c010	-0.017913848
113	0x3aed7a40	0.0018118098
114	0xbce70e32	-0.028205011
115	0x3cee88a2	0.029117886
116	0x3c5b9814	0.0134029575
117	0xbc351794	-0.011052985
118	0x3cde1c5e	0.027113136
119	0xbb5561b0	-0.0032559447
120	0xbc3570bc	-0.011074241
121	0xbbbed9c0	-0.0058242977
122	0x3ab27860	0.0013616197
123	0xbcc7cf78	-0.024390921
124	0xbcff5724	-0.031169482
125	0x3cc332e2	0.023827974
126	0x3c9b631e	0.018968161
127	0x3b6063e0	0.0034239218
128	0xbb271030	-0.0025491826
129	0xbcb861b2	-0.022507522
130	0xbcf3b0b6	-0.029747348
131	0xbc97803c	-0.018493764
132	0xbced1184	-0.028939016
133	0xbcf8dfda	-0.030380178
134	0x3bcb8fb8	0.006212201
135	0xbc1b0d9c	-0.009463694
136	0x3b5d4e70	0.0033768676
137	0x3c6312a4	0.013859425
138	0xbb8c4738	-0.004280951
139	0x3c122f3c	0.008922394
140	0xb77f4000	-1.5214086e-05
141	0xbac62ce0	-0.0015119575
142	0x3b39dbf0	0.0028359853
143	0x3b79ff90	0.0038146712
144	0xbce92518	-0.02846007
145	0xbcef540a	-0.029214878
146	0x3ba88f38	0.005144026
147	0x3caaa7a8	0.020831898
148	0x3cb185bc	0.021670215
149	0xb865e400	-5.4810196e-05
150	0xbc455d74	-0.012046207
151	0x3b092500	0.0020926595
152	0xbc7a0cac	-0.01526181
153	0xbc4d64f8	-0.01253628
154	0xbcb5d9a2	-0.022198502
155	0x3c41aac4	0.011820499
156	0x3c82ab2c	0.015950762
157	0x3cfc8a06	0.030827533
158	0xbce3c6ca	-0.027804751
159	0x39d77400	0.00041094422
160	0xbcc0260a	-0.023455638
161	0x3c214200	0.009842396
162	0xbb7e7050	-0.0038824268
163	0x3ca84f68	0.020545676
164	0xbc48e564	-0.012261722
165	0x3c921524	0.017832346
166	0x3cd1c20c	0.025605224
167	0x3c18b498	0.009320401
168	0x3bf7f140	0.007566601
169	0xbc5cbc50	-0.013472632
170	0xbb916800	-0.0044374466
171	0x3c0dd70c	0.008657228
172	0x3cf9dce4	0.030500837
173	0xbc432098	-0.011909626
174	0xbc967f66	-0.018371295
175	0x3bbbfda8	0.0057370253
176	0xb90a7000	-0.00013202429
177	0xbc034c04	-0.008013729
178	0xbcab02f0	-0.020875424
179	0x3cb10d50	0.021612793
180	0xbc171680	-0.009221673
181	0xbce22468	-0.02760525
182	0xbbb44420	-0.005501285
183	0x3c81f1c4	0.015862353
184	0x3c78f20c	0.015194427
185	0xbc52a008	-0.012855537
186	0xbc125518	-0.008931421
187	0xbce0b0b2	-0.027428005
188	0x3cbbf286	0.022942793
189	0x3ccfdaf0	0.025372952
190	0x3ce54076	0.027984839
191	0xbc2d0db8	-0.010562353
192	0xbca69eb2	-0.020339344
193	0x3ccbf3bc	0.024896495
194	0x3c97e54e	0.018541958
195	0xbb8efa48	-0.004363332
196	0x3c2fd920	0.010732919
197	0xbbe945e8	-0.007118929
198	0xbb90feb0	-0.0044248924
199	0x3b758380	0.0037462413
200	0xbc02d600	-0.007985592
201	0xbcd088b8	-0.025455818
202	0xbcb62fa0	-0.022239506
203	0x3b8b3888	0.0042486824
204	0xbce05690	-0.027385026
205	0xbcfa688c	-0.03056743
206	0x3cde125e	0.027108368
207	0x3cb78e88	0.022406831
208	0xbc52fe68	-0.012878038
209	0x3cfbb032	0.030723665
210	0xbcbe94ee	-0.023264375
211	0xbcbb56fc	-0.022868626
212	0xbc09685c	-0.008386698
213	0x3c82762c	0.01592549
214	0x3ba3bf10	0.0049971417
215	0x3c3b35f4	0.011426438
216	0xbc9a9228	-0.01886852
217	0xbbf34be8	-0.00742482
218	0xb9d59300	-0.0004073605
219	0xbcab6768	-0.020923331
220	0xbb8f2f98	-0.0043696873
221	0xbc8d29b2	-0.017231796
222	0xbb1c8420	-0.0023882464
223	0x3ba4bc08	0.005027298
224	0x3c8ca6fe	0.017169472
225	0x3cb9d27a	0.02268337
226	0x3cb3bef2	0.021941636
227	0xbc69442c	-0.014237445
228	0xbc737218	-0.014858745
229	0xbc354f60	-0.011066288
230	0x3cadeef4	0.021232106
231	0xbc41d910	-0.011831537
232	0xbcfb3e16	-0.030669253
233	0xbccf4ca8	-0.025305107
234	0xbc7c36fc	-0.015393969
235	0xbc760210	-0.01501514
236	0xb940a800	-0.00018373132
237	0x3c896dba	0.016775955
238	0x3ba49638	0.0050227903
239	0x3c783eb0	0.015151665
240	0x38f62e00	0.00011738762
241	0x3c94ea60	0.018178165
242	0x3c2984c8	0.010346599
243	0x3a7b0cc0	0.000957679
244	0xbc17f468	-0.00927458
245	0xbb893048	-0.004186664
246	0x3b2122b0	0.0024587326
247	0xbc49d000	-0.0123176575
248	0xbc01d198	-0.007923506
249	0xbc923c6e	-0.01785108
250	0x3c1a7448	0.009427138
251	0xbb706bc0	-0.0036685318
252	0xbcfb1efa	-0.03065442
253	0xbcb1ecf8	-0.02171944
254	0xbc5c5bf0	-0.013449654
255	0x3c6bdc4c	0.014395785

hyper_b1.bias f4 [32]
0	0x3c8beb70	0.017080039
1	0xbcef1018	-0.029182479
2	0xbc67669c	-0.014123585
3	0xbb8e3938	-0.004340317
4	0xbcb69034	-0.022285558
5	0x3b91baa8	0.0044473
6	0xbceb7622	-0.028742854
7	0xbc354b54	-0.011065323
8	0x3cf58c8e	0.029974248
9	0xbc602190	-0.013679877
10	0x3ca92190	0.020645887
11	0xbcf3e506	-0.029772293
12	0xbc737388	-0.014859088
13	0xbcbda828	-0.023151472
14	0xbc4eba7c	-0.0126177035
15	0xbcc53bea	-0.02407642
16	0x3cf24030	0.029571623
17	0xbcd35a24	-0.025799818
18	0xbc7b9284	-0.015354756
19	0x3cca7552	0.024714146
20	0xbc566d84	-0.013087634
21	0x3caa6172	0.020798419
22	0x3cced9f2	0.025250409
23	0xbca8b06a	-0.020591933
24	0x3cbc4e56	0.022986572
25	0xbc1141d0	-0.008865789
26	0x3c1ad258	0.009449564
27	0x3cce704c	0.025200032
28	0xbc4cdef4	-0.012504328
29	0xbcde917a	-0.027168978
30	0x3c741634	0.014897872
31	0xbcfc4bb8	-0.030797824
