models/v2/target_agent_net.pth (torch, 85919 bytes, 4 tensors)

fc1.weight f4 [64, 324]
0	0x3d5eb1c0	0.054368734
1	0xbcf05659	-0.029338049
2	0xbdaf7b79	-0.085684724
3	0x3cfd6536	0.03093205
4	0x3db75056	0.0895087
5	0xbc7c4e2a	-0.015399495
6	0xbcb22407	-0.021745695
7	0x3b1a592a	0.002355168
8	0x3cc0251a	0.023455191
9	0xbb1fe9c7	-0.0024400817
10	0xbdf8a938	-0.12141651
11	0xbd174bae	-0.03693741
12	0xbcc2ead0	-0.023793608
13	0x3c830ad3	0.015996372
14	0x3dbd10ed	0.09231744
15	0x3cbb43a1	0.022859396
16	0x3d80816b	0.062746845
17	0x3cf1fa5b	0.029538324
18	0xba925cea	-0.0011166607
19	0xbd014a71	-0.031565133
20	0xbca25a03	-0.019818312
21	0x3cd46201	0.025925638
22	0xbc5a5ba6	-0.013327515
23	0xbc46a917	-0.012125275
24	0x3c83ffeb	0.016113242
25	0xbdd7410b	-0.10510453
26	0x3d5bb34d	0.05363779
27	0x3cc69290	0.024239808
28	0xbd8591dc	-0.06521961
29	0x3d0b600b	0.03402714
30	0x3cfbf3f0	0.030755967
31	0x3c9424d9	0.018083977
32	0x3cd6608f	0.02616909
33	0xbd0fb637	-0.035085883
34	0x3cb84185	0.02249218
35	0xbd3a1d0e	-0.045437865
36	0x3c8f49e9	0.017491298
37	0xbbc2511a	-0.005930078
38	0x3a5a0fbd	0.0008318385
39	0x3cc12397	0.02357654
40	0xbc78abaa	-0.015177647
41	0xbca50616	-0.020144504
42	0xbd90eec2	-0.070767894
43	0x3d3804ab	0.044926327
44	0xbbfa234a	-0.0076336013
45	0x3bc42c82	0.005986751
46	0x3d7f85ab	0.062383335
47	0x3d182a6c	0.03714983
48	0x3d19dd3f	0.037564512
49	0xbd7ea90b	-0.06217293
50	0xbd658a12	-0.056039877
51	0x3d3bf91f	0.045891877
52	0xbda440ee	-0.08020197
53	0x3d8f00a2	0.069825426
54	0xbd5fb428	-0.05461517
55	0xbdcfd2c0	-0.10147619
56	0x3c89e5ae	0.016833153
57	0xbb984a75	-0.004647548
58	0xbd0ca60e	-0.03433805
59	0x3d807f23	0.062742494
60	0xbca5efb6	-0.020255905
61	0xbd06af51	-0.03288204
62	0x3d8ddc9e	0.06926845
63	0xbd4eb4c0	-0.050465345
64	0xbd34a5d7	-0.04410347
65	0xbd328b65	-0.04358997
66	0xb9e173b7	-0.00043001559
67	0x3c7bc8e5	0.015367721
68	0x3d576fc1	0.05259681
69	0xbce88d3b	-0.028387656
70	0x3dc23e36	0.09484522
71	0x3d6181e1	0.055055503
72	0x3d5bff42	0.05371023
73	0x3c673895	0.014112611
74	0xbe04b2e8	-0.12958872
75	0xbd3e0973	-0.04639573
76	0x39816c66	0.0002468556
77	0xbcbdb26d	-0.02315637
78	0x3d84a0f3	0.06476011
79	0x3b5947dd	0.0033154406
80	0xbda0e9ab	-0.07857069
81	0xbd86588f	-0.0655986
82	0xbd0b67c3	-0.0340345
83	0xbd2c525c	-0.04207073
84	0x3cba6867	0.022754861
85	0xbdade476	-0.08490841
86	0xbd664320	-0.05621636
87	0x3d0623fd	0.032749165
88	0xbdb9ee6c	-0.090786785
89	0x3bbfb3b4	0.0058502797
90	0x3d06cbe3	0.032909285
91	0x3dbd4340	0.092413425
92	0xbce51b4e	-0.027967121
93	0xbc159314	-0.009129304
94	0xbbca337b	-0.0061706877
95	0xbd35009b	-0.04419003
96	0x3d67a8a0	0.056557298
97	0x3c510022	0.012756379
98	0xbd3629fa	-0.044473626
99	0x3c386ee3	0.011256906
100	0x3d79e4af	0.061009105
101	0xbbe9bc1c	-0.00713302
102	0xbab3a8a0	-0.001370687
103	0xbd1c386d	-0.03813975
104	0xbddcffde	-0.1079099
105	0xbcc46e0f	-0.023978261
106	0xbdb39610	-0.087688565
107	0xbdc6b619	-0.09702701
108	0xbd57e650	-0.052709877
109	0xbd217583	-0.03941871
110	0x3dc36617	0.095409565
111	0xbcb34902	-0.021885399
112	0xbdd5ebfc	-0.10445401
113	0x3d77309d	0.060349096
114	0x3d3e580f	0.046470698
115	0x3a9a6f2c	0.0011782399
116	0x3d61d90a	0.055138625
117	0x3d0f78a9	0.03502718
118	0xbceb4038	-0.028717145
119	0xbcded16a	-0.027199466
120	0xbc600de2	-0.013675185
121	0x3d4ad17a	0.04951618
122	0xbd14813b	-0.036256056
123	0x3c109ec2	0.008826913
124	0x3d7445a4	0.059636727
125	0xbb74b435	-0.0037338857
126	0xbdd1fff4	-0.10253897
127	0x3d07ff04	0.033202186
128	0x3d3a941e	0.04555141
129	0x3c950c0e	0.018194225
130	0x3d1d0ec5	0.038344163
131	0x3d2f86ae	0.04285305
132	0x3d1b7088	0.037949115
133	0x3e0741a1	0.13208629
134	0xbd39913b	-0.04530452
135	0xbddbfcd6	-0.10741584
136	0x3d48b10c	0.04899697
137	0xbdec33a6	-0.11533289
138	0xbd6ff4cc	-0.058583066
139	0xbcc7d5a9	-0.024393873
140	0xbd8720eb	-0.065980755
141	0xbdbdbe2e	-0.092647895
142	0xbdbc7052	-0.09201111
143	0x3c177250	0.009243563
144	0x3d092d31	0.033490364
145	0xbcb37412	-0.021905933
146	0x3db94dd1	0.090480454
147	0x3c1b5256	0.00948008
148	0x3db2f163	0.08737447
149	0xbd8cba6f	-0.06871497
150	0x3cac30b1	0.021019312
151	0xbdb95a38	-0.09050411
152	0x3cb44f1d	0.02201038
153	0xbd12c006	-0.03582766
154	0x3bb4a3e6	0.0055127023
155	0x3dd557db	0.10417148
156	0x3df160d4	0.117860466
157	0xbd5d2922	-0.053994305
158	0xbc859569	-0.016306596
159	0x3d213b51	0.03936321
160	0x3d9a963b	0.075481854
161	0x3cc492cf	0.023995785
162	0xbd58c2b6	-0.052920066
163	0xbd8bd441	-0.068275936
164	0x3cbbd2c2	0.022927646
165	0x3c84fed6	0.016234796
166	0x3cf0fcda	0.029417444
167	0x3da465cf	0.08027231
168	0x3de7200f	0.112854116
169	0xbaf29b5d	-0.0018509437
170	0x3dae3668	0.08506471
171	0xbdae73f7	-0.08518212
172	0xbdc2ba36	-0.09508173
173	0x3cc3d7f8	0.023906693
174	0xbc426cda	-0.011866773
175	0x3b69f508	0.0035699029
176	0xbdc47156	-0.095919296
177	0x3d8be682	0.06831075
178	0xbc37cc25	-0.011218105
179	0xbd81569d	-0.06315348
180	0x3de96d63	0.11397817
181	0x3d439b85	0.047755737
182	0xbc833c2a	-0.0160199
183	0x3d79c3d5	0.060977776
184	0x3d055c1e	0.032558553
185	0xbdbb728d	-0.09152708
186	0xbd34b08d	-0.044113684
187	0xbd30fbec	-0.043209
188	0xbdb9a48d	-0.09064589
189	0x3d958994	0.073016316
190	0x3e05c0c3	0.13061814
191	0x3c7b5469	0.015339949
192	0x3cb6a472	0.02229521
193	0x3d13f984	0.03612663
194	0x3d13622b	0.035982292
195	0x3be88d9a	0.0070969583
196	0xbca7142a	-0.020395357
197	0x3d074fad	0.03303497
198	0xbcd2a866	-0.025715064
199	0x3b719914	0.0036864923
200	0x3b8afe07	0.004241708
201	0x3d405425	0.046955246
202	0xbd777ad2	-0.060419865
203	0x3c369ee6	0.011146283
204	0x3c533907	0.012892014
205	0x3cffe226	0.031235766
206	0x3d10b647	0.035330083
207	0x3d8019c3	0.06254914
208	0x3d5cf038	0.053940028
209	0x3e086e8c	0.1332342
210	0xbddad31c	-0.10684797
211	0x3e1e87da	0.15481511
212	0x3cefd359	0.029275583
213	0x3cbb913a	0.022896398
214	0x3d89df4b	0.06732043
215	0xbded0db2	-0.11574878
216	0xbd9edcf6	-0.07756989
217	0xbd7333b2	-0.059375472
218	0x3d1ca10a	0.038239516
219	0x3db60851	0.08888305
220	0xbc881516	-0.016611617
221	0x3cb536b5	0.022120813
222	0x3d3e0ee0	0.046400905
223	0xbd11e06a	-0.03561441
224	0x3cd15d54	0.025557198
225	0xbdbf2711	-0.09333623
226	0xbb748b17	-0.003731435
227	0x3dc3128e	0.095250234
228	0x3c95c037	0.018280132
229	0x3dd30491	0.10303605
230	0x3cdeffa5	0.02722151
231	0xbdb683ef	-0.08911883
232	0xbc927dd9	-0.017882274
233	0x3c492e99	0.012279176
234	0xbb1eef36	-0.0024251468
235	0xbd7a5d07	-0.061123874
236	0xbcdaf1a8	-0.026726559
237	0xbc8f6ddc	-0.01750844
238	0xbd252229	-0.04031578
239	0x3d900b6a	0.07033427
240	0x3aaa52c5	0.0012994638
241	0xbd0c3810	-0.034233153
242	0xba884dcb	-0.0010399161
243	0xbc81149b	-0.015756896
244	0xbc2ec979	-0.010668152
245	0xbbb1eac5	-0.005429598
246	0x3bddaeb0	0.006765209
247	0xbdd53f58	-0.104124725
248	0x3c958841	0.018253447
249	0xbd2e05af	-0.04248589
250	0x3d6ad20f	0.057329234
251	0x3d3b482b	0.04572312
252	0xbd26477d	-0.04059552
253	0x3d5ee982	0.05442191
254	0x3d343177	0.043992486
255	0x3d7f8d87	0.06239083

fc1.bias f4 [64]
0	0x00000000	0.0
1	0x00000000	0.0
2	0x00000000	0.0
3	0x00000000	0.0
4	0x00000000	0.0
5	0x00000000	0.0
6	0x00000000	0.0
7	0x00000000	0.0
8	0x00000000	0.0
9	0x00000000	0.0
10	0x00000000	0.0
11	0x00000000	0.0
12	0x00000000	0.0
13	0x00000000	0.0
14	0x00000000	0.0
15	0x00000000	0.0
16	0x00000000	0.0
17	0x00000000	0.0
18	0x00000000	0.0
19	0x00000000	0.0
20	0x00000000	0.0
21	0x00000000	0.0
22	0x00000000	0.0
23	0x00000000	0.0
24	0x00000000	0.0
25	0x00000000	0.0
26	0x00000000	0.0
27	0x00000000	0.0
28	0x00000000	0.0
29	0x00000000	0.0
30	0x00000000	0.0
31	0x00000000	0.0
32	0x00000000	0.0
33	0x00000000	0.0
34	0x00000000	0.0
35	0x00000000	0.0
36	0x00000000	0.0
37	0x00000000	0.0
38	0x00000000	0.0
39	0x00000000	0.0
40	0x00000000	0.0
41	0x00000000	0.0
42	0x00000000	0.0
43	0x00000000	0.0
44	0x00000000	0.0
45	0x00000000	0.0
46	0x00000000	0.0
47	0x00000000	0.0
48	0x00000000	0.0
49	0x00000000	0.0
50	0x00000000	0.0
51	0x00000000	0.0
52	0x00000000	0.0
53	0x00000000	0.0
54	0x00000000	0.0
55	0x00000000	0.0
56	0x00000000	0.0
57	0x00000000	0.0
58	0x00000000	0.0
59	0x00000000	0.0
60	0x00000000	0.0
61	0x00000000	0.0
62	0x00000000	0.0
63	0x00000000	0.0

fc2.weight f4 [5, 64]
0	0xbc6fd000	-0.014636993
1	0xbd4a2108	-0.049347907
2	0x3e84b7fc	0.2592162
3	0xbc908629	-0.017642098
4	0x3dd1bb12	0.10240759
5	0x3ec17c5f	0.377902
6	0xbd9f02f8	-0.07764238
7	0xbdabd5c6	-0.083903834
8	0x3d79d87a	0.060997464
9	0x3dac4c1e	0.08412956
10	0xbe48cd33	-0.19609527
11	0xbd8401e4	-0.06445673
12	0xbe0badb8	-0.13640487
13	0x3e7eff13	0.2490199
14	0xbd6a12e0	-0.057146907
15	0xbe1909a5	-0.14945085
16	0x3dc7b4f6	0.097513124
17	0x3e00cd78	0.1257838
18	0x3c39e7f0	0.011346802
19	0xbe528e45	-0.20562084
20	0xbd651fc7	-0.05593851
21	0xbc520a7e	-0.012819884
22	0xbcf1c1cf	-0.02951136
23	0xbccd7295	-0.025079051
24	0xbd8645ba	-0.06556268
25	0x3e1fb67a	0.15596953
26	0xbdd32e4a	-0.10311563
27	0x3dacafa7	0.084319405
28	0xbc86a324	-0.016435213
29	0x3c52478e	0.012834443
30	0xbd47b7f4	-0.048759416
31	0x3ca44a32	0.02005491
32	0xbe055b94	-0.13023216
33	0xbdb86f4f	-0.090056054
34	0x3dcda7b9	0.10041756
35	0x3dfa7a92	0.1223041
36	0xbd14d1f4	-0.03633304
37	0xbda71969	-0.081591435
38	0xbd1f6079	-0.038910363
39	0x3ea35cfd	0.31906882
40	0x3e54dac6	0.2078658
41	0x3c0edd72	0.008719789
42	0xbe8c53a3	-0.2740756
43	0xbd9abab5	-0.07555143
44	0x3de2de4f	0.11077558
45	0xbd88b9dd	-0.066760756
46	0x3d7fe46b	0.062473696
47	0xbe2a8aac	-0.16654462
48	0x3e08fe97	0.13378368
49	0xbe0a2394	-0.13490134
50	0xb7b608aa	-2.1700125e-05
51	0x3b93cecd	0.0045107366
52	0x3db4a039	0.088196225
53	0x3db27b1a	0.08714886
54	0xbbe96318	-0.0071224086
55	0x39f7132e	0.000471258
56	0xbdce57a8	-0.10075313
57	0x3da0169b	0.07816812
58	0xbd8843a5	-0.06653527
59	0x3e4e58ba	0.20151034
60	0x3ac59e41	0.001507707
61	0x3e2a0c49	0.16606249
62	0x3daf1842	0.08549549
63	0xbc3ae425	-0.011406933
64	0x3e1df1f7	0.15424334
65	0xbde9b838	-0.1141209
66	0x3d89747a	0.06711669
67	0xbe380f2c	-0.17974538
68	0xbce41a70	-0.027844638
69	0xbe0ceb91	-0.13761736
70	0xbde1291e	-0.109941706
71	0x3db44202	0.088016525
72	0xbbf70da0	-0.007539466
73	0x3e81c49d	0.25345317
74	0xbdb38232	-0.08765067
75	0x3d9d3f69	0.0767811
76	0x3e0ebb6c	0.13938683
77	0xbd8ddefd	-0.06927297
78	0xbcca332c	-0.024682604
79	0xbe45cbb3	-0.19315986
80	0x3d4cf71f	0.05004036
81	0xbd443660	-0.04790342
82	0x3caeba98	0.02132921
83	0x3d3f890a	0.04676155
84	0x3b849f87	0.0040473375
85	0xbe213cfa	-0.15745917
86	0xbd8c2a77	-0.06844037
87	0xbb6f4cf6	-0.0036514378
88	0x3b1df417	0.0024101788
89	0x3dd8c6f1	0.1058482
90	0x3e078161	0.13232948
91	0xbdcbb0eb	-0.09945854
92	0x3e37e28b	0.17957513
93	0xbd7b45d9	-0.06134591
94	0xbc298db1	-0.010348723
95	0x3c51aa04	0.012796883
96	0x3d2e3c76	0.04253813
97	0xbe311a0b	-0.17295091
98	0x3d5b6fa0	0.05357325
99	0xbd5ed442	-0.054401644
100	0x3d2b664e	0.041845612
101	0x3d5a4945	0.05329253
102	0xbd1c1eca	-0.0381153
103	0x3d9ef83a	0.07762189
104	0x3e13417d	0.1438045
105	0xbd25b42a	-0.04045502
106	0x3d82f3b2	0.063941374
107	0x3d4eddb7	0.050504413
108	0xbd148932	-0.036263652
109	0xbc7b7b32	-0.015349196
110	0x3ed300da	0.41211587
111	0x3db60996	0.08888547
112	0x3dad8fe3	0.0847471
113	0xbde65d04	-0.1124821
114	0x3e6adbc0	0.2293539
115	0x3e895ad7	0.26827118
116	0x3e118921	0.14212467
117	0xbe342ccf	-0.17595218
118	0xbe19b852	-0.15011719
119	0x3e6fc156	0.23413596
120	0x3e2b4c38	0.16728294
121	0xbe08b91d	-0.13351865
122	0xbd0a2702	-0.033728607
123	0x3c75e3dd	0.01500794
124	0xbd32f799	-0.04369316
125	0xbdab130e	-0.08353244
126	0xbe42cac2	-0.19022658
127	0x3ddfad95	0.1092178
128	0xbdcd9f0b	-0.10040101
129	0xbeb5e376	-0.355251
130	0xbe0d5e02	-0.13805392
131	0xbdad7b93	-0.084708355
132	0x3d9e7e15	0.07738892
133	0x3c2cff58	0.010558926
134	0x3e337130	0.17523646
135	0xbe148fd1	-0.14507987
136	0xbb992091	-0.0046730717
137	0xbdb735e8	-0.08945829
138	0xbde6e7b8	-0.112746656
139	0xbe63b9f0	-0.22238898
140	0x3d666032	0.056244083
141	0x3cdb1a71	0.026746007
142	0xbd175924	-0.036950245
143	0x3e242030	0.16027904
144	0x3db700ce	0.089357
145	0xbe1eef6b	-0.15521018
146	0xbe31bf27	-0.17358075
147	0xbd928c9c	-0.07155725
148	0x3dd40c6e	0.10353933
149	0x3c880259	0.016602682
150	0xbd89b5ec	-0.06724152
151	0xbd5166a3	-0.051123273
152	0xbe019490	-0.12654328
153	0x3e267062	0.16253808
154	0xbbe9a249	-0.0071299416
155	0x3d81f6b7	0.06345885
156	0x3dbeb001	0.09310914
157	0xbd7c11c0	-0.061540365
158	0xbc911579	-0.017710434
159	0x3d474ed7	0.048659172
160	0x3dd8ee9f	0.10592388
161	0xbdcfe967	-0.1015194
162	0x3cbe4aad	0.023228968
163	0xbe2a47c3	-0.16628937
164	0xbe150cc0	-0.14555645
165	0x3e5133d3	0.20429926
166	0x3e3d3b7b	0.18479721
167	0x3e5a115d	0.21295686
168	0xbe1c6520	-0.15272951
169	0x3deb1906	0.11479382
170	0x3d5f13d4	0.05446227
171	0x3c01a662	0.007913204
172	0x3ddb75a7	0.107158
173	0x3e0a1114	0.13483077
174	0x3d460c86	0.048351787
175	0x3dc7e3c6	0.09760241
176	0xbd2cc89e	-0.04218351
177	0xbcedae8e	-0.029013898
178	0xbdce6afc	-0.100789994
179	0x3e79615e	0.24353549
180	0xbe924fb3	-0.2857643
181	0x3d5db56b	0.05412809
182	0xbca6d261	-0.020363988
183	0xbd613c0e	-0.054988913
184	0xba085c8d	-0.00052017794
185	0xbd46f275	-0.04857107
186	0x3df466be	0.11933659
187	0xbdb3d631	-0.08781088
188	0xbd5586cd	-0.05213051
189	0x3e81eff3	0.2537838
190	0xbb4a6965	-0.0030885574
191	0x3da6bd5a	0.08141585
192	0xbda72e1d	-0.08163092
193	0xbd2351ed	-0.039873052
194	0x3e18c38b	0.14918344
195	0xbc9d4f42	-0.019202832
196	0x3de7089e	0.112809405
197	0x3cf6305b	0.030052355
198	0x3d10a7de	0.03531634
199	0x3dde4fb5	0.10855047
200	0xbdfadae5	-0.12248782
201	0xbdab128a	-0.083531454
202	0xbbb3c91b	-0.00548662
203	0x3e6ebf3e	0.2331514
204	0x3e06270a	0.1310083
205	0x3ed613dd	0.4181203
206	0xbc8e2a7d	-0.017354244
207	0x3e1efd84	0.15526396
208	0xbd975e36	-0.07391016
209	0x3d58365f	0.052786227
210	0xbe32cf5e	-0.17461917
211	0xbde1b5a4	-0.11020973
212	0x3cdbc2bf	0.02682626
213	0x3d26fa2f	0.040765937
214	0xbdf14ed5	-0.11782614
215	0xbdc76df3	-0.09737768
216	0x3da5c42a	0.08094056
217	0xbc8d3fe4	-0.01724238
218	0xbd8bd509	-0.068277426
219	0xbe04c237	-0.12964712
220	0x3caa538d	0.020791793
221	0xbe9130b8	-0.28357482
222	0xbe07c7ff	-0.13259886
223	0xbcde867b	-0.027163735
224	0xbd3919da	-0.04519067
225	0x3e8c7605	0.27433792
226	0xbd3fc36a	-0.04681722
227	0xbdc41898	-0.095750034
228	0xbd47dc21	-0.048793916
229	0x3dff5e3a	0.12469144
230	0xbe16c56c	-0.14723748
231	0xbe462f8e	-0.19354078
232	0xbdac8d65	-0.08425406
233	0xbe015170	-0.12628722
234	0x3d040559	0.032231662
235	0xbcd27b55	-0.025693575
236	0x3b7b9308	0.0038387198
237	0xbe3630eb	-0.17792098
238	0x3dec0531	0.11524428
239	0x3dd30c51	0.103050835
240	0xbce9c728	-0.028537348
241	0x3bffc1a8	0.007805068
242	0x3e499f88	0.19689763
243	0xbd95365a	-0.07285757
244	0xbc155b6c	-0.009116035
245	0xbc2fd0e0	-0.010730952
246	0x3e4183f9	0.18898
247	0x3d9ea1a9	0.07745678
248	0x3deaf68b	0.114728056
249	0xbdb4bb43	-0.0882478
250	0x3dbeff37	0.09326022
251	0x3db69e28	0.08916885
252	0x3c373de5	0.01118419
253	0x3e79b262	0.24384454
254	0xbda0f330	-0.07858884
255	0xbdc5905a	-0.096466735

fc2.bias f4 [5]
0	0x00000000	0.0
1	0x00000000	0.0
2	0x00000000	0.0
3	0x00000000	0.0
4	0x00000000	0.0
