models/p100_v4/target_qmix_net.pth (torch, 834236 bytes, 13 tensors)

hyper_w1.0.weight f4 [64, 1024]
00000000: 34cd c73c 7e53 90bc 8498 a23c bcac 563c
00000010: 428c febc f0b1 9dbc bcb7 0dbc 8077 f5b9
00000020: dc2c 2cbc 74cd 7ebc ac3d cebc a44c 1b3c
00000030: 8a31 ffbc 6a20 9cbc e426 adbc 70f2 c03b
00000040: 08bd 8a3c c0fd e6bc 40e6 67bb 8c1f 4fbc
00000050: d0ae 093b d8d5 853b ee24 f7bc ea5f ebbc
00000060: 1838 2ebc a6c2 943c 30c3 11bc bc9a f63c
00000070: de87 d43c 50c4 dd3c 840a 2a3c a0c3 4ebb
00000080: 3c6a f23c 4082 053a 44f2 b63c 96c0 8e3c
00000090: a88f e2bb c673 b5bc 4820 88bb a0d9 f43b
000000a0: e03c 423c 3479 ebbc 6e3f e1bc fe4e e23c
000000b0: 287d 3cbc 4204 b23c 94fd 043c 04de b2bc
000000c0: a8a4 c03c dcb0 b1bc b0df c5bb 78d3 6f3c
000000d0: 58de b93b 9089 b13b 3020 b83c f264 db3c
000000e0: ced9 f93c 5433 5c3c 3044 aabb 40f3 efba
000000f0: 405b b33a 0026 983a d4ca f5bc 146f 5b3c
00000100: b8b4 7b3c ce67 c1bc 9898 e5bb 6600 9b3c
00000110: 8c15 d13c d441 54bc 948f 453c 1c70 acbc
00000120: 06fa fcbc e29d e43c 94c1 42bc 5057 a3bc
00000130: e835 80bc 0006 abba a0ac 69bc 00dc cbb9
00000140: d0bb eb3c 4890 f03c 5639 ccbc 40b2 643c
00000150: f0d1 c7bc 3886 9d3c 80a1 bd3a a809 3ebc
00000160: f2de c7bc 4a9e eebc 5c1e 38bc fcf6 203c
00000170: 5820 e0bb 7261 ad3c 9035 993c 56c7 fd3c
00000180: ecab fcbc 00e0 fe3a a8f3 d1bb ec4b a3bc
00000190: 08bb c33b 9018 17bc 809e eb3b 72ff c3bc
000001a0: 0e76 e1bc 58ef f53b a41b 0c3c 4800 eebb
000001b0: 04d0 a3bc 4c05 6abc 0013 09bc e09c fcba
000001c0: 7ef8 be3c 5cbc d03c c8c8 4abc 8849 b13c
000001d0: 3cb4 aabc 5c7f d9bc 1a0e a7bc aa5b c23c
000001e0: 646d d2bc 6035 cabb 78fc c6bb b82f f7bc
000001f0: 1863 423c 8a70 babc a828 f43c 6056 c33c
00000200: 96ca a93c 661a c53c d2f4 b73c 4c59 afbc
00000210: 8626 c2bc e82f f73b 780a a03c 6c67 c83c
00000220: 0858 3d3c d849 1a3c 6036 b2bb a819 5c3c
00000230: b8d0 283c 4a49 d53c daa6 d1bc c018 d8bc
00000240: 2e33 96bc dc77 fcbc ecd8 393c 6eaf f7bc
00000250: c818 b83c b0c9 243b b039 6f3c 94d0 d6bc
00000260: 3c81 733c fce7 cf3c 7664 c6bc c8b4 92bc
00000270: 3c3f 55bc 4cf0 ccbc 48b5 2bbc 1080 223b
00000280: 480e 08bc b88d 5b3c bc9a b93c 00c9 1aba
00000290: 3864 fa3c 563f e4bc be0b d3bc e8be e53c
000002a0: 0e0b d33c c27c 9ebc 2ccd 68bc f8fc 273c
000002b0: 4043 763c 8c90 00bc fc59 dabc 2639 8f3c
000002c0: ce03 e3bc 0c6d 8cbc 80d5 5f3b 10d9 bebb
000002d0: 0026 71b9 4431 d63c 4887 e6bb 10dd 86bc
000002e0: 1093 083c 48f7 bb3c a091 8e3b a8d9 cfbc
000002f0: ae42 cf3c 881f 5abc 70a7 ba3b 80ac 663b
00000300: 0668 b0bc 0c9a 70bc f845 a3bc c21f b33c
00000310: ba85 b33c 1cf6 1f3c f07c e83b b019 f03b
00000320: 005f bfbb 1ad0 833c bc79 ebbc d804 703c
00000330: 08b3 243c 8e18 88bc 084a 72bc 3c7c ffbc
00000340: 4027 afbb a221 cc3c 6af1 debc 6835 d0bb
00000350: 7a02 b63c 9892 163c a65a c8bc ba5b cdbc
00000360: 5270 a23c 20b7 e73b 5832 f9bb 545c 3abc
00000370: 58f4 93bc 0478 95bc 8cdd d03c 720c c7bc
00000380: 4eec ba3c 5a57 e9bc e0d4 363b 96bc 813c
00000390: ea0d 90bc 1ea7 e03c 3090 84bc fe4e fcbc
000003a0: b09c c13c 2089 a23a 7035 edbc c0a1 34ba
000003b0: 44f7 513c 00eb b53b b00d 8bbc 48f3 113c
000003c0: 5495 debc 40c6 80bc e885 aa3b 00d4 193c
000003d0: 1c0a b33c c2be ea3c ba8f b5bc e0bf d23b
000003e0: 468f a13c 708e 7ebb 8079 6c3a d88d 0a3c
000003f0: 6636 8d3c a0d8 d43c 18f6 81bc 107b a43b
0.02438984 -0.017617937 0.019848116 0.0131027065 -0.03107274 -0.019249886 -0.008649763 -0.00046819076
-0.010508742 -0.0155519135 -0.025175892 0.009478722 -0.031151552 -0.019058425 -0.021136709 0.005888276
0.01693584 -0.02819717 -0.0035385042 -0.012641799 0.0021008737 0.00408433 -0.030168977 -0.028732259
-0.010633491 0.018159222 -0.008896634 0.03010308 0.025943693 0.027071148 0.010378484 -0.0031549707
0.029591672 0.0005092956 0.022332318 0.017425817 -0.006914098 -0.022149932 -0.004154239 0.007472232
0.011855334 -0.028744318 -0.027496066 0.027625557 -0.011504449 0.021730546 0.008117098 -0.02183438
0.023516014 -0.021690778 -0.0060386285 0.01463782 0.0056722574 0.00541801 0.022476286 0.026781533
0.030499365 0.013439972 -0.005196117 -0.0018306747 0.0013683811 0.0011608005 -0.030003943 0.013393182
0.015362911 -0.023609068 -0.007006716 0.018921088 0.02552297 -0.012955148 0.0120581575 -0.021049552
-0.03088094 0.027907316 -0.011886973 -0.019939095 -0.015650705 -0.0013048053 -0.014262348 -0.0003888309
0.02877608 0.029365674 -0.024929684 0.013958514 -0.024392098 0.01922904 0.0014467686 -0.011598982
-0.0243983 -0.029128212 -0.011237707 0.009824511 -0.006839793 0.02116463 0.018702298 0.03097884
-0.030843697 0.0019445419 -0.00640722 -0.019933663 0.0059732236 -0.009222165 0.0071905255 -0.023925517
-0.027522113 0.0075053386 0.008551512 -0.007263217 -0.01999665 -0.014283489 -0.008366346 -0.0019272827
0.02331185 0.025480442 -0.012376972 0.021641508 -0.020837896 -0.026549987 -0.020392466 0.02372535
-0.025686927 -0.0061709136 -0.006072577 -0.030174121 0.011864446 -0.022758741 0.029804543 0.023844898
0.020726483 0.02406044 0.022455607 -0.021404885 -0.02370001 0.0075435527 0.019536242 0.024463378
0.011556633 0.00941702 -0.005438611 0.013433851 0.010303669 0.026035924 -0.025592256 -0.02637899
-0.018334951 -0.030818872 0.011343222 -0.030235019 0.022472754 0.002514463 0.014601156 -0.026222505
0.014862355 0.025379173 -0.024217825 -0.017908469 -0.0130155645 -0.025016926 -0.010480233 0.002479557
-0.008304186 0.013400488 0.02265679 -0.0005904585 0.030565366 -0.027862232 -0.025762435 0.028045133
0.025762107 -0.019346599 -0.014209073 0.010253184 0.015030682 -0.007846963 -0.026654236 0.017483305
-0.027711775 -0.017141841 0.0034154356 -0.0058242157 -0.00022997707 0.026146539 -0.0070351698 -0.016462833
0.008335844 0.022945061 0.004350856 -0.025372341 0.02530035 -0.013313182 0.0056962296 0.0035198033
-0.021533977 -0.014685165 -0.019930825 0.02186573 0.021914352 0.009763267 0.007094972 0.007327281
-0.0058401823 0.016090441 -0.02874457 0.014649592 0.01005245 -0.016613271 -0.014788158 -0.03118717
-0.005345255 0.024918381 -0.027214725 -0.006354023 0.022217978 0.009190224 -0.024457287 -0.025068153
0.01982895 0.0070713907 -0.0076048784 -0.011374552 -0.018060848 -0.018245704 0.025496267 -0.024297927
0.022817757 -0.028484035 0.002789788 0.015836995 -0.01758476 0.027423438 -0.016182035 -0.030799385
0.023634285 0.0012400486 -0.028956145 -0.00068905577 0.0128153 0.005551696 -0.0169743 0.0089081
-0.027170815 -0.015719533 0.005203951 0.009388924 0.021855406 0.028655414 -0.02216326 0.0064315647
0.019721638 -0.0038842224 0.00090207905 0.00845667 0.017237853 0.025982201 -0.015864417 0.005019553

hyper_w1.0.bias f4 [64]
00000000: 4c97 90bc 4a72 acbc a0bb e6bb eeec d33c
00000010: f81d 20bc 063d ebbc 7aae 85bc 70e2 223b
00000020: e440 3ebc bc08 2bbc 8074 f23b 8e6f 9fbc
00000030: 08e9 8a3b 0412 4ebc 14bf 67bc 66d9 f8bc
00000040: 80a9 e33c 98aa 9d3b 5c08 20bc ca99 df3c
00000050: 7aae d03c 1c9d 633c 3087 52bc b837 e8bc
00000060: 6414 1cbc c056 883a 7472 1cbc 200b 92bb
00000070: e619 913c 6000 263b d891 2cbc 42c9 a53c
00000080: ac1a 76bc 36c7 dcbc a41f 023c 68a4 9f3c
00000090: 8243 e73c aa61 f7bc e6cf bd3c 2852 a0bc
000000a0: 844b 353c d804 083c c8e7 e8bc 2838 333c
000000b0: f029 283c 889f ec3b 1ef4 bd3c 4485 65bc
000000c0: 24cc a6bc 18e5 303c 8c0a c93c 206c beba
000000d0: 203f ccbb 7ad6 90bc 00c5 7639 20db 78bb
000000e0: d003 1d3b c00b 3bbc 009e 3339 ce84 b2bc
000000f0: 52f1 dc3c e267 af3c 80c1 edb9 c0d9 42bc
-0.017650269 -0.021050591 -0.0070414096 0.025869813 -0.00977277 -0.028715622 -0.016318548 0.0024854206
-0.011612151 -0.010439094 0.007399142 -0.019462373 0.0042392053 -0.012577537 -0.014144678 -0.030377101
0.027790785 0.004811596 -0.009767618 0.027295012 0.025473822 0.013892438 -0.012849614 -0.028346881
-0.009526346 0.001040183 -0.009548772 -0.0044568926 0.017712545 0.0025329813 -0.010532819 0.020237569
-0.0150210075 -0.02695046 0.007942114 0.019487575 0.028230432 -0.030197937 0.023170423 -0.019570425
0.011065368 0.008301936 -0.028430834 0.010938682 0.010263905 0.007221166 0.023187693 -0.014008824
-0.020361014 0.010796808 0.024541162 -0.0014528073 -0.006233111 -0.017680395 0.00023533776 -0.0037972406
0.0023958571 -0.011416376 0.0001712963 -0.021791842 0.02697054 0.02141184 -0.0004534833 -0.011892736

hyper_w1.2.weight f4 [128, 64]
00000000: d688 cf3d 783e f83d 4eee 803d 2047 2b3d
00000010: b84b b0bc 404d fcbb 9497 10bd 3053 df3d
00000020: aa60 f1bd 70eb 91bc e45e 85bd 0011 26bd
00000030: 10c8 c0bc c4aa d63d 40fa 653b 52f0 bfbd
00000040: f8e9 553d 8c62 a03d 0012 f63c 088a ed3c
00000050: bc66 73bd b0d5 7b3c b088 27bc 505f 9a3c
00000060: 40e8 3fbb 2809 0bbd 9662 debd 2af7 ee3d
00000070: 4419 663d b075 723c 708d f1bd c46b 3b3d
00000080: 0073 7bbc 34ef c4bd b870 913d d45f 30bd
00000090: 00f8 03b9 30a3 f33d 30b4 593c 603b 853b
000000a0: 902d f5bc a0f5 e1bb f438 493d e86b 803c
000000b0: 6c8b 463d 34a4 adbd 366d cc3d 6806 5e3d
000000c0: 007f d0bc 1083 8e3c 085b bb3d 0c84 693d
000000d0: 0071 4ebb 4053 7e3c 141d 7a3d 5e23 b1bd
000000e0: 28c2 8d3d e8e9 d33d b091 993d 20a8 063c
000000f0: 580e 7e3d d82a fdbc b88e d43d 52c7 d7bd
00000100: a0d6 ed3c 6ca9 cbbd 16f8 8a3d a4c5 403d
00000110: f887 d5bd 4418 d53d d8f2 6dbd 6407 a13d
00000120: 888b eb3c ea0e a33d 1221 ac3d a0d4 023c
00000130: dc85 b3bd 6023 abbd 4a13 ccbd 180b fdbc
00000140: b439 783d 7e5d afbd 0e04 ac3d 8c32 54bd
00000150: c233 d73d 0008 4b3a d06d df3d 08df 0e3d
00000160: ba4d b03d 08bb 9f3d 02e2 d43d 2c62 afbd
00000170: 36ee e8bd 06c8 c93d 4858 1c3d a09f b93b
00000180: bc4f c1bd f238 babd f04e f03c 2c00 7dbd
00000190: 8ad4 db3d 527b 88bd f86a 3bbd 2428 e5bd
000001a0: 3a45 893d 481a 83bd 94e4 0f3d f848 2d3d
000001b0: ced4 cabd 1ccc 3a3d 040d 9bbd f850 d9bd
000001c0: 8025 36bd 0c33 45bd e67a 9ebd 7220 da3d
000001d0: 084c a53c d0a4 c9bc e492 ed3d 3c79 873d
000001e0: 0058 533c 2054 60bd 7c82 313d e6a9 d8bd
000001f0: fc60 6bbd 18ae c7bd 16e2 823d 047e efbd
00000200: 3880 983d ae18 d6bd 406c 8ebc 509c b73c
00000210: 549a b1bd 80c7 06bc 4841 a0bc 60bf b1bc
00000220: 7471 823d 1843 a8bc fc2f dcbd 2068 cabd
00000230: 9409 e7bd 1e34 be3d a67a f0bd dabc 9dbd
00000240: 1012 603c c89d e2bd 002b 8ebc b85c b3bc
00000250: 2850 753d e8bd d63c f0cf f53c 0064 ddb9
00000260: e0ce ee3d 58e3 b63c 8053 70bc 8456 dfbd
00000270: 4e1d d03d 3e21 a53d 3440 77bd 361c a13d
00000280: 924f da3d 40af 6c3c 28ac c93d aa96 c9bd
00000290: fca7 28bd 7e92 c2bd 1042 d03c 6e6b a83d
000002a0: 7cfe c03d e87b acbd 986f 03bd f0bf 863d
000002b0: bc8c 183d b8f6 d0bd 8c13 c33d 4866 4fbd
000002c0: a863 29bd b033 a43d d0bc aa3d 8845 4fbd
000002d0: 00d6 cfbc 5aad b8bd 2614 a63d 0eca 943d
000002e0: 9094 f63c 7016 aabc 80dd 28bd 703d 773d
000002f0: 2e4f 813d e8c2 3c3d ac34 0d3d a4e2 903d
00000300: 90ee 223d b8e1 c13d c8ed 953d ca5d b6bd
00000310: 0093 703b 90ec be3c e453 ba3d a4fe 3c3d
00000320: 5014 ffbc 488f cc3c 90e8 babd b0fb 12bc
00000330: 18ec e0bd 5a77 e13d dac4 883d b0db fe3c
00000340: 3836 98bc 300e 723c 00c8 cdba 047a 17bd
00000350: 3cb8 433d 92eb f3bd 06be c83d 3eba f23d
00000360: 9679 9d3d b67c cfbd ac7d e53d d8df 463d
00000370: bc68 ee3d e0d6 cd3c f43e 92bd 7427 6a3d
00000380: f440 783d bc4b 1fbd 9893 4fbd 00f8 7d39
00000390: dc50 fe3d d0af 113d 1a8e a33d 7878 7abd
000003a0: e618 c13d 6029 dcbc 06b7 c5bd 207c dbbd
000003b0: 14d5 61bd b858 a1bc 0890 aebc 58c8 edbd
000003c0: 2c85 8e3d b0ce c13d 0870 f33d 7021 16bc
000003d0: 840d aa3d 36dc dd3d 9063 6e3c 185b a7bd
000003e0: 68e4 ff3d 4829 80bc 2cd8 e3bd a090 efbc
000003f0: beeb ba3d 6420 d0bd 301f a3bc be94 9b3d
0.10133521 0.1212129 0.06295453 0.041815877 -0.02152048 -0.0076996386 -0.035300806 0.10904539
-0.11786015 -0.01781246 -0.065122396 -0.040543556 -0.023532897 0.1048179 0.0035091788 -0.09372009
0.052225083 0.07831296 0.03003788 0.028996482 -0.059424147 0.015370771 -0.01022546 0.018844277
-0.002928272 -0.03394428 -0.108586475 0.116682366 0.05617644 0.014798567 -0.11794555 0.04575707
-0.015347242 -0.09615937 0.071015775 -0.04306014 -0.00012585521 0.1189636 0.013287589 0.004065916
-0.029928952 -0.006895736 0.04912658 0.015676454 0.048472807 -0.08478585 0.09981768 0.05420533
-0.025451183 0.01739648 0.09148222 0.057010695 -0.0031500459 0.015522778 0.061062887 -0.08649324
0.06921798 0.103473485 0.07498491 0.008218795 0.062025398 -0.030904219 0.10378784 -0.10536064
0.029033005 -0.09944424 0.067856 0.047063485 -0.104263246 0.10405019 -0.058092922 0.07862738
0.028753057 0.07961829 0.08404745 0.007985264 -0.08765766 -0.083563566 -0.099646166 -0.030889079
0.060601905 -0.08562754 0.08399211 -0.051806018 0.10507919 0.00077450275 0.10909617 0.034880668
0.08608575 0.07799345 0.1039467 -0.08563647 -0.1137356 0.098526046 0.03817013 0.0056647807
-0.09439036 -0.09092893 0.029334515 -0.061767742 0.10733898 -0.066641465 -0.04575631 -0.11189297
0.06702657 -0.06401497 0.0351301 0.042305917 -0.099038705 0.04560481 -0.07570842 -0.10611147
-0.044469357 -0.048144385 -0.07738285 0.1065072 0.020177856 -0.024614722 0.11600283 0.066149205
0.012899399 -0.054767728 0.04333733 -0.105792806 -0.05746554 -0.097500026 0.06390779 -0.116939574
0.07446331 -0.10453926 -0.017385602 0.022413403 -0.08672014 -0.008226275 -0.019562379 -0.0216977
0.06369296 -0.020539805 -0.1075134 -0.098831415 -0.11281124 0.09287284 -0.11742143 -0.07702036
0.013676181 -0.11065251 -0.017354488 -0.021894798 0.059890896 0.026213601 0.030006379 -0.0004222691
0.11660552 0.022325203 -0.014668345 -0.109051734 0.101618394 0.08062981 -0.060363963 0.07866709
0.10659708 0.01444608 0.09847289 -0.0984319 -0.041175827 -0.095005974 0.025422126 0.082236156
0.09423539 -0.08422071 -0.032088846 0.06579578 0.03724359 -0.10203308 0.09525213 -0.050634652
-0.041354805 0.08017671 0.083367944 -0.05060342 -0.025370598 -0.09017439 0.08109312 0.072651014
0.030100137 -0.020762652 -0.041226864 0.060361326 0.063139305 0.046084315 0.03447406 0.07074478
0.039778292 0.094668806 0.07320744 -0.089046076 0.0036708713 0.023306161 0.09098032 0.04614128
-0.031137615 0.024970666 -0.09126389 -0.00897114 -0.10982531 0.11009093 0.066781715 0.031110615
-0.018580541 0.01477389 -0.0015699863 -0.036981598 0.04778312 -0.11910166 0.09801869 0.11851929
0.07689206 -0.101312086 0.11205611 0.048553318 0.1164107 0.025126874 -0.071409136 0.05716653
0.06060882 -0.038890585 -0.050677866 0.00024220347 0.124177665 0.03556806 0.07986088 -0.061150044
0.09428577 -0.026875198 -0.096540496 -0.10717034 -0.055134848 -0.019695625 -0.021308914 -0.11610478
0.06958994 0.09463251 0.11886603 -0.009163246 0.08303359 0.108330175 0.014550105 -0.08171672
0.12494737 -0.015644684 -0.11125216 -0.029243767 0.091269955 -0.10162428 -0.019912332 0.0759673

hyper_w1.2.bias f4 [128]
00000000: 9048 2cbd ce78 843d 02b2 c53d 0cd7 1fbd
00000010: 0038 083a 709a 14bd 1ae9 bd3d 008c b8ba
00000020: dcec d83d 4839 79bd 8016 14bb e8eb a93c
00000030: 2898 d8bc 7681 d23d 8025 333d 30b7 d03d
00000040: f0f4 fbbc 809f ba3a 2640 f8bd 2056 a2bc
00000050: 4681 81bd 7c65 483d 4a74 813d 6023 c43c
00000060: 263d 9f3d c0df 2f3b 8883 e83c b8f9 ef3c
00000070: a46e 3dbd 940e 48bd 3cd8 8dbd 748b 2b3d
00000080: 00c3 b93a 9cbf 7ebd 8c4c 04bd 9076 f1bd
00000090: 7c99 183d 5491 3cbd d4f7 a4bd 36db 80bd
000000a0: 14b2 7f3d acbe 453d c2c6 dabd a85e 80bd
000000b0: 0020 18bc 3015 83bd f0ee 12bc a0fa 00bd
000000c0: 000b da3d 20f0 193c 6afd f5bd fc66 8d3d
000000d0: 88b4 c7bc cc64 afbd 00e0 bb39 e463 773d
000000e0: 5a57 b4bd 22c8 8cbd 1033 9a3c 2ae9 92bd
000000f0: bc6c c8bd 74e1 15bd 9087 7cbc 90de e6bd
00000100: 1020 053d 606c e03d b8aa dbbc c081 1cbb
00000110: 0c6a 58bd 1035 1bbc e6bc fb3d 6291 ea3d
00000120: 0c1b 7abd 2487 dd3d 3cc7 963d fce8 123d
00000130: 2056 633d 009e 95bb a072 853b 2a34 993d
00000140: 86f4 86bd e8b7 183d c8f6 32bd 5cbb 86bd
00000150: 4897 c9bc aaa7 b9bd 000e 6c3a 707b 033c
00000160: 14fd 54bd 7084 053d 46f8 a7bd 5481 35bd
00000170: d2db a2bd b609 933d 4a2b a9bd cc2c d1bd
00000180: a82b e23d da32 863d 0054 df39 de2b a13d
00000190: 8c14 a0bd 8077 4fbc ccb5 203d ded5 bbbd
000001a0: d6b4 d1bd 1a00 b7bd a4df 723d bcfb c8bd
000001b0: 40f4 79bd d8e5 ca3d 9868 96bc d0a7 823d
000001c0: c21b dd3d ae36 e3bd 187c d3bc d0ad 90bd
000001d0: 4491 bcbd 507c 5cbc 401d 24bd 2c1a 1bbd
000001e0: 248b 783d 60b1 573d d6b3 d23d a6bd df3d
000001f0: 4484 cbbd 08e6 9dbd c090 623d c89f 46bd
-0.04206139 0.06468354 0.09653093 -0.039023444 0.0005196333 -0.036280096 0.09272976 -0.0014079809
0.10592052 -0.060845643 -0.002259642 0.020742372 -0.026439741 0.10278599 0.043736935 0.1019119
-0.030756444 0.0014238209 -0.1212161 -0.019816458 -0.06323485 0.048924908 0.063210085 0.02394265
0.07775335 0.0026836246 0.028383031 0.02929388 -0.046248093 -0.048842028 -0.06926009 0.04188104
0.0014172494 -0.06219445 -0.032299563 -0.11790192 0.03725575 -0.046037033 -0.08055082 -0.06291811
0.062425688 0.048277542 -0.10682441 -0.06268054 -0.009284973 -0.064005256 -0.0089681 -0.031489015
0.10646629 0.009395629 -0.120112255 0.06904408 -0.024378076 -0.08564147 0.00035834312 0.060397997
-0.088057235 -0.0687411 0.018823177 -0.07173379 -0.097863644 -0.036591962 -0.01541318 -0.11272919
0.03250128 0.10958171 -0.026814803 -0.0023881048 -0.05283551 -0.0094731 0.12291889 0.11453511
-0.06106095 0.10816792 0.0736222 0.035866722 0.055502057 -0.004565954 0.0040725023 0.07480653
-0.06589608 0.03728476 -0.04369238 -0.06578705 -0.02460827 -0.090651825 0.0009004772 0.008025035
-0.051999167 0.032597005 -0.08201651 -0.04431279 -0.07952084 0.071795866 -0.0826021 -0.102136225
0.11043483 0.06552668 0.0004259646 0.07869695 -0.07816419 -0.012662768 0.039235875 -0.09171651
-0.1023957 -0.08935566 0.05929531 -0.098136395 -0.06102395 0.099071205 -0.018360421 0.06379664
0.1079631 -0.11094414 -0.025816008 -0.07064402 -0.09207395 -0.013457373 -0.040066957 -0.037866756
0.06067957 0.052659392 0.10288207 0.109248444 -0.09937337 -0.077098906 0.055313826 -0.048492223

hyper_w2.0.weight f4 [64, 1024]
00000000: 603a a73a fa13 853c 38cf 003c 8045 993b
00000010: 58d4 fbbc b052 06bb d065 32bb 7c76 28bc
00000020: a098 b9bb d0e3 1f3c fc41 7a3c e2a7 b43c
00000030: 12c8 a0bc 3a9e d63c 60fb 66bc 92b9 a4bc
00000040: ee57 c43c 6891 cabb f4d5 9f3c 50df b5bc
00000050: 10a1 3bbb b80d d0bb 8257 aabc 7269 de3c
00000060: 9c32 bfbc 1818 f93b c82b 9abb a069 39bc
00000070: c40d aabc 64ab 1cbc 4cb1 843c cc9d a73c
00000080: 50c2 e83b e0f6 653b b0fa 43bb f840 9abb
00000090: d092 a7bb 485f c23b 80af 2dbc 68ec b9bb
000000a0: 0015 cdb9 3ccc 463c 4085 06bb 28d6 d53b
000000b0: 48bf 05bc a486 2bbc e489 fcbc 6a8f e53c
000000c0: e003 2fbb 389a f4bc 78ae 1abc ecbb dcbc
000000d0: c055 9e3b a8bc 833b da45 f6bc 6259 bc3c
000000e0: bc3a 683c 40ff 8bbb 0e6c e03c f875 c43b
000000f0: 2ca4 95bc 3002 233b f032 72bb 441c 75bc
00000100: e055 37bb 86ae ef3c 7c26 ba3c 7cc9 1c3c
00000110: f265 bdbc e685 b6bc e480 25bc 5c61 b8bc
00000120: ce53 f13c c6e2 a83c 04d5 1ebc 300d cb3b
00000130: 2284 acbc e82e a6bb fa4f a5bc 34c3 74bc
00000140: 242f 8e3c 30cf 7fbc 606d 633c 6cad 923c
00000150: 3c3b f8bc f8d3 8e3b 7a51 edbc fe9b d63c
00000160: 505e 32bb 7c84 1bbc c0bc 52ba a088 ddbb
00000170: 2813 803c 68db 683c 42a2 e3bc 2078 303b
00000180: a283 9e3c b02f f73b 8c15 78bc 228a e9bc
00000190: 140e 143c 8021 b5bc 783d 833c 24b4 27bc
000001a0: 8825 9abc e0a3 d13b 2040 05bc d28d f03c
000001b0: 88a2 a93b a0de ef3c a40b 1fbc 42a3 eabc
000001c0: d6e4 9e3c 34eb c03c f8b6 bfbb 7ef5 a0bc
000001d0: fcdb 6ebc 00d2 a83a 0c10 ecbc 2072 d53a
000001e0: a090 e33a f03d 5fbc 0482 91bc 4453 ca3c
000001f0: 0cb1 263c 5034 84bb 4c6f 473c f884 e8bb
00000200: 880c e6bb 08fb b93c fc6e 593c a0f8 16bb
00000210: f660 f23c 8c3f eabc e0fb 41bb 20d9 fb3c
00000220: 0a6b b63c 4868 8f3b 982c 88bc 9a7f d4bc
00000230: f2a7 8a3c 2622 a63c 4047 d13c d0ac bfbb
00000240: 2036 0c3c a0f5 e3bb cedc ee3c 32b1 eabc
00000250: b00a a1bc 588d 62bc 64ed 6c3c d056 723c
00000260: a257 9dbc 1093 d63b f481 e33c c056 4fba
00000270: c0c9 c7bc 468f ed3c 3883 743c 24d6 713c
00000280: 3ad8 b9bc f406 433c 2cac c83c b250 96bc
00000290: 609f c23b bca8 91bc f4e6 a4bc d88f e53b
000002a0: 4a08 b9bc 0863 343c c293 efbc b4a0 2abc
000002b0: bc3a 593c fcf3 52bc 2227 cb3c 849d f2bc
000002c0: 60d5 c13b 049c ac3c f0ab 3fbc 0857 9dbc
000002d0: c2e1 ff3c 9ad7 a63c 3e1a b13c 26fe 80bc
000002e0: 4c99 4f3c ba3d d1bc 5088 0d3c 9664 8e3c
000002f0: 6625 ad3c 48c1 753c 34d7 b43c aa84 be3c
00000300: 784b 11bc 5835 a83b e63d e1bc d4b1 66bc
00000310: ecd5 4b3c 2099 b83b c861 d03c d479 3abc
00000320: b466 513c b8e0 9ebb 7242 fb3c 562f ef3c
00000330: b878 6ebc 2284 d23c 5c94 313c 5e98 c13c
00000340: 90d8 e13c 68dd 813b 20b2 dbbc 3841 303c
00000350: 90a6 343c d4ee 413c dcec d23c 00ae 41b9
00000360: c2ad d5bc 5021 b7bc 8815 48bc 3a52 f73c
00000370: 042b 1cbc d0f0 a33b b0b5 8d3c c4f8 39bc
00000380: f883 c1bb 729c cbbc 6c7a bc3c 5892 6e3c
00000390: bc6a d53c 840e 50bc 8042 483b 20d2 d2bc
000003a0: b882 41bc a00a fd3b 8081 37bc 7c18 8fbc
000003b0: 208b 6a3c 9ca9 da3c 946c 5e3c fe6c e53c
000003c0: e45e f3bc d061 23bb 10d9 28bc 382e bd3c
000003d0: e0a9 b73a e012 35bc 381e b93b ca8b b13c
000003e0: 480c b8bc 26d6 8dbc 525a c6bc d2ce 8b3c
000003f0: e069 3abc 2c47 373c 1023 b1bb 60de 83ba
0.0012758486 0.016244877 0.007861905 0.0046774745 -0.030740902 -0.0020496063 -0.002722133 -0.010282155
-0.0056639463 0.009758905 0.015274521 0.022052709 -0.019626651 0.026198495 -0.014098018 -0.020108018
0.02396771 -0.0061818846 0.0195112 -0.02220121 -0.0028629936 -0.0063492917 -0.02079368 0.02714989
-0.023339562 0.007601749 -0.004704926 -0.011316687 -0.020758517 -0.009562347 0.016197823 0.020460986
0.007103242 0.0035089776 -0.002990406 -0.004707452 -0.005113937 0.0059317686 -0.0106009245 -0.005673934
-0.00039116293 0.012133654 -0.00205262 0.0065257736 -0.008163281 -0.010469113 -0.03082747 0.028022487
-0.002670519 -0.029858693 -0.009441011 -0.026945077 0.0048319995 0.0040202923 -0.030062605 0.02299184
0.01417416 -0.0042723715 0.027395274 0.0059955083 -0.01826676 0.002487313 -0.003695663 -0.014960352
-0.002797477 0.029258024 0.022723429 0.009569522 -0.0231199 -0.022280645 -0.010101531 -0.022507362
0.029458907 0.020615947 -0.009694342 0.0061966404 -0.0210591 -0.0050715096 -0.020179737 -0.014939118
0.017356463 -0.015613362 0.0138810575 0.01790496 -0.030301683 0.0043587647 -0.028969515 0.02619743
-0.002721686 -0.009492036 -0.000803899 -0.0067606717 0.015634134 0.014212467 -0.027787331 0.0026927069
0.019349877 0.0075435266 -0.015141856 -0.02850825 0.00903656 -0.0221107 0.016020522 -0.01023582
-0.018816724 0.0063977093 -0.008132964 0.0293645 0.005176846 0.02928096 -0.009707365 -0.0286423
0.019396227 0.023549654 -0.005850669 -0.01964831 -0.014578816 0.0012879968 -0.028816245 0.0016284622
0.0017361827 -0.013625607 -0.017762192 0.024697907 0.010174047 -0.0040345564 0.012172531 -0.0070959292
-0.007020537 0.022702709 0.01327109 -0.0023036376 0.02958725 -0.028594755 -0.0029599592 0.030743182
0.022267837 0.004376445 -0.016622826 -0.025939751 0.016925786 0.020279955 0.02554667 -0.0058494583
0.008557826 -0.006956771 0.029158022 -0.028648946 -0.019658417 -0.013827644 0.014460895 0.0147912055
-0.019206826 0.006548293 0.027771927 -0.000790935 -0.024388194 0.028998982 0.014923863 0.014760528
-0.022686113 0.011903513 0.02449616 -0.018349025 0.005939409 -0.017780654 -0.020129658 0.007005673
-0.02258696 0.011009939 -0.029245261 -0.010414291 0.013258632 -0.012875553 0.024798933 -0.029616125
0.005915329 0.021070488 -0.011698708 -0.019206539 0.03123558 0.020366479 0.021618959 -0.015746187
0.012670826 -0.025542129 0.008638456 0.017381947 0.021135997 0.014999695 0.022075273 0.023256619
-0.008868091 0.005133312 -0.027495336 -0.0140804835 0.01244114 0.0056334883 0.02543725 -0.011381585
0.012780834 -0.004848566 0.030671332 0.029197376 -0.014555149 0.025697771 0.010838594 0.023632225
0.027569085 0.0039631613 -0.026818335 0.010757737 0.01102604 0.011836726 0.025747709 -0.00018470734
-0.02608383 -0.022354752 -0.012212165 0.030190576 -0.00953174 0.0050030723 0.01729855 -0.011350814
-0.0059056245 -0.024854872 0.023007594 0.014561258 0.026051871 -0.012698773 0.0030557215 -0.025734961
-0.011810951 0.007722214 -0.011200309 -0.01746773 0.014315397 0.026692204 0.013575692 0.028006073
-0.029708333 -0.0024930127 -0.010305658 0.023093328 0.0014012419 -0.011051863 0.0056493543 0.021673102
-0.022466794 -0.017314028 -0.02421299 0.017066393 -0.011377782 0.011186402 -0.005405791 -0.001006078

hyper_w2.0.bias f4 [64]
00000000: 72db b6bc 68a2 d23c 1c8b b3bc 74a7 383c
00000010: 7849 883b ccf5 a9bc 2e78 a3bc 8016 37bb
00000020: c00e 803b bcad bebc 2c51 3b3c a06a c1ba
00000030: 8427 db3c 20da 84bc ec66 483c 7afd f93c
00000040: 002e a3bc 5844 4e3c 203f 0f3c 62a4 963c
00000050: 582c 8bbc 4817 143c 38f3 663c b037 1e3c
00000060: 7a94 e03c 782a b73b 2e4a d7bc bc2b f5bc
00000070: c02a 35ba b44a 19bc c02e d63c 2874 bebb
00000080: 7069 023c c8f6 11bc a8f5 073c da6e e73c
00000090: 78c0 3ebc bc3c 73bc f8d5 7a3c fea3 f83c
000000a0: fa4b f2bc 24b3 2b3c 7854 813c f4a5 f3bc
000000b0: 107a de3c 9892 c03c 98e2 c0bb fcb5 06bc
000000c0: e02b 6a3c 709e 0b3b a087 09bb b026 aa3b
000000d0: 087d d13b d071 0d3c 62af ce3c a0cb 423b
000000e0: 10aa c2bb 8cd7 a73c c04a c13c f8a6 d63b
000000f0: 32ac f8bc 681e eebc 8842 6abc a8d4 423c
-0.022321437 0.025712207 -0.021916918 0.011270393 0.004159149 -0.020747088 -0.019954767 -0.0027936995
0.0039080083 -0.023276202 0.011432927 -0.0014756508 0.026752241 -0.016217291 0.01223157 0.030516375
-0.019919395 0.012589537 0.0087430775 0.01838893 -0.016988918 0.009038754 0.014096074 0.009656832
0.02741455 0.0055897795 -0.026280489 -0.02992808 -0.00069109723 -0.0093561895 0.026145339 -0.0058121867
0.007959709 -0.008908935 0.008298315 0.0282511 -0.011642568 -0.014846023 0.015309803 0.030351635
-0.029577244 0.010479722 0.015787348 -0.029742219 0.027157813 0.023507401 -0.005886387 -0.008222099
0.014292687 0.0021304153 -0.002098538 0.0051926 0.0063930787 0.008633092 0.025230113 0.002972342
-0.005940683 0.020488523 0.023595214 0.006550666 -0.030355547 -0.029067233 -0.014298089 0.0118915215

hyper_w2.2.weight f4 [32, 64]
00000000: a06e 29bc d0d5 ebbd e0e8 df3c 222f 9cbd
00000010: e0e7 c8bc f880 f13d 92a6 bb3d 0803 f0bc
00000020: 280f b83c 280a a6bc 62c0 cebd 3e9e bf3d
00000030: a06f c83b 3863 d5bd a47b 8cbd 6694 e0bd
00000040: 80d5 6d3d 00e4 0d3b b032 c43d c488 4dbd
00000050: 9056 7cbc dc70 2fbd d07e e3bc 6232 efbd
00000060: e0ba f3bd 1272 a33d 7612 c6bd e0d7 823b
00000070: 34f6 70bd c0be b93b b814 d5bc 2ef2 9b3d
00000080: ee62 bebd 9cdb 593d b057 ccbd bc5a a63d
00000090: c8a0 6dbd 1464 163d f45c 40bd 0af5 edbd
000000a0: 30c2 683d 520e a53d fc07 0dbd 383d 913d
000000b0: 4abc a4bd 7250 e4bd e873 083d 90b9 03bc
000000c0: 7a4e d0bd 709f dabc 6026 dfbb dc54 e8bd
000000d0: 04fd 6f3d 58c1 a13d 002c 3339 5222 fabd
000000e0: e854 0e3d 9a23 b6bd c68a eb3d e06d 18bc
000000f0: 7019 393d 40b7 68bd bc5c 303d 7624 cabd
00000100: 90db a0bd 804d d4bc e867 1dbd 9039 ea3d
00000110: c093 cd3c 18a8 e9bd 1652 d13d e269 f0bd
00000120: baf0 a7bd d43c 2e3d de9e d2bd cc1d 89bd
00000130: 68ce 9cbc f4f7 6e3d 3857 29bd 1ec5 cbbd
00000140: 280a 32bd 38e2 323d 6812 af3d b4bf 90bd
00000150: 0cb8 a53d b008 0ebc a8f5 573d 6801 eabd
00000160: 50ef 5d3c c851 8cbc 6cc5 503d 709e 943d
00000170: ecb5 ae3d 5e9b d4bd 0c26 623d 6061 82bd
00000180: a609 fcbd d20f f33d 20cc 56bc 263c c4bd
00000190: 60fc 973d c24f 9a3d 6ebc e4bd 34ee 7f3d
000001a0: cacc d63d a05d a53d 981a c0bd 7010 bfbd
000001b0: 3861 f43d ec54 1dbd 2036 cbbd 682c 6e3d
000001c0: 06f3 fc3d 1a35 8b3d c282 883d 38de 4dbd
000001d0: f482 a5bd d28d e43d b8cc 9abc 32eb ad3d
000001e0: 3ac2 943d e0a4 fcbd e461 babd b8f0 0f3d
000001f0: ec7d 6bbd e4ff 3dbd c04d eb3c d61a bf3d
00000200: 505c 2b3c e047 00bd b866 a8bd 5c73 793d
00000210: 0001 3c3b e475 d93d 9821 073d f02d 32bc
00000220: 30c4 003c 20ef 1a3d 08f7 b83d 001c d93b
00000230: eade afbd 10ba 7dbc 3016 7a3d 009b 1cbc
00000240: 6080 b63c 7817 fbbd 20bf 95bc e45d 1d3d
00000250: 287a a7bd 66ef 993d e006 62bd 5aed d7bd
00000260: 78f9 76bd 8041 00bd 006c febc 40b6 91bb
00000270: b0ba 74bd 903d c5bd c032 da3d 2ae2 833d
00000280: 98a7 a33c fa89 da3d dc6c f73d ded8 943d
00000290: a4c4 7f3d 5873 e23c 121c b8bd ba45 f9bd
000002a0: 9803 ae3d b69c 8e3d d01b 60bc 583d 31bd
000002b0: f078 e43c 6219 9a3d ccf6 11bd a01e 443c
000002c0: 18a1 c8bd 3022 bf3d 0854 13bd 7c62 3f3d
000002d0: 0210 db3d 48d6 6e3d f4a3 b43d e893 90bc
000002e0: e836 6a3d bcb4 d3bd 0077 8ebc 6841 a2bd
000002f0: 4c26 5bbd 70b5 a4bd d0d8 3bbc 94a7 ad3d
00000300: bab6 d53d f4c7 f2bd 50d8 6c3c e216 fdbd
00000310: 40cf c83c 7a44 e93d 8845 513d a494 a23d
00000320: b801 f93d 14a2 e6bd 88b2 d8bc e063 613c
00000330: de57 fbbd f444 a1bd 8058 d33b 448f cbbd
00000340: 04fd babd 5421 09bd 385a dabd a861 cbbd
00000350: 0ee3 c5bd 3c8c 703d 285d 853d 0ec6 853d
00000360: 8cfc f3bd 6cd1 51bd f072 043c 3c58 d73d
00000370: de34 f1bd 4c2e c8bd 10e8 fb3c bae3 fb3d
00000380: 52ad b23d 9221 eb3d 2464 453d e2d5 8d3d
00000390: f042 7f3d 2ce3 0fbd 3a93 993d e04e 3bbd
000003a0: 20c0 bd3b d41c 4dbd f23a 80bd 1a83 a1bd
000003b0: e89a 3cbd 1872 cfbc 82b7 83bd c607 be3d
000003c0: 56ae ddbd e04a 19bc e036 a63b bee7 c33d
000003d0: a042 11bc 20c5 2e3d b4e8 f13d 90bb 3f3d
000003e0: 2891 61bd 805f 303b 78b7 06bd 3acb 92bd
000003f0: 0e26 a9bd f62d c6bd 1c6b 903d 0e5a ab3d
-0.010341316 -0.11515391 0.027332723 -0.07626177 -0.02452463 0.11792177 0.0916263 -0.02929832
0.022468165 -0.020268515 -0.10095288 0.09356354 0.0061168224 -0.10419315 -0.0685952 -0.10965805
0.058064938 0.0021650791 0.095799804 -0.050179258 -0.0154014975 -0.04283224 -0.02777043 -0.11679532
-0.11900878 0.079807416 -0.0967149 0.0039930195 -0.058828548 0.005668491 -0.026010856 0.076145515
-0.09296213 0.05318795 -0.099776626 0.08122775 -0.05801466 0.036716536 -0.046963647 -0.11619003
0.056825817 0.08059372 -0.034431443 0.07091755 -0.08043726 -0.11148156 0.03331366 -0.008039847
-0.10171218 -0.026687354 -0.0068099946 -0.11344311 0.058590904 0.078982055 0.00017087162 -0.12213577
0.03474894 -0.08893509 0.11501078 -0.00930354 0.045190275 -0.056815386 0.04305719 -0.098702356
-0.07854378 -0.025915861 -0.03842917 0.114367604 0.025094867 -0.114090145 0.10220735 -0.117389455
-0.08200212 0.04253848 -0.10284208 -0.066951364 -0.01914139 0.058341935 -0.041342944 -0.099497065
-0.043466717 0.04367277 0.085484326 -0.070678145 0.08091745 -0.008669063 0.05272451 -0.114260495
0.013545826 -0.01712884 0.050969526 0.07256782 0.085307926 -0.103811964 0.055212066 -0.06366229
-0.12306528 0.11868252 -0.013110191 -0.09581785 0.074211836 0.07534744 -0.111687526 0.062483028
0.10488279 0.08074498 -0.09380072 -0.09329307 0.119326055 -0.038411066 -0.09922433 0.058147818
0.123510405 0.06797238 0.06665565 -0.050260752 -0.08081618 0.111598626 -0.018896446 0.084921256
0.07263608 -0.12336135 -0.091007024 0.035141677 -0.057493135 -0.046386614 0.028723598 0.093312904
0.010459021 -0.031318545 -0.08222717 0.06090103 0.002868712 0.10618189 0.032991022 -0.01087521
0.007859275 0.037825704 0.090314925 0.0066256523 -0.08587439 -0.015486255 0.061056316 -0.009558439
0.02227801 -0.12260336 -0.018279612 0.03841962 -0.08177596 0.07516365 -0.055182338 -0.10543318
-0.060296506 -0.031312466 -0.031057358 -0.0044467747 -0.05974835 -0.09630883 0.10654211 0.06439622
0.019977376 0.10670848 0.1208131 0.07267927 0.06244339 0.02764289 -0.08989729 -0.121715024
0.08496779 0.06963484 -0.013678506 -0.043271393 0.027889699 0.07524373 -0.035635754 0.011970192
-0.09796351 0.093326926 -0.03596881 0.04672478 0.106964126 0.058309823 0.08820334 -0.017648652
0.05718127 -0.10337207 -0.017390728 -0.079226315 -0.05350332 -0.08042419 -0.011465266 0.084792286
0.10435243 -0.11854544 0.01445587 -0.1235788 0.024512887 0.11390014 0.0510917 0.07938507
0.12158531 -0.11261383 -0.026452318 0.013756722 -0.12272619 -0.0787448 0.006449759 -0.09939435
-0.0913029 -0.03347905 -0.10661739 -0.09930736 -0.09662448 0.058727488 0.06511909 0.065319166
-0.11913404 -0.05122511 0.008084044 0.10514876 -0.11777662 -0.097744554 0.030750304 0.12299295
0.087244645 0.114810124 0.048191205 0.069255605 0.062319696 -0.035128757 0.07498784 -0.045729518
0.0057907254 -0.05007632 -0.06261243 -0.07886334 -0.046046168 -0.025322959 -0.06431486 0.092788264
-0.108242676 -0.0093562305 0.0050724596 0.09565686 -0.008865982 0.04266846 0.11811963 0.046809733
-0.055070072 0.0026912391 -0.032889813 -0.07167669 -0.082592115 -0.09676735 0.070516795 0.08366786

hyper_w2.2.bias f4 [32]
00000000: 4062 15bc e07b 693c bae0 aabd 56ba aa3d
00000010: 940d 08bd 68f4 963d 32df bc3d 880c e8bd
00000020: 82d1 e8bd 2487 713d 5608 853d e8e5 893d
00000030: 6c9a 51bd 1429 7d3d dcf4 ef3d 08c5 5e3d
00000040: c456 f0bd 7256 93bd e48a a03d 5c14 f2bd
00000050: 9c1c 53bd d2d6 e2bd 9e4c d53d 2014 50bd
00000060: 40d7 42bd d887 96bc ceec b23d 00b5 ff3a
00000070: 86b2 f8bd e0e9 9ebc 08b9 d43c bc63 2b3d
-0.009117663 0.0142507255 -0.083436444 0.08336322 -0.033216074 0.073708355 0.092222586 -0.11330515
-0.113680854 0.05896677 0.064957306 0.06733304 -0.05117266 0.061806753 0.11716625 0.054387122
-0.11735299 -0.071942225 0.07838991 -0.118202895 -0.051540956 -0.1107613 0.10415004 -0.050800443
-0.04756856 -0.018375322 0.08736573 0.0019508898 -0.12143426 -0.01939863 0.025967136 0.04184316

hyper_b1.weight f4 [32, 1024]
00000000: 1067 413b 16c9 b6bc f8b5 f33b 6227 aebc
00000010: 68e3 7cbc f05f c93b e059 e53b fc33 b2bc
00000020: 1018 16bb 9225 d3bc 889c 793c 9647 aabc
00000030: 7002 2d3c b065 f7bb 02a8 e3bc 680a 173c
00000040: 28e7 693c 5ac0 92bc c48d d23c ec63 38bc
00000050: 4072 8dba 1442 5ebc 6441 54bc 9090 dbbb
00000060: 26cf 8bbc 4006 5f3c 14e3 1dbc 7076 f3bb
00000070: e030 e83b 082b d4bb c4a9 363c 9091 24bb
00000080: b0dd 0e3b 0898 f03b dc1b 03bc 282c 223c
00000090: e4ad 9bbc e417 be3c 246e 673c 787f dfbb
000000a0: a687 a13c 969e 95bc e444 183c 7073 513c
000000b0: ba91 a3bc a071 bebb f843 cebc 40a3 3b3c
000000c0: 1011 b73c e45d 9bbc f27a ce3c e070 c9bb
000000d0: 3ad3 aa3c c4df a63c d4dd 7d3c 6462 2fbc
000000e0: 04e8 0f3c 74f2 1cbc 1ed4 cabc 8ab8 d13c
000000f0: 6638 d73c 6adb dd3c f6c0 babc 7c25 73bc
00000100: de86 c8bc 8c67 50bc 9e62 a7bc 80b8 40bb
00000110: 800d 61ba 28ee b73b 1269 db3c d82b 6fbc
00000120: 3026 1ebc 10c3 613c 5aed 8fbc d878 a03b
00000130: 34af 4fbc 9ceb e03c c0f6 e63b a4bc 97bc
00000140: b414 0dbc 78b8 a93c 90dd 11bc 004d 44bc
00000150: 9083 5abc f469 b0bc e0ab c03b 6439 d5bc
00000160: 40fa 40bc d0b5 2c3b 78d4 813b 906f 13bb
00000170: a887 dabc 8ede cf3c 58ce f4bb 9668 babc
00000180: 56be a13c 363b bfbc 90c5 e1bb e4b6 1d3c
00000190: f242 f6bc f455 f53c 2cb2 ab3c 6442 3bbc
000001a0: 983e 5c3c 40d8 7abb f8c2 833b 9634 883c
000001b0: 5885 8abc 5a97 c8bc 40b1 7dbb 9841 943b
000001c0: b000 6b3c d42a 5cbc 5616 d2bc 68fa 803b
000001d0: d0a4 7a3b d292 9a3c c039 323c 4cc9 103c
000001e0: 80fb 543c fea8 babc 42f3 b0bc f838 10bc
000001f0: 9a32 aebc 8486 25bc 40d3 3a3a e48b 6dbc
00000200: 9872 aa3c c8bd 843b d075 34bc cc51 f0bc
00000210: 9898 b9bb 383d c8bc a479 f43c 68f8 e8bc
00000220: 9c84 2fbc 5eba cbbc b276 af3c 2c61 bcbc
00000230: 1acb 92bc d694 b53c 98b0 a3bc 662e e3bc
00000240: 101e 9ebb 8650 e73c ea09 ddbc e097 36bc
00000250: 1837 2f3c c003 e6bc 709b 6b3b 5e52 afbc
00000260: 6a1e 9d3c d0b1 753c 6049 283c 5009 66bb
00000270: 74c8 5cbc d4f7 2e3c 9861 0c3c d040 20bb
00000280: ac23 4e3c d853 0a3c e00c 08bc c09f e63c
00000290: 30c6 b4bc 0a8f fcbc b0d3 2fbb 865b f63c
000002a0: b863 c43b 723c 9d3c e08d 9fbc 9479 6dbc
000002b0: 7832 5fbc a00b cabc 78fe 36bc b0e0 65bb
000002c0: 0888 403c 2e2c d63c 6065 123b 2613 9e3c
000002d0: 2855 5d3c 40eb 47ba 48a5 94bc 68df 97bb
000002e0: b80c fabc a47c eb3c 0e47 d03c 1e4a b6bc
000002f0: 90c7 e73c b48f 323c 0064 5938 1654 febc
00000300: 40a3 2e3b 34c1 60bc 7848 7abc 4884 ab3c
00000310: 7848 05bc 647c bbbc f835 87bb 801a c0ba
00000320: a288 fb3c 6cad fdbc 122b 8d3c fc5f 2b3c
00000330: ce34 823c 3e34 b8bc 00b8 b4bb c8fc 39bc
00000340: 5cb2 68bc fa33 d3bc e432 b8bc 549f e1bc
00000350: dcd2 5abc 508d cf3b 709c afbc fed9 da3c
00000360: f04d f03c c890 1a3c ba25 b13c 803e fb3c
00000370: e42a 0fbc 98ae cfbc ae04 98bc 08b1 9cbc
00000380: 809c 103c 5c48 653c 24e8 683c 1cc6 96bc
00000390: c221 b5bc 6247 8b3c 528b ad3c 9478 9ebc
000003a0: 843d c2bc b461 59bc e295 db3c 5ce6 923c
000003b0: a4e3 5c3c ac0e 3d3c baae bbbc 5ea7 d63c
000003c0: 8229 a8bc 7452 b83c 544a c9bc 9043 213b
000003d0: de14 853c 7ac5 dfbc c868 933c f0b8 323b
000003e0: 0087 81bb 5617 f83c 7256 90bc d869 9c3c
000003f0: aa4c c5bc f8ee da3c 70e0 febb 4006 babc
0.0029510893 -0.022312682 0.007437464 -0.021259014 -0.015435077 0.00614547 0.0069992393 -0.021753304
-0.0022902526 -0.02577475 0.015235074 -0.020786088 0.010559663 -0.007549964 -0.027790073 0.00921879
0.014276303 -0.017913986 0.025702365 -0.011254292 -0.0010791495 -0.013565559 -0.012955043 -0.006700583
-0.01706655 0.01361233 -0.009636659 -0.0074298903 0.0070859045 -0.0064748563 0.011148874 -0.0025111176
0.0021799617 0.0073423423 -0.008002248 0.009898223 -0.019003816 0.023204751 0.014125381 -0.0068206154
0.019718003 -0.018264096 0.009293769 0.01278387 -0.019966949 -0.005811885 -0.025178894 0.011452496
0.022347003 -0.018965669 0.02520511 -0.006147489 0.020852674 0.020370372 0.0154947825 -0.0107046105
0.008783344 -0.00957929 -0.024759348 0.02560069 0.02627201 0.027082164 -0.02279709 -0.01484048
-0.024478372 -0.01272 -0.020432767 -0.0029406846 -0.00085850805 0.0056131072 0.0267835 -0.0145978555
-0.009652659 0.013779417 -0.017569233 0.004897218 -0.012676049 0.027456097 0.007048458 -0.018522568
-0.008610893 0.020717844 -0.008902922 -0.011981249 -0.013337031 -0.021534897 0.005879864 -0.026028343
-0.011778414 0.0026353486 0.003962096 -0.0022496916 -0.026676014 0.025374677 -0.007470887 -0.022754949
0.01974408 -0.023343664 -0.0068900064 0.009626124 -0.030061219 0.029948212 0.020958982 -0.011429403
0.013442658 -0.0038275868 0.004021045 0.016626637 -0.016909286 -0.024486233 -0.0038710386 0.004524421
0.014343426 -0.013437945 -0.025645416 0.0039361008 0.0038245209 0.018868838 0.0108780265 0.008837055
0.012999415 -0.02278566 -0.02160037 -0.008802645 -0.021264363 -0.010102872 0.00071268156 -0.014498685
0.020806596 0.004050944 -0.011014417 -0.029335879 -0.0056639425 -0.024443254 0.029843159 -0.028438762
-0.010712769 -0.02486914 0.021418903 -0.022995554 -0.017919112 0.022165697 -0.019981667 -0.027732085
-0.004825361 0.028236639 -0.026982266 -0.011144608 0.010694288 -0.02807796 0.0035950802 -0.02140158
0.019179542 0.014996007 0.0102714 -0.0035100766 -0.013475526 0.010679204 0.00856819 -0.0024452694
0.012581747 0.0084428415 -0.008303851 0.028152347 -0.02206716 -0.030829925 -0.0026829056 0.030072939
0.0059933327 0.019193862 -0.019476831 -0.0144943185 -0.0136228725 -0.024663746 -0.0111690685 -0.003507655
0.011751182 0.026144113 0.0022338256 0.01929624 0.013509072 -0.00076263025 -0.018145218 -0.0046347864
-0.030523643 0.028745957 0.025424507 -0.022252139 0.028293401 0.010898519 5.1829964e-05 -0.031045955
0.0026647598 -0.013717938 -0.015276067 0.0209371 -0.008134954 -0.022886463 -0.0041263066 -0.0014656335
0.0307048 -0.030966483 0.017232452 0.010459896 0.01589432 -0.022485849 -0.0055150986 -0.011351772
-0.01420268 -0.02578162 -0.022485204 -0.027541794 -0.013355937 0.0063339844 -0.0214369 0.026715275
0.029334038 0.009433933 0.021624435 0.03066945 -0.008738253 -0.025351807 -0.018556919 -0.019127384
0.008826375 0.013994303 0.014215503 -0.018405013 -0.022110824 0.017001811 0.021184597 -0.019344606
-0.023710974 -0.013267923 0.026804868 0.01793211 0.013482008 0.011539143 -0.022910465 0.026202854
-0.020527605 0.022500254 -0.024571575 0.002460692 0.016245302 -0.027315844 0.0179943 0.0027270876
-0.003952861 0.030284565 -0.017619345 0.019093439 -0.024084408 0.026725277 -0.00777822 -0.022708058

hyper_b1.bias f4 [32]
00000000: dab7 863c 24bc 71bc 76e6 cdbc 68b6 3d3c
00000010: 686d 6ebc f46e c53c f857 31bc a071 9fba
00000020: 24de 6e3c 848e 4ebc 18c2 c9bc 08eb 9d3b
00000030: 74e3 8cbc 4e13 aebc 9ced 1a3c 9efd be3c
00000040: c86b 353c e268 eebc e00d 8bbc 001d 51b9
00000050: d01d 3cbb 6667 d13c 784b a33c 1823 9cbc
00000060: b446 813c 0027 9dbc 989d 9ebc a0fd 3dbc
00000070: 2082 823b 9c7b 73bc 48ca 0fbc 34dd 5c3c
0.01644509 -0.014754329 -0.025134306 0.011579134 -0.014552452 0.024100758 -0.010824196 -0.00121646
0.01457933 -0.012607221 -0.024628684 0.0048192777 -0.017198302 -0.02124944 0.009456065 0.023314293
0.01107306 -0.029102746 -0.01697439 -0.00019942597 -0.0028704293 0.025562 0.019933447 -0.019059703
0.015780784 -0.019183636 -0.019362256 -0.011596113 0.0039827973 -0.014861014 -0.008776255 0.013480473

hyper_b2.0.weight f4 [32, 1024]
00000000: 74b9 9ebc b27e bb3c 0270 a33c 0a2d ce3c
00000010: e802 e23c acbb 863c 683b 73bc 142a 983c
00000020: 7099 8d3b 029c c1bc 64a5 7f3c 54e2 ad3c
00000030: 1293 9ebc 8899 04bc c066 a23a a895 cbbc
00000040: f06e 52bb 146b 013c 621a 8e3c b072 633c
00000050: 00f4 aa3c d09a b8bc fc65 103c a66b edbc
00000060: e8ac bdbb 18da a5bc d6f8 e63c 14e0 4abc
00000070: 9a0c bfbc c49b a9bc dc77 373c d4ab 5c3c
00000080: c29a e0bc ec3b a2bc f48a 04bc 4826 f6bc
00000090: deec 8c3c ac46 f23c 704f 933c a4f5 a13c
000000a0: 2089 b3bb acb7 1b3c 76a1 adbc 0843 c1bc
000000b0: 28d3 f83c d05b c2bb a8ef 2d3c 6acf 843c
000000c0: 1c0f 93bc 4c95 acbc 88e5 12bc 2e69 f53c
000000d0: 78f8 dabb f4ea e1bc 90c4 f2bc 9882 f2bc
000000e0: a646 95bc 489b efbb 84ab e3bc a873 74bc
000000f0: 6693 81bc 4026 94ba 0004 cdba 4e1e a4bc
00000100: 803e 123c 70f7 6bbb 5cb1 80bc 1420 0dbc
00000110: 3ee1 d3bc 5ae6 85bc 0ebb f0bc c2ea 843c
00000120: 2248 a53c 80dc 113b 68f7 d33c b6ee 92bc
00000130: f0c8 493c c86c d0bb 0e4e d83c a879 9dbc
00000140: de67 d93c 0c47 a2bc 90ee c8bb c4e8 1a3c
00000150: 4061 713b 8af1 c2bc 8ce9 38bc e6f5 bebc
00000160: e0bd e23b b4b6 3d3c 2acc cfbc 8060 c33a
00000170: 52da 98bc 0472 b93c e0a6 f93a 40f2 d93b
00000180: 28e4 d7bc ec55 2ebc 30e6 b23c 1618 e13c
00000190: fa7f cd3c 08d7 363c b8a7 853c 846c c43c
000001a0: 301c f63c 183a 833b d6a1 a7bc 2aa3 febc
000001b0: e68d 9c3c 62ab d53c 00da febc 5479 9b3c
000001c0: 2026 b5bc 40dc 713b a8fd 773c 745b c03c
000001d0: 1a2c fcbc f839 dabb b444 89bc 60bb d0bb
000001e0: 10e7 53bb b434 d73c 90fe 4ebb 0c93 b43c
000001f0: b0fb 873c 889b b73b 16d8 86bc c2ff a3bc
00000200: 88ae 153c 5092 63bb 0c45 00bc 7c58 ad3c
00000210: 00a7 33b9 f067 d7bc 0033 5b3c 8c7c 18bc
00000220: 84cd 593c 80a6 f539 0c8a bebc 00c6 f33b
00000230: 0024 49ba 5ecb c7bc be27 fcbc 98b6 803b
00000240: f41f 383c 0a85 cdbc 20cd 85bb 7ef0 833c
00000250: d015 45bc 8081 e7bb 8675 f6bc 900f eabb
00000260: 404c 0d3a f2d2 b8bc c477 23bc 1a96 d8bc
00000270: d431 5e3c b00e 393b a891 9b3c 00de 9839
00000280: 8a1e a9bc 002b d7bb fc1e a73c 7c31 f4bc
00000290: 84ea 11bc f00b 443c e8fc 863b 6ad2 c2bc
000002a0: e631 f23c 88b9 bf3b 06ec 9cbc 5c8b fc3c
000002b0: 1c7e ab3c e075 85ba 8aa8 ce3c 0c18 8bbc
000002c0: 3af1 a3bc 40fb b4ba 9ed0 dcbc c001 31ba
000002d0: f4fa 44bc 845a 17bc 1ae1 e43c a646 8d3c
000002e0: 4c71 3ebc 7ec3 8d3c a895 cdbb cce2 5fbc
000002f0: 8c75 1c3c 4047 753b 3a9c e9bc 30d7 91bc
00000300: 28e4 a1bc 3075 fabb 101c 5d3b d22d e53c
00000310: f810 c93b 74f8 bc3c 54be 45bc 6ad7 87bc
00000320: 803d 2e3c f408 4c3c c87b 6d3c 244c ddbc
00000330: 30ca 09bc 5042 30bc 66c3 b83c c043 fd3a
00000340: 44ca fe3c b080 713b 9aa3 fcbc 1e12 fabc
00000350: 505b 043b a8d1 8b3b 541a 653c bedf de3c
00000360: 4e17 cb3c b431 c93c f0c2 b43c e2f0 bbbc
00000370: c05c b4ba 085a 13bc 58e3 2fbc 7c93 15bc
00000380: 9868 ba3b a857 5d3c 3828 3fbc c283 cd3c
00000390: 98c2 293c 4073 343a a0b9 c9bb 2a2c cf3c
000003a0: 50bd 8ebc a4ba 433c a0cc 9a3c 12f9 a53c
000003b0: 9667 d6bc 7040 1f3c 0007 f8b9 0acf f6bc
000003c0: 46c3 b83c 007a 0d39 00c8 e3b8 0039 c2ba
000003d0: 341b 19bc 9ef8 e5bc 548a 7abc f42e 9bbc
000003e0: 44d7 453c b85c 6bbc 2416 5abc 684d 553c
000003f0: 74c0 d53c 16a7 e13c b4ef 203c c88d 3bbc
-0.01937554 0.022887561 0.01995087 0.02516796 0.027589276 0.01644691 -0.0148457065 0.018574752
0.0043212697 -0.02363396 0.015603397 0.021226086 -0.019357238 -0.008093245 0.0012390241 -0.024851635
-0.003210958 0.007899065 0.017346565 0.013882324 0.020868301 -0.022534758 0.0088133775 -0.028981995
-0.0057884343 -0.020245597 0.028194826 -0.012382526 -0.023321439 -0.020704158 0.01119801 0.013468701
-0.027417544 -0.019803964 -0.00808977 -0.03004755 0.01720279 0.029574715 0.017982215 0.01977045
-0.005478993 0.00950424 -0.021195155 -0.023591533 0.030374125 -0.005931355 0.0106162205 0.016212184
-0.01795154 -0.021067284 -0.008965857 0.02995738 -0.006682452 -0.027577855 -0.029634744 -0.029603288
-0.018222164 -0.007312212 -0.027791746 -0.014920153 -0.015817355 -0.0011302903 -0.0015641451 -0.020033982
0.008926034 -0.0036005639 -0.015709572 -0.008613605 -0.02586424 -0.016345192 -0.02938607 0.016225222
0.020175997 0.0022256672 0.025874808 -0.017936092 0.012315974 -0.006360624 0.026404407 -0.01922305
0.026538786 -0.019809268 -0.0061319545 0.00945491 0.0036831647 -0.023796815 -0.011286151 -0.023310613
0.0069196075 0.011579204 -0.025365908 0.0014906079 -0.01865879 0.022637375 0.0019046925 0.006651193
-0.02635391 -0.010640603 0.021838278 0.027477305 0.025085438 0.011159666 0.016315326 0.023977526
0.030042738 0.004004728 -0.020462912 -0.031083662 0.019110631 0.026082698 -0.03110981 0.018978752
-0.022112906 0.003690496 0.01513616 0.023481108 -0.030782748 -0.0066597424 -0.016756393 -0.006369993
-0.003233377 0.026270248 -0.0031584837 0.022042774 0.016599506 0.0056032576 -0.01646046 -0.020019416
0.00913585 -0.003472466 -0.007828962 0.021160357 -0.00017132983 -0.026294678 0.013378859 -0.009307038
0.013293628 0.00046854094 -0.023259185 0.007439375 -0.0007672906 -0.024388965 -0.03078067 0.003928017
0.011238087 -0.025087852 -0.0040832907 0.016105887 -0.012029126 -0.007064998 -0.030085336 -0.0071429685
0.0005390085 -0.022561524 -0.009977285 -0.026438762 0.013561685 0.0028237514 0.018990353 0.00029157102
-0.020644445 -0.0065664053 0.020400517 -0.029808752 -0.008906011 0.011965737 0.0041195042 -0.023781974
0.029564809 0.0058509745 -0.019155513 0.03082817 0.020934157 -0.0010182224 0.02522685 -0.01697924
-0.020012487 -0.0013807788 -0.026954945 -0.0006752275 -0.0120227225 -0.009237889 0.027939368 0.017245602
-0.011623692 0.017305132 -0.006273944 -0.013664912 0.00954951 0.0037426502 -0.028516877 -0.017802805
-0.019762114 -0.0076433644 0.003373865 0.02797595 0.006136056 0.02306769 -0.012069304 -0.01658221
0.01063478 0.0124533065 0.014494844 -0.027013846 -0.008410022 -0.010757998 0.02255411 0.0019322559
0.031102307 0.0036850385 -0.03083973 -0.030526217 0.0020196028 0.0042669363 0.013983328 0.027206298
0.024791386 0.024559833 0.02206561 -0.02294201 -0.0013760552 -0.008993633 -0.010735355 -0.009129401
0.005688738 0.013509668 -0.011667304 0.025087241 0.010361336 0.00068836287 -0.0061561614 0.025289614
-0.017424256 0.011946354 0.0188964 0.020260368 -0.02617244 0.009719953 -0.00047307462 -0.03012802
0.022554051 0.00013492256 -0.000108614564 -0.0014818013 -0.009344865 -0.028072651 -0.015291769 -0.018943287
0.012075249 -0.014365368 -0.013310943 0.013018943 0.026092745 0.027545493 0.009822775 -0.0114473775

hyper_b2.0.bias f4 [32]
00000000: e054 acbc c66f b63c b812 c23c 84e0 5b3c
00000010: 7022 69bc 104c 2b3b f8f8 323c b039 93bc
00000020: f612 b3bc 54a1 233c bcbb 5c3c 308c 77bc
00000030: 707b 5cbb c077 24bc 48f8 e4bc 0047 9a3b
00000040: 9e70 f8bc a090 433c 4c1a af3c 8009 95ba
00000050: 46e6 cc3c f609 8d3c 6054 edbc ce4a ec3c
00000060: 4c43 a8bc f078 a0bb 6a4a cf3c 5ee4 f63c
00000070: e8d6 d4bc 5634 dc3c b645 eb3c 30e2 0bbb
-0.021036565 0.022270095 0.023690566 0.013420228 -0.014229402 0.0026137866 0.010923617 -0.017971843
-0.021859627 0.009987194 0.013472494 -0.015109107 -0.003364291 -0.010038316 -0.027950421 0.004708171
-0.030327138 0.011936337 0.021374844 -0.0011370629 0.025012147 0.017216664 -0.028970897 0.028844263
-0.020539902 -0.0048972294 0.025304038 0.03013819 -0.025981382 0.026880424 0.028719764 -0.0021344535

hyper_b2.2.weight f4 [1, 32]
00000000: 1077 f93c 9ed2 fc3d 8aba db3d c045 ab3c
00000010: 0079 753a b8b1 b9bc b04b 1e3c ae4d 13be
00000020: 08f3 0f3d 2853 563d 56d8 6bbd c00c 673c
00000030: 0048 a1bc 5856 12be a220 ca3d 375b 043e
00000040: b2cd 09be 59c8 0abe 5906 183e 180f a6bd
00000050: de27 9c3d 969e bebd f0fc 223d 7ce5 f7bd
00000060: ab68 2b3e 48e7 5dbd db5a 01be a8be 4e3d
00000070: ccff 28bd 853b 033e fb86 8dbd 03b1 0d3e
0.030452281 0.123448595 0.10728939 0.020907283 0.00093640387 -0.02266775 0.0096616 -0.14385101
0.035143882 0.052325398 -0.05757936 0.014102161 -0.019687653 -0.1429075 0.098695055 0.1292542
-0.13457373 -0.13552989 0.14846171 -0.08108348 0.076247916 -0.093075916 0.039792 -0.121043175
0.16739146 -0.054175645 -0.12632315 0.050474793 -0.041259572 0.12815674 -0.06910511 0.13837056
