models/v3/target_qmix_net.pth (torch, 490172 bytes, 13 tensors)

hyper_w1.0.weight f4 [64, 576]
-0.014417423 0.013734636 -0.017992297 -0.03011009 -0.024547085 -0.0024434398 -0.0029438243 0.0017764191
0.004250787 0.043066964 -0.017623523 -0.021597365 0.0045395237 0.026747629 0.04039219 0.02057099
0.029988766 0.0063515077 0.029445343 0.012703758 -0.018672943 -0.02340278 0.040604994 -0.0005018903
-0.010719601 0.01834353 -0.02318655 0.013590583 -0.022189885 0.03264402 0.032869205 -0.03135859
0.027126737 0.008066001 -0.014256713 0.002138955 -0.006217219 0.013403439 0.045482814 0.034370005
-0.0069742245 0.033048104 -0.033615544 -0.03532079 -0.036334816 0.02253656 -0.008884671 0.04544594
0.024487317 -0.035647925 0.013739448 -0.03622392 -0.012105491 0.03706471 -0.013115456 0.004487876
-0.024754312 0.0054253377 0.028068516 0.033543047 -0.021054424 0.041442547 -0.04069787 0.00050975755
0.031637367 0.021216098 -0.02284075 0.016418513 0.018283471 0.03194681 0.012466054 0.017356416
0.015887853 -0.016078472 -0.036190525 -0.033409156 0.012196396 -0.045720156 -0.010194305 -0.010158628
-0.031791665 -0.034097724 0.040036235 0.033624597 -0.032966893 -0.016787728 -0.024575418 -0.039916232
-0.020826142 0.017210843 -0.0039299466 0.019960597 0.007716628 -0.013233235 -0.02511403 0.011897446
-0.015214761 -0.029861037 -0.01341941 0.040596884 -0.003772989 -0.01856625 -0.010808777 -0.040893376
0.03183542 0.02858496 0.017408889 0.017377269 0.009689596 0.0061879656 0.006953206 -0.02706868
0.031467367 0.013657924 0.011831816 -0.03916123 -0.013001185 -0.0065016337 -0.011708083 -0.023678118
-0.02357823 0.0073209475 0.028021712 0.03915154 -0.018230518 -0.02758208 -0.03488567 -0.015718862
0.020087961 -0.015751183 0.025966268 -0.015159156 0.023652527 0.012349274 -0.012240228 -0.005502943
-0.03138415 -0.016281417 0.002703879 -0.039137166 -0.041590106 0.021451788 0.0060948688 0.030214228
0.023448478 0.0019021775 -0.015183514 0.035697397 -0.024991803 -0.03893734 0.020212699 -0.015021121
-0.0045837797 -0.005756583 -0.0074705146 0.0037208833 -0.039654784 -0.014998436 0.025691602 0.010970596
0.036215454 0.040459234 0.00029743835 -0.029821888 -0.029099433 -0.037308645 -0.0052041896 0.011426383
-0.036112797 0.017465299 0.010723244 -0.008888125 -0.015229434 -0.024185047 -0.029922228 0.033989195
-0.023884222 -0.016720926 -0.027086576 -0.0017679483 0.0033694468 0.018418308 -0.037368447 -0.01132457
-0.010926366 -0.007697534 -0.02551838 0.0023269393 -0.002759736 0.014627513 0.00759875 0.02159379
-0.032280248 -0.035715938 0.024764333 -0.025944224 0.01734246 -0.03370483 0.030795518 0.0024324693
-0.014759004 -0.012159094 -0.014825519 -0.023838943 -0.028339755 -0.027115151 0.022604706 0.025583092
0.033124123 0.022977423 -0.001570005 -0.038477268 -0.0300745 0.015245687 -0.0055737165 -0.022162417
-0.0047579785 -0.026150608 -0.0325015 -0.008961517 0.0020925403 -0.015867885 0.012827799 -0.01783762
-0.026082 -0.011112645 0.024308372 0.025450071 -0.01511186 -0.016573224 -0.03927221 0.008715197
-0.014392402 -0.02552633 0.014926448 -0.037305288 -0.034402546 -0.013886392 0.005174019 0.016741494
0.021800514 -0.024150858 -0.017280072 0.021692675 0.021403898 0.030487511 0.01623265 0.025033157
-0.017527308 -0.03225849 0.006301064 0.040988076 0.009040754 0.040640328 -0.014757019 -0.00027776137
00000000: 0e37 6cbc 3d07 613c 9564 93bc 6fa9 f6bc
00000010: f816 c9bc 1e22 20bb 2ded 40bb bcd6 e83a
00000020: 304a 8b3b fc66 303d 355f 90bc f5ec b0bc
00000030: 49c0 943b d81d db3c 4872 253d 7e84 a83c
00000040: 00ab f53c 4f20 d03b 5c37 f13c 6c23 503c
00000050: 00f8 98bc 30b7 bfbc 6c51 263d 4a91 03ba
00000060: 44a1 2fbc 2c45 963c b8f1 bdbc 09ab 5e3c
00000070: 90c7 b5bc bcb5 053d dca1 063d dd71 00bd
00000080: e438 de3c 4327 043c fd94 69bc b62d 0c3b
00000090: d0b9 cbbb 199a 5b3c 304c 3a3d 90c7 0c3d
000000a0: 0988 e4bb 735d 073d 74b0 09bd 88ac 10bd
000000b0: d1d3 14bd 989e b83c 0391 11bc 8625 3a3d
000000c0: a099 c83c 8f03 12bd 6c1b 613c 885f 14bd
000000d0: 1c56 46bc 2ad1 173d 36e2 56bc 080f 933b
000000e0: 8ec9 cabc 08c7 b13b f2ef e53c 6f64 093d
000000f0: 547a acbc a9bf 293d cfb2 26bd 40a1 053a
00000100: 2f96 013d 62cd ad3c 861c bbbc 1e80 863c
00000110: 38c7 953c a9da 023d 6c3e 4c3c 0b2f 8e3c
00000120: 3e27 823c 00b7 83bc 843c 14bd 0ad8 08bd
00000130: 64d3 473c 0f45 3bbd 0406 27bc 6070 26bc
00000140: fa37 02bd 0eaa 0bbd 09fd 233d f2b9 093d
00000150: 4b08 07bd 6b86 89bc 6352 c9bc 347f 23bd
00000160: 969b aabc c1fd 8c3c c8c6 80bb 6884 a33c
00000170: c4db fc3b 36d0 58bc f0bb cdbc 81ed 423c
00000180: 5547 79bc 229f f4bc 16dd 5bbc eb48 263d
00000190: 4044 77bb 4018 98bc 4c17 31bc d07f 27bd
000001a0: db65 023d 022b ea3c 169d 8e3c c65a 8e3c
000001b0: 1cc1 1e3c 6bc4 ca3b b8d7 e33b 23bf ddbc
000001c0: ede3 003d 7cc5 5f3c 3cda 413c 8767 20bd
000001d0: ec02 55bc a80b d5bb 42d3 3fbc 9df8 c1bc
000001e0: 2227 c1bc 8fe4 ef3b ca8d e53c 5d5d 203d
000001f0: 2b58 95bc d0f3 e1bc 47e4 0ebd d8c4 80bc
00000200: 828f a43c a008 81bc 36b7 d43c 1c5e 78bc
00000210: f2c2 c13c 9c54 4a3c 3d8b 48bc 0852 b4bb
00000220: ab8c 00bd 9b60 85bc 9033 313b 4b4e 20bd
00000230: 635a 2abd a9bb af3c 77b7 c73b d483 f73c
00000240: 0617 c03c 7c52 f93a 46c4 78bc 6f37 123d
00000250: 9cbb ccbc c37c 1fbd 1a95 a53c 261b 76bc
00000260: 8833 96bb b8a1 bcbb 38cb f4bb 10da 733b
00000270: 0e6d 22bd 00bc 75bc 3277 d23c 04be 333c
00000280: a856 143d 95b8 253d 80f1 9b39 084d f4bc
00000290: ef61 eebc f3d0 18bd e887 aabb b935 3b3c
000002a0: 03eb 13bd 6313 8f3c 8cb0 2f3c 809f 11bc
000002b0: e084 79bc b81f c6bc 761f f5bc 4138 0b3d
000002c0: d8a8 c3bc 53fa 88bc abe4 ddbc 80ba e7ba
000002d0: f0d1 5c3b fee1 963c a80f 19bd b08a 39bc
000002e0: 8004 33bc 983b fcbb ec0b d1bc 907f 183b
000002f0: b0dc 34bb 3ca8 6f3c effe f83b 76e5 b03c
00000300: 4b38 04bd e04a 12bd 92de ca3c fb88 d4bc
00000310: c611 8e3c 130e 0abd e246 fc3c 106a 1f3b
00000320: c0cf 71bc f036 47bc bce6 72bc e349 c3bc
00000330: c628 e8bc 9820 debc 812d b93c a293 d13c
00000340: 29ad 073d 263b bc3c a0c8 cdba 579a 1dbd
00000350: cc5e f6bc 0cc9 793c b9a3 b6bb f58d b5bc
00000360: d1e8 9bbb cd39 d6bc 4b20 05bd 54d3 12bc
00000370: 0023 093b 5efd 81bc b02b 523c 3320 92bc
00000380: eba9 d5bc d011 36bc 5a22 c73c ab7c d03c
00000390: bc97 77bc 92c4 87bc e6db 20bd 30ca 0e3c
000003a0: 1cce 6bbc 981c d1bc 108e 743c 6ecd 18bd
000003b0: afe9 0cbd c083 63bc d18a a93b 7525 893c
000003c0: fe96 b23c 05d8 c5bc f08e 8dbc d6b4 b13c
000003d0: 3a57 af3c f2c0 f93c 56fa 843c 5612 cd3c
000003e0: 6e95 8fbc 7a21 04bd 2879 ce3b 1de3 273d
000003f0: ac1f 143c 7976 263d 6cc7 71bc 80a0 91b9

hyper_w1.0.bias f4 [64]
-0.00814417 0.009812401 0.016262636 0.0046270145 0.008884314 -0.011516005 0.032326758 -0.034847796
0.02772088 -0.0071977787 0.011066765 0.011937228 0.016184887 -0.037271235 -0.040777054 0.018356703
-0.015076388 0.016914848 -0.018567454 -0.010271266 -0.031701427 0.03107093 -0.030373257 -0.0072253346
-0.0062544136 0.029201195 -0.016394114 0.0030738977 0.022565689 -0.0027489618 0.035904314 -0.010189652
0.034000617 -0.008582715 -0.02375031 -0.02321524 -0.022733612 -0.015478354 -0.010732105 0.010947701
-0.03326261 -0.011654217 0.020532915 0.002589309 -0.014521462 0.026993137 -0.00049633125 -0.017180419
-0.0657173 0.024389792 -0.03523415 -0.049677104 -0.017487576 -0.006314635 -0.020926105 -0.02146941
0.015280068 -0.03661204 -0.001077711 -0.010990083 -0.028275989 0.01722379 0.022306304 0.0015930422
00000000: 206f 05bc 31c4 203c 3839 853c 369e 973b
00000010: 848f 113c a0ad 3cbc 1069 043d 90bc 0ebd
00000020: e616 e33c 58db ebbb 6051 353c 5d94 433c
00000030: 2b96 843c b9a9 18bd d705 27bd cc60 963c
00000040: f402 77bc 0291 8a3c c61a 98bc d048 28bc
00000050: 5bd9 01bd 7788 fe3c 56d1 f8bc 80c2 ecbb
00000060: d3f1 ccbb 5837 ef3c f34c 86bc 7273 493b
00000070: aedb b83c ed27 34bb 6710 133d 80f2 26bc
00000080: 3b44 0b3d 849e 0cbc 0390 c2bc e32d bebc
00000090: d73b babc ec98 7dbc b6d5 2fbc fc5d 333c
000000a0: 603e 08bd 54f1 3ebc a534 a83c 65b1 293b
000000b0: 6deb 6dbc b620 dd3c 3a1c 02ba f3bd 8cbc
000000c0: cb96 86bd 1acd c73c af51 10bd 387a 4bbd
000000d0: 1b42 8fbc ffea cebb 396d abbc 9ee0 afbc
000000e0: 4059 7a3c 82f6 15bd fb41 8dba c00f 34bc
000000f0: 0ca3 e7bc e818 8d3c b6bb b63c a0cd d03a

hyper_w1.2.weight f4 [128, 64]
0.097171254 0.07758935 -0.11511491 0.07995706 0.11095337 0.04801196 -0.009758532 0.03563936
-0.08065193 -0.100618795 -0.042906225 -0.08331822 -0.12492424 -0.018138764 -0.08956656 0.0025506427
0.0896524 0.060793933 -0.0819229 0.055648714 0.009893149 -0.031438753 0.04848145 -0.063665494
-0.012604921 -0.11990027 -0.0105192065 -0.060944602 -0.0027574003 -0.025128525 0.06069371 0.012151703
0.07422851 -0.11497739 0.08623754 -0.084826574 0.06044538 -0.03383717 -0.012559593 -0.03699614
-0.07945998 0.09439111 -0.11030726 -0.040567078 -0.099216886 0.050848812 0.025097355 0.06573972
-0.0695689 0.07358982 0.029957667 0.028050484 0.018171817 -0.08349867 -0.22211836 -0.093470566
-0.02786194 0.061947525 -0.07838122 0.071242854 0.0007498364 -0.079331346 0.03982216 -0.021175072
0.09602324 -0.08923171 0.026047096 0.023414658 -0.014066718 0.07136352 0.13056585 -0.060942903
-0.099067874 -0.035006583 -0.06290701 -0.032681633 -0.02514718 0.10370545 -0.020311596 -0.07915517
0.04608494 -0.0768156 0.06669834 0.018937603 0.07810952 0.031993035 0.08561319 0.0682766
0.10738589 0.0040636053 0.017194897 -0.06055332 0.0002693832 0.08356087 -0.02614151 -0.09578323
0.053035 0.07324526 0.027358599 0.014499545 0.045241773 -0.07014264 -0.12119551 -0.00646773
0.0030169035 -0.063643076 -0.05113802 -0.0945696 0.079780586 -0.00481157 0.078671895 -0.05861093
0.098369524 0.047019646 0.0487611 0.03609602 -0.05996515 0.00659586 -0.16006906 -0.09915203
0.029699987 -0.019680277 -0.08117426 0.043926954 -0.010623542 -0.059804868 0.011235625 -0.062673435
0.03802803 -0.0025439581 -0.06633392 0.06436159 0.0043597803 -0.0053025633 0.098742716 -0.09367709
-0.004595348 0.050424173 0.07080087 0.088413626 0.017462322 -0.03162232 0.06566839 -0.0590113
-0.06774391 -0.023431437 -0.10900043 -0.013026103 -0.11753842 0.007587475 -0.07252963 0.09303817
-0.027989157 0.094513364 -0.07526179 -0.0105848415 -0.03597115 -0.107406326 0.08135085 -0.021942407
-0.011016043 0.05504319 0.0025304423 -0.013467893 0.064557426 -0.09688698 0.10870269 0.12204522
-0.004121006 -0.10695669 -0.026431875 0.008080254 -0.06278711 0.08828707 0.016850013 0.06878309
0.12108308 0.124273375 -0.09873757 -0.120168224 -0.0084319115 0.050729368 0.09610485 -0.11321736
-0.13058594 -0.07611933 -0.07359587 -0.029928908 0.034981187 0.10637201 0.11680378 -0.017896056
-0.050267983 0.0062311264 -0.120943844 0.019294163 0.08117677 0.036526322 0.11238538 0.07141915
0.065342136 -0.062305674 0.10337491 0.064230345 -0.003436816 -0.121506795 -0.093715414 0.041913476
0.031853467 -0.0670941 -0.08741003 0.074145466 0.11951892 -0.020016888 0.044788733 0.04456599
0.005557274 -0.12391897 0.031019688 -0.089861326 0.116068155 -0.10603356 0.0119858235 0.122360766
0.03280903 -0.042048767 0.011888246 0.026824996 -0.10659175 0.02293083 -0.07281129 -0.11318791
-0.13066897 0.009637861 0.07709997 0.020562598 -0.11648753 -0.114062294 0.046017274 0.0334384
0.061436817 0.021466166 0.0820241 0.05869168 0.110679716 0.07494493 -0.13511208 0.047768343
0.045088984 -0.060047165 0.08177682 0.020123243 -0.021550827 0.07050285 0.04735115 -0.09638108
00000000: b901 c73d 2ae7 9e3d 5ec1 ebbd 87c0 a33d
00000010: 853b e33d 30a8 443d 40e2 1fbc 94fa 113d
00000020: d72c a5bd 3a11 cebd 70be 2fbd bea2 aabd
00000030: 48d8 ffbd bf97 94bc ac6e b7bd af28 273b
00000040: ad9b b73d 0f03 793d 32c7 a7bd e8ef 633d
00000050: e016 223c ecc5 00bd 7c94 463d 0e63 82bd
00000060: df84 4ebc 468e f5bd c058 2cbc 0ca1 79bd
00000070: 80b5 34bb 56da cdbc f899 783d f017 473c
00000080: 1e05 983d 4479 ebbd 4f9d b03d 8eb9 adbd
00000090: 9395 773d d898 0abd c0c6 4dbc 4489 17bd
000000a0: eabb a2bd 2050 c13d c6e8 e1bd aa29 26bd
000000b0: 3932 cbbd d846 503d f898 cd3c 8ca2 863d
000000c0: 247a 8ebd 42b6 963d c869 f53c 21ca e53c
000000d0: 10dd 943c 5a01 abbd ff72 63be 7f6d bfbd
000000e0: b93e e4bc b0bc 7d3d 5586 a0bd c6e7 913d
000000f0: ab90 443a 7978 a2bd 901c 233d 5877 adbc
00000100: d5a7 c43d 1dbf b6bd b860 d53c 19d0 bf3c
00000110: 1778 66bc 0a27 923d 0eb3 053e 449f 79bd
00000120: 19e4 cabd 1063 0fbd 64d5 80bd 2ddd 05bd
00000130: 7501 cebc 8663 d43d 8164 a6bc 1b1c a2bd
00000140: 90c3 3c3d 7f51 9dbd 2499 883d 0823 9b3c
00000150: e2f7 9f3d 210b 033d f855 af3d 9ad4 8b3d
00000160: 22ed db3d fe27 853b 50dc 8c3c c206 78bd
00000170: 003c 8d39 f621 ab3d b826 d6bc 002a c4bd
00000180: 3a3b 593d 9c01 963d 241f e03c 808f 6d3c
00000190: 704f 393d f2a6 8fbd 5a35 f8bd 40ef d3bb
000001a0: 3eb7 453b 4d57 82bd 1a76 51bd b5ad c1bd
000001b0: 0164 a33d 60aa 9dbb bb1e a13d 0412 70bd
000001c0: f675 c93d ac97 403d b8b9 473d 6cd9 133d
000001d0: 049e 75bd 1522 d83b 25e9 23be 3810 cbbd
000001e0: 634d f33c 8838 a1bc b13e a6bd c0ec 333d
000001f0: 5d0e 2ebc f3f5 74bd a015 383c ee5a 80bd
00000200: 48c3 1b3d 89b8 26bb 14da 87bd 02d0 833d
00000210: 7ddc 8e3b 20c1 adbb 9f39 ca3d c6d9 bfbd
00000220: 9394 96bb 9489 4e3d 0c00 913d 3412 b53d
00000230: 250d 8f3c 6886 01bd 267d 863d d5b5 71bd
00000240: 52bd 8abd 49f3 bfbc 9e3b dfbd 706b 55bc
00000250: fcb7 f0bd 5aa0 f83b 6a8a 94bd cc8a be3d
00000260: 8449 e5bc 3990 c13d da22 9abd 0b6c 2dbc
00000270: 7c56 13bd d9f7 dbbd 469b a63d 90c0 b3bc
00000280: a27c 34bc f874 613d c7d5 253b 70a8 5cbc
00000290: af36 843d ae6c c6bd 849f de3d d8f2 f93d
000002a0: 8109 87bb 1c0c dbbd a987 d8bc 0b63 043c
000002b0: 8796 80bd dacf b43d 0a09 8a3c 26de 8c3d
000002c0: 68fa f73d 0a83 fe3d ec36 cabd c21a f6bd
000002d0: 0026 0abc 99c9 4f3d 9fd2 c43d 81de e7bd
000002e0: 52b8 05be 74e4 9bbd 6eb9 96bd 782d f5bc
000002f0: 6f48 0f3d 92d9 d93d d236 ef3d c09a 92bc
00000300: cde5 4dbd 7a2e cc3b 68b1 f7bd cb0e 9e3c
00000310: 0240 a63d a09c 153d 4e2a e63d 3444 923d
00000320: 19d2 853d 3c34 7fbd 3ab6 d33d 338b 833d
00000330: 343c 61bb 8ed8 f8bd deed bfbd 77ad 2b3d
00000340: c878 023d a268 89bd 0804 b3bd 94d9 973d
00000350: 56c6 f43d 75fa a3bc 6474 373d d48a 363d
00000360: cb19 b63b 3bc9 fdbd 001d fe3c 3709 b8bd
00000370: 24b5 ed3d 2028 d9bd 3060 443c 4898 fa3d
00000380: c362 063d 543b 2cbd ebc6 423c 18c0 db3c
00000390: c74c dabd 70d9 bb3c 161e 95bd 10cf e7bd
000003a0: 16ce 05be 1ee8 1d3c 97e6 9d3d e572 a83c
000003b0: 0491 eebd 7e99 e9bd 9c7c 3c3d b4f6 083d
000003c0: 2ca5 7b3d d0d9 af3c 40fc a73d b066 703d
000003d0: 0cac e23d ba7c 993d d25a 0abe bda8 433d
000003e0: 3aaf 383d 04f4 75bd 9b7a a73d 80d9 a43c
000003f0: 5c8b b0bc cc63 903d 48f3 413d 7263 c5bd

hyper_w1.2.bias f4 [128]
-1.9196277e-06 -3.0221838e-07 -0.03565604 0.0038436626 0.009794986 -5.018154e-07 0.17977457 0.008979357
5.914326e-07 -0.0005436821 1.1799399e-06 -1.44033e-07 -0.1418912 -0.14094517 5.9930567e-06 0.2075593
-0.0025673134 1.4011859e-07 0.27258456 -0.025488574 2.9187026e-07 8.272668e-07 -2.872183e-06 3.7106196e-07
-0.1304973 -0.5605398 2.331079e-09 -0.17306696 0.030229105 5.0920947e-09 0.1559772 -0.111006886
0.00047528223 -0.0005309757 -0.23727527 -0.27842656 -0.012330058 -0.0007209585 0.024559792 0.01868575
0.0005094638 -0.00019079691 0.0009816517 -0.00076030457 0.37613854 -0.41016534 0.0008292763 0.00490886
0.021964312 -0.030704197 0.36928353 0.025534516 -0.00059432746 0.019372059 -0.0008143734 0.0007346423
-0.0313923 0.028722458 4.9937797e-05 -0.009775371 0.07138977 0.00028855837 0.021473082 0.00017772263
5.5714446e-07 9.3991224e-07 0.038777236 0.0023958134 0.013140583 -1.5508351e-06 0.008240722 -0.00935415
8.6560175e-07 6.9737007e-07 2.047982e-06 1.8296103e-06 0.007826211 -0.017874802 1.4532857e-06 -0.12159592
-0.002200078 -8.6192464e-05 -0.094254434 -0.0732867 8.3372765e-07 -1.5853202e-07 7.0973124e-07 -1.5212457e-06
0.015881695 0.013806449 1.8097941e-07 -0.12078861 0.021299727 4.6726925e-07 -0.15934557 -0.16128038
7.04651e-08 -1.298366e-07 1.01091 -8.92801e-05 0.050895013 -9.016621e-08 0.5835538 -0.09644433
-3.6556452e-07 1.4207902e-06 -6.0868757e-07 3.9353068e-07 0.017222324 -0.028221594 4.235485e-07 -3.0251369e-05
-0.004643124 2.6139436e-08 -0.024433648 -0.13930796 3.294789e-07 -3.863305e-08 -1.1668959e-06 8.419929e-07
0.7760713 0.88108146 -0.016579475 -0.011226566 0.038565118 1.14658825e-08 -0.52950794 0.0003635714
00000000: f4d2 00b6 9440 a2b4 110c 12bd f5e5 7b3b
00000010: 267b 203c 7eb4 06b5 d316 383e 271e 133c
00000020: f0c2 1e35 e385 0eba 6d5e 9e35 7da7 1ab4
00000030: ed4b 11be ee53 10be f717 c936 6d8a 543e
00000040: 5f40 28bb 8173 1634 3490 8b3e 6acd d0bc
00000050: 58b2 9c34 5711 5e35 babf 40b6 5e36 c734
00000060: 16a1 05be 897f 0fbf c730 2031 7738 31be
00000070: 07a3 f73c 8af6 ae31 7db8 1f3e 9457 e3bd
00000080: 4d2f f939 2d31 0bba 4af8 72be ed8d 8ebe
00000090: 0304 4abc b5fe 3cba 9e31 c93c dc12 993c
000000a0: 898d 053a a810 48b9 c4aa 803a 2d4f 47ba
000000b0: 3b95 c03e 3101 d2be ca63 593a 81da a03b
000000c0: 80ee b33c 5e87 fbbc bb12 bd3e c32d d13c
000000d0: a4cc 1bba 27b2 9e3c ac7b 55ba 0395 403a
000000e0: 3695 00bd 5c4b eb3c 4d74 5138 e128 20bc
000000f0: cd34 923d a649 9739 51e8 af3c 0e5b 3a39
00000100: ad8e 1535 474e 7c35 e1d4 1e3d 1403 1d3b
00000110: 9a4b 573c 4a26 d0b5 1804 073c 2642 19bc
00000120: b35b 6835 e832 3b35 1070 0936 ee90 f535
00000130: 8239 003c 2d6e 92bc 840e c335 4807 f9bd
00000140: 2f2f 10bb 3ac2 b4b8 7808 c1bd 5617 96bd
00000150: 54cd 5f35 f338 2ab4 5c84 3e35 9b2d ccb5
00000160: 541a 823c 7234 623c 3e53 4234 0560 f7bd
00000170: c47c ae3c ffdc fa34 7c2b 23be af26 25be
00000180: 9952 9733 3669 0bb4 8065 813f e43b bbb8
00000190: 4a77 503d 66a1 c1b3 c863 153f 9b84 c5bd
000001a0: ce42 c4b4 fbb1 be35 b164 23b5 7246 d334
000001b0: d515 8d3c f930 e7bc 1064 e334 52c4 fdb7
000001c0: 5925 98bb 3a89 e032 1329 c8bc bfa6 0ebe
000001d0: 3ce3 b034 7ded 25b3 3d9e 9cb5 5005 6235
000001e0: 9cac 463f 8e8e 613f aed1 87bc a1ef 37bc
000001f0: 75f6 1d3d 7cfb 4432 d58d 07bf ba9d be39

hyper_w2.0.weight f4 [64, 576]
-0.0038519762 -0.021677285 0.023143861 0.010435581 0.016200919 0.031523842 -0.009690288 -0.008865003
0.02768169 -0.02958334 -0.013059866 -0.017549306 -0.0010794885 0.03657118 -0.0060636066 -0.00709318
0.005603969 0.019172743 -0.028908392 -0.008981187 0.0049885325 -0.033965275 0.019962262 -0.004868511
0.030387271 -0.03278492 -0.023596063 0.0049304254 0.0050994866 0.0036976226 0.027398232 -0.034699287
-0.03828784 0.0052350312 -0.033761095 0.01992141 -0.011942973 0.031245884 0.037250932 0.01886079
0.023621935 0.04070774 -0.0029058903 0.028206144 0.017454233 0.017020702 -0.0027103163 0.022950474
0.039572593 0.0028169863 -0.0388018 -0.014425289 -0.008621242 -0.0010635816 -0.016867995 0.026086029
-0.025468703 0.04075666 0.009557143 -0.008356955 0.02699836 -0.02763341 0.004412908 0.019972865
0.01940905 -0.009820942 -0.006164532 -0.008364603 -0.010088522 0.00051636994 0.008831624 -0.0050458014
-0.0021287687 -0.035601728 -0.026199412 0.04038163 -0.03403326 -0.018827667 0.016931653 0.03893918
0.021497931 0.02399433 -0.029956287 0.021072168 0.025275093 0.031364236 -0.008702245 0.005675629
0.012460899 0.006968569 0.037840072 0.018038828 -0.017505085 -0.036601104 -0.038647406 -0.0073966198
-0.012966409 0.036884803 -0.029580181 0.026534703 0.0138094425 -0.034694638 -0.04000941 -0.01955771
0.037858393 0.039365623 -0.036185868 0.04111213 0.0011633486 0.0131439455 -0.034220316 -0.031958397
0.019578293 0.028786052 -0.024143443 0.03289329 -0.028650906 -0.024554282 0.0086555965 0.025600094
0.032704372 0.02607793 -0.025951263 0.0017442219 0.0047116578 -0.008409124 -0.012925729 -0.01729027
0.03585786 0.026538026 -0.015074369 0.015878629 -0.03969207 0.011929687 -0.035489615 0.030200724
-0.03388031 -0.02420561 0.00495987 0.030429814 0.023004998 -0.011760876 -0.010270443 0.015078515
-0.020617625 -0.031332523 -0.00826383 0.008575339 0.029949684 0.017234739 0.016245171 0.014521927
-0.01640383 0.01047371 0.026950728 -0.016602024 -0.0119565725 0.015264511 0.0014342256 0.020342652
-0.017409846 -0.009563565 0.0047744475 -0.0075113066 -0.0001664646 -0.027064389 0.04132503 0.039145026
0.0148345195 0.034863982 -0.015222719 -0.010894489 -0.012747511 -0.0027522482 -0.0063013323 -0.03600801
-0.028113335 0.025722813 -0.040509738 -0.019632762 -0.021129122 -0.0103160255 0.0135033615 -0.02049096
-0.013864612 -0.0371731 -0.032751642 0.016689483 -0.0067560375 -0.024189126 0.014893189 0.029762845
-0.03351307 -0.004695449 -0.026454573 0.011981126 -0.03632757 -0.034466933 0.034999628 -0.032828074
0.024122048 -0.00713028 0.011682209 -0.009267587 0.038678136 -0.016834736 0.025962267 -0.015975451
-0.03940417 0.02115253 -0.024024814 0.010261595 -0.016058356 -0.03908248 -0.027015548 -0.018281039
0.017709564 0.041315753 0.020808574 -0.022656977 0.030831043 0.03236823 -0.004404012 0.0024220794
-0.016120598 -0.030803835 0.0044377893 -0.03488131 -0.002991628 -0.0015444867 -0.022526097 -0.01328679
0.012875646 -0.0051483028 0.03174747 -0.03256233 -0.032416787 -0.03624645 -0.004620645 0.029451344
-0.020510709 0.017844975 0.023986924 0.03564335 0.012358602 -0.020877525 0.023902547 0.029136907
-0.0284594 0.039283063 -0.022185382 -0.0003617257 -0.028052162 0.0047800243 -0.023474853 0.038035844
00000000: 7071 7cbb 9094 b1bc 3298 bd3c 00fa 2a3c
00000010: cab7 843c 251f 013d 04c4 1ebc 843e 11bc
00000020: b6c4 e23c c358 f2bc 0cf9 55bc 90c3 8fbc
00000030: a07d 8dba a9cb 153d 38b1 c6bb e86d e8bb
00000040: 80a1 b73b 2810 9d3c 4bd1 ecbc d425 13bc
00000050: d876 a33b 2c1f 0bbd e687 a33c 0888 9fbb
00000060: baee f83c 7b49 06bd 884c c1bc 688f a13b
00000070: 9819 a73b d053 723b 4272 e03c d720 0ebd
00000080: b6d3 1cbd a08a ab3b 1349 0abd 3a32 a33c
00000090: 76ac 43bc 5ef7 ff3c 6f94 183d f281 9a3c
000000a0: ca82 c13c 29bd 263d c070 3ebb 9210 e73c
000000b0: 2efc 8e3c 006f 8b3c 909f 31bb a202 bc3c
000000c0: df16 223d 309d 383b a3ee 1ebd 0c58 6cbc
000000d0: 1c40 0dbc e067 8bba c02e 8abc 5eb2 d53c
000000e0: bea3 d0bc 75f0 263d 9095 1c3c 9ceb 08bc
000000f0: aa2b dd3c 765f e2bc 289a 903b 229e a33c
00000100: baff 9e3c 04e8 20bc d8ff c9bb b00b 09bc
00000110: 544a 25bc 005d 073a 84b2 103c 4057 a5bb
00000120: d082 0bbb 1ed3 11bd 26a0 d6bc 3567 253d
00000130: 7666 0bbd 7b3c 9abc 40b4 8a3c b17e 1f3d
00000140: 6e1c b03c c28f c43c e366 f5bc 8a9f ac3c
00000150: b60d cf3c c977 003d dc93 0ebc a0fa b93b
00000160: cc28 4c3c 9858 e43b 31fe 1a3d 2ac6 933c
00000170: d366 8fbc 0aeb 15bd be4c 1ebd 585f f2bb
00000180: 1071 54bc 8514 173d 2352 f2bc 4e5f d93c
00000190: 0041 623c f71b 0ebd e8e0 23bd 7e37 a0bc
000001a0: 6711 1b3d d93d 213d a237 14bd 3165 283d
000001b0: 807b 983a b459 573c 9a2a 0cbd cfe6 02bd
000001c0: a862 a03c bad0 eb3c 78c8 c5bc 1dbb 063d
000001d0: 4eb5 eabc 1026 c9bc 34d0 0d3c 4ab7 d13c
000001e0: 05f5 053d 62a1 d53c be97 d4bc 609e e43a
000001f0: 4064 9a3b 6cc6 09bc 70c6 53bc 53a4 8dbc
00000200: b1df 123d 4666 d93c 7cfa 76bc e613 823c
00000210: 2794 22bd bc74 433c 8f5d 11bd 8267 f73c
00000220: 14c6 0abd d84a c6bc 6886 a23b f247 f93c
00000230: fa74 bc3c b0b0 40bc 5c45 28bc e00b 773c
00000240: 4be6 a8bc 8856 00bd 0465 07bc 947f 0c3c
00000250: 0a59 f53c de2f 8d3c 9814 853c 60ed 6d3c
00000260: 5361 86bc ec99 2b3c c6c7 dc3c f800 88bc
00000270: 80e5 43bc 0018 7a3c a0fc bb3a a2a5 a63c
00000280: 189f 8ebc 80b0 1cbc f872 9c3b 6821 f6bb
00000290: 008d 2eb9 23b6 ddbc 6f44 293d 8956 203d
000002a0: 7c0c 733c 89cd 0e3d b668 79bc cc7e 32bc
000002b0: f0da 50bc 105f 34bb 687b cebb 237d 13bd
000002c0: f04d e6bc a6b8 d23c 8aed 25bd e3d4 a0bc
000002d0: fb16 adbc 8c04 29bc 343d 5d3c a8dc a7bc
000002e0: 6628 63bc d242 18bd 9626 06bd 62b8 883c
000002f0: c061 ddbb 4628 c6bc 9002 743c 36d1 f33c
00000300: 0045 09bd 48dc 99bb 43b7 d8bc 7c4c 443c
00000310: 38cc 14bd 332d 0dbd c55b 0f3d bb76 06bd
00000320: 9a9b c53c 20a5 e9bb bc66 3f3c 14d7 17bc
00000330: f76c 1e3d 00e9 89bc d2ae d43c f3de 82bc
00000340: 4466 21bd 1248 ad3c b0cf c4bc 4020 283c
00000350: d08c 83bc f314 20bd b64f ddbc 1ec2 95bc
00000360: a613 913c b53a 293d be76 aa3c 209b b9bc
00000370: 6291 fc3c 8d94 043d 884f 90bb c0bb 1e3b
00000380: 580f 84bc 5358 fcbc e06a 913b b4df 0ebd
00000390: 300f 44bb 6070 caba a688 b8bc d6b0 59bc
000003a0: 60f4 523c 18b3 a8bb a309 023d 1460 05bd
000003b0: 77c7 04bd 2877 14bd c868 97bb f243 f13c
000003c0: 1306 a8bc a02f 923c 3a80 c43c c3fe 113d
000003d0: bc7b 4a3c 5807 abbc 46cf c33c 86b0 ee3c
000003e0: b023 e9bc 47e7 203d 1ebe b5bc 00a6 bdb9
000003f0: a6cd e5bc c0a1 9c3b 564e c0bc 79cb 1b3d

hyper_w2.0.bias f4 [64]
-0.018774575 -0.06975067 -0.043533005 -0.042073786 -0.02013729 -0.043347836 0.009349238 -0.037262764
0.021042088 0.008345846 0.017812923 -0.0315531 -0.008727918 0.0020285659 -0.030119862 -0.0076689394
-0.023360075 -0.01887266 -0.012291572 0.02819946 0.031223416 -0.036007687 -0.023333166 0.032827962
-0.027824683 -0.027788263 -0.0026851855 -0.037135173 0.012514804 -0.0009565317 -0.010993578 0.021482566
0.02362883 -0.0138823595 -0.016663255 0.028159913 -0.019535745 -0.00067869853 0.037688855 0.024303976
-0.037499882 -0.01574653 0.018379845 0.033117775 0.039272454 0.015319393 -0.044635013 0.0089715645
-0.013383955 -0.033069376 -0.014942359 0.020517047 -0.014470701 0.028711244 -0.04224125 0.0056442902
0.0045943786 -0.047984187 0.011159252 -0.053219493 -0.0038791287 -0.02553532 -0.009949578 0.002663986
00000000: 23cd 99bc 70d9 8ebd aa4f 32bd 9055 2cbd
00000010: f5f6 a4bc 808d 31bd 8c2d 193c d7a0 18bd
00000020: 7560 ac3c 04bd 083c 68ec 913c d33d 01bd
00000030: 8bff 0ebc b0f1 043b eebd f6bc ba4b fbbb
00000040: a15d bfbc d69a 9abc 9762 49bc 8e02 e73c
00000050: 40c8 ff3c cc7c 13bd 3225 bfbc 9d76 063d
00000060: 97f0 e3bc 36a4 e3bc f0f9 2fbb 0d1b 18bd
00000070: e40a 4d3c c1bf 7aba 681e 34bc 35fc af3c
00000080: 4091 c13c d672 63bc 6181 88bc 9eaf e63c
00000090: 6d09 a0bc b0ea 31ba a15f 1a3d 2219 c73c
000000a0: 7a99 19bd defe 80bc 5491 963c 81a6 073d
000000b0: 27dc 203d 31fe 7a3c 34d3 36bd 78fd 123c
000000c0: 6048 5bbc c173 07bd ccd0 74bc 5e13 a83c
000000d0: 8516 6dbc d833 eb3c 2905 2dbd bdf3 b83b
000000e0: 718c 963b 118b 44bd 4cd5 363c affc 59bd
000000f0: fb38 7ebb 732f d1bc 8e03 23bc 4596 2e3b

hyper_w2.2.weight f4 [32, 64]
-0.12329914 0.14406434 -0.07891523 -0.031225631 0.08266719 -0.08971857 0.04720062 0.10585176
0.027143754 -0.10301071 0.10489559 -0.075923145 -0.12515451 0.12260756 0.08948609 -0.08486603
-0.051988833 0.011406347 0.07112516 0.027520323 -0.016642889 0.068146236 0.06016437 -0.05994521
-0.06670205 0.05021949 0.030029818 0.111850314 0.07076506 0.030774929 -0.09047315 0.109780036
0.015774867 0.019494519 -0.044064704 0.040371425 0.0919043 0.01970406 -0.09172429 -0.09810875
-0.008739442 0.074664176 -0.03156923 -0.11337814 -0.11292958 -0.019294523 0.09482111 0.0672992
0.004169889 -0.09096206 -0.10969177 -0.09806347 0.011756071 0.038426645 0.005069001 -0.10192615
-0.010779259 -0.1412047 0.0965195 -0.08177512 -0.017627351 0.04558733 -0.024773665 -0.018912835
0.09819572 0.07566597 -0.069507904 -0.092232116 0.0076318714 -0.118950695 0.10942684 -0.02735912
0.036462314 -0.022443755 -0.048293084 -0.06303646 0.099634014 0.070658565 0.11490162 0.07043879
0.0042475346 -0.1088267 0.07446947 0.03173133 0.11599199 -0.05162104 0.09061337 -0.10643302
-0.015951844 0.067081794 -0.040084794 0.0876895 0.08339408 0.11819153 -0.03815158 -0.013527088
-0.04260315 0.022379681 0.08811065 -0.09235204 -0.051937673 -0.12742923 0.058754936 -0.095161766
0.051146835 0.12129001 -0.0191948 0.12428473 -0.089331925 0.099457644 0.06206284 0.034646835
0.10278945 0.10919391 -0.056680694 0.0698345 0.06243942 -0.030823346 -0.031836577 -0.023820003
-0.10877031 0.010652515 0.10384533 -0.116846435 0.11600318 -0.05684094 0.08108324 -0.019051561
-0.093571335 0.14307022 -0.09628848 0.06919809 0.08861861 -0.055701546 0.10965614 -0.019776143
-0.009336511 -0.018360551 -0.016790256 0.09607144 0.049350448 -0.0775986 0.033096254 0.09429681
-0.0888401 -0.009347409 0.06676266 -0.045789294 -0.10478296 0.04263783 0.104281284 0.075256705
0.0752094 0.123401985 -0.089185834 -0.018832246 -0.0884535 -0.082851745 -0.058709037 0.0025991846
0.05884187 0.08072987 0.05462281 0.022365855 -0.12830998 0.115630716 0.023891747 -0.00873372
0.078780964 0.046607032 0.11967181 -0.07914513 0.016619518 0.049548034 -0.0779616 -0.05871386
0.1043591 -0.074530326 0.04344569 0.002601102 -0.09255513 0.07847 0.019844849 0.070636526
0.0067968895 -0.025052514 -0.094515875 0.058079384 0.1160051 -0.122870445 -0.08564722 -0.06928498
0.059369206 0.10547472 -0.005558568 -0.111898705 0.0857185 0.015813084 -0.04738243 -0.10804211
-0.10678796 -0.037132792 -0.06829856 0.04799442 0.05529461 -0.05768566 -0.11029455 0.0777694
0.050020605 0.023781955 -0.1251594 -0.079729415 -0.00039344534 -0.06285392 0.024841484 0.022997126
-0.030310916 -0.0941688 -0.099226624 0.114631996 0.026050717 0.007263524 -0.03158095 0.052236937
-0.056825217 -0.08351177 0.0079192985 0.051007263 -0.024139192 -0.048754204 -0.0934428 -0.02111724
0.0919507 -0.09979494 0.06000357 0.0610487 0.05509667 -0.013084974 0.12711804 -0.010003126
0.0037519676 0.094642796 -0.018171981 0.0026052147 -0.09122274 -0.052634276 -0.065208465 -0.07054618
-0.113572344 -0.037937917 0.06915809 -0.039027754 -0.10081475 -0.067580596 -0.011240534 0.104382806
00000000: 4284 fcbd 9a85 133e 4f9e a1bd e5cc ffbc
00000010: 6a4d a93d 5fbe b7bd 7055 413d cfc8 d83d
00000020: 945c de3c 47f7 d2bd 80d3 d63d 987d 9bbd
00000030: 8128 00be ac19 fb3d 7c44 b73d 3ece adbd
00000040: 3ef2 54bd b0e1 3a3c 11aa 913d 4d72 e13c
00000050: ab56 88bc 4190 8b3d ea6e 763d 1c89 75bd
00000060: 169b 88bd f4b2 4d3d 1801 f63c c711 e53d
00000070: 46ed 903d b41b fc3c fd49 b9bd 5bd4 e03d
00000080: 4b3a 813c f8b2 9f3c 317d 34bd 825c 253d
00000090: 5238 bc3d 696a a13c f2d9 bbbd 3eed c8bd
000000a0: e02f 0fbc 88e9 983d bd4e 01bd cc32 e8bd
000000b0: a047 e7bd 8c0f 9ebc 9231 c23d 2ad4 893d
000000c0: 90a3 883b 514a babd 14a6 e0bd 80d5 c8bd
000000d0: 899c 403c 4265 1d3d dd19 a63b a8be d0bd
000000e0: 7d9b 30bc f797 10be 04ac c53d b779 a7bd
000000f0: 3c67 90bc c8b9 3a3d 24f2 cabc 17ef 9abc
00000100: d61a c93d c3f6 9a3d 295a 8ebd 31e4 bcbd
00000110: c714 fa3b 6c9c f3bd 2e1b e03d 3c20 e0bc
00000120: 8259 153d f7db b7bc f8ce 45bd 4219 81bd
00000130: eb0c cc3d 70b5 903d 8a51 eb3d 3642 903d
00000140: e72e 8b3b 88e0 debd 7383 983d b6f8 013d
00000150: 358d ed3d 9570 53bd 8193 b93d 8ef9 d9bd
00000160: 71ad 82bc 2e62 893d f42f 24bd 8d96 b33d
00000170: 84ca aa3d 670e f23d d544 1cbd b8a0 5dbc
00000180: a480 2ebd 9855 b73c 5b73 b43d 1123 bdbd
00000190: 99bc 54bd cf7c 02be 04a9 703d 2ce4 c2bd
000001a0: 587f 513d e666 f83d 6a3e 9dbc fe88 fe3d
000001b0: a8f3 b6bd 73b0 cb3d 9b35 7e3d d7e9 0d3d
000001c0: 4683 d23d 0fa1 df3d 042a 68bd 6405 8f3d
000001d0: 7ac0 7f3d 3e81 fcbc 1267 02bd 2b22 c3bc
000001e0: f8c2 debd e387 2e3c dcac d43d 2f4d efbd
000001f0: 1393 ed3d 0cd2 68bd f80e a63d 0512 9cbc
00000200: 54a2 bfbd 0081 123e e532 c5bd bab7 8d3d
00000210: ac7d b53d 4e27 64bd 6693 e03d 9401 a2bc
00000220: 2af8 18bc de68 96bc b88b 89bc 1ac1 c43d
00000230: b223 4a3d 04ec 9ebd f08f 073d b01e c13d
00000240: ccf1 b5bd e025 19bc ddba 883d 8e8d 3bbd
00000250: 7398 d6bd 01a5 2e3d 6d91 d53d 3020 9a3d
00000260: 6307 9a3d 2eba fc3d 10a7 b6bd 1546 9abc
00000270: 1c27 b5bd 2dae a9bd e378 70bd 1557 2a3b
00000280: 2c04 713d b455 a53d 2bbc 5f3d 9938 b73c
00000290: b163 03be cccf ec3d a0b8 c33c e017 0fbc
000002a0: ea57 a13d 04e7 3e3d 7e16 f53d d816 a2bd
000002b0: a825 883c e1f2 4a3d 55aa 9fbd f27d 70bd
000002c0: 39ba d53d 5ba3 98bd 1cf4 313d 4077 2a3b
000002d0: 8b8d bdbd e1b4 a03d aa91 a23c e2a9 903d
000002e0: 71b8 de3b ee3a cdbc 8a91 c1bd a6e4 6d3d
000002f0: 1594 ed3d 80a3 fbbd cf67 afbd 49e5 8dbd
00000300: 202d 733d 2103 d83d a624 b6bb 262b e5bd
00000310: 2e8d af3d 718a 813c 1414 42bd 2f45 ddbd
00000320: a5b3 dabd 8e18 18bd 1ee0 8bbd cc95 443d
00000330: 9a7c 623d cc47 6cbd 1ce2 e1bd 9045 9f3d
00000340: 68e2 4c3d 60d2 c23c c929 00be 2d49 a3bd
00000350: 5747 ceb9 8eb9 80bd 5e80 cb3c 7864 bc3c
00000360: 994e f8bc 92db c0bd 5437 cbbd 2ec4 ea3d
00000370: 5068 d53c db02 ee3b 075b 01bd 66f6 553d
00000380: 8fc1 68bd 3808 abbd f2bf 013c feec 503d
00000390: 8ebf c5bc 7db2 47bd f05e bfbd 10fe acbc
000003a0: a650 bc3d 4a61 ccbd 4ec6 753d 340e 7a3d
000003b0: 0cad 613d 5c62 56bc 3b2b 023e 27e4 23bc
000003c0: 92e3 753b 15d4 c13d 68dd 94bc 40bc 2a3b
000003d0: fdd2 babd 0a97 57bd 048c 85bd 847a 90bd
000003e0: 9e98 e8bd ca64 1bbd c2a2 8d3d 91db 1fbd
000003f0: f777 cebd b267 8abd 372a 38bc a7c6 d53d

hyper_w2.2.bias f4 [32]
11.467276 -11.677736 12.321665 14.293093 11.6052265 11.452603 12.607449 11.355697
-11.7157 -11.257299 -11.458279 11.721442 11.898894 -11.294427 11.731338 11.860232
11.614436 -11.621785 -14.065055 11.197599 11.49948 11.083043 11.335476 11.554698
-13.351531 -12.149217 -11.214823 11.145501 -11.34331 -11.405638 11.453358 -11.800946
00000000: f679 3741 02d8 3ac1 8a25 4541 82b0 6441
00000010: 02af 3941 dd3d 3741 1cb8 4941 efb0 3541
00000020: 8273 3bc1 e61d 34c1 1c55 37c1 078b 3b41
00000030: df61 3e41 f9b5 34c1 8fb3 3b41 83c3 3d41
00000040: bbd4 3941 d5f2 39c1 770a 61c1 5e29 3341
00000050: dffd 3741 2554 3141 1c5e 3541 0be0 3841
00000060: df9f 55c1 3163 42c1 ea6f 33c1 f953 3241
00000070: 337e 35c1 7e7d 36c1 f440 3741 add0 3cc1

hyper_b1.weight f4 [32, 576]
0.08265833 0.120705955 0.11051164 0.13292421 0.13908067 0.14450663 0.08468033 0.12088763
0.08363373 0.06819894 0.123327 0.14358246 0.07806252 0.09688114 0.07038123 0.10204118
0.10967449 0.097305745 0.12584962 0.08272375 0.14010228 0.101461284 0.0895785 0.14219867
0.12869002 0.1240208 0.14654993 0.09203433 0.10287147 0.072348416 0.11098681 0.12914284
0.10342778 0.13717131 0.11315251 0.121661 0.13495037 0.13520347 0.077675335 0.073294945
0.09669498 0.11298417 0.13046993 0.09783632 0.082799345 0.08212697 0.13681044 0.13856164
0.12856318 0.14137131 0.032343198 0.030276742 0.033687655 -0.11104801 0.026591245 -0.0085049905
0.02133337 -0.0034201033 0.032815088 0.005262658 -0.1072668 -0.041319296 -0.0041990764 -0.0102866925
0.017822135 -0.0036567487 -0.1039964 -0.0032240152 -0.03165547 0.026975233 0.08480164 0.12803966
0.07305671 0.12969927 -0.014009953 0.028043445 -0.113029696 -0.12952511 -0.091313444 -0.13299367
-0.040934127 1.4938414e-06 0.03426796 -0.11848829 -0.020091593 0.03603222 -0.015238881 0.03836717
-0.0177856 -0.088188894 -0.027245497 -0.012962397 -0.10199749 0.038084242 0.13339816 0.092750266
0.11018616 0.11292002 0.04047369 0.004395094 0.010843042 -0.033469792 0.030779932 0.03523494
0.0050497167 -0.02804703 0.028798405 -0.008987155 -0.0079306625 -0.085967354 0.024461444 -0.010251325
-0.024421632 0.029807765 -0.09076145 0.014790963 -0.008391324 -0.007489715 0.07173694 0.07131706
0.088655844 0.12332786 -0.034585427 -0.0029868335 0.027664457 -0.019384962 -0.09707425 -0.010451218
0.0015979558 0.008691713 0.023896176 -0.017543172 0.0070447326 0.041625056 -0.08980405 0.027378928
0.0016825758 -0.03478236 -0.0019923262 -0.07897502 -0.010291118 -0.09592739 0.14092992 0.08990246
0.14911656 0.13865452 -0.008355588 -0.011837175 -0.14570852 -0.055516474 0.008127198 -0.024445023
-0.00048756972 0.02087048 0.028635178 0.035769474 -0.006922204 -0.035338424 -0.03417082 -0.041522004
-0.13570745 -0.020577934 0.041555885 -0.012012884 -0.08712618 0.008288976 0.08487227 0.08228883
0.12210785 0.08676156 -0.008684818 -0.033183914 -0.003908351 0.021458562 -0.00031735376 -0.03404127
0.016970396 -0.026135659 0.036627878 0.04092438 0.007423505 0.0074853003 -0.030510694 0.01821746
-0.0072506666 -0.030851707 -0.0734826 -0.003995035 0.019292634 0.03364634 0.13867947 0.110771075
0.11274167 0.13424887 0.013041511 -0.49275902 -0.022582188 -0.02537035 0.038382377 -0.01076756
0.018584926 0.020705704 0.022346336 -0.004759904 -0.015528476 0.010158163 -0.13870977 -0.014954176
0.01647384 -0.03617268 0.005603526 -0.023694685 -0.14336053 0.029250298 0.13808464 0.11972363
0.121977136 0.11442031 0.024888951 0.03410152 0.03736976 0.010922309 -0.011441719 0.022008348
-0.025984373 0.026468959 -0.0040065385 -0.47626287 -0.01001884 -0.47888204 -0.021337446 0.025076877
-0.0069232993 0.008423004 -0.013334226 -0.031298116 -0.015741756 -0.02836365 0.10416822 0.09096197
0.095481485 0.10856714 0.030114833 -0.012588382 0.018779352 -0.0053451248 -0.025683692 0.032076444
0.03363018 0.037962783 -0.011229277 0.021246005 -0.036028564 -0.014981836 -0.022598153 -0.032334995
00000000: c548 a93d af34 f73d ed53 e23d 491d 083e
00000010: 2a6b 0e3e 8cf9 133e e16c ad3d ef93 f73d
00000020: 2948 ab3d e3ab 8b3d de92 fc3d 4807 133e
00000030: 3edf 9f3d 9e69 c63d 0924 903d f7fa d03d
00000040: 059d e03d 3c48 c73d b9de 003e 126b a93d
00000050: f976 0f3e efca cf3d ef74 b73d 879c 113e
00000060: 51c7 033e 9efe fd3d 2f11 163e 7f7c bc3d
00000070: 47ae d23d 682b 943d 0d4d e33d 053e 043e
00000080: f2d1 d33d a376 0c3e 81bc e73d 6729 f93d
00000090: 6e30 0a3e c772 0a3e 3f14 9f3d a91b 963d
000000a0: 0508 c63d 3f64 e73d e999 053e 695e c83d
000000b0: b492 a93d 2f32 a83d 0918 0c3e 1ae3 0d3e
000000c0: 11a6 033e a4c3 103e 4d7a 043d ee06 f83c
000000d0: 11fc 093d 246d e3bd e2d5 d93c 8458 0bbc
000000e0: 52c3 ae3c d023 60bb 1d69 063d 6072 ac3b
000000f0: b2ae dbbd 6c3e 29bd 6898 89bb 8489 28bc
00000100: baff 913c 10a6 6fbb 11fc d4bd 004a 53bb
00000110: 2ba9 01bd 2afb dc3c 7bac ad3d d41c 033e
00000120: c29e 953d e3cf 043e 008a 65bc 5ebb e53c
00000130: 1d7c e7bd 3ba2 04be 8b02 bbbd 7e2f 08be
00000140: 8baa 27bd 0080 c835 8f5c 0c3d fda9 f2bd
00000150: 2097 a4bc 8596 133d 80ac 79bc e526 1d3d
00000160: 1bb3 91bc 619c b4bd f331 dfbc 3c60 54bc
00000170: 0fe4 d0bd 39fe 1b3d 8799 083e daf3 bd3d
00000180: 48a9 e13d 9d42 e73d bdc7 253d b804 903b
00000190: 04a7 313c 9f17 09bd 3226 fc3c 8352 103d
000001a0: 1878 a53b e3c2 e5bc a2ea eb3c dc3e 13bc
000001b0: 9cef 01bc a70f b0bd 5e63 c83c 2cf5 27bc
000001c0: e00f c8bc 6a2f f43c 24e1 b9bd cc55 723c
000001d0: c47b 09bc 486c f5bb d1ea 923d ae0e 923d
000001e0: 3291 b53d 5193 fc3d 73a9 0dbd c0be 43bb
000001f0: 92a0 e23c 36cd 9ebc ddce c6bd 963b 2bbc
00000200: 8072 d13a b067 0e3c eac1 c33c b3b6 8fbc
00000210: 80d7 e63b 097f 2a3d 30eb b7bd c649 e03c
00000220: e089 dc3a f377 0ebd b091 02bb a8bd a1bd
00000230: 149c 28bc 9475 c4bd ef4f 103e c81e b83d
00000240: 03b2 183e 73fb 0d3e e0e5 08bc b6f0 41bc
00000250: 9d34 15be 3e65 63bd f027 053c ee40 c8bc
00000260: 80a0 ffb9 92f8 aa3c 5294 ea3c 0383 123d
00000270: a8d3 e2bb 06bf 10bd b4f6 0bbd fa12 2abd
00000280: e5f6 0abe 0e93 a8bc 8136 2a3d b0d1 44bc
00000290: 366f b2bd 7cce 073c 83d1 ad3d 0c87 a83d
000002a0: ae13 fa3d 0bb0 b13d c44a 0ebc dbeb 07bd
000002b0: a011 80bb dec9 af3c 8062 a6b9 dc6e 0bbd
000002c0: 8005 8b3c 731a d6bc 1d07 163d 53a0 273d
000002d0: e040 f33b 4047 f53b 90f1 f9bc c83c 953c
000002e0: 0097 edbb b8bc fcbc 0c7e 96bd c8e8 82bb
000002f0: 960b 9e3c bfd0 093d fe01 0e3e f2db e23d
00000300: 1be5 e63d 8978 093e 10ac 553c e94a fcbe
00000310: 48fe b8bc 7bd5 cfbc d736 1d3d 6c6a 30bc
00000320: 6a3f 983c 029f a93c aa0f b73c f8f8 9bbb
00000330: 266b 7ebc 6c6e 263c ef09 0ebe 5c02 75bc
00000340: 26f4 863c ce29 14bd c89d b73b 5b1b c2bc
00000350: 1acd 12be 529e ef3c 0f66 0d3e aa31 f53d
00000360: 26cf f93d 3255 ea3d eae3 cb3c 09ae 0b3d
00000370: 0911 193d 7cf3 323c 0c76 3bbc da4a b43c
00000380: 2edd d4bc 6ed5 d83c 4849 83bb bad8 f3be
00000390: 1026 24bc 0730 f5be decb aebc 066e cd3c
000003a0: d8dc e2bb a400 0a3c cc77 5abc 7432 00bd
000003b0: dbf4 80bc e35a e8bc 2656 d53d 454a ba3d
000003c0: cc8b c33d 7358 de3d 62b3 f63c 803f 4ebc
000003d0: 28d7 993c 2826 afbb 9b66 d2bc 9762 033d
000003e0: cdbf 093d dd7e 1b3d 00fb 37bc 1a0c ae3c
000003f0: b092 13bd 6076 75bc c31f b9bc b371 04bd

hyper_b1.bias f4 [32]
-0.119254656 -0.109838165 -0.3405072 -0.11474883 -0.11725996 -0.10740239 -0.37645954 -0.18144464
-0.08076216 -0.116690144 -0.14540467 -0.10839714 -0.21357442 -0.33504972 -0.10479013 -0.18792313
-0.16108231 -0.09681541 -0.3367142 -0.22234787 -0.1229497 -0.10688014 -0.10396979 -0.0828552
-0.35538173 -0.53364164 -0.08962942 -0.19940858 -0.13756248 -0.10966552 -0.33352587 -0.12372743
00000000: c93b f4bd d5f2 e0bd f656 aebe 6f01 ebbd
00000010: fd25 f0bd c9f5 dbbd 4ebf c0be a0cc 39be
00000020: a266 a5bd 3efb eebd f6e4 14be 52ff ddbd
00000030: 41b3 5abe a38b abbe 359c d6bd ec6e 40be
00000040: c3f2 24be 2847 c6bd ce65 acbe 29af 63be
00000050: 0dcd fbbd fae3 dabd 1dee d4bd fdaf a9bd
00000060: 98f4 b5be bd9c 08bf a18f b7bd c331 4cbe
00000070: 2edd 0cbe 5198 e0bd e7c3 aabe cf64 fdbd

hyper_b2.0.weight f4 [32, 576]
-0.034028627 -0.025594667 0.006829489 -0.024753775 0.035852354 0.015555788 -0.00044535473 0.02518769
0.015348066 0.03080168 0.038238797 0.010947108 -0.0176575 0.007949334 -0.018629363 0.00080401823
0.020416036 0.025746178 0.038765293 -0.020043071 -0.018019214 0.015772045 0.03656875 -0.020841574
0.021167997 -0.031336173 -0.031719446 -0.041196056 -0.0010877885 0.017615467 0.025285576 0.03738359
-0.028842151 0.0062906034 -0.027778935 -0.01967538 -0.033836924 0.0017942004 -0.012636509 -0.009643972
0.019043166 0.008040968 0.016377654 0.031481754 -0.037880875 0.016231332 0.03351577 0.034660857
0.0078062117 0.013666477 -0.025654774 0.03478423 -0.026093215 0.02183159 0.0117740035 -0.029162457
0.041606832 -0.022460407 0.023391385 -0.03141629 -0.009135228 0.006306246 -0.019364905 0.036622178
-0.012186965 0.006699711 -0.0012089796 0.036777515 -0.039962612 0.035036217 -0.008550972 -0.017685106
-0.009570867 -0.015578434 -0.027969565 0.040538695 -0.018928802 -0.027803034 -0.041659616 -0.035589136
0.036745515 0.015920434 0.01383454 -0.008709833 -0.008019332 -0.0051242113 -0.013863515 -0.014482886
0.03160203 -0.040174376 0.016978819 0.04141194 -0.024575353 0.023195807 -0.03414018 0.03620981
-0.020606905 -0.030865636 0.014691878 0.02584229 0.029207889 0.026076723 -0.03940798 -0.0277258
0.014618341 0.01876174 -3.1452626e-05 -0.019655323 -0.031123241 0.009275615 -0.038492724 -0.011073371
-0.003839124 0.017340526 -0.041497312 0.02304225 0.03333598 -0.027794247 0.0025331043 -0.006367635
-0.012839463 -0.002639804 0.0021832995 0.0020778067 -0.021958536 -0.01882106 -0.012470862 0.04018606
0.013489176 0.014113609 -0.019152706 0.004147619 0.031327467 0.0065834858 0.02131116 0.026884776
0.037800033 -0.027955052 -0.011596214 0.03499296 -0.012788137 0.019498002 0.004747033 -0.040547814
-0.022697877 0.017289415 -0.027982771 0.007548254 -0.0054517426 0.009627048 0.040459294 0.03342485
0.019081738 0.020956289 0.0118521415 0.03895588 -0.030053228 -0.036628004 -0.023687204 -0.015058916
-0.029274633 -0.015932992 -0.0066829734 0.03529266 -0.014000099 -0.0055490695 0.021095295 0.0128799975
0.0060990416 0.030092072 -0.03636034 -0.025607154 -0.03378927 0.031113673 0.027041744 0.03901657
0.038839106 -0.030392032 -0.013722092 -0.019310605 -0.0077693127 -0.026128586 -0.0036507584 -0.022990247
-0.031152427 -0.032170445 0.000278607 -0.014109477 0.036146175 0.019680649 0.02094968 -0.01437242
0.014314879 -0.016917145 0.020869303 -0.012566438 0.018753793 0.010995075 -0.031861275 0.0015507676
-0.0031568669 -0.021138515 0.01692067 0.0070875473 -0.021787256 -0.03084091 -0.01777066 0.037076745
0.005304467 0.008162621 0.013777029 -0.013792178 -0.026533281 -0.013858777 0.0323486 -0.0062704682
-0.00049896166 -0.017197262 -0.032517858 0.03966413 0.01176751 0.015622187 -0.01868762 0.010006037
0.010632273 -0.009013083 0.018560763 -0.039580427 -0.024713993 -0.03926955 -0.00082819164 -0.011742851
-0.014825579 -0.02972491 0.031205889 -0.017580327 -0.02409873 0.040416334 0.02557515 -0.036439843
-0.022624563 -0.03620508 -0.0026723705 -0.034244917 0.020835306 0.0089214 -0.020318817 -0.0002044402
0.012230828 -0.022627443 0.032091606 0.031210203 0.02167574 0.03939927 0.002227161 -0.024521565
00000000: 9a61 0bbd e8ab d1bc e8c9 df3b 6ec8 cabc
00000010: ebd9 123d b4dd 7e3c 807e e9b9 6a56 ce3c
00000020: 7476 7b3c ce53 fc3c 49a0 1c3d 805b 333c
00000030: 76a6 90bc ec3d 023c 9b9c 98bc c0c4 523a
00000040: 883f a73c a6e9 d23c 5bc8 1e3d 5e31 a4bc
00000050: 089d 93bc 6034 813c 1dc9 153d f3bb aabc
00000060: 8268 ad3c 5c5a 00bd 40ec 01bd 32bd 28bd
00000070: 2094 8eba 504e 903c b223 cf3c 891f 193d
00000080: 6046 ecbc 6821 ce3b a690 e3bc 432e a1bc
00000090: 9698 0abd 602b eb3a 5c09 4fbc c001 1ebc
000000a0: 6a00 9c3c 44be 033c 6e2a 863c 03f3 003d
000000b0: fa28 1bbd 92f7 843c d547 093d 8bf8 0d3d
000000c0: 40cb ff3b 5ce9 5f3c f629 d2bc e979 0e3d
000000d0: 70c1 d5bc 2ad8 b23c c0e7 403c 1be6 eebc
000000e0: ed6b 2a3d e3fe b7bc 4a9f bf3c 5eae 00bd
000000f0: ecab 15bc a0a4 ce3b 26a3 9ebc 2301 163d
00000100: d6ab 47bc 4089 db3b a076 9eba 05a4 163d
00000110: d6af 23bd 2382 0f3d 6019 0cbc 5be0 90bc
00000120: 20cf 1cbc b03c 7fbc 6e20 e5bc e70b 263d
00000130: 9310 9bbc 30c3 e3bc 46a3 2abd eac5 11bd
00000140: 7782 163d 926b 823c 44aa 623c b0b3 0ebc
00000150: 8463 03bc 00e9 a7bb cc23 63bc a049 6dbc
00000160: 2171 013d e38d 24bd 2a17 8b3c 919f 293d
00000170: 4052 c9bc 2205 be3c 93d6 0bbd bd50 143d
00000180: d0cf a8bc eed9 fcbc 34b6 703c 36b3 d33c
00000190: 6245 ef3c da9e d53c 436a 21bd 3821 e3bc
000001a0: c481 6f3c 38b2 993c 00ec 03b8 3304 a1bc
000001b0: 2bf6 febc c0f8 173c 8caa 1dbd 166d 35bc
000001c0: d099 7bbb b80d 8e3c 16f9 29bd 1ac3 bc3c
000001d0: 4f8b 083d c3b0 e3bc 7002 263b 98a7 d0bb
000001e0: 9c5c 52bc 9000 2dbb b015 0f3b d02b 083b
000001f0: 63e2 b3bc a02e 9abc 9652 4cbc 239a 243d
00000200: b401 5d3c c43c 673c 23e6 9cbc c0e8 873b
00000210: 3b51 003d 48ba d73b be94 ae3c 763d dc3c
00000220: 35d4 1a3d fe01 e5bc 0cfe 3dbc c754 0f3d
00000230: 5685 51bc 46ba 9f3c 008d 9b3b 7715 26bd
00000240: e6f0 b9bc 88a2 8d3c 203c e5bc 5857 f73b
00000250: 88a4 b2bb c4ba 1d3c a5b8 253d 7fe8 083d
00000260: 4e51 9c3c 86ac ab3c 7c2f 423c 3390 1f3d
00000270: 3032 f6bc 3f07 16bd ab0b c2bc acb9 76bc
00000280: 5bd1 efbc e885 82bc d8fc dabb 098f 103d
00000290: ac60 65bc f8d4 b5bb 0ad0 ac3c a006 533c
000002a0: 78da c73b a683 f63c 94ee 14bd 18c6 d1bc
000002b0: 9e66 0abd 1ae2 fe3c a686 dd3c d7cf 1f3d
000002c0: c115 1f3d b6f8 f8bc a0d2 60bc 4631 9ebc
000002d0: b895 febb 9e0b d6bc 9041 6fbb 0b56 bcbc
000002e0: 6033 ffbc 28c5 03bd 0012 9239 702b 67bc
000002f0: 030e 143d 5039 a13c aa9e ab3c 4c7a 6bbc
00000300: f488 6a3c d395 8abc 1af6 aa3c 76e3 4dbc
00000310: 8ea1 993c b024 343c f880 02bd 2043 cb3a
00000320: 70e3 4ebb ae2a adbc 389d 8a3c a83e e83b
00000330: 307b b2bc 13a6 fcbc c693 91bc c9dd 173d
00000340: 18d1 ad3b 84bc 053c 0cb9 613c 96f8 61bc
00000350: 535c d9bc ec0f 63bc f77f 043d 8078 cdbb
00000360: c0cc 02ba 46e1 8cbc 7231 05bd db76 223d
00000370: 84cc 403c 34f4 7f3c c816 99bc 5cf0 233c
00000380: fc32 2e3c 9cab 13bc be0c 983c 161f 22bd
00000390: 0075 cabc 1cd9 20bd 001b 59ba 1665 40bc
000003a0: fce6 72bc a881 f3bc 7ea3 ff3c 9e04 90bc
000003b0: b36a c5bc 998b 253d fa82 d13c f241 15bd
000003c0: 2657 b9bc c74b 14bd f022 2fbb 6644 0cbd
000003d0: ceae aa3c 102b 123c a673 a6bc 005f 56b9
000003e0: d063 483c 305d b9bc 7d72 033d 8aac ff3c
000003f0: 5291 b13c 2161 213d 90f5 113b 73e1 c8bc

hyper_b2.0.bias f4 [32]
0.011554599 0.009413015 -0.037813634 0.009051334 -0.055226237 -0.03922411 -0.0028896518 0.028054062
-0.036600426 -0.047675323 0.023583567 0.0025666128 -0.015652187 -0.028073533 0.025241194 0.012274075
-0.021828422 0.023672473 -0.018550958 -9.8165125e-05 0.016195495 -0.0044022254 0.025841828 0.0326008
-0.06391865 -0.0015834868 -0.012249803 0.03091165 -0.012889411 -0.0012522154 0.026827682 -0.029472578
00000000: 804f 3d3c 0c39 1a3c 78e2 1abd 0c4c 143c
00000010: e834 62bd 76a9 20bd 5060 3dbb a2d1 e53c
00000020: 54ea 15bd 3347 43bd 5332 c13c 9e34 283b
00000030: 0439 80bc 77fa e5bc 9fc6 ce3c 3419 493c
00000040: 85d1 b2bc c6ec c13c 2ef8 97bc 00de cdb8
00000050: 6aac 843c 8b40 90bb 3eb2 d33c 6b88 053d
00000060: c8e7 82bd 008d cfba 66b3 48bc 6e3a fd3c
00000070: 1c2e 53bc 6021 a4ba bac5 db3c 7a70 f1bc

hyper_b2.2.weight f4 [1, 32]
0.03610173 -0.12470659 0.013654903 -0.046669587 -0.109087914 0.15471043 -0.1250826 0.040281184
0.07753049 -0.07895027 0.033133846 0.13800082 0.004963947 -0.047241587 0.06807458 -0.114102915
-0.0068437695 -0.1096805 -0.12018812 0.091685966 -0.088554405 -0.09345821 -0.080641314 0.08231941
-0.14094658 0.0764098 -0.17588389 -0.019170329 -0.12103812 -0.12361576 0.10481985 -0.08689139
00000000: 68df 133d 2b66 ffbd d0b8 5f3c 9c28 3fbd
00000010: 7c69 dfbd 696c 1e3e a715 00be e2fd 243d
00000020: 4ec8 9e3d aeb0 a1bd 5bb7 073d 1650 0d3e
00000030: 9ba8 a23b 6580 41bd af6a 8b3d caae e9bd
00000040: b341 e0bb 2ca0 e0bd 3025 f6bd dac5 bb3d
00000050: 035c b5bd 0567 bfbd 4627 a5bd 1497 a83d
00000060: 4d54 10be be7c 9c3d e81a 34be 180b 9dbc
00000070: d5e2 f7bd 422a fdbd caab d63d 1df4 b1bd
