models/v3/target_agent_net.pth (torch, 34456 bytes, 4 tensors)

fc1.weight f4 [64, 121]
-0.08316481 0.011236492 0.018868564 0.14092517 0.1334171 0.06298033 0.16452163 -0.054626502
-0.02012326 0.044775706 0.016080381 0.04369783 0.13846187 0.020300359 0.008450641 0.020708226
-0.058495868 -0.03814929 0.13017105 -0.020592364 0.057505623 -0.016089482 -0.00022211096 -0.09388264
0.024762204 -0.039901294 -0.09190069 -0.1751833 -0.051792346 -0.02199057 -0.1424476 -0.07219784
0.12420814 0.044659145 0.11953095 0.069388226 -0.12140804 -0.021213286 -0.06468374 0.03954417
-0.022592075 0.039678082 0.013941482 0.07001121 -0.008609691 0.0823023 0.114686 0.010459381
0.046528783 -0.08258336 -0.043085903 -0.17073229 -0.055402666 -0.053661846 0.026587836 0.14784971
0.114198156 -0.05969397 0.020541124 -0.03407028 0.0913521 0.14725153 -0.19438905 -0.052695002
-0.1391203 0.115047194 -0.16385943 0.08067141 -0.07469601 0.0013956473 -0.03951491 0.01964955
-0.12806095 -0.13633777 -0.013582919 0.13383886 0.022561857 -0.049280044 0.027643349 0.13352129
0.014981222 -0.027046138 -0.074433945 -0.14970432 -0.13598633 0.19215189 0.005587501 -0.01663979
0.07064638 0.043424547 -0.036608487 -0.088549644 0.18429472 0.011724429 -0.08454227 0.026773944
-0.2202237 -0.04620767 0.10023691 0.03883188 -0.029675102 -0.04683462 0.08168817 0.044610534
-0.1638397 -0.12837164 0.08784484 -0.06338235 0.14400743 -0.16336621 -0.0008055382 0.059267715
0.031213053 0.14852417 0.14154701 -0.069316365 -0.10858828 0.03496907 -0.052636366 -0.09758426
0.07574076 0.12008242 0.03257084 0.051156506 0.072898075 -0.13977912 -0.07434374 -0.0006942059
0.033862676 0.048528764 0.029842464 0.034974977 0.2577765 -0.13839908 -0.035337903 0.08294488
-0.07850017 0.0191349 -0.004587824 0.08335307 -0.08771824 0.095178224 -0.06091633 0.091007
0.027256703 -0.07744636 -0.051241275 0.14027478 0.08736444 -0.009645951 0.038704976 0.032640196
-0.016527679 -0.17997624 0.10524201 -0.12801439 -0.20526737 0.05561869 0.05217276 -0.09151588
0.007158234 -0.015434919 0.1480665 0.028473096 -0.13321126 0.01572941 0.014174357 0.01855622
-0.0030922769 -0.01012033 0.14445578 0.04515209 -0.039097365 -0.09720326 -0.060589325 -0.03134526
-0.008831433 -0.021664403 0.10985947 0.09406694 0.032189794 0.1549223 0.10387016 -0.12089474
0.021575097 0.124466665 0.08159153 -0.023344701 -0.14236014 0.050931096 0.041637678 -0.012619717
0.043553047 -0.002969409 -0.016061123 -0.083047256 0.080288514 0.055269018 -0.2273224 0.11681788
-0.041290384 -0.01937907 -0.026605902 -0.15089771 -0.07476668 0.07778555 0.19406083 0.029087957
0.15469478 0.02723412 0.13330363 -0.028320692 -0.026635023 -0.16156653 -0.011524468 -0.026905468
0.10560486 -0.046869483 0.068293184 -0.12461831 -0.06706656 -0.14351626 -0.17635348 -0.10871078
-0.046800323 -0.10705181 -0.018910337 -0.065969296 0.0012186808 0.0831658 0.008364119 0.11429622
-0.06426895 0.04742166 -0.087812714 0.06140241 -0.026343895 0.04595361 -0.22122207 0.00071285054
-0.06574039 0.09857749 -0.103077404 0.05219173 0.090758204 -0.015425861 -0.103146076 -0.14905097
0.0050651897 -0.075363845 -0.059572693 -0.16477357 -0.23827103 0.03551688 -0.09309282 0.011054539
00000000: 5052 aabd 4319 383c 3f92 9a3c b04e 103e
00000010: 7e9e 083e d5fb 803d 5c78 283e 0ac0 5fbd
00000020: 89d9 a4bc bb66 373d 01bb 833c 7ffc 323d
00000030: f3c8 0d3e f04c a63c 8f74 0a3c 4ca4 a93c
00000040: 5d99 6fbd 6e42 1cbd 8f4b 053e 51b1 a8bc
00000050: 048b 6b3d 17ce 83bc 75e6 68b9 8b45 c0bd
00000060: 1bda ca3c 8a6f 23bd 6e36 bcbd 4063 33be
00000070: 3624 54bd 9125 b4bc c9dd 11be 76dc 93bd
00000080: d660 fe3d 82ec 363d a5cc f43d 6a1b 8e3d
00000090: c7a4 f8bd 7cc7 adbc e978 84bd 11f9 213d
000000a0: 0413 b9bc 7c85 223d d06a 643c 0a62 8f3d
000000b0: a90f 0dbc 1c8e a83d 7ee0 ea3d d35d 2b3c
000000c0: f794 3e3d 7721 a9bd d87a 30bd 72d4 2ebe
000000d0: e8ed 62bd 86cc 5bbd bcce d93c ea65 173e
000000e0: b9e0 e93d aa81 74bd dc45 a83c 478d 0bbd
000000f0: cf16 bb3d 1bc9 163e ec0d 47be b7d6 57bd
00000100: 8d75 0ebe dd9d eb3d c4ca 27be 0d37 a53d
00000110: 39fa 98bd 27ee b63a 63da 21bd 18f8 a03c
00000120: 6922 03be 219c 0bbe e48a 5ebc 0e0d 093e
00000130: a5d3 b83c dfd9 49bd 4e74 e23c ceb9 083e
00000140: cd73 753c dd8f ddbc d370 98bd 174c 19be
00000150: 0040 0bbe 77c3 443e 5b17 b73b 2b50 88bc
00000160: 0daf 903d f0dd 313d c8f2 15bd 8459 b5bd
00000170: c1b7 3c3e d217 403c 7f24 adbd 0855 db3c
00000180: 5282 61be 4144 3dbd 0249 cd3d 2d0e 1f3d
00000190: 3319 f3bc a9d5 3fbd 214c a73d 89b9 363d
000001a0: 98c5 27be db73 03be ffe7 b33d 9bce 81bd
000001b0: af76 133e 7949 27be c12a 53ba b4c2 723d
000001c0: 84b2 ff3c b816 183e b3f1 103e bdf5 8dbd
000001d0: 8863 debd ba3b 0f3d 3b99 57bd 42da c7bd
000001e0: f91d 9b3d c6ed f53d 0069 053d 7c89 513d
000001f0: 964b 953d 4222 0fbe 8841 98bd 5ffb 35ba
00000200: 97b3 0a3d 19c6 463d 2f78 f43c ec41 0f3d
00000210: 48fb 833e 7db8 0dbe 7abe 10bd 01df a93d
00000220: b2c4 a0bd cbc0 9c3c 7555 96bb 04b5 aa3d
00000230: 9fa5 b3bd cdec c23d 6783 79bd e161 ba3d
00000240: 7349 df3c 329c 9ebd 5fe2 51bd 31a4 0f3e
00000250: 21ec b23d 0d0a 1ebc 1c89 1e3d bab1 053d
00000260: 0e65 87bc b14b 38be 1f89 d73d 3416 03be
00000270: 9c31 52be 6cd0 633d 1bb3 553d ad6c bbbd
00000280: 9e8f ea3b bee2 7cbc bf9e 173e 6940 e93c
00000290: 8868 08be f7da 803c 903b 683c 3703 983c
000002a0: cca7 4abb becf 25bc 37ec 133e 66f1 383d
000002b0: 8f24 20bd 8112 c7bd 832c 78bd e363 00bd
000002c0: b7b1 10bc 8c79 b1bc 00fe e03d 2ba6 c03d
000002d0: 72d9 033d f4a3 1e3e e1b9 d43d a997 f7bd
000002e0: 42be b03c 61e8 fe3d 7619 a73d 633d bfbc
000002f0: dbc6 11be 209d 503d 458c 2a3d eec2 4ebc
00000300: ae64 323d 6b9a 42bb 9e92 83bc ae14 aabd
00000310: 4e6e a43d c461 623d 34c7 68be 363e ef3d
00000320: 1b20 29bd dbc0 9ebc 9ff4 d9bc ee84 1abe
00000330: 461f 99bd 084e 9f3d e2b7 463e de49 ee3c
00000340: 4f68 1e3e 171a df3c bf80 083e cc00 e8bc
00000350: b131 dabc b271 25be 1fd1 3cbc db68 dcbc
00000360: 5c47 d83d 37fa 3fbd 4cdd 8b3d e237 ffbd
00000370: 315a 89bd edf5 12be 0296 34be c2a3 debd
00000380: b2b1 3fbd fb3d dbbd dae9 9abc e91a 87bd
00000390: 24bc 9f3a d552 aa3d a809 093c 2314 ea3d
000003a0: 709f 83bd 373d 423d 27d7 b3bd 1881 7b3d
000003b0: 27cf d7bc da39 3c3d 0a88 62be 97de 3a3a
000003c0: e6a2 86bd ffe2 c93d 3f1a d3bd ffc6 553d
000003d0: 70df b93d c0bc 7cbc 403e d3bd d1a0 18be
000003e0: e4f9 a53b 5c58 9abd 7f02 74bd 67ba 28be
000003f0: 52fd 73be 267a 113d 73a7 bebd 191e 353c

fc1.bias f4 [64]
0.0 0.0 0.0 0.0 0.0 0.0 0.0 0.0
0.0 0.0 0.0 0.0 0.0 0.0 0.0 0.0
0.0 0.0 0.0 0.0 0.0 0.0 0.0 0.0
0.0 0.0 0.0 0.0 0.0 0.0 0.0 0.0
0.0 0.0 0.0 0.0 0.0 0.0 0.0 0.0
0.0 0.0 0.0 0.0 0.0 0.0 0.0 0.0
0.0 0.0 0.0 0.0 0.0 0.0 0.0 0.0
0.0 0.0 0.0 0.0 0.0 0.0 0.0 0.0
00000000: 0000 0000 0000 0000 0000 0000 0000 0000
00000010: 0000 0000 0000 0000 0000 0000 0000 0000
00000020: 0000 0000 0000 0000 0000 0000 0000 0000
00000030: 0000 0000 0000 0000 0000 0000 0000 0000
00000040: 0000 0000 0000 0000 0000 0000 0000 0000
00000050: 0000 0000 0000 0000 0000 0000 0000 0000
00000060: 0000 0000 0000 0000 0000 0000 0000 0000
00000070: 0000 0000 0000 0000 0000 0000 0000 0000
00000080: 0000 0000 0000 0000 0000 0000 0000 0000
00000090: 0000 0000 0000 0000 0000 0000 0000 0000
000000a0: 0000 0000 0000 0000 0000 0000 0000 0000
000000b0: 0000 0000 0000 0000 0000 0000 0000 0000
000000c0: 0000 0000 0000 0000 0000 0000 0000 0000
000000d0: 0000 0000 0000 0000 0000 0000 0000 0000
000000e0: 0000 0000 0000 0000 0000 0000 0000 0000
000000f0: 0000 0000 0000 0000 0000 0000 0000 0000

fc2.weight f4 [4, 64]
-0.06363368 0.12949304 -0.15174966 -0.018447846 -0.06838024 -0.0017827895 0.18221281 -0.13970481
-0.17561787 -0.10776319 -0.15723574 0.056856666 -0.03657283 -0.025940286 0.22381541 0.13038091
-0.12887308 -0.24619614 -0.036177456 0.05600053 0.024645917 -0.21539527 0.049701087 -0.020584436
-0.01735557 0.07759027 0.15326434 -0.03736184 0.055192407 -0.15919854 0.02016867 0.13758755
-0.009947777 -0.28993618 -0.08586643 0.05946452 0.16104327 -0.010343416 0.08097097 -0.16007203
0.051977716 0.04479997 0.14206417 -0.04923161 -0.018655604 0.34280282 0.24837385 -0.10596163
0.07306952 0.05281733 -0.09777894 -0.07179741 -0.17392012 0.12406278 -0.060393814 -0.14470433
-0.0051621734 0.23078553 0.006224702 -0.08951344 -0.009741915 0.04908822 0.122115225 -0.07205545
-0.042538032 0.04612591 0.117343895 -0.03217735 0.0027316988 -0.05480874 0.06919371 0.3297267
0.036604695 0.021488633 -0.0602336 0.039179403 0.30236337 0.20129667 0.16737832 -0.15729743
0.023852551 0.08684155 -0.0062481244 0.13841806 -0.15760627 -0.07795713 0.036259137 -0.0024539656
0.057284277 -0.020676125 -0.05814314 0.048955247 0.027829297 -0.0788299 0.13878758 -0.26951993
-0.01142241 -0.08747792 -0.042592812 -0.047069997 -0.061771013 -0.16371678 0.21736792 -0.03951838
0.37983662 0.21261755 0.11237402 0.046773683 -0.09218483 0.023899853 -0.019998625 -0.049826488
-0.13439496 0.10222407 -0.04892876 0.030458812 -0.038258057 -0.022950152 -0.03947382 -0.15985642
-0.15248887 -0.1928721 -0.0027429962 0.22783102 -0.056838587 0.12527664 0.029606001 -0.06746274
-0.042337593 0.008736682 0.15784164 -0.08805205 -0.22623801 -0.16265596 -0.0015567767 0.13647059
0.088850684 0.066782765 -0.12831433 -0.156566 -0.16518186 -0.21487021 0.20990933 0.01847835
0.21278805 -0.2429906 -0.043243494 0.046885602 0.056838535 -0.15945788 0.05625313 -0.13931859
-0.004747305 -0.20143847 -0.1757965 0.08174283 -0.06509894 0.23475863 -0.11695857 0.0075282194
0.020144762 0.1024052 -0.07444347 0.08795557 0.1139993 0.04852902 -0.16635971 0.051437344
-0.074123874 0.24407339 -0.0047960603 0.13062765 0.040374506 -0.030138971 -0.031846803 -0.15070856
0.029520944 0.22849256 -0.02279103 -0.21994795 -0.15618148 -0.20895903 -0.050376803 0.04790442
0.11515065 -0.052128505 -0.07695287 0.05565197 -0.04220762 0.06561471 -0.050436758 0.018941194
0.002360222 -0.03054555 -0.1543983 -0.11699292 -0.0350298 0.12259039 0.11445312 -0.1899824
0.033336587 -0.10613887 -0.1336354 -0.1377251 0.115599565 -0.087397024 -0.21415201 -0.032433867
-0.28223792 -0.08019194 0.027527943 0.11708895 0.11401056 0.13769858 0.020393863 0.03454342
0.00062800135 0.017048696 0.22020075 0.026275057 -0.040989522 0.024312371 0.07994411 -0.1719952
-0.25734285 0.31853417 -0.07991129 -0.017722297 -0.25999245 0.06157567 0.044366114 0.034197446
0.031086037 0.16723166 -0.008444093 0.06555171 0.14062335 0.041307464 -0.009713425 0.119035736
0.19291884 0.2828368 0.1472264 -0.02482284 -0.19831795 -0.10002082 -0.03430486 -0.06075963
-0.04479962 -0.013796784 -0.11666133 0.08272479 -0.074749395 -0.02646547 0.124106064 0.03344808
00000000: 6052 82bd d399 043e 4364 1bbe f01f 97bc
00000010: f00a 8cbd 7dac e9ba ff95 3a3e c70e 0fbe
00000020: 2cd5 33be f3b2 dcbd 6802 21be 89e2 683d
00000030: 64cd 15bd b980 d4bc de2f 653e 9382 053e
00000040: 4ef7 03be d71a 7cbe d02e 14bd d060 653d
00000050: 3ce6 c93c 9490 5cbe 5e93 4b3d b1a0 a8bc
00000060: 452d 8ebc a6e7 9e3d 54f1 1c3e bb08 19bd
00000070: 6f11 623d f104 23be c438 a53c c0e3 0c3e
00000080: 00fc 22bc 8472 94be bdda afbd 1291 733d
00000090: 87e8 243e 6e77 29bc 1cd4 a53d ece9 23be
000000a0: 96e6 543d 2c80 373d 4579 113e 16a7 49bd
000000b0: a3d3 98bc da83 af3e b755 7e3e 6902 d9bd
000000c0: 79a5 953d fc56 583d 5340 c8bd 850a 93bd
000000d0: 1e18 32be a014 fe3d 815f 77bd 5f2d 14be
000000e0: 7327 a9bb 0b53 6c3e 96f8 cb3b d352 b7bd
000000f0: 8e9c 1fbc bb10 493d 8c17 fa3d cf91 93bd
00000100: 5c3c 2ebd 86ee 3c3d ff51 f03d 66cc 03bd
00000110: 4d06 333b 217f 60bd 6fb5 8d3d f0d1 a83e
00000120: ceee 153d ee08 b03c 82b7 76bd 957a 203d
00000130: 5fcf 9a3e b720 4e3e 3965 2b3e 9412 21be
00000140: 6d66 c33c fcd9 b13d 11bd ccbb 77bd 0d3e
00000150: 8a63 21be fda7 9fbd 7684 143d b6d2 20bb
00000160: eba2 6a3d fa60 a9bc 8027 6ebd 4c85 483d
00000170: 44fa e33c 9271 a1bd 551e 0e3e 84fe 89be
00000180: 0f25 3bbc a027 b3bd cd75 2ebd 78cc 40bd
00000190: 9a03 7dbd 5fa5 27be b295 5e3e 06de 21bd
000001a0: f279 c23e 6ab8 593e 5a24 e63d c395 3f3d
000001b0: 66cb bcbd a0c9 c33c 28d4 a3bc dc16 4cbd
000001c0: d59e 09be da5a d13d 8669 48bd c284 f93c
000001d0: 7bb4 1cbd f501 bcbc 4daf 21bd 67b1 23be
000001e0: 0b26 1cbe 4480 45be d7c3 33bb 894c 693e
000001f0: 94cf 68bd 8548 003e 4988 f23c e829 8abd
00000200: 2f6a 2dbd 4d24 0f3c 3da1 213e a254 b4bd
00000210: f0aa 67be 498f 26be c20c ccba f2be 0b3e
00000220: 59f7 b53d 67c5 883d d564 03be d652 20be
00000230: 6f25 29be f006 5cbe 79f2 563e e95f 973c
00000240: 1ce5 593e 87d2 78be 1720 31bd 1e0b 403d
00000250: 86cf 683d ed48 23be af69 663d 88a9 0ebe
00000260: 488f 9bbb e345 4ebe ff03 34be c968 a73d
00000270: 9852 85bd 9164 703e fa87 efbd 48af f63b
00000280: a106 a53c d1b9 d13d d175 98bd 0d22 b43d
00000290: 7778 e93d 5ec6 463d 335a 2abe f7af 523d
000002a0: 42ce 97bd 60ee 793e 4528 9dbb 41c3 053e
000002b0: bd5f 253d 01e6 f6bc cb71 02bd 5853 1abe
000002c0: e8d5 f13c f4f9 693e 41b4 babc 093a 61be
000002d0: 0aee 1fbe 5bf9 55be e857 4ebd 6d37 443d
000002e0: 1bd4 eb3d b384 55bd 7799 9dbd 52f3 633d
000002f0: e6e1 2cbd 0161 863d c696 4ebd 902a 9b3c
00000300: f4ad 1a3b a93a fabc 971a 1ebe fc99 efbd
00000310: 687b 0fbd ac10 fb3d 6666 ea3d bf8a 42be
00000320: f28b 083d 565f d9bd b8d7 08be cf07 0dbe
00000330: 77bf ec3d 36fd b2bd aa4a 5bbe 60d9 04bd
00000340: 7d81 90be ac3b a4bd 4882 e13c 55cc ef3d
00000350: 5e7e e93d db00 0d3e 0811 a73c 677d 0d3d
00000360: 75a0 243a b5a9 8b3c 4e7c 613e ca3e d73c
00000370: a1e4 27bd bd2a c73c bdb9 a33d 821f 30be
00000380: 71c2 83be e916 a33e 88a8 a3bd 5a2e 91bc
00000390: bb1d 85be c536 7c3d 3eb9 353d 9f12 0c3d
000003a0: 25a8 fe3c c73e 2b3e 1859 0abc fa3f 863d
000003b0: 91ff 0f3e 0432 293d 0f25 1fbc 02c9 f33d
000003c0: 848c 453e fccf 903e 84c2 163e 4559 cbbc
000003d0: dc13 4bbe b7d7 ccbd 4183 0cbd 17df 78bd
000003e0: ce7f 37bd e80b 62bc 23ec eebd 9d6b a93d
000003f0: 3616 99bd 1dce d8bc 522b fe3d db00 093d

fc2.bias f4 [4]
0.0 0.0 0.0 0.0
00000000: 0000 0000 0000 0000 0000 0000 0000 0000
