models/v3/target_qmix_net.pth (torch, 772284 bytes, 13 tensors)

hyper_w1.0.weight f4 [64, 900]
000000 56 57 75 bc fa 9a 8c 3c 64 a4 32 3c a8 bf de 3b
       -0.014974436 0.017163742 0.010903452 0.0067977495
000010 c8 68 26 3c 1e ed f4 3c e0 73 01 bb 41 25 05 3d
       0.010156818 0.029898223 -0.0019752905 0.03250623
000020 e0 4c 21 3b f9 7e 04 bd b8 09 9a 3c f0 33 24 3b
       0.0024612471 -0.032347653 0.018803462 0.0025055371
000030 e0 df 2e 3b ca 75 78 bc 9c 2b 85 bc 80 d3 cb 3a
       0.0026683733 -0.015164802 -0.016256146 0.0015550703
000040 d6 4c 44 bc d4 d8 f8 bc ea 4c d1 3c f0 14 79 3c
       -0.01198121 -0.03037683 0.02554937 0.015202746
000050 47 09 9d bc 76 20 ec 3c 00 8a a8 39 69 ed 92 bc
       -0.019169463 0.028824072 0.00032146275 -0.017935472
000060 ec 97 18 bc 7c ef b8 bc f8 b0 dd 3c b4 68 cf bb
       -0.009313565 -0.022575133 0.027061924 -0.0063296203
000070 4c 6f 5c 3c 10 63 81 bb d0 9f b0 bc e0 bb 38 3b
       0.01345427 -0.0039485767 -0.02156058 0.0028188154
000080 00 ea f1 3a 0e de 31 bc c8 45 d4 3c a0 25 62 3b
       0.0018456578 -0.010856165 0.02591218 0.003450729
000090 c3 8b d6 bc 2c 8c 66 bc 70 8c f3 bb 22 fe 1b bc
       -0.02618969 -0.0140715055 -0.007432513 -0.009521039
0000a0 fe 00 96 3c c5 1d b7 bc 8e 80 9e bc 5a 4f a4 bc
       0.01831102 -0.022353062 -0.019348409 -0.020057369
0000b0 90 98 bb bb aa 7a 01 bd 80 78 8e 39 14 e7 c3 bc
       -0.005724974 -0.031611122 0.0002717413 -0.023913898
0000c0 62 8d 9f bc 20 1d a2 3b d0 3e e1 3b 18 c5 ad 3c
       -0.019476596 0.0049473196 0.006873943 0.021212146
0000d0 f8 a3 6b 3c ce 83 07 bd ac 81 b8 3c c0 1c 26 bb
       0.014382355 -0.033084683 0.02252277 -0.0025346726
0000e0 c8 0b df 3b 60 e4 63 3c 28 9f fc 3b 85 31 cf bc
       0.0068068244 0.013909429 0.0077094026 -0.025292167
0000f0 3f f8 e3 bc 50 d9 c9 bc e0 b2 7a bb 68 a9 ac bb
       -0.027828334 -0.024639755 -0.003825359 -0.0052692182
000100 3b a2 06 3d c0 d8 00 bc 2a 72 96 3c 8c 4b dd bc
       0.03286956 -0.007864177 0.018364985 -0.027013563
000110 1c a1 ba bb 30 56 f8 bc 64 45 a0 3c 5a 8c 86 3c
       -0.0056954753 -0.030314535 0.019564338 0.016424347
000120 0e e5 e7 bc e0 40 c2 3c 7c bf 55 bc 10 06 fb bb
       -0.028307464 0.023712575 -0.013046142 -0.007660635
000130 10 05 db bb a0 bc b9 3b 6c d8 45 bc aa 23 a2 3c
       -0.006683953 0.005668238 -0.012075525 0.019792397
000140 84 dd 26 bc a0 7c 15 3c a8 b5 8a 3b e0 ed 57 bb
       -0.010184649 0.009123951 0.004233081 -0.003294818
000150 b8 55 df 3c 24 3d 8f bb ba 51 9d 3c 30 ce 0a 3b
       0.027262554 -0.004371302 0.01920401 0.0021180026
000160 04 00 50 3c a0 4c c6 3c 00 9a ae 3b 09 10 ec bc
       0.012695316 0.02420646 0.005328417 -0.02881624
000170 20 77 ac ba 27 1a 92 bc 2c 60 d2 bc 40 48 5b ba
       -0.0013158061 -0.017834736 -0.025680624 -0.0008364953
000180 01 a1 f6 bc 18 cc c1 3b a8 79 eb 3b c0 c9 cf 3c
       -0.03010607 0.0059142224 0.0071861334 0.025364757
000190 52 02 01 bd 10 30 e6 bb 67 d8 81 bc e0 99 fc bb
       -0.031496353 -0.0070247725 -0.015850259 -0.007708773
0001a0 30 86 07 bb f4 ec 43 bc 9a a1 e0 3c a6 f1 aa 3c
       -0.0020679347 -0.0119583495 0.027420808 0.02086718
0001b0 a2 96 49 bc e8 6e 98 3b e7 aa ce bc 8a bd 97 3c
       -0.01230398 0.004651893 -0.025227977 0.018522996
0001c0 ae 03 9d 3c 22 d0 f4 3c 61 a9 03 3d cc 17 43 3c
       0.019166794 0.029884402 0.032143954 0.011907529
0001d0 a8 ad 4e 3c 68 77 68 3c 40 b3 5f 3b 80 fb 9e bc
       0.012614645 0.014188625 0.003413394 -0.019407034
0001e0 60 66 43 3c e0 47 8f ba c4 01 09 3c 22 49 52 bc
       0.011926264 -0.0010931455 0.008362237 -0.012834819
0001f0 4a f3 78 bc de b2 a0 3c 90 be fb 3b 83 12 00 3d
       -0.015194723 0.01961654 0.007682629 0.031267654
000200 48 8b 46 3c 8e 34 64 bc 96 c7 af bc 56 1d ec bc
       0.012118168 -0.013928546 -0.021457475 -0.028822582
000210 10 ee 8e 3b 8c 67 49 3c c9 be 05 3d 1f b0 06 3d
       0.0043618754 0.012292754 0.03265265 0.032882806
000220 52 47 48 bc 5c f1 01 bd 40 68 c3 bc fe db b1 3c
       -0.012224035 -0.03172432 -0.023853421 0.021711346
000230 87 e8 ab bc d4 93 9c bc 40 99 e2 3a 30 f0 01 bd
       -0.020984901 -0.019113459 0.0017288104 -0.0317232
000240 80 75 0f 3c 1b 15 07 bd a4 76 65 3c 08 69 03 3c
       0.0087560415 -0.032979112 0.014005337 0.008020647
000250 88 c3 ef 3b 9e ba 00 bd 30 d8 01 bd 00 11 b3 bc
       0.0073170103 -0.031427972 -0.031700313 -0.021858692
000260 34 d5 39 bc 1a b1 49 bc 80 8e da b9 1c c6 95 bb
       -0.0113423355 -0.012310291 -0.0004168637 -0.0045707356
000270 13 c1 02 3d ac 4b d1 3c b0 a9 67 3c e0 84 5d bb
       0.03192241 0.025548778 0.014139578 -0.0033801123
000280 4e db 0d bc e2 02 07 bc 3c c9 ce bc b6 49 fd 3c
       -0.008658243 -0.008240433 -0.02524244 0.030918937
000290 47 53 aa bc 60 5a ae 3c 30 8b c6 bc 38 7a 45 3c
       -0.020791663 0.021283329 -0.024236292 0.012053065
0002a0 1a a9 c4 bc 01 33 ec bc 80 9b 87 3b e7 01 9c bc
       -0.024006415 -0.028832914 0.00413841 -0.019043876
0002b0 b0 e6 9e 3b 40 cd 37 bc 46 4d ac 3c 6a df 9f 3c
       0.0048492774 -0.011218369 0.02103294 0.019515712
0002c0 80 dc 0a ba ea f6 ff 3c 8a c8 50 bc 00 68 b7 ba
       -0.0005297139 0.031245667 -0.012743125 -0.0013992786
0002d0 00 29 f3 bb 5c 5c 9d 3c 18 1f d0 3b ac a6 07 bd
       -0.007420659 0.01920908 0.006351363 -0.033117935
0002e0 98 20 38 bb 4a e6 5b bc b0 95 b6 3b 4e de 94 bc
       -0.00280956 -0.013421604 0.0055720434 -0.01817241
0002f0 f6 76 b9 3c b0 22 68 3c 90 f4 2c 3b 36 6f e4 bc
       0.022639733 0.014168426 0.0026390888 -0.02788506
000300 bc c2 59 3c 80 84 30 bc 63 a0 07 3d 28 c2 58 bc
       0.013291057 -0.010773778 0.03311194 -0.013229884
000310 4c f9 de bb f4 4c 73 3c 5a 4f c8 3c bc ef af 3c
       -0.006804621 0.01484989 0.0244519 0.021476619
000320 e4 17 7e bc 68 5b cc 3c f0 d1 ca 3b c7 0a e5 bc
       -0.015508626 0.02494593 0.0061895773 -0.02795924
000330 60 6b 44 3b 4e 73 91 3c 60 06 03 3b 61 58 d4 bc
       0.0029971227 0.017755177 0.0019992813 -0.025921049
000340 f2 79 c8 3c 22 8d 48 bc 2c 53 43 bc 0e b6 13 bc
       0.02447221 -0.01224068 -0.011921685 -0.009015573
000350 50 66 06 bd 13 4b 05 bd ae b6 eb 3c 98 e3 bd 3c
       -0.032812417 -0.0325423 0.028773632 0.023179814
000360 21 cd e0 bc 00 2c 2a 38 34 06 e4 3c 70 f1 d2 3c
       -0.027441563 4.0572137e-05 0.02783499 0.025749892
000370 c0 3e 2f bb 48 aa cb 3c 3c 33 c2 bc 43 2a c0 bc
       -0.0026740283 0.02486147 -0.023706071 -0.023457652
000380 e4 ee 05 3c 3a 86 c9 bc 54 ee c7 bc df 76 ea bc
       0.008174632 -0.024600137 -0.024405636 -0.028621135
000390 60 35 39 3b 65 3e a3 bc 56 fc 4f bc 44 9b 9e bb
       0.0028260574 -0.019927213 -0.012694439 -0.0048402864
0003a0 44 50 ff bb 5e 69 c3 3c dc 8c d6 3c 1c 1f ab bb
       -0.007791551 0.023853954 0.026190214 -0.0052222144
0003b0 58 a3 b7 3b 7c dc 90 bc 50 0b 08 bb 25 b2 af bc
       0.005604189 -0.01768326 -0.0020758696 -0.02144725
0003c0 fc 47 84 3c 54 98 c2 3c 81 19 e9 bc 81 44 db bc
       0.016147606 0.023754276 -0.028454544 -0.026766064
0003d0 c2 a2 85 3c cc f5 bc bc 64 d4 84 3c ee 18 9d 3c
       0.01631296 -0.023066424 0.016214557 0.019176926
0003e0 8c 65 88 3c f8 2d c3 bb 69 4a d1 bc 46 37 59 bc
       0.016649984 -0.0059564076 -0.025548177 -0.013257807
0003f0 48 d4 5b bb 04 d3 91 3c d6 7e 49 bc 88 ca b9 3c
       -0.0033543278 0.017800815 -0.012298306 0.022679582

hyper_w1.0.bias f4 [64]
000000 e2 b5 1d bc 6c 5c c2 bc a0 98 a5 ba d6 4b ff 3c
       -0.009625884 -0.02372571 -0.0012633987 0.031164091
000010 bc 4c bc bb 70 67 9b 3c 88 f0 49 bb 01 a1 f7 bc
       -0.005746452 0.018970221 -0.0030813534 -0.03022814
000020 00 d0 49 bc 98 52 74 3c 09 8b 90 bc 34 77 ea bb
       -0.0123176575 0.01491227 -0.017644422 -0.0071553234
000030 d6 4c e4 3c 40 69 45 3c 43 22 df bc 50 da 9f bc
       0.02786867 0.012049019 -0.027238017 -0.01951328
000040 f8 c5 d0 3b de 44 89 bc 40 0a 62 3c 68 9a e8 3b
       0.006371256 -0.016756471 0.013796389 0.007098485
000050 44 41 bd bb 44 ca 24 bc c0 30 54 3b 20 d1 06 bd
       -0.0057756025 -0.0100579895 0.003237769 -0.03291428
000060 b0 5a eb 3c fa 83 99 bc 10 db 0d 3b 24 ff 95 bb
       0.028729767 -0.01873969 0.0021645464 -0.0045775343
000070 80 3f 1f ba bf 8d 03 3d c9 18 a7 bc 76 e2 8c bc
       -0.0006074831 0.0321176 -0.02039756 -0.017197829
000080 78 f5 93 bc ae ca a1 3c 32 30 ba 3c 46 91 d7 3c
       -0.018061385 0.019749966 0.02272806 0.026314389
000090 b2 c0 ed bc 84 63 cb 3c b8 75 79 bc b0 e8 c0 3b
       -0.029022548 0.024827726 -0.01522582 0.0058871135
0000a0 96 11 14 bc 2c f2 97 bb 06 96 f6 3c ac 22 e0 bc
       -0.009037396 -0.0046370234 0.030100834 -0.027360283
0000b0 f4 c9 27 3c 74 26 08 3c f8 81 2c 3c 34 dd 00 3c
       0.0102410205 0.008309949 0.010529034 0.007865239
0000c0 9a 10 bf 3c bc 5b 70 3c 38 5a 1f bc 2c 69 e6 bb
       0.023323346 0.014670309 -0.0097261 -0.0070315804
0000d0 da 34 bc bc e8 8c 9c 3b bc 35 57 3c d8 15 43 3c
       -0.02297442 0.0047775395 0.01313537 0.011907063
0000e0 de de 8c 3c 60 b0 e8 3a 78 dc de 3c 6c 04 99 3c
       0.017196115 0.0017752759 0.027204737 0.018678866
0000f0 ee a3 81 3c 58 48 c8 3c 62 93 90 3c 96 63 6f bc
       0.015825238 0.024448559 0.017648403 -0.0146111455

hyper_w1.2.weight f4 [256, 64]
000000 9c 7f c5 bd f8 59 fa 3c 20 61 af 3c f4 58 65 bd
       -0.0964348 0.030560479 0.021408617 -0.055993035
000010 90 39 b0 bd 88 c1 10 bd c8 ed c6 3c fa 30 bd bd
       -0.08604729 -0.035340816 0.024283305 -0.09237857
000020 b0 1b d3 bd 32 3b d1 3d 0c f3 e2 bd d2 f2 d5 3d
       -0.10308015 0.10216369 -0.11081514 0.10446705
000030 0e 53 93 bd 18 15 94 3d 60 35 57 3c c2 38 c8 3d
       -0.07193576 0.07230586 0.013135284 0.09776451
000040 4a c3 f1 bd 68 97 ff bd f8 a9 d3 3d 20 06 1e bc
       -0.118048266 -0.1248005 0.10335153 -0.009645015
000050 b4 0b 7b bd ba d2 ac bd 14 90 08 3d da 43 ff bd
       -0.061290458 -0.084386304 0.03334053 -0.124641135
000060 b6 b6 c0 3d 80 f6 3f bd a0 f3 26 3d c8 6b 8f 3c
       0.09409849 -0.04686594 0.040759683 0.017507449
000070 ce 53 c1 bd 80 97 6e bc 20 b8 c4 bb 30 e4 77 3d
       -0.094398126 -0.014562488 -0.0060033947 0.06052035
000080 d0 7b 66 bd 5e 4d b0 bd 4a 54 c0 3d 84 e1 fa bd
       -0.05627042 -0.086085066 0.09391077 -0.12250045
000090 6e 74 e5 bd 80 41 fc 3d 22 fa 9c 3d 7c 58 54 3d
       -0.11203848 0.12317181 0.076648965 0.051842198
0000a0 0e b0 c6 3d d0 36 61 3c c0 ba ee bd 30 09 dd 3c
       0.097015485 0.0137459785 -0.116567135 0.02698192
0000b0 4e b3 d4 bd 88 9b bc bd ec 1f 45 3d 0c 82 25 3d
       -0.10385762 -0.09209353 0.048126146 0.040407225
0000c0 4e 8f d2 bd 68 e3 a9 bc ee 4e bc 3d bc ef 5f bd
       -0.102812394 -0.020738319 0.09194742 -0.054671988
0000d0 5c df eb 3d 64 24 7a 3d 9e 2a c4 3d 64 7b 60 bd
       0.11517212 0.06106986 0.09578441 -0.054805174
0000e0 18 06 88 3c f6 a5 a3 bd ec 24 ab bd e0 b9 66 bc
       0.016604468 -0.07990639 -0.08356652 -0.014082402
0000f0 14 a9 b4 bd 08 5e e0 3c b8 13 7c bd da 01 fb 3d
       -0.088213116 0.027388588 -0.061542243 0.122562125
000100 80 ee ca ba b8 a8 59 bd 2e f8 d0 bd fc 6b 75 bd
       -0.0015482455 -0.05313942 -0.102035865 -0.059917435
000110 52 21 e2 3d a2 ce e1 bd a0 b4 00 bd c0 93 41 3c
       0.110415116 -0.1102574 -0.031422257 0.0118150115
000120 b4 43 98 3d a0 81 c3 3b 62 c6 da bd c0 8b ff bc
       0.07434788 0.0059663802 -0.1068237 -0.031194568
000130 00 17 cb 3b e2 56 9c bd 38 55 fd 3c 40 d0 72 bd
       0.00619781 -0.07633759 0.030924425 -0.059280634
000140 b0 8a 9c 3d 5c 52 6d 3d d6 42 86 bd 34 7d ce bd
       0.0764364 0.057939872 -0.06555717 -0.10082474
000150 4c 76 06 bd 58 1b a9 3d c4 84 e0 bd 4c 9b 91 3d
       -0.03282766 0.082571685 -0.10962823 0.07109699
000160 c8 c7 88 bc d8 1b ff 3d 90 57 6d bd c4 dc c8 3d
       -0.016696826 0.12456483 -0.057944834 0.09807733
000170 80 e2 8c bd ac ed 0a bd 00 5d 09 3b 70 00 cd 3c
       -0.06879139 -0.033918068 0.0020959973 0.025024623
000180 b6 cd e0 3d 38 e5 5c 3d 72 79 a4 bd 10 e8 4c bc
       0.10976736 0.053929538 -0.08030976 -0.0125065
000190 b8 55 a4 bc 94 b1 ef 3d 80 b5 b5 ba c6 28 d3 bd
       -0.020060405 0.11703792 -0.0013863295 -0.10310511
0001a0 6e 05 aa bd e4 54 2e 3d 96 3f ca bd 44 7f 2d 3d
       -0.08301817 0.042561427 -0.09875409 0.042357698
0001b0 2a aa 86 bd 42 51 99 3d 08 58 20 bd ac e1 87 3d
       -0.06575425 0.07486202 -0.039146453 0.0663484
0001c0 78 65 c5 bd 52 fb af 3d 80 bd cf 3b be 0f b7 bd
       -0.09638494 0.085928574 0.006339729 -0.089385495
0001d0 24 e5 32 bd b4 96 7b bd f0 ca 29 bd 84 70 76 3d
       -0.043675557 -0.06142302 -0.041453302 0.060165897
0001e0 c4 e5 0f 3d 64 2d f9 bd 38 17 d9 3c d0 78 8b bd
       0.03513123 -0.12166861 0.02650033 -0.068101525
0001f0 a8 46 c7 3c fa 3b 92 bd 06 0d 83 bd a8 b4 c3 bc
       0.024325684 -0.07140346 -0.063989684 -0.023889855
000200 00 14 02 3d b0 92 9b bd 14 c3 fb bd 58 01 f4 bd
       0.031757355 -0.07596338 -0.122930676 -0.11914319
000210 b0 49 93 3c a2 73 a1 3d 00 a0 e4 3c 70 5a c6 3c
       0.017979473 0.07883383 0.027908325 0.024213046
000220 ac 78 9e 3d de 2c aa bd 22 c8 8a bd 70 10 96 bd
       0.0773786 -0.08309339 -0.067764536 -0.07327354
000230 c4 b5 87 bd d0 f8 95 3d d8 c3 7a bd 5a ed c1 bd
       -0.06626466 0.07322848 -0.061221927 -0.09469099
000240 fc 87 0f bd fc 36 e0 3d 04 83 2f 3d d0 a5 1c bc
       -0.035041794 0.109479874 0.042849556 -0.009561017
000250 00 ef fb 3a 2c 2c 58 bd 24 3a 14 3d cc a9 d3 3d
       0.0019221008 -0.0527765 0.03618826 0.103351206
000260 bc da a9 3d 80 bf f1 3c e0 59 d0 bb d4 4b 90 3d
       0.082936734 0.02951026 -0.00635837 0.07045713
000270 e0 d1 dc 3b e0 e5 7c bd 48 c4 e9 bd 20 04 8b bb
       0.0067388862 -0.061742663 -0.11414391 -0.004242435
000280 66 f9 f2 bd e8 9b 46 3d 7e 2f 9d 3d a0 be da bc
       -0.11863975 0.048488528 0.07675074 -0.026702225
000290 56 bf ec 3d c4 96 00 bd 60 93 6c bc d4 69 28 3d
       0.11559932 -0.03139378 -0.014439434 0.04111655
0002a0 d8 fc 5f bd e0 96 d3 3c c0 c3 05 bb 78 b5 9f 3c
       -0.05468449 0.025828779 -0.0020410866 0.01949571
0002b0 70 af 6d 3d 0c 15 ff bd ee 3a f7 bd 48 c4 00 3d
       0.05802864 -0.12455186 -0.12071787 0.03143719
0002c0 94 69 90 bd 6a cc a2 3d 86 24 d1 3d 78 1c 7a bd
       -0.070513874 0.07949145 0.102120444 -0.061062306
0002d0 60 66 27 bc d4 dc 55 3d 00 86 39 3b 80 ea 39 3b
       -0.010217279 0.05221255 0.002830863 0.0028368533
0002e0 26 39 c3 3d b4 a1 8e bd 8c 67 93 3d c8 09 50 bd
       0.095323846 -0.06964436 0.071974844 -0.050790578
0002f0 00 0f 72 ba 30 ab 7e 3c f8 c5 7d bd 6c 9f 07 bd
       -0.00092338026 0.015543744 -0.061956376 -0.03311102
000300 20 65 db bd b8 e6 fc 3d 80 d6 14 3c 80 59 84 bb
       -0.107126474 0.123486936 0.009084344 -0.0040389895
000310 24 2b be bd a0 dc a6 3b b8 77 b9 bc 52 be fb 3d
       -0.09285572 0.0050922185 -0.022640094 0.1229216
000320 8a 9a c3 bd 48 1f bf 3d fe 4f b9 3d 5e be ac bd
       -0.0955096 0.09332138 0.090484604 -0.08434747
000330 24 99 a5 3d 80 63 52 3d 90 3e e8 3d 00 c5 12 3c
       0.0808585 0.05136442 0.11340058 0.008958101
000340 78 40 c1 3c 10 dc ec bd 88 eb 6c bd c2 31 e5 3d
       0.023590311 -0.11565411 -0.057841808 0.11191131
000350 10 83 ef 3c 1c 74 e7 bd f4 49 a7 bd d0 da c2 bc
       0.0292373 -0.11301443 -0.08168402 -0.023785979
000360 2a fb ec bd 68 ae ce 3c 02 d3 dd 3d 14 85 aa 3d
       -0.11571343 0.025229648 0.10831262 0.08326164
000370 20 1e 0b bc 80 6a 6c bc 90 77 25 bc e0 e3 43 bd
       -0.008491069 -0.014429688 -0.010099307 -0.04782474
000380 44 7e 30 3d 82 9c 8c bd c4 27 52 bd 9a 2a 92 bd
       0.043089166 -0.06865789 -0.051307455 -0.07137032
000390 50 a6 c2 3c 7a 52 86 bd 1a 4b b7 3d b0 64 22 3d
       0.023760945 -0.065587 0.08949871 0.039646804
0003a0 80 47 b6 bb 02 e5 94 3d 08 fb ab bd e0 ef 7a 3d
       -0.0055627227 0.07270242 -0.0839749 0.06126392
0003b0 7a f0 f8 bd 3c 82 8a bd a0 3f 7a bc 78 6b b4 bd
       -0.12155242 -0.067631215 -0.015273958 -0.088095605
0003c0 8c 20 ff bd 16 ac 9f 3d 70 09 55 bd 08 8a 70 bd
       -0.1245738 0.07796495 -0.052010953 -0.058725387
0003d0 d0 e7 00 3d cc a8 27 bd e0 ba c3 3c 1c dd 0b 3d
       0.031471074 -0.04093246 0.02389282 0.034146413
0003e0 f4 9b f5 bd a4 b2 b5 bd 00 5a 68 bc 68 17 bb 3c
       -0.11992636 -0.088719636 -0.014181614 0.02283831
0003f0 4c fb e5 3d 4e cf 85 bd c2 db ca bd 74 41 bf 3d
       0.11229572 -0.06533681 -0.09905197 0.09338656

hyper_w1.2.bias f4 [256]
000000 c0 c1 3e bc ec b8 2c bd 38 a3 b6 3d a0 e0 49 bd
       -0.011642873 -0.042168543 0.0891785 -0.049286485
000010 b0 6c 15 bc e4 37 45 3d f6 fc e0 bd b0 4f e8 bc
       -0.009120151 0.048149005 -0.109857485 -0.02835831
000020 86 c3 a2 bd 68 ae 33 3d 9c 9a 66 bd 40 d6 f3 bc
       -0.079474494 0.0438675 -0.05629979 -0.029765248
000030 d0 aa 92 bd c4 ee ed 3d fc 54 dc bd 1c 69 0b bd
       -0.07161486 0.116178066 -0.10758397 -0.034035787
000040 78 1b c9 bd 9e 25 e2 bd fe e1 fb bd c0 db 08 bd
       -0.098196924 -0.11042331 -0.12298964 -0.033412695
000050 ce 29 82 3d a8 d1 15 bd 00 e0 39 ba 14 3f 80 3d
       0.0635563 -0.036576897 -0.00070905685 0.06262031
000060 88 5b a6 bd 70 f4 94 bd 70 9e 55 bd d8 a6 92 bd
       -0.08122927 -0.07273185 -0.05215305 -0.07160729
000070 70 82 f6 3d 80 19 7c bb ac 92 82 bd 90 1a ea bd
       0.12036598 -0.0038467348 -0.06375632 -0.11430848
000080 4e e7 cb 3d 88 ee 11 bd e8 54 a6 bd a2 4d d8 bd
       0.09956227 -0.03562787 -0.08121663 -0.10561682
000090 76 cc bb bd cc c9 4b bd d0 00 c6 3c f6 c4 ff 3d
       -0.09169857 -0.049752995 0.02417031 0.12488739
0000a0 98 84 34 bd 00 99 63 3b f8 09 ee bd 70 86 d0 bd
       -0.044071764 0.0034728646 -0.11622995 -0.10181892
0000b0 00 cd 4d 3b 50 89 45 3c a4 86 8e bd 9c e8 f3 3d
       0.0031402707 0.012056664 -0.069592744 0.11909601
0000c0 b8 0f 52 3d ba d2 df bd fe 84 d6 3d 6c dd 6b bd
       0.05128452 -0.10928865 0.10474585 -0.05758421
0000d0 62 b7 b9 bd 4c 31 29 bd 78 f8 ab 3d e0 5f 6c 3d
       -0.090681806 -0.04130678 0.08397001 0.05770862
0000e0 08 87 d8 bd 0e bd b1 3d 40 26 ca bd 88 bb 55 3d
       -0.1057263 0.086786374 -0.09870577 0.052180797
0000f0 02 82 ca bd 34 be ab 3d 0c da 00 bd 36 ed a3 3d
       -0.09888078 0.08385888 -0.031457946 0.08004229
000100 dc e3 80 3d 36 c0 94 3d dc 34 cc 3d a0 e2 78 3c
       0.06293461 0.07263224 0.099710196 0.01519075
000110 20 36 ac bb 80 0e cd ba 80 0f 01 3c 80 67 f8 bc
       -0.0052554756 -0.001564458 0.007877231 -0.03032279
000120 ee 5a f4 bd 1e 32 d8 bd c0 fa a2 bb f0 55 08 3c
       -0.11931406 -0.10556434 -0.0049737394 0.00832127
000130 c8 17 8e bd 62 74 ac bd 94 4b 82 3d bc 50 72 bd
       -0.0693813 -0.08420636 0.06362072 -0.059159026
000140 e8 03 b7 bc ec 7d fe bd be 03 ad bd 6a b8 d6 bd
       -0.02234073 -0.124263614 -0.084479794 -0.10484393
000150 2a 22 90 bd 0a f4 9b 3d b0 fc c0 bc 70 9b a7 bc
       -0.07037766 0.07614906 -0.02355799 -0.02045986
000160 80 dc c5 bb f0 30 7e bc 20 66 dc 3b fa d7 d6 bd
       -0.0060382485 -0.015514597 0.0067260414 -0.10490413
000170 e4 c3 8c bd f8 c4 35 bd 08 0f ba bd 50 4a c6 bd
       -0.06873301 -0.044377297 -0.09084898 -0.09682143
000180 e0 9f 41 bc 16 84 f3 3d 40 c1 be 3b 36 da c5 3d
       -0.011817902 0.11890428 0.005821377 0.09660761
000190 2a 88 e0 3d f8 1b 78 3d 70 62 74 3d 3a 8f b0 3d
       0.10963471 0.060573548 0.05966419 0.08621068
0001a0 d0 40 4b bd 14 fd 6d bd d8 90 6a bd ac 6a 42 3d
       -0.049622357 -0.058102682 -0.05726704 0.04746501
0001b0 ce 09 f7 3d 74 86 be 3d 68 37 3e 3d 00 28 e4 b8
       0.12062417 0.09302989 0.04643956 -0.00010879338
0001c0 14 e2 f0 bd de df a3 bd 6a 25 a6 3d e8 aa e1 3d
       -0.11761871 -0.08001684 0.08112605 0.11018926
0001d0 e6 0a e3 bd c4 b2 de bd 10 75 4e bc 08 3d c9 3c
       -0.11086063 -0.108739406 -0.012601152 0.024565235
0001e0 2c df e8 3d e4 54 b1 bd a6 93 aa 3d 28 66 f4 bc
       0.11370692 -0.0865877 0.08328943 -0.029833868
0001f0 fc 18 7b bd 80 f3 34 3d 42 ca ee bd 78 f4 cd 3d
       -0.061303124 0.044177532 -0.11659671 0.10056394
000200 6e 55 a5 3d 10 5a 2d 3d 20 9b fc 3d 0a 22 e5 3d
       0.08072935 0.04232222 0.12334275 0.11188133
000210 28 c2 ee bd a8 1b bb 3d 0c 5f f3 bd 10 b5 99 bc
       -0.11658126 0.091361344 -0.11883363 -0.018763095
000220 2c 58 f6 bd 1a 32 af bd 80 59 a1 bd 30 27 cf bc
       -0.12028536 -0.08554478 -0.07878399 -0.02528724
000230 40 66 31 bd 40 d4 84 3d a4 08 dc 3d e8 99 c5 bc
       -0.043310404 0.06485796 0.107438356 -0.02412124
000240 06 0e e9 3d a0 fd 96 3b 4c 58 bd 3d 30 21 1c 3c
       0.11379628 0.004607871 0.09245357 0.009529397
000250 b4 07 7a 3d 00 e2 5a 3b 60 05 2b bc b0 3d 25 bc
       0.061042503 0.0033398867 -0.010438293 -0.010085508
000260 54 9e df 3d b8 59 ee bd ba ee c1 3d 20 3d f2 bb
       0.109188706 -0.11638206 0.094693616 -0.0073925406
000270 40 ac 3c bd 0c 90 38 bd dc e2 b7 3d dc 63 f8 3d
       -0.046062708 -0.04505925 0.08978817 0.12128422
000280 ca 99 d4 3d 00 18 bc 3a ae 99 cf bd bc b0 07 bd
       0.103808954 0.0014350414 -0.10136734 -0.03312753
000290 a8 c4 ea 3d 84 e9 0a 3d d0 fa 54 bd 38 5b 79 3d
       0.114632905 0.033914104 -0.051997006 0.06087801
0002a0 d2 ce c6 3d 44 00 61 3d dc 2d a3 bd c6 a5 a6 3d
       0.097074166 0.054931894 -0.07967731 0.081370875
0002b0 78 98 a5 bc 10 9b 0b bc 5c 17 7d bd b4 25 30 3d
       -0.020214304 -0.0085208565 -0.061789855 0.043004707
0002c0 40 33 81 bc 4a 7b b4 bd 1e 11 fa bd 72 ed c2 bd
       -0.015771508 -0.08812578 -0.12210296 -0.09517945
0002d0 5c e8 96 bd b6 d0 fb bd f6 5c b0 bd 60 3c d9 3c
       -0.07368538 -0.12295668 -0.08611481 0.026518047
0002e0 30 eb dd 3c e8 fc 45 3d 46 2c d3 3d 24 7f f2 3d
       0.027089685 0.048336893 0.10311179 0.118406564
0002f0 02 8b b0 bd 80 fb 00 bd f0 9e dd bd e8 51 4a 3d
       -0.08620264 -0.03148985 -0.108213305 0.049394518
000300 ae 50 a8 3d 88 da 5e 3d 0a 5a cf bd 00 24 2f b9
       0.082185134 0.054407626 -0.101245955 -0.00016702712
000310 9c ee 88 3d ee 40 cb 3d 10 df 08 bd ae df 9f bd
       0.06686136 0.09924494 -0.033415854 -0.078063354
000320 d8 44 b2 3d 88 b6 de 3d e2 dc ab 3d 48 d9 c2 3d
       0.08704537 0.10874659 0.083917394 0.09514099
000330 06 ba b6 bd e6 27 9f 3d 04 04 24 bd ac fd a0 3d
       -0.089222 0.07771282 -0.040042892 0.07860884
000340 64 2d 5d bd ce a2 a6 bd 08 fb 87 bc 98 7d 7e 3d
       -0.053998366 -0.08136521 -0.016599193 0.062131494
000350 a0 8f 98 bd 16 b6 97 3d 70 ec 4b 3c 9e 70 a4 3d
       -0.07449269 0.07407777 0.012446508 0.080292925
000360 d4 f6 e1 bd 82 8f b3 3d 6c 6d fe 3d 60 9c 00 3c
       -0.11033407 0.08767606 0.12423214 0.007849783
000370 08 85 92 3d 3e cf cc 3d c4 43 ba bd 80 6c 2f bc
       0.0715428 0.10000466 -0.090949565 -0.010707021
000380 2a 92 88 3d 3e c1 be bd 50 7d 9a 3d a4 4d da bd
       0.066685036 -0.09314202 0.07543433 -0.1065934
000390 4c bb cb bd 44 36 68 bd ca b8 86 3d f0 3a 0f 3c
       -0.099478334 -0.056692377 0.065782145 0.008742079
0003a0 60 b9 0b bd 0c 31 b4 3d 3c bc 92 bd 80 db d5 bc
       -0.034112334 0.087984174 -0.07164809 -0.026105642
0003b0 a0 c7 a2 bb 18 7c ad 3c 36 79 90 bd 10 1c c8 bc
       -0.004967645 0.021177337 -0.07054369 -0.024427444
0003c0 5e 60 f9 bd e0 9c 2b bd 60 53 ce bc f6 a6 9a 3d
       -0.12176584 -0.041897655 -0.02518624 0.075513765
0003d0 c4 e8 8f 3d 08 50 d8 3c 60 62 8a bb 08 0a 98 bd
       0.070268184 0.02640535 -0.004223153 -0.07423788
0003e0 bc f9 19 bd a0 dd a2 bd 50 53 0b bd fe 82 fb 3d
       -0.03759168 -0.07952428 -0.034015 0.12280844
0003f0 9c 32 06 bd d0 54 97 3c 18 96 0b bd de 7a b8 bd
       -0.03276311 0.018473059 -0.034078687 -0.0900781

hyper_w2.0.weight f4 [64, 900]
000000 16 ae 85 bc 20 a9 ea 3c dc 9f cd 3c 00 c6 e0 bb
       -0.016318362 0.028645098 0.025100641 -0.006859541
000010 66 c7 06 bd 12 f6 3b bc 0c 8a 2d 3c 78 2c f2 bb
       -0.032905005 -0.011472242 0.010591995 -0.007390555
000020 ab 4f 06 bd 28 85 30 bc 1c 75 cf 3c d2 2e fe 3c
       -0.03279082 -0.010773934 0.025324397 0.031028185
000030 e6 a1 f5 3c 50 5d bf 3b c0 73 a2 3a 3f 80 f2 bc
       0.029984426 0.005839981 0.0012394115 -0.029602168
000040 c0 c5 55 ba 88 47 b3 3b 96 e3 ea bc 44 1f b6 bb
       -0.0008154772 0.0054711737 -0.028672975 -0.0055579264
000050 fa 55 d9 3c 10 61 09 3c a3 28 c9 bc 5a 09 ef 3c
       0.026530255 0.008384958 -0.02455551 0.029179264
000060 b8 3b da 3c 20 11 eb 3c aa 6d 93 3c c2 18 d3 3c
       0.026639804 0.02869469 0.017996628 0.025768641
000070 59 04 05 bd fc f2 ab 3c a8 83 7e 3c b4 5f e5 bc
       -0.03247485 0.020989887 0.015534319 -0.027999736
000080 30 ac 0c 3b bc 2c 8e 3c fd 5f 02 bd e0 13 29 3c
       0.0021464936 0.017355315 -0.031829823 0.01031968
000090 09 96 c8 bc 03 f6 f9 bc 08 7b a6 bb c4 e7 76 3c
       -0.024485605 -0.030512815 -0.0050805844 0.015069906
0000a0 1e 2e 4b bc a8 63 61 3c 3e 36 c2 bc f0 14 c7 bb
       -0.012401132 0.01375667 -0.023707505 -0.006075494
0000b0 a0 9e 46 3c 00 e9 10 ba a0 e1 c9 3b de 47 ef 3c
       0.01212278 -0.0005527884 0.00616093 0.029209074
0000c0 3e 0f dc 3c 18 6d 8d bc 5a 1d b2 3c bc 72 54 bc
       0.026862737 -0.017263934 0.021742512 -0.012966808
0000d0 1c a0 f8 bb 56 93 8c bc 16 3d fd bc de 56 45 bc
       -0.007587446 -0.017160099 -0.030912917 -0.0120446365
0000e0 aa 16 d3 3c b8 da 0f bc 4c 78 b9 bb 70 5a 8c bb
       0.025767643 -0.008780174 -0.0056600925 -0.004283242
0000f0 b7 d1 03 bd 62 cf 2d bc fc f0 46 bc 7b a0 00 3d
       -0.03218242 -0.010608526 -0.012142416 0.031403046
000100 22 17 0b bc 87 40 88 bc 96 17 d0 bc 02 99 9d bc
       -0.008489402 -0.016632332 -0.025401872 -0.019237999
000110 10 6c a4 3c 30 46 11 3b bc 4b 61 bc 28 7f ed 3b
       0.02007106 0.002216708 -0.013750967 0.007247824
000120 60 21 fe 3a 48 2b b7 3c 60 97 b9 3a 8a 93 09 bc
       0.0019388609 0.022359505 0.0014159493 -0.008396992
000130 2e e9 f1 bc 34 46 16 3c d0 09 f5 3b 52 97 e2 3c
       -0.029530134 0.009172011 0.0074779764 0.027660046
000140 cc 88 de bc ca 15 d6 3c 76 a8 d4 bc 44 8f 03 bd
       -0.02716484 0.026133437 -0.025959235 -0.03211905
000150 e8 e7 5c 3c 3c 27 e6 bc 43 83 f1 bc 2c a4 9d bb
       0.013483025 -0.02809488 -0.029481536 -0.0048108306
000160 68 aa 9e bb cc 36 e2 bb f2 09 06 bd 8c 46 45 3c
       -0.0048420914 -0.006903505 -0.03272433 0.0120407455
000170 34 12 c7 bc 2c 92 d2 3c 1e a3 3a bc d6 31 84 bc
       -0.024300672 0.025704466 -0.011391429 -0.016137045
000180 3e 76 d1 bc 52 09 de bc 00 98 42 ba 8e b6 d6 3c
       -0.025569078 -0.027104054 -0.00074231625 0.026210096
000190 1e 45 e2 3c 1a 15 64 bc dc 94 94 bc 70 84 57 bc
       0.027620848 -0.013921047 -0.018137388 -0.013154134
0001a0 6c 7b b8 3c 60 f5 c6 ba 80 be ab b9 c0 08 e6 ba
       0.02251979 -0.0015179329 -0.00032757595 -0.0017550215
0001b0 4c 9d c4 bb ef 7e 00 3d 00 e3 eb 39 88 0b 87 3b
       -0.0060001966 0.031371053 0.0004499182 0.0041212477
0001c0 1a e6 88 3c 7a 37 d5 bc b0 bb 39 bc 20 61 cd ba
       0.016711283 -0.02602743 -0.011336252 -0.0015669204
0001d0 20 d7 b8 3c 60 37 20 3c d0 18 d4 3c 00 38 87 bc
       0.022563517 0.009778827 0.025890738 -0.016506195
0001e0 00 09 02 39 d8 fd ce 3b 9c b4 bf bc cf cc 83 bc
       0.00012401119 0.0063168816 -0.023401551 -0.016088871
0001f0 0a 33 d6 3c 18 4b 89 3b 42 93 81 3c e9 d5 e3 bc
       0.026147384 0.00418986 0.015817288 -0.027811961
000200 20 d8 6c bb ae de fc bc 88 06 03 bd 1e f7 d1 bc
       -0.0036139563 -0.0308679 -0.03198865 -0.02563053
000210 16 6c a9 bc 9c 28 d2 bc cd 36 03 3d f4 8f 97 bc
       -0.020681422 -0.02565413 0.032034684 -0.01850126
000220 ce 99 78 bc 38 b0 e8 3c 16 d1 f2 3c c8 52 1b 3c
       -0.015173389 0.02840434 0.029640716 0.009480186
000230 16 5e 82 bc 00 5a e3 b9 d2 1b bb 3c a6 d2 92 3c
       -0.015914004 -0.0004336387 0.022840414 0.01792271
000240 8c d2 37 3c cc 10 9f 3c 4d bc 05 3d 80 10 81 ba
       0.011219632 0.019417189 0.03265028 -0.0009846836
000250 27 21 e1 bc 86 9e 93 3c 7c 4d 57 3c 18 d4 d4 3c
       -0.027481629 0.018019926 0.013141032 0.02598004
000260 94 3f 10 3c 3c e8 a0 bb 44 d1 85 bb 0e c0 b7 bc
       0.008804221 -0.004910497 -0.0040837843 -0.022430446
000270 6c de b0 3c 70 ca ce bb 5e 1d 00 bc 6c 85 fc bc
       0.021590434 -0.0063107535 -0.007819502 -0.03082534
000280 4c 89 e4 bc 10 3d 29 bb 94 e4 86 bc 3c 50 8f bc
       -0.0278975 -0.002582375 -0.016466416 -0.017494313
000290 10 67 79 3b 7f 9a 06 3d 80 e8 6a 3c 4a 6d dd 3c
       0.0038055815 0.032862183 0.014337659 0.027029652
0002a0 1e d3 24 bc 40 77 10 3c 50 a9 93 3c 74 27 3e 3c
       -0.0100601 0.008817494 0.01802507 0.011606086
0002b0 d0 af 0b 3b 1c 5a cd bc 74 33 9d 3c 92 22 4f bc
       0.002131451 -0.025067382 0.019189574 -0.01264252
0002c0 04 ee 9a 3c 87 04 da bc 76 61 90 3c 2f c7 05 3d
       0.018912323 -0.026613487 0.017624598 0.03266066
0002d0 a9 72 c5 bc c0 67 35 ba 00 af e2 b9 c3 72 ca bc
       -0.024102526 -0.0006920062 -0.00043236464 -0.024712926
0002e0 24 e1 bb 3c 9a 61 9c 3c a4 24 78 3c ac 9f 24 bc
       0.022934504 0.019089509 0.015145455 -0.010047834
0002f0 1a 60 dc bc 34 2a 27 3c 98 35 83 bc 34 2b ba bc
       -0.026901294 0.010202933 -0.016016766 -0.022725679
000300 d4 9f bd bc 92 77 e1 bc 52 48 a3 bc 92 e7 02 bc
       -0.023147501 -0.027522836 -0.019931946 -0.007989781
000310 34 f9 cc bc c0 57 9d 3a ca 2b 90 3c 6c 31 fc bc
       -0.025021173 0.0012004301 0.017599005 -0.030785285
000320 70 8c 06 3c c7 e2 04 3d 98 a7 82 bc f0 cf e0 bb
       0.008212194 0.032442834 -0.015949056 -0.0068607256
000330 fc 2a 1d bc 9a 52 69 bc 56 fe 13 bc 6c cd 06 3c
       -0.009592768 -0.014240885 -0.009032806 0.008227687
000340 30 2b 46 3b 7c f9 eb 3c 18 a4 ac bc 00 86 5f 39
       0.0030238144 0.028805487 -0.02107434 0.00021316856
000350 e0 77 74 3c 06 3c a8 3c ce 44 bf bc b0 9e 27 bc
       0.014921159 0.020536434 -0.023348238 -0.010230705
000360 42 02 01 bd 60 43 86 ba aa 39 ab 3c 7c cf 32 bc
       -0.031496294 -0.0010243468 0.02090152 -0.010913726
000370 18 23 a0 3b f8 5a 03 3c 1e 19 e7 3c e6 69 9d 3c
       0.004886996 0.008017294 0.028210219 0.019215535
000380 60 66 e0 3b 50 02 2f 3c 28 ef 4d 3c 96 1e 58 bc
       0.0068481416 0.010681704 0.012569226 -0.013190886
000390 25 4a 9a bc fe 68 93 bc 18 38 c5 3b d0 15 d0 3b
       -0.018834183 -0.0179944 0.00601865 0.0063502565
0003a0 83 2c d2 bc fa b3 e4 3c af d7 82 bc b6 f4 d2 bc
       -0.02565599 0.02791785 -0.015971987 -0.025751453
0003b0 60 f1 8b bc 2c 0a c3 bb 7a 47 aa 3c 38 98 49 3c
       -0.01708287 -0.0059521403 0.020786036 0.012304358
0003c0 08 7b ac bb cc 36 d1 bb 60 9b 33 3c 60 af 49 3c
       -0.00526369 -0.006384706 0.010962337 0.012309879
0003d0 25 5c f8 bc 70 60 12 bc 6d 1d 04 3d 98 b6 51 3c
       -0.030317375 -0.008934125 0.032254625 0.012799881
0003e0 d2 85 7a bc b0 5b b2 3b e0 b2 8c bc 96 fb fe 3c
       -0.015290694 0.005443059 -0.017175138 0.031125825
0003f0 20 fc 9b bc 40 ea 2a 3a c0 8c ce 3b 80 bb a2 bb
       -0.019041121 0.00065198913 0.0063034 -0.0049661994

hyper_w2.0.bias f4 [64]
000000 f0 ce 75 3b 02 91 d6 3c 90 df 2f 3c 8a ed ff 3c
       0.0037507378 0.026192192 0.010734454 0.031241197
000010 80 ed de 3a 00 fd 33 b9 e6 23 f2 3c 84 7f 43 3c
       0.0017008036 -0.0001716502 0.029558133 0.011932258
000020 7c df 5b 3c 20 50 87 3a 92 6f aa 3c c0 5d f4 ba
       0.013419982 0.0010323562 0.020805154 -0.0018643662
000030 50 87 56 3c c5 de 84 bc c8 37 34 3c d4 7d 83 bc
       0.013093784 -0.016219506 0.010999627 -0.01605121
000040 fa 73 9c bc 30 0c b8 3c dc 6d 94 3c 7c e1 e0 3c
       -0.01909827 0.022466749 0.018118791 0.02745127
000050 80 cf 97 39 88 1b bd 3c ce 2d ac 3c 6e c5 d0 3c
       0.00028955564 0.023084417 0.021017935 0.025484767
000060 18 d2 cc 3c ca 20 dc 3c 3e 3f ef 3c 20 16 e3 ba
       0.025002524 0.026871104 0.02920496 -0.0017325319
000070 b8 11 1d 3c 98 a0 30 bb e0 32 49 3b c4 6d 8e bb
       0.009586744 -0.002695119 0.003070049 -0.004346581
000080 c0 b7 fd 3b 98 7b 33 bb 0e af a3 bc 36 70 cf bc
       0.007742852 -0.00273869 -0.019980934 -0.025322061
000090 b4 35 e2 3c e8 9e bc bb 52 08 bb 3c 76 bf 85 bc
       0.027613498 -0.005756248 0.022831116 -0.016326647
0000a0 e8 a9 fa 3b 5a ea f7 3c f0 37 1c 3b 6d 1f 05 bd
       0.007649649 0.030263115 0.0023837052 -0.032500673
0000b0 44 e4 be 3c 80 87 7b bc a8 bd 3e bb 1a d3 ff bc
       0.023302205 -0.01535213 -0.0029104743 -0.03122859
0000c0 e0 84 c0 3c 37 f5 03 bd 70 0f 4d 3c c8 0f e6 3c
       0.02350086 -0.032216277 0.012515888 0.028083697
0000d0 40 6c 32 ba 82 c2 ae 3c 40 e9 08 bc b0 cf 8e 3c
       -0.00068062916 0.021332983 -0.008356392 0.017433017
0000e0 3e 87 99 3c 56 76 7b bc 30 20 57 bb 69 7f 01 3d
       0.018741246 -0.015348038 -0.0032825582 0.03161565
0000f0 68 dd 88 3b 62 d5 02 bd 1e 04 a8 3c c5 d5 87 bc
       0.0041767843 -0.03194178 0.020509776 -0.016581425

hyper_w2.2.weight f4 [32, 64]
000000 80 a2 f4 bd d4 ee 78 bd 08 f5 05 bd c0 a7 d7 3d
       -0.11945057 -0.06077464 -0.032704383 0.10530043
000010 c0 15 08 3d 3a 7d d5 3d 80 2a 8e bc 20 8f c9 bc
       0.033223867 0.10424276 -0.01735425 -0.02460438
000020 ea 81 aa bd 20 ec 7d bd 48 a0 d0 3d 80 83 5d 3c
       -0.083255604 -0.061992764 0.10186821 0.013520122
000030 28 da a5 bd 04 0c 80 3d ce ae a4 3d c0 5e aa bd
       -0.08098251 0.06252292 0.08041154 -0.083188534
000040 06 86 84 bd e2 b2 e3 bd 90 97 90 bd d2 c8 f1 3d
       -0.064708754 -0.111181036 -0.07060158 0.118058816
000050 1e 5d b8 bd f8 d3 8a bc 7e b0 fc 3d c0 d7 80 3d
       -0.09002136 -0.016946778 0.12338351 0.06291151
000060 5a ad a3 bd d0 27 a8 3c a6 86 f8 3d 98 df c0 bc
       -0.079920486 0.020526797 0.12135057 -0.023544118
000070 b0 c8 a0 3d 70 b9 75 3d cc f0 3c bd a2 df ed bd
       0.07850778 0.0599913 -0.04612808 -0.1161492
000080 c4 39 d8 3d b8 6b 95 bc 68 6a 63 3d c4 e6 ac bd
       0.10557893 -0.01823984 0.0555214 -0.084424525
000090 30 9c de bc 5a 6b a4 3d dc 74 b2 3d 50 9b 96 3d
       -0.027174085 0.08028288 0.087136954 0.07353842
0000a0 60 5c a1 bc 78 c4 d5 bd b0 57 fa bd 38 d4 cd 3d
       -0.019697368 -0.10437864 -0.12223756 0.10050243
0000b0 f4 76 9c bd 70 0c ac 3c 80 13 61 3c 00 b0 c0 bd
       -0.07639876 0.021002024 0.013737559 -0.09408569
0000c0 78 07 33 3d b0 25 f7 3c 60 8f 4c bd f4 85 b5 3d
       0.043708295 0.030169338 -0.04994142 0.0886344
0000d0 84 4c ae 3d 04 ba e8 bd 56 90 ae 3d 1c d7 93 bd
       0.08510688 -0.11363605 0.08523624 -0.07218763
0000e0 80 3b c8 bb 70 45 60 3c 00 26 48 3d 7e 9a d0 3d
       -0.0061106086 0.01368843 0.048864365 0.10185717
0000f0 9e 23 8a 3d 58 54 a2 3c f2 5f bb 3d c0 cf 9b bb
       0.06745075 0.019815609 0.091491595 -0.0047549903
000100 40 73 5b 3b 76 52 da bd 60 01 2d 3d 24 9b 79 3d
       0.0033485442 -0.106602594 0.04223764 0.06093897
000110 10 88 67 3c da 93 cf bd e8 e7 df bc 8e a1 e6 bd
       0.014131561 -0.10135622 -0.027332261 -0.11261283
000120 ca a1 a3 bd 08 6a 97 3c 50 e6 cc bc 50 09 c9 3d
       -0.07989843 0.018483177 -0.025012165 0.09816229
000130 b0 f3 60 3d d8 c6 ab 3c 7a 17 f0 3d 8c ac 8b 3d
       0.0549199 0.02096884 0.11723228 0.0682002
000140 f8 03 cc 3c f4 c5 e0 bd 80 32 92 bb 00 7b bc 3c
       0.024904236 -0.109752566 -0.0044615865 0.02300787
000150 b8 77 25 bd 94 6a 78 3d 00 9a 10 ba ce 94 af 3d
       -0.040397376 0.060648516 -0.0005516112 0.08573304
000160 84 44 a6 3d 26 65 8f bd 00 77 60 3d b8 ee dd 3d
       0.08118537 -0.070017144 0.054800987 0.108365476
000170 c0 1d c6 bb a6 ef c6 bd 40 ef 82 bc f8 2b 54 bd
       -0.006046027 -0.09713678 -0.015983224 -0.051799744
000180 b8 fc 68 bd 34 9d 5f bd fc 40 06 3d 5c cd 7d 3d
       -0.056881636 -0.05459328 0.032776818 0.061963424
000190 1a 69 fe 3d 78 ae 07 3d 00 ea 5d 3c 80 40 c1 bd
       0.1242239 0.03312537 0.0135445595 -0.094361305
0001a0 d4 ea 44 3d 58 e1 98 3d 12 90 c9 bd e0 53 d9 bd
       0.048075512 0.07464856 -0.09841932 -0.10611701
0001b0 c0 e0 87 3c c0 71 13 3b 8e c7 bb 3d 7a 1c f8 3d
       0.016586661 0.002249822 0.091689214 0.121148065
0001c0 5c 58 e5 3d c6 64 d7 3d e0 1b 42 3d 8c 9f 53 bd
       0.11198494 0.10517268 0.047389865 -0.051665828
0001d0 6e 72 95 3d 20 1c 75 bc 7a 50 cc bd 78 cd a2 3d
       0.07297216 -0.014960319 -0.09976287 0.07949346
0001e0 c2 33 fb bd ee 62 d8 3d a8 ec 92 bd 80 0d 50 bd
       -0.122657314 0.10565744 -0.07174045 -0.050794125
0001f0 86 62 cd 3d 28 be e7 bc 1c 28 40 bd d0 91 00 3c
       0.100285575 -0.028288916 -0.04691325 0.007847264
000200 f0 3c bd bd 78 9c f7 3c 9c e9 76 3d 5a 26 f5 3d
       -0.092401385 0.030225977 0.06028138 0.119702056
000210 42 a5 e2 3d 9c 7e 5b 3d a8 c0 ee 3d 68 98 ef 3c
       0.11066677 0.05358754 0.1165784 0.029247478
000220 ac ff 6a bd 4c c3 ac bd 86 76 bc 3d f2 cd f2 3d
       -0.057372734 -0.084356874 0.09202294 0.11855687
000230 98 c1 3d 3d f8 1b af bc 40 23 7b 3c 1a 2c c6 3d
       0.046327204 -0.021375641 0.0153282285 0.096763805
000240 dc 0e 5f bd 78 ab 72 3d 60 81 e0 3c 36 f2 a5 bd
       -0.05445753 0.059245557 0.02740544 -0.08102839
000250 18 c8 ec bc f8 63 f0 bc aa 55 b0 3d c8 88 31 3d
       -0.028904006 -0.029344544 0.08610089 0.043343335
000260 90 04 cf 3d c8 5d d7 3c 0e 27 94 3d 30 d3 9b 3c
       0.10108292 0.026289836 0.072340116 0.0190216
000270 20 ed ab 3d e0 22 f6 3d c4 d3 48 bd c2 65 ec 3d
       0.083948374 0.12018371 -0.04903008 0.11542846
000280 2c 17 ec bd d2 76 f5 bd a4 cb 9d 3d 08 8a 63 3d
       -0.11527857 -0.11985554 0.07704857 0.05555156
000290 ea 23 cb 3d ac d0 96 3d ac 77 e6 3d c4 9e 65 3d
       0.099189594 0.0736402 0.11253294 0.056059614
0002a0 80 a1 7d 3b 30 fb e3 3d c0 cd 74 3d c0 09 9b bd
       0.0038700998 0.111318946 0.05976653 -0.07570219
0002b0 30 cb 02 bc 50 a2 1f 3c a0 0b e8 bc 20 d1 b9 bb
       -0.007983014 0.009743288 -0.028325856 -0.0056706816
0002c0 50 ef f4 bc 00 7b c0 ba 50 b3 7c 3c a6 38 b2 3d
       -0.02989927 -0.0014685094 0.015423611 0.08702211
0002d0 a8 63 ae bc 00 7c 9f b9 92 13 ad 3d 1c fc 01 bd
       -0.021287754 -0.0003041923 0.08450998 -0.03173457
0002e0 10 70 02 3d d8 1b ce bd b4 97 3c bd ec 59 5d 3d
       0.031845152 -0.100639045 -0.046043113 0.054040834
0002f0 0c d0 6a bd 84 ab b4 3d 2a 86 d4 bd 1c a6 ec bd
       -0.057327315 0.088217765 -0.10377152 -0.1155512
000300 ca 56 98 bd c2 05 aa bd b6 6b 83 3d 68 1c d6 3d
       -0.07438429 -0.083018795 0.064170286 0.10454637
000310 ba 0a 87 bd 00 16 cc 3b 40 7e a3 3b 60 44 20 3c
       -0.06593843 0.0062282085 0.0049894154 0.009781927
000320 a8 d9 d7 3d 22 ef 93 3d f0 b1 3d 3c 66 02 d2 3d
       0.105395615 0.07223345 0.011578068 0.10254364
000330 a0 a3 c9 bb 0c 6f cc 3d 30 6b 7b 3c 4c e4 e9 bd
       -0.006153539 0.09982118 0.01534538 -0.11420497
000340 e0 cb 17 3d 68 bf 66 bd 10 35 c0 3c 30 6c c1 bd
       0.037059665 -0.056334883 0.023462802 -0.09444463
000350 9e c9 94 bd 88 fc 47 3d 90 db 87 bc 34 6c cb bd
       -0.07265018 0.048824817 -0.016584188 -0.099327475
000360 90 6e fe bc 14 40 c4 bd b8 72 f1 3c 40 0d 30 bc
       -0.03105858 -0.095825344 0.029473647 -0.010745347
000370 cc 09 36 3d 06 db f9 3d ac aa 2d 3d 8c d4 b5 3d
       0.044442937 0.121999785 0.042399094 0.08878431
000380 6a 25 b0 bd 26 62 b5 3d 4a d0 83 3d e0 d2 58 3c
       -0.08600886 0.08856611 0.06436212 0.01323387
000390 40 9f 32 bb a0 2a c3 3c 4c e7 0e bd 52 cb c3 3d
       -0.0027255565 0.023824036 -0.03488855 0.09560265
0003a0 78 0f 8c 3d 00 62 19 3a 00 2f 0c bd 00 c4 3c bb
       0.06838888 0.000585109 -0.03422451 -0.0028803349
0003b0 98 5f 9a bd 1e d9 ef bd 70 91 0f bd 32 db 9e 3d
       -0.07537764 -0.11711334 -0.03505081 0.07756652
0003c0 6c 6a 92 bd f4 c4 b2 bd 10 7b ff bd e8 6d 79 3d
       -0.071492046 -0.08728972 -0.12474644 0.06089583
0003d0 6c e1 d0 3d 34 bd 61 bd fe a1 f8 bd d4 f9 35 bd
       0.10199246 -0.05511208 -0.121402726 -0.044427708
0003e0 80 d3 48 3d 2a c2 eb 3d 06 fc aa bd 10 fd 5b bc
       0.049029827 0.11511643 -0.08348851 -0.013427034
0003f0 24 cd 23 bd 6c 62 9e bd b0 9c 93 3c 14 fb e4 bd
       -0.03999056 -0.07733616 0.01801905 -0.11180702

hyper_w2.2.bias f4 [32]
000000 58 39 93 3d 6e b8 a1 bd 70 e2 5c 3c ba 36 c6 3d
       0.07188672 -0.07896505 0.013481721 0.09678407
000010 74 52 2a bd 30 20 57 3d 90 1f 43 bd e4 da 29 bd
       -0.04158254 0.05252093 -0.047637522 -0.041468516
000020 70 37 f6 bd cc ed ad 3d 98 51 aa bc e6 1d 9a 3d
       -0.120222926 0.08492622 -0.02079086 0.07525234
000030 96 f1 ab bd da 75 a3 bd 00 6e 85 3d ae 31 ab bd
       -0.08395688 -0.07981463 0.065151215 -0.08359085
000040 c4 d7 52 bd 60 15 97 3d 50 5d e0 bc 40 58 dc 3d
       -0.0514753 0.07377124 -0.027388245 0.1075902
000050 60 89 72 3c 28 fb 78 bd 8c e7 5c 3d e0 94 cb bc
       0.014803261 -0.060786396 0.053931758 -0.024851263
000060 dc a3 80 3d c0 1b da 3b 88 58 ca 3c 0a 88 98 bd
       0.06281254 0.00665614 0.024700418 -0.074478224
000070 ee 39 c6 bd 5c 11 35 3d f0 94 f1 3d 3a 85 cb 3d
       -0.09679018 0.04420601 0.11795986 0.0993752

hyper_b1.weight f4 [32, 900]
000000 17 80 00 3d 62 68 dd 3c 17 5b 04 3d e5 19 d7 bc
       0.031372156 0.027027313 0.032313433 -0.026257465
000010 3f e1 02 bd 70 4b bd bc 38 b2 db bc ef 83 8b bc
       -0.031953093 -0.02310726 -0.02681838 -0.017030684
000020 81 45 e2 bc 86 72 91 3c 48 4d 54 3c 58 88 a0 3b
       -0.027621033 0.017754804 0.012957878 0.004899066
000030 68 2e 5a 3c 70 1e 93 bc a8 ed 10 3c 6e 31 ab bc
       0.013316728 -0.01795885 0.008845724 -0.020897593
000040 eb ce 92 bc 3c 76 5e bc 80 00 23 3c d4 74 ed 3c
       -0.017920932 -0.013577994 0.00994885 0.028986372
000050 68 e1 73 3c 5a a7 5c bc e9 78 9b bc 46 2e 6c bc
       0.014885284 -0.013467634 -0.018978553 -0.014415329
000060 b2 4b f7 3c 6a a8 90 3c 83 8e 01 bd e5 66 8c bc
       0.030187462 0.017658431 -0.03163005 -0.017138908
000070 44 55 cd 3c 50 0f c2 3b 84 19 c1 3c fc 92 59 bc
       0.025065072 0.0059222355 0.023571737 -0.013279673
000080 4e 7c fe 3c 80 f4 09 3a cd b6 04 3d 34 04 41 bc
       0.031065132 0.00052625686 0.032400895 -0.011780787
000090 50 54 be bc c0 bc 00 3c d6 30 9f 3c b0 f0 44 3b
       -0.023233563 0.0078575015 0.019432466 0.0030050687
0000a0 e2 f3 fd 3c ae d2 fb bc 87 b4 ae bc 77 99 02 3d
       0.031000081 -0.030740108 -0.021326317 0.031884637
0000b0 2c 53 74 bc 40 1a 8e 3b d2 a5 36 bc a7 34 98 bc
       -0.014912408 0.0043366253 -0.011147933 -0.018579794
0000c0 36 27 d0 bc c0 8c 86 ba 9a 1a e5 3c b0 d5 56 bc
       -0.025409322 -0.0010265335 0.027966786 -0.0131124705
0000d0 e7 ac 9b bc d0 57 b0 3b 58 af a3 3b 60 89 96 bc
       -0.019003345 0.005381562 0.004995268 -0.018376052
0000e0 0a 47 44 bc 77 72 04 bd 3c dc 8e bb 00 57 0d 39
       -0.011979828 -0.032335725 -0.00435975 0.00013479218
0000f0 f0 91 a8 3c 00 65 86 39 ae 96 90 3c 36 e9 eb bc
       0.0205774 0.00025633723 0.017649975 -0.028797727
000100 f8 23 51 bc d6 2e c9 bc 60 96 36 3b fa 29 d3 3c
       -0.012764923 -0.024558466 0.0027860627 0.025776852
000110 60 fe 8e ba 18 8d c6 3c b4 a5 5e bc e0 c8 2f 3c
       -0.001090955 0.0242372 -0.013589311 0.010729045
000120 00 0b 55 ba 60 0b a5 3b 00 1d b2 b9 ec 4d ee bc
       -0.00081269443 0.0050367564 -0.00033972412 -0.02908989
000130 6e dd 9f bc 87 5b 98 bc 50 ef f9 bc 87 65 04 3d
       -0.019514766 -0.018598331 -0.03050962 0.032323387
000140 f0 6d 28 bb 9a 64 e0 bc de 53 62 bc 78 8b 00 3c
       -0.0025700293 -0.02739172 -0.013813941 0.007845752
000150 04 2c 48 3c d5 11 08 3d 84 90 94 3c 34 95 73 3c
       0.012217525 0.03322013 0.018135317 0.014867116
000160 78 6f 3f 3c ce ee a9 3c c5 b0 87 bc 4e 8c 3e bc
       0.011684291 0.020743754 -0.016563782 -0.011630131
000170 e0 a0 9c 3c 9c d6 39 3c bc b7 0d 3c 3c 03 c6 bb
       0.01911968 0.011342671 0.008649763 -0.006042866
000180 81 56 e6 bc 38 3b 74 bb 00 6a c1 3a ea af 97 3c
       -0.02811742 -0.0037266742 0.0014756322 0.0185165
000190 0c 64 c1 bc 45 a4 96 bc 6d d7 07 bd 66 d0 1f bc
       -0.023607276 -0.018388877 -0.03316443 -0.009754276
0001a0 b0 a2 e4 bc 78 4a 5a 3c 6a 54 dd 3c 88 57 e6 3b
       -0.027909607 0.013323419 0.02701779 0.0070294775
0001b0 12 74 8e 3c c4 2e 4a 3c 36 c6 e2 3c 30 f5 41 bb
       0.017389331 0.012340251 0.027682405 -0.0029595606
0001c0 f0 e9 f8 3b 07 75 cc bc b4 ff 87 bc 0e 99 71 bc
       0.007596247 -0.024958147 -0.016601421 -0.014745964
0001d0 e0 19 98 bb fc a6 b9 3c 10 34 ae bc ba 5b 02 bd
       -0.0046417564 0.022662632 -0.02126506 -0.03182576
0001e0 80 2f e0 3a 8a 1f 12 bc 88 4c 83 3b da c8 0f bc
       0.0017104 -0.008918652 0.004006926 -0.008775914
0001f0 c4 26 4f 3c 7c cc 3d bc 42 c9 95 3c 68 fc 70 3c
       0.01264352 -0.011584397 0.018284444 0.014708616
000200 80 dd 81 bb 50 af 27 3c f0 6d fc bb 4e a5 11 bc
       -0.0039631724 0.010234669 -0.0077035353 -0.008889509
000210 06 93 99 3c 2c e9 85 3c f4 30 0a 3c d1 57 02 3d
       0.018746864 0.016346537 0.008434523 0.03182203
000220 7e 59 f7 3c b0 2e 29 3c 00 fe 3b bb 50 c8 f5 3b
       0.03019404 0.010326073 -0.0028685331 0.0075006858
000230 94 ea 20 3c d8 33 fd 3b 36 5f c1 3c b8 c6 63 3c
       0.009821553 0.0077271275 0.02360497 0.013902359
000240 54 aa 25 3c 80 da f9 3b 3c af b5 bc 64 eb 10 3c
       0.01011141 0.007624924 -0.022178285 0.008845184
000250 c0 51 9a 3b 96 8d 22 bc 1c 09 99 bc 80 e6 12 3c
       0.0047094524 -0.009921452 -0.018681102 0.008966088
000260 4f a9 05 3d 80 13 a3 39 b4 b3 6f 3c 40 89 20 bc
       0.03263217 0.0003110431 0.014630247 -0.009798348
000270 50 9d 28 3c e0 15 94 bb 95 e5 06 3d 78 1d 2a 3c
       0.0102914125 -0.0045192093 0.03293379 0.010383002
000280 90 7e a2 bc 0e 4f 91 3c f6 1c ba bc ab e3 84 bc
       -0.01983574 0.017737892 -0.022718888 -0.016221842
000290 5a 76 6d bc 7c 91 21 bc 12 e3 83 3c c4 39 85 3c
       -0.014493549 -0.009861346 0.016099487 0.016262896
0002a0 ca a3 f7 3c 84 42 b4 3c 92 4a 43 bc 25 28 bf bc
       0.030229468 0.022004373 -0.011919634 -0.023334572
0002b0 0e 56 f1 3c 1e 79 9c 3c da 58 f2 3c be 36 af 3c
       0.02945998 0.019100722 0.029583383 0.021388408
0002c0 4e 29 a4 3c d6 59 c0 bc c0 cd 3a 3c 2c 63 b3 bb
       0.020039227 -0.023480337 0.011401594 -0.0054744687
0002d0 18 9e f8 bc 30 54 ff bc d2 b4 66 bc e2 19 a5 bc
       -0.030348822 -0.031168073 -0.014081197 -0.020153943
0002e0 a2 1e ae bc f9 7e 03 3d 10 f1 b7 3b 2c 5d 9c 3c
       -0.021254841 0.032103512 0.0056134537 0.019087397
0002f0 78 57 fd bb 3a 3c eb bc 96 b4 59 bc bc 92 56 bc
       -0.0077313744 -0.028715242 -0.013287684 -0.013096508
000300 1e cb f4 3c 4c 31 7a 3c 74 2f 3c 3c b4 58 5f 3c
       0.02988201 0.015270542 0.011485923 0.013631988
000310 b2 dd a0 bc 00 20 61 ba c0 cd 00 bd da 15 25 bc
       -0.019636963 -0.0008587837 -0.03144622 -0.010076011
000320 00 4e cb ba 78 4b f0 3b a2 c8 18 bc c8 ca c2 3b
       -0.0015510917 0.0073332153 -0.009325178 0.0059445836
000330 40 f9 3e bc 43 c8 fa bc ec 1c e3 bc 52 2f 37 bc
       -0.0116561055 -0.03061307 -0.027723752 -0.011180716
000340 e9 4d c6 bc 34 88 9f bc 00 a0 e4 3a 74 cb eb bc
       -0.024207072 -0.019474126 0.0017442703 -0.028783537
000350 07 86 07 3d f4 cd 6c 3c d4 da 01 3c ce 60 e3 bc
       0.033086803 0.0144534 0.007925708 -0.027756121
000360 bc c7 9a bb d0 86 c5 3c 9c cb ba bc ec ed 7e 3c
       -0.004723517 0.024112135 -0.022802167 0.015559655
000370 9e ec f5 3c 26 73 ab 3c 50 3c e7 bc 2a 11 fc 3c
       0.030020054 0.02092893 -0.028227001 0.030769903
000380 f2 bb 80 bc e5 fb 83 bc 67 30 a1 bc 00 ef a0 39
       -0.01571462 -0.016111324 -0.0196764 0.00030695647
000390 68 1f b6 3c a4 4c 77 3c 96 98 a7 3c 12 e6 8a bc
       0.022231773 0.015093956 0.0204585 -0.01695541
0003a0 80 ee 83 bc 20 22 a7 3a 5e 69 93 3c d2 b3 a3 bc
       -0.016104937 0.0012751259 0.017994579 -0.019983206
0003b0 2b f4 a9 bc 9a 0b f9 3c 65 02 90 bc 9e 92 b4 bc
       -0.020746311 0.03040104 -0.017579267 -0.022042569
0003c0 e0 08 54 3b a4 86 b0 bb 1c 1a c6 3c b0 a3 69 3c
       0.0032353923 -0.005387144 0.024182372 0.014260218
0003d0 40 6c b5 3a 68 33 df 3b f8 c5 cf bb 89 f5 03 3d
       0.0013841465 0.006811548 -0.0063407384 0.032216582
0003e0 a7 b2 d6 bc 9c 0f a9 3c d6 4c 8d bc 23 cd c3 bc
       -0.026208235 0.020637326 -0.017248552 -0.023901528
0003f0 a8 f3 63 bb bc 46 b7 bb 22 0b 3f bc d2 db a0 3c
       -0.0034782682 -0.005593149 -0.011660369 0.019636068

hyper_b1.bias f4 [32]
000000 74 ed e5 bc 30 70 72 3c 47 88 91 bc e0 d5 f5 3b
       -0.028067328 0.014797255 -0.017765177 0.0075023025
000010 ee 1c 91 3c e8 eb ad bb 20 97 88 ba 22 77 f6 3c
       0.01771399 -0.005307663 -0.0010421015 0.030086104
000020 f0 b7 73 bb 6e 9f c6 3c 50 56 21 3c ac a6 0f 3c
       -0.0037188493 0.024245944 0.009847239 0.008767765
000030 cc b8 62 3c f4 57 43 3c 12 31 fb bc ba 55 84 bc
       0.013838004 0.011922825 -0.030663047 -0.016154159
000040 20 d5 80 bc 84 0e c7 3c 2c 04 d6 3c b4 2f ce bc
       -0.015726626 0.024298914 0.026125036 -0.025169231
000050 8c 0e 64 3c 60 cb 93 3b c0 81 d1 3c 00 3f 73 3c
       0.013919484 0.004510328 0.025574565 0.014846563
000060 9a 7e 90 3c 68 87 fb 3b 8c a9 c9 3c a0 b4 db 3b
       0.017638493 0.007676054 0.024616979 0.006704882
000070 d0 71 c0 3c 6c f0 be bc 64 5e 37 3c 1c 66 ce bb
       0.02349177 -0.023308001 0.011191938 -0.0062987935
