models/v3/target_agent_net.pth (torch, 87192 bytes, 4 tensors)

fc1.weight f4 [64, 326]
000000 80 f4 93 bc 51 ce bb 3c 1b f7 12 bb e1 9a 23 bd
       -0.018060923 0.022925528 -0.0022425118 -0.039942626
000010 b0 4c 89 bc 6c 53 9e bd 47 a5 b0 3d c0 87 3a 3d
       -0.0167602 -0.07730755 0.08625274 0.045539618
000020 b8 87 ac bd 60 65 03 bd c5 75 82 3d dd 78 8b bd
       -0.08424324 -0.0320791 0.06370119 -0.06810162
000030 d7 96 67 bd 6c d2 d0 3c 10 5e b1 3c 4c de b1 bc
       -0.056540336 0.025490962 0.021651298 -0.021712445
000040 46 52 3f 3d ff 9e fb 3c e9 65 b7 3d 92 dc 59 bc
       0.04670932 0.030715464 0.08954985 -0.013297217
000050 ff d6 9d 3d 75 81 a3 3d 70 41 f2 3d 05 54 95 bc
       0.07707023 0.07983676 0.118288875 -0.01822854
000060 09 6b bc 3d 20 c7 36 3d 8f a1 6f 3d 90 52 7c bd
       0.09200103 0.044623494 0.058503684 -0.061602175
000070 e1 ad 51 39 ca d4 07 bd 78 7b 34 3d 1d c7 0a bd
       0.00019996568 -0.033161916 0.04406306 -0.033881295
000080 c8 f3 5a 3c be 62 44 bd 1e 94 8b bd 90 1c b4 3c
       0.013363786 -0.04794573 -0.068153605 0.021986276
000090 1c 8d 53 bc 44 30 3c bd 7d 69 0b 3d 75 19 2a bd
       -0.012912061 -0.045944467 0.03403615 -0.041528184
0000a0 63 a5 42 3c 85 92 07 3d c1 3d be 3c 6b 3d b9 bc
       0.011880252 0.033098716 0.023222806 -0.022612294
0000b0 76 95 ea 3c db 4a ea 3d 91 fb 50 bd 2a ed 48 bd
       0.028635722 0.11440059 -0.051021162 -0.049054302
0000c0 66 13 ad bc b8 27 14 bd 8d 7f 87 bc 03 86 93 3d
       -0.021127414 -0.03617069 -0.016540313 0.07203295
0000d0 98 44 7f bd a7 89 4f 3d 00 89 90 bc b7 41 cc bc
       -0.062321275 0.050668385 -0.017643452 -0.024933679
0000e0 69 3f 83 3d 45 66 e1 3c ca 83 33 bc a4 c8 7a bd
       0.06408579 0.027514586 -0.010956714 -0.061226502
0000f0 83 72 18 bd 43 d7 d5 bc d2 b9 16 bd be bd 1f be
       -0.037218582 -0.026103621 -0.036798306 -0.15599725
000100 05 36 79 3d 90 90 4c bd 77 6b a4 bd c4 2f 34 bc
       0.060842533 -0.049942553 -0.0802831 -0.010997716
000110 59 98 3f 3c 0f 4b b1 bd a2 00 e9 bc e2 8a 12 bd
       0.011694037 -0.086568944 -0.028442685 -0.03577698
000120 6b a2 ad 3d 74 20 40 3d 96 3d 95 3d 63 90 aa bc
       0.084782444 0.04690595 0.07287137 -0.020820802
000130 37 2a 01 3c 05 a2 cb bc a6 ac 4c bd d7 d5 05 3e
       0.0078836 -0.02485753 -0.049969338 0.13069855
000140 1d 73 43 bd 65 ac 5b bd c5 0e 25 bd f7 dd 3b 3d
       -0.047717202 -0.053631205 -0.04029729 0.04586598
000150 c1 82 7b 3c a7 fa 30 3c 55 b3 01 3d 83 4c e2 3c
       0.015350998 0.010801948 0.031665165 0.027624374
000160 91 15 2e bd f7 74 9f bc 3c e3 b9 bd 8d cb ab 3d
       -0.042501036 -0.019464953 -0.09076545 0.083884336
000170 80 c8 48 bc 77 20 3b be f4 23 ff bc f0 1d 49 3d
       -0.012254834 -0.18274103 -0.031145073 0.049100816
000180 76 b2 82 bd 67 16 c1 bc 1d c5 d7 3c 96 30 29 3d
       -0.06381695 -0.023570253 0.026339108 0.0413061
000190 d7 4d ee bc 6f 96 4a bd 96 a5 eb bd 97 83 1f 3d
       -0.029089851 -0.04945987 -0.115061924 0.038943853
0001a0 f4 d7 40 bd 62 07 6a 3d d1 86 fa bd 98 d9 87 bd
       -0.04708095 0.057135947 -0.122327454 -0.066332996
0001b0 7c af 75 3c 45 24 b2 bd 57 3c b4 bd 22 14 b9 bc
       0.014995452 -0.08698324 -0.088005714 -0.022592608
0001c0 06 3b f2 bc 9f f9 11 bd df 69 93 bd 40 e4 e6 bb
       -0.02956916 -0.035638448 -0.07197928 -0.0070462525
0001d0 f6 92 de 3d c6 c7 02 bc 0c 76 a0 3d 42 db 76 3d
       0.10867874 -0.0079822 0.07835016 0.060267694
0001e0 c7 8d aa bc 92 b0 61 bd ff 31 c6 3c a9 34 6b bc
       -0.020819558 -0.05510003 0.024193762 -0.014355817
0001f0 23 c8 d8 bb 79 1d 82 bc fb 8e 94 bd 39 42 28 bd
       -0.006615655 -0.015883194 -0.07253834 -0.04107878
000200 b9 95 c9 3c 17 f1 cf 3d ff a5 31 bd cb a9 0c bd
       0.024607526 0.10153406 -0.043371197 -0.034341615
000210 e9 34 7e 3d 25 31 21 3e 4d bf b7 bc 45 f7 d2 bc
       0.062062178 0.15741403 -0.022430087 -0.025752673
000220 5a 50 2b 3d be fb 6e bc e3 22 3b 3b 9f c3 09 bd
       0.041824676 -0.014586387 0.002855473 -0.033633824
000230 91 f7 09 bd 70 ec ec bb 79 a6 b2 bd fb 36 9d 3b
       -0.033683363 -0.007230334 -0.087231584 0.004797814
000240 b0 43 10 bd 80 10 59 bd 2f 03 dd bd 22 83 13 3e
       -0.0352208 -0.05299425 -0.10791623 0.14405492
000250 1b fe 92 bd 89 2e e7 3b 2c 75 2d 3d 0c ef 04 bd
       -0.07177373 0.007055108 0.042348072 -0.032454535
000260 03 3e 89 3c 34 1a 4b 3d 69 59 3c 3d 22 90 20 bb
       0.016753202 0.049585536 0.045983706 -0.0024499972
000270 b2 b1 a6 3c ef 95 35 3d 22 87 74 bc ac 97 c9 3d
       0.020348404 0.04433244 -0.014924796 0.09843382
000280 40 1d 8b 3d 10 72 93 3d e3 5f dc 3b a4 1a 9e 3d
       0.06792688 0.0719949 0.006725298 0.07719925
000290 f2 4c 64 bd 6a 7d a8 bc b0 c4 76 bd c5 ad 7a bc
       -0.055737443 -0.020567615 -0.06024617 -0.015300219
0002a0 ee b6 22 3d 8c 5d 0a bd 7d 08 47 3d f0 e1 31 bd
       0.039725237 -0.03378062 0.04859208 -0.04342836
0002b0 a7 aa 8a 3d a1 fc 81 3d 3b 4e 65 bc 05 7c 79 ba
       0.067708306 0.06347013 -0.013995702 -0.00095170765
0002c0 be df 85 3d 76 e7 f8 bd 9f 4f 09 3e a3 44 c8 3d
       0.06536816 -0.12153523 0.1340928 0.097787164
0002d0 2d 30 26 3d 57 97 05 3e bb 11 0f 3d 6a ca b0 bc
       0.040573288 0.13046013 0.03492902 -0.021580894
0002e0 bc 9d 12 bd ff a6 2b bd b8 63 32 bd 8c e2 95 bb
       -0.03579496 -0.041907307 -0.04355213 -0.0045741256
0002f0 c1 a0 0e 3e d4 9d 87 bc 68 11 89 3a 9b d1 70 bc
       0.1392851 -0.01655475 0.0010457458 -0.014698411
000300 2f ed 23 bd de 80 59 3d 20 d6 44 3d 80 6b d0 bc
       -0.040021118 0.053101413 0.048055768 -0.025441885
000310 1e f4 68 3d c3 40 03 bc 21 ec 66 3d 01 c7 da 3c
       0.056873433 -0.008011046 0.056377534 0.02670622
000320 af 35 35 bd 0e 59 a6 3d 6a c5 b2 3c 5a 5a 1f bb
       -0.04424065 0.081224546 0.02182265 -0.0024315328
000330 f0 c4 6a 3c d9 14 41 3d 60 03 3b 3d 24 4c 2b bd
       0.01432918 0.047139022 0.045657516 -0.04182066
000340 32 dd ca 3d a2 64 62 bd aa 64 3d 3d cb 3c 8a bc
       0.09905471 -0.055271752 0.04623858 -0.016874691
000350 dd 8b 85 bd 3c 79 3e 3d 8c 26 12 3d 8d 79 f9 3c
       -0.065208174 0.046502337 0.035681292 0.030453468
000360 e6 59 fb 3c 49 85 54 3c 1d 4b 9f 3b e4 e9 89 bd
       0.030682515 0.012971231 0.004861249 -0.06734064
000370 5e 11 f3 bb 57 c7 6f bc 26 28 63 bd 54 1c 01 bc
       -0.007417842 -0.014634929 -0.05545821 -0.007880289
000380 48 2f 25 bd 6f 20 20 bd 04 a5 88 bd b9 a5 4c 3d
       -0.040328294 -0.03909343 -0.06672099 0.049962733
000390 41 a6 21 bd eb fe 88 3d 92 90 c9 3d f0 a0 c8 3c
       -0.039465193 0.06689247 0.09842028 0.024490803
0003a0 e9 83 92 bc 7f 47 3c 3b b6 b3 2e 3c 6b c1 67 bd
       -0.017885165 0.0028729138 0.010662964 -0.056580942
0003b0 5d 31 81 bd 8c d3 c0 bc 10 97 3d bd c2 3e 1b 3d
       -0.063082434 -0.023538373 -0.046286643 0.037901647
0003c0 e2 7d 07 bd f8 e6 a4 bd 87 82 82 bd 79 02 7b bd
       -0.033079036 -0.08051866 -0.06372552 -0.061281655
0003d0 de 37 87 bd 42 36 b3 3d 53 f3 c0 bd eb b4 60 bc
       -0.06602453 0.08750583 -0.094214104 -0.013715009
0003e0 1a 2c a4 3d 5e ba 85 3c a6 2a 5d 3d b9 a4 ea 3c
       0.08016224 0.016324218 0.05399575 0.028642999
0003f0 ac 26 9b 3d 58 47 4e 3d a3 dc f3 3c 67 6c ae bc
       0.075757354 0.050361007 0.029768294 -0.021291925

fc1.bias f4 [64]
000000 00 00 00 00 00 00 00 00 00 00 00 00 00 00 00 00
       0.0 0.0 0.0 0.0
000010 00 00 00 00 00 00 00 00 00 00 00 00 00 00 00 00
       0.0 0.0 0.0 0.0
000020 00 00 00 00 00 00 00 00 00 00 00 00 00 00 00 00
       0.0 0.0 0.0 0.0
000030 00 00 00 00 00 00 00 00 00 00 00 00 00 00 00 00
       0.0 0.0 0.0 0.0
000040 00 00 00 00 00 00 00 00 00 00 00 00 00 00 00 00
       0.0 0.0 0.0 0.0
000050 00 00 00 00 00 00 00 00 00 00 00 00 00 00 00 00
       0.0 0.0 0.0 0.0
000060 00 00 00 00 00 00 00 00 00 00 00 00 00 00 00 00
       0.0 0.0 0.0 0.0
000070 00 00 00 00 00 00 00 00 00 00 00 00 00 00 00 00
       0.0 0.0 0.0 0.0
000080 00 00 00 00 00 00 00 00 00 00 00 00 00 00 00 00
       0.0 0.0 0.0 0.0
000090 00 00 00 00 00 00 00 00 00 00 00 00 00 00 00 00
       0.0 0.0 0.0 0.0
0000a0 00 00 00 00 00 00 00 00 00 00 00 00 00 00 00 00
       0.0 0.0 0.0 0.0
0000b0 00 00 00 00 00 00 00 00 00 00 00 00 00 00 00 00
       0.0 0.0 0.0 0.0
0000c0 00 00 00 00 00 00 00 00 00 00 00 00 00 00 00 00
       0.0 0.0 0.0 0.0
0000d0 00 00 00 00 00 00 00 00 00 00 00 00 00 00 00 00
       0.0 0.0 0.0 0.0
0000e0 00 00 00 00 00 00 00 00 00 00 00 00 00 00 00 00
       0.0 0.0 0.0 0.0
0000f0 00 00 00 00 00 00 00 00 00 00 00 00 00 00 00 00
       0.0 0.0 0.0 0.0

fc2.weight f4 [5, 64]
000000 a0 22 97 bd 25 aa 5d be ef f1 30 bd 7e e2 17 bd
       -0.07379651 -0.21646936 -0.043199476 -0.037081234
000010 b8 4c de 3d 47 bf 10 3e 25 fd c8 bd 32 c9 42 3e
       0.10854477 0.14135467 -0.098139085 0.19022062
000020 19 83 96 bd 6a 53 c5 bd 6a 17 97 bd 82 07 b2 bd
       -0.07349224 -0.096350506 -0.07377513 -0.08692838
000030 d1 3e 71 3e c0 6f a1 3c ce 88 38 bd 8e 05 b9 3d
       0.23559119 0.019706607 -0.045052342 0.090342626
000040 ef b8 f9 3c 64 6b 96 bb 15 ac 29 bd 16 18 70 bd
       0.030483691 -0.0045904387 -0.041423876 -0.05861672
000050 00 5d a4 be ae f8 45 3d 44 7f 66 3e e5 4f a1 bd
       -0.32102203 0.048332863 0.22509485 -0.07876567
000060 15 a2 5b bd 96 ad fa bd 1f ad dd 3d c6 04 85 3d
       -0.05362137 -0.1224014 0.10824036 0.06495051
000070 b3 f9 d1 bd ee 1c 90 3d 31 79 2a 3e da d4 95 3d
       -0.102527045 0.07036768 0.16647793 0.07315989
000080 a1 9d 66 bd 83 44 6e bd 6d da ce bd 7d a4 d3 bb
       -0.05630267 -0.058170807 -0.10100255 -0.0064588175
000090 10 bd 3b 3e 82 f9 4b bd f3 05 b3 3d bf 7b 0f 3e
       0.1833384 -0.049798496 0.08741369 0.14012049
0000a0 35 2b d2 3d 97 f3 79 3e 44 70 9f 3d 4e 30 42 3d
       0.10262147 0.24409328 0.07785085 0.04740935
0000b0 1c ce 14 3c 23 d2 93 3d c5 9a 7e 3e f2 5e b2 3d
       0.009082343 0.07217815 0.24863727 0.08709516
0000c0 e2 01 86 3d cd 3f 2c 3d 64 ed 65 3e f7 9a 88 3b
       0.06543328 0.042053033 0.22453839 0.004168864
0000d0 45 ef 31 be 20 ec be bd 80 80 0e be 6d 61 fb bc
       -0.1737643 -0.09322381 -0.13916206 -0.030686105
0000e0 fe e0 95 be da f8 93 3d d4 c4 e9 bc a2 2a d2 3d
       -0.29273218 0.07225199 -0.028536238 0.10262038
0000f0 25 43 dd bd af 02 d6 bd 53 a6 51 3e 75 8c a7 3d
       -0.108038224 -0.104497306 0.20473604 0.08181087
000100 52 5e 13 be fd e0 4e 3c 26 70 53 3d 78 fc 38 3e
       -0.14391449 0.012626884 0.051620625 0.18065059
000110 38 65 9e 3c 8f a5 97 3d cd 69 50 3d 76 5d f9 3b
       0.019335374 0.07404625 0.05088215 0.0076100184
000120 8a b3 ca 3c c0 cd 85 3d 9a 7a 38 3e 05 bd 11 bb
       0.024743814 0.06533384 0.18015519 -0.0022237909
000130 36 92 01 be 72 e3 0b bc ff cd 9d 3b 56 a5 aa bd
       -0.12653431 -0.008538114 0.0048158164 -0.083323166
000140 64 44 66 bd 7a cf cb 3d 8d 44 3d 3c 26 a3 1b 3c
       -0.056217566 0.099516824 0.011551988 0.009499347
000150 3e e8 8a bd c6 81 fc bc 6c 11 21 be e1 0e fc bd
       -0.06782578 -0.0308236 -0.15729302 -0.123075254
000160 12 2f 00 bd 5f 87 d3 3d f1 c1 00 be 9c a8 e1 bc
       -0.03129489 0.10328554 -0.12573983 -0.02754622
000170 b8 8a be 3e 15 41 9f 3e 91 91 41 3e 49 2d c2 3d
       0.3721521 0.3110434 0.18903185 0.09481294
000180 b7 9c b9 3d 96 25 1c 3c 78 a7 ff bd d3 89 02 3d
       0.09063094 0.009530446 -0.12483114 0.03186972
000190 e9 08 1c 3e c0 14 95 3d f3 60 33 3d 77 10 9b 3a
       0.15237774 0.072793484 0.04379363 0.0011830468
0001a0 24 b4 34 3e bd 06 2c bc 6e 3a 0c 3e bd 9a db 3d
       0.17646843 -0.010499653 0.13694164 0.10722873
0001b0 4b 9b 24 3e 60 b4 1c 3d 4e e9 2a 3e 3f 15 10 be
       0.16074865 0.038257957 0.16690561 -0.14070605
0001c0 32 54 d7 3d 5c 50 6f 3e 4a 35 ad bd 33 74 8e 3d
       0.10514106 0.23370498 -0.0845743 0.06955757
0001d0 82 2d 9d 3c ee f0 fc bd 01 cd bc 3e 76 10 5f 3e
       0.019186739 -0.12350641 0.36875156 0.21783623
0001e0 00 3b 28 bd cd e7 56 bd 9b 57 37 bd d2 32 e4 b8
       -0.04107189 -0.052467156 -0.04476128 -0.00010881353
0001f0 1a aa b8 bd 95 21 d2 3d 99 54 45 bc 4a 8f f4 3d
       -0.09016819 0.102603115 -0.012044095 0.11941393
000200 e6 92 e3 3b 4f 9f b9 3d 88 3f 2d 3d c6 7b 94 bd
       0.006945002 0.09063589 0.042296916 -0.072501704
000210 83 b8 12 be 5b 65 7a bd d5 fa 43 bd 31 d4 11 3e
       -0.14328198 -0.061131816 -0.047846634 0.14241101
000220 0f 11 1d be bf f1 e7 3c 74 59 5c 3c 96 57 52 3e
       -0.15338539 0.028313516 0.013449062 0.20541224
000230 24 71 25 be 3f 1c 8b bc f9 f4 cd 3d 89 aa d0 3d
       -0.16156441 -0.016981242 0.100564905 0.10188777
000240 c5 2d 3d 3e 4e 72 f6 bc 83 08 5e bd 65 0b 0b 3e
       0.18474491 -0.030083802 -0.054207336 0.13578565
000250 1f af 55 3e b3 ae 85 3d a0 b4 87 3d 3b 3f ba bd
       0.20867585 0.06527462 0.06626248 -0.090940915
000260 2c 95 d4 3d 4a 31 14 be 70 88 19 be 3c 59 9c 3d
       0.10380015 -0.14471927 -0.14993453 0.076342076
000270 b8 8b 18 be 63 59 6c 3e a3 e0 6b bd 8c 89 21 3d
       -0.14897048 0.23080973 -0.057587277 0.039437816
000280 4e 08 4f be cc 72 c4 bd 4c ac 37 3d ec b5 ca bc
       -0.20218012 -0.09592208 0.04484205 -0.02474495
000290 0e c8 30 3e db 11 9d bc 38 c7 25 3e 4a 18 90 be
       0.17263815 -0.019173553 0.16189277 -0.2814353
0002a0 cd 63 4b be b1 2e 61 bc 10 d3 1c 3e 72 61 64 3d
       -0.1986229 -0.013744042 0.15314889 0.055756994
0002b0 8d 64 5f bd d8 75 0c bd 3a cf 9e 3d 05 34 18 3d
       -0.054539252 -0.034292072 0.07754369 0.037158985
0002c0 d1 19 c4 3d 49 3b 82 bd 66 20 56 3e 5a 42 84 3e
       0.095752366 -0.06358964 0.20910797 0.25831872
0002d0 68 a9 a5 bd 62 e0 af 3c a0 46 4a 3d 4e f1 1c 3e
       -0.08088952 0.021469299 0.04938376 0.15326425
0002e0 42 b3 18 3e 8b c0 45 be 99 b9 1d bd 4c e0 33 3e
       0.14912131 -0.1931173 -0.038507078 0.17566031
0002f0 25 5a 1b 3c 49 88 63 be e8 18 b2 3b 52 3e 61 3d
       0.009481941 -0.22219957 0.005435098 0.054991074
000300 43 4c 08 be 0c e4 dd bd 0a ce a7 bc ec 67 2e be
       -0.13310342 -0.10834512 -0.02048399 -0.1703183
000310 ca 63 97 bc 77 3a cd 3d 6f be f8 bd a7 d1 42 bb
       -0.0184802 0.10020917 -0.12145697 -0.0029727013
000320 d1 16 8d 3d 19 4a 1e be fd 4b 13 3e 16 0b 8d 3d
       0.068891175 -0.15457954 0.14384456 0.0688688
000330 88 b6 0b bb 5f 22 36 bd 53 74 8e 3d 33 ea 74 bd
       -0.0021318514 -0.044466373 0.06955781 -0.059793662
000340 4b 70 67 3e 4e 26 6a 3e 40 57 8b 3d 00 6e eb 3c
       0.2260143 0.22866175 0.06803751 0.028738976
000350 9e 5e 24 be b9 64 69 be af 13 cd bd 41 42 ea 3d
       -0.16051719 -0.22792329 -0.1001352 0.11438418
000360 0e 7f 97 bd 03 f1 47 be 8d ec 0d bd 6e 4a c4 bd
       -0.07397281 -0.19525532 -0.03464942 -0.09584509
000370 39 55 c3 bc 62 9f 00 be ab bd 51 3d f4 99 5b be
       -0.023844348 -0.125608 0.051206272 -0.21445447
000380 1d 5d bb bd fd a3 1a 3d 8f d6 71 3d 31 0d d9 3c
       -0.09148619 0.037754048 0.05904251 0.026495548
000390 d9 f9 12 be 9b e4 4b be 96 a3 3b be b4 5a bd bd
       -0.14353122 -0.19911425 -0.18324122 -0.09245816
0003a0 da 69 89 3d 12 bf 51 be 9f f0 e5 3d f2 59 d4 3d
       0.06709643 -0.20483044 0.112275355 0.10368718
0003b0 4d 59 31 3e e7 6a 5b 37 6a b1 8c 3c 6f d0 8a bd
       0.17319222 1.3078307e-05 0.017174441 -0.06778037
0003c0 ea b6 8b 3d 95 97 4e 3d 58 67 07 3e 71 14 6a bd
       0.068219975 0.05043753 0.13223016 -0.0571484
0003d0 17 e7 df bd 9b b2 cd bd 63 d5 2b be 7a 8d a2 3e
       -0.10932749 -0.10043832 -0.1678062 0.31748563
0003e0 6b 1d d9 3d 72 00 1b be 5f 96 06 3e 97 74 43 be
       0.10601314 -0.15136889 0.131433 -0.19087444
0003f0 d8 25 55 3c f6 12 82 3d 92 6b e2 3d 07 c0 0b be
       0.013009511 0.06351273 0.11055674 -0.13647471

fc2.bias f4 [5]
000000 00 00 00 00 00 00 00 00 00 00 00 00 00 00 00 00
       0.0 0.0 0.0 0.0
000010 00 00 00 00
       0.0
