models/v3/target_agent_net.pth (torch, 5784 bytes, 4 tensors)

fc1.weight f4 [64, 9]
000000 ca 10 8c bc 45 e0 a9 3a 95 e5 01 3e 77 fa 09 be
       -0.01709785 0.0012960514 0.12685235 -0.13474451
000010 25 13 eb bd 64 48 82 be 18 c0 1e 3d 76 92 53 be
       -0.11478261 -0.25445855 0.038757414 -0.20661339
000020 11 bd 38 bd 1f a3 5a 3e f1 c9 3f 3c 2e 56 8f be
       -0.045102183 0.21351288 0.011705861 -0.27995437
000030 9b b0 f2 be 91 84 16 3e bc 71 9e bd 06 10 f6 bd
       -0.47400364 0.14699008 -0.07736537 -0.12014775
000040 16 b2 ea bd 9f 19 ab bd 34 5c f3 bf 10 05 bd 3f
       -0.114597484 -0.08354496 -1.9012513 1.476717
000050 79 94 ef 3e a2 fe 6f be 2c 67 c6 bd 39 03 1b 39
       0.46792963 -0.23436978 -0.09687647 0.00014783152
000060 50 f4 a2 bf b7 2b e8 3e 8c 71 1c bf 83 93 47 bf
       -1.2730808 0.45345852 -0.6111076 -0.7795946
000070 cd 61 4a bf 62 e9 6e bf 6c a4 45 bf 1c 00 3e be
       -0.7905548 -0.93324864 -0.7720401 -0.18554729
000080 00 91 a6 bd 1f 8e 56 bf da ec 0a be 6a a2 c9 3e
       -0.08133125 -0.8381061 -0.13566914 0.39381725
000090 81 76 8c 3e 41 a5 60 bd 49 93 49 ba fb 10 90 bc
       0.2743416 -0.0548451 -0.00076894887 -0.017586222
0000a0 b2 fa 12 be 3b e3 61 3d 23 3f c3 be de cb 00 3e
       -0.14353445 0.055148344 -0.38134107 0.12577769
0000b0 b3 93 70 3e fb 4e 86 3e 92 11 2e bc 8b 00 56 bd
       0.23493843 0.26232132 -0.010624306 -0.05224661
0000c0 bc c1 75 3c f8 eb 58 3e c6 dd 9c 3d 83 74 1b be
       0.014999803 0.21183765 0.076594874 -0.15181164
0000d0 91 50 0f be 7f d5 35 3e c2 5f 6c 3e f5 64 4d bc
       -0.13995577 0.17757224 0.23083404 -0.012536277
0000e0 3c 0b 6d bc fe 04 5c be 50 b0 1f 3c 8d de df bd
       -0.0144680105 -0.2148628 0.009746626 -0.1093112
0000f0 e6 e6 e7 b9 82 ea 21 3d 73 5e 73 be 00 31 26 3e
       -0.00044231786 0.039530285 -0.23766498 0.1622963
000100 96 14 3b bc b5 a4 b0 bd 7d a0 0a be 7d 46 7d bc
       -0.011418482 -0.086251654 -0.13537784 -0.0154587
000110 44 cb e3 bd a3 f1 89 3d a6 2f 2c bd 8f 0d f8 bd
       -0.11122754 0.06735542 -0.04203763 -0.12111961
000120 2b 95 f0 3d c8 88 00 bf 14 61 ae bd 00 94 49 3e
       0.117472015 -0.5020871 -0.0851461 0.19685364
000130 cd 57 80 bd 1f ac 89 3e 23 4e 10 bf 1e f7 0c bf
       -0.06266747 0.2688913 -0.5636923 -0.5506457
000140 ee ed f7 3e a2 18 18 bd bb de 4d be 81 7a 78 be
       0.48423713 -0.037132867 -0.20104496 -0.24265482
000150 b7 2d 0f 3e 09 4a ad 3d 3c 29 04 3c c9 2c 64 3e
       0.13982283 0.08461387 0.008066472 0.22282709
000160 73 5d 97 3d 37 99 42 3e 31 50 0b 3c a2 f7 a7 3d
       0.07390871 0.1900376 0.008503006 0.08201529
000170 06 7e da bb 43 f2 9c 3e 67 db 86 be 83 48 a5 3d
       -0.006667855 0.3065358 -0.26339266 0.08070471
000180 d8 23 53 3e dc 2f d3 3e 2e 7b c2 3f 3d 30 65 be
       0.20619142 0.4124745 1.5193841 -0.22381683
000190 42 42 27 be 53 60 47 3e 3d fb ce bd f8 0a f4 3d
       -0.16333869 0.19470339 -0.10106514 0.119161546
0001a0 c1 90 94 3d c2 f1 f6 bd 94 09 1f 3e 31 1a c9 3d
       0.07254172 -0.120578304 0.15530998 0.09819449
0001b0 e0 d1 49 be e5 bd 65 bc 9d 26 55 3d fc d8 d0 be
       -0.19708967 -0.014022325 0.052038778 -0.40790546
0001c0 8b e5 10 be c7 29 85 bd da c1 15 be 1e 13 88 be
       -0.14150064 -0.06502109 -0.1462473 -0.26577085
0001d0 a9 38 83 bc dd 4d 99 be 26 a7 b3 3d f4 51 86 3c
       -0.016018229 -0.29942217 0.087721154 0.0163965
0001e0 f9 be fa bd 90 3d 29 be 2b 43 f4 bc ea 68 06 be
       -0.122434564 -0.1652739 -0.029817184 -0.13125959
0001f0 8d bb 13 bd a9 f9 96 be 38 d6 87 3e aa e6 bc be
       -0.036067534 -0.2948735 0.26530623 -0.36894733
000200 5b a9 8c be 33 26 6a 3e e9 82 d0 3d 87 c6 df bd
       -0.27472958 0.22866134 0.10181219 -0.10926538
000210 34 3f c3 3e 2a 54 d2 3d 84 fb 91 3e 5d 67 4f be
       0.38134158 0.10269959 0.28512204 -0.20254274
000220 85 ba 93 3d fb ef 28 be dd 8e 87 be 7c d3 a3 bd
       0.0721331 -0.16497795 -0.26476184 -0.07999322
000230 b0 83 a6 bd ad 6d 67 bd ca 61 44 bd 5f 67 80 bd
       -0.08130586 -0.05650108 -0.04794482 -0.062697165
000240 4d 08 b7 3c 5b 62 0b be 4b a5 2f 3d 23 40 12 bd
       0.022342825 -0.13611738 0.042882245 -0.035705697
000250 6b c9 e7 3d 42 39 96 bc ea 1c 50 bd 67 a7 9c 3d
       0.11317714 -0.01833785 -0.050808825 0.07649117
000260 e1 41 8c be 84 4f 37 bd 32 79 bf bc 9c 7f 47 bf
       -0.27394012 -0.044753566 -0.02337322 -0.7792909
000270 60 8a a9 3e ff 83 2c 3e 40 5d 60 3e dc 17 ca be
       0.33113384 0.16847228 0.21910572 -0.39471328
000280 8c 6c 86 3e cd 73 b0 3f 40 d5 c7 3c a2 60 4e be
       0.2625469 1.378534 0.024393678 -0.2015405
000290 24 e3 8e be be 7e 9f 3d 77 56 dc 3d 48 28 d7 bc
       -0.2790767 0.07787846 0.10758679 -0.026264325
0002a0 cd f1 e8 3e 62 48 9a bf dc a3 16 3e 22 0a 9c 3d
       0.4549698 -1.205334 0.14710945 0.0761912
0002b0 06 72 54 3c ac 3c e5 3c db bb ef bd 3c a8 d6 3d
       0.012966638 0.027983032 -0.117057525 0.10481307
0002c0 49 ed 57 bd e4 24 71 bd 5b b7 db 3b 57 9e 7c 3d
       -0.052716527 -0.058873072 0.0067052073 0.061674442
0002d0 06 da 41 bd ce 3c fe 3f eb ba b4 3f b5 eb 9f 40
       -0.047327064 1.9862306 1.4119543 4.997523
0002e0 ae 78 98 3c 27 8f a8 bf 29 41 de bf af 9a aa bf
       0.018612232 -1.3168687 -1.7363635 -1.3328456
0002f0 b3 45 aa bf ed d0 b1 3d 9a 0f b9 bd 71 02 02 3e
       -1.330252 0.086824276 -0.09036179 0.12696244
000300 62 3c b1 bd 2e 28 fc 3b 25 97 02 be 85 e9 e5 3c
       -0.08654095 0.0076952195 -0.1275297 0.028065452
000310 b2 b4 bc be 25 07 f7 3c 5c 04 6f 3e 18 13 0f 3c
       -0.3685661 0.030154774 0.23341507 0.00873258
000320 97 f0 4b 3d f2 fc ad bd 9b 6d 6b 3b f8 8a a4 3d
       0.04978999 -0.08495511 0.0035923484 0.08034319
000330 ea 8e a5 be 74 bc f8 3c 25 96 f7 bd 8b e9 43 bd
       -0.32335597 0.030363299 -0.12089185 -0.047830146
000340 6d cc 89 be 72 75 be be 89 33 ff 3d 9a f8 24 be
       -0.26913777 -0.3719898 0.124610014 -0.16110459
000350 35 5b 28 3c fa e5 85 3e 74 05 93 be 8a 03 65 3f
       0.010275652 0.2615202 -0.28715098 0.89458525
000360 49 4a 11 be 4a 4c 92 be f9 65 f1 bc df be 1d 3e
       -0.14188494 -0.2857383 -0.02946757 0.15404843
000370 b6 03 7e 3e 8c 95 b2 3d 9e 8a 81 3e be c5 d1 be
       0.24806103 0.0871993 0.2530107 -0.40971178
000380 29 7d e9 3d 52 ed 79 3e c8 af 89 bd 59 a9 13 3d
       0.114008255 0.24406937 -0.06722981 0.036050174
000390 63 79 c2 bd 4d 3b b2 bd 4c c4 98 be d2 60 4b bb
       -0.09495809 -0.08702717 -0.29837263 -0.0031033051
0003a0 21 88 4a be 20 28 d2 3d b2 ab 32 be be 80 b2 bd
       -0.19778492 0.102615595 -0.17448309 -0.08715962
0003b0 19 ea 0d bf cd 25 54 3e 0d 7a 97 3d 41 86 6b 3e
       -0.5543533 0.20717545 0.07396326 0.23000433
0003c0 38 c1 01 3c 79 a0 13 3e 27 64 68 3f 86 ab 90 3f
       0.007919602 0.14416684 0.9077782 1.1302345
0003d0 0a 20 f4 bc a9 f7 24 bf 4c bb ba be b3 f0 41 3d
       -0.029800434 -0.644404 -0.3647102 0.04734869
0003e0 46 a6 61 bf e5 37 72 3f 20 81 d5 bf 1b c5 71 3f
       -0.8814434 0.9461654 -1.6680031 0.94441384
0003f0 d9 32 80 3d cd aa a9 be 7f c8 07 be e3 4e 13 3e
       0.062596984 -0.33138123 -0.13260077 0.14385562

fc1.bias f4 [64]
000000 6d 88 cc be 6c f3 2d bf 50 c2 0d c0 4a c7 12 bf
       -0.39947835 -0.6794956 -2.214985 -0.5733534
000010 00 4d eb be 7d c0 97 be 4f 50 54 be 2d a7 ec bd
       -0.45957184 -0.29639044 -0.2073376 -0.11555324
000020 b1 87 9c bf f7 f0 79 bf 8f 06 f0 bf 1a 07 f5 be
       -1.222891 -0.9763331 -1.8752002 -0.4785698
000030 50 4c 3a bf b2 a5 35 bf cc 37 85 bf 15 e9 2c bf
       -0.72772694 -0.70955956 -1.0407653 -0.67543155
000040 30 2e 73 be d8 20 84 bf 42 a9 ab bf c8 51 0c be
       -0.23748088 -1.0322523 -1.3411028 -0.13703072
000050 df 14 22 3f 00 b3 55 be e7 13 88 be 54 cf 80 bf
       0.63313097 -0.20869064 -0.26577684 -1.0063272
000060 04 b1 91 bf 24 6a 12 be 22 4b 83 bf ad 99 97 be
       -1.1382146 -0.14298302 -1.0257304 -0.29609433
000070 9f 31 3a bf 04 84 18 40 80 99 8c be 90 18 a1 bd
       -0.72731966 2.3830576 -0.2746086 -0.07866013
000080 c0 b9 41 c0 c9 52 1a bf 55 1e a7 3f f5 f1 12 be
       -3.0269623 -0.6028257 1.3056132 -0.14350112
000090 ef b8 ab be 43 0f 23 be f7 66 ba be c0 e7 a4 be
       -0.3353953 -0.1592379 -0.3640668 -0.3220806
0000a0 13 4d b2 bf 56 de 19 bf c0 64 f6 be dc a2 b6 bf
       -1.3929771 -0.6010488 -0.4812374 -1.4268451
0000b0 a9 80 22 bf e7 12 62 bf f7 f5 01 c0 0d b1 3c bf
       -0.6347757 -0.8831009 -2.0306375 -0.7370766
0000c0 bd 68 02 c0 f4 4f af be 65 4d 57 c0 a8 13 05 bf
       -2.0376427 -0.34240687 -3.3640988 -0.5198312
0000d0 da f4 32 bf 59 91 b1 bd 9a 9d 8f bf 14 17 b4 bf
       -0.69904864 -0.08670301 -1.1219971 -1.4069543
0000e0 f7 46 1d bf 3a 2c 39 bf c3 15 1e be 9d b5 1a bf
       -0.6143641 -0.7233311 -0.15437989 -0.6043337
0000f0 95 69 c9 be 81 82 75 be 14 7b f9 be 52 a7 01 bf
       -0.39338365 -0.23975565 -0.48726714 -0.50645936

fc2.weight f4 [4, 64]
000000 a7 a3 86 3d ad 7d 0a bf 8c 8b 09 c0 61 37 01 c0
       0.06574183 -0.54098016 -2.1491423 -2.019005
000010 e1 c9 f6 3e a3 e6 5e 3e cc ac 73 be 16 dc d4 3d
       0.48200896 0.21767668 -0.23796386 0.103935406
000020 89 f0 3e 40 0d ce 98 3f bb c7 b7 40 77 67 b6 3e
       2.983431 1.1937882 5.743131 0.35625812
000030 22 8d 17 bf 72 5b d7 bf b2 75 89 3f 6a 51 b3 bf
       -0.59199727 -1.6824782 1.0739043 -1.4009221
000040 fe 2a 01 3f b2 2f 79 bc c1 2b 1d 40 0d 06 13 3c
       0.50456226 -0.015209125 2.4557955 0.008973611
000050 c2 b9 d9 3e e8 ae 04 3f 36 61 8a 3e 5f 8f 50 3f
       0.42524534 0.51829386 0.2702729 0.81468767
000060 80 09 c1 3f b9 17 41 3e df 66 13 3f 27 55 44 3f
       1.5081024 0.18856706 0.57578844 0.7669243
000070 3c fa 98 3f 23 ab b2 40 3a cd b5 bb b9 c2 07 bd
       1.1951365 5.5833907 -0.0055481466 -0.033144686
000080 4d f7 b0 40 e9 03 2c 40 43 fe ad 3f cd 7a df bd
       5.530188 2.6877387 1.359322 -0.10912094
000090 fb 16 05 3f fc c6 56 be dc 92 e4 3d 18 39 07 3e
       0.5198819 -0.20974344 0.11160824 0.13205373
0000a0 fe e0 75 3f f5 65 a3 3d 2b 3a b0 3e 37 ba 12 3f
       0.96046436 0.07978431 0.3441938 0.5731539
0000b0 99 f4 1b 3f 47 55 42 40 f9 75 91 3f 8e c3 1f bf
       0.609201 3.036455 1.1364127 -0.6240777
0000c0 cd 23 ac 3f 19 77 22 3e 91 9f be 40 06 ec 82 3e
       1.3448426 0.15865745 5.9569783 0.25570697
0000d0 bf 45 e8 be 95 54 4b bc e8 33 a1 3f 67 c6 bf 3f
       -0.45365712 -0.012410303 1.2593966 1.4982423
0000e0 7e 1c 86 3e b7 15 2c bf 9e c0 26 bd b5 dc 9b 40
       0.26193613 -0.67220634 -0.040711038 4.870692
0000f0 60 b7 76 3f c8 d5 35 be 5c 62 b4 3e c0 cf b9 3e
       0.9637356 -0.17757332 0.35231292 0.36291313
000100 9d 32 50 3d 8e a0 07 3f 5b 67 39 40 50 6f 8a 40
       0.05082952 0.5297936 2.8969333 4.326088
000110 2b 07 5f 3e 9b 01 3e 3e 5b 9b a5 bd 74 c6 1e 3d
       0.21780078 0.185553 -0.08086272 0.03876348
000120 db 4b 98 bf dd 2b 94 3e d9 2b 87 40 03 d1 1f 3e
       -1.1898149 0.28939715 4.2241025 0.15607075
000130 78 91 96 3d f1 73 e1 3f 72 5f a1 bf ed 36 d7 3f
       0.07351965 1.7613508 -1.2607253 1.6813637
000140 c6 03 a2 3e 4b d2 1e bf 4b 3e 3a bf 5d 19 5e 3d
       0.31643504 -0.6203963 -0.727513 0.054223407
000150 c6 f7 66 3d 61 0e 3d be 59 ef cd 3e 85 c0 bb 3f
       0.05638864 -0.18462516 0.4022167 1.4668127
000160 86 26 3d 40 80 ba 8f be 21 3e 81 3e d2 28 2b c0
       2.9554763 -0.28071976 0.25242713 -2.6743665
000170 6e a8 a2 3f b6 6c 55 40 bb 7e f3 3e 19 5e 54 3c
       1.2707651 3.3347602 0.47557625 0.012961888
000180 83 5e b3 40 6f dd 73 40 f3 73 6a 40 59 7c ad bd
       5.605287 3.8103902 3.663327 -0.08470983
000190 d7 5d cb 3e 1c a8 4c be d6 af 03 3f 49 b1 55 3d
       0.39720032 -0.19986004 0.5144018 0.052171025
0001a0 29 74 fd bf f7 41 85 3e fa 8c e9 3e 68 05 44 bd
       -1.9801074 0.2602689 0.4561537 -0.04785672
0001b0 3e a8 46 3e 3b 7e 8d 3f 17 29 ae bf 86 b6 11 bc
       0.19400117 1.1054147 -1.360629 -0.008893615
0001c0 f5 24 30 c0 85 ed 4a 3e 7b 25 40 40 5e f7 38 be
       -2.7522557 0.19817169 3.0022876 -0.18063113
0001d0 bd be d7 bc c8 b8 0e 3d 5e be 21 be 66 4b 83 3f
       -0.026336068 0.03484419 -0.15795276 1.0257385
0001e0 b8 10 05 be ca 0a 86 3e 57 ed f4 3c 61 53 37 40
       -0.12994659 0.26180106 0.029898329 2.864464
0001f0 c1 af 9b 3e 82 bb 62 3e 32 73 10 3f f5 d5 3f 3d
       0.30407527 0.22141841 0.56425774 0.046834905
000200 1d b5 e0 3d 8c ad ff 3e 34 c8 a1 40 d4 3c 9a 3f
       0.109720446 0.49937093 5.055689 1.2049813
000210 1f 48 d0 3e 97 7a 4a 3e 8c 51 e0 3d 56 16 bc bc
       0.40680024 0.19773327 0.10953054 -0.02295987
000220 e8 ae 99 3f 67 ef 87 3f a9 99 5c 40 c2 e7 a8 3e
       1.2006502 1.0619935 3.4468787 0.32989317
000230 b8 13 a5 3e 6d 5d 4e 3f 39 6a 69 3f 28 9e 81 3f
       0.32241607 0.80611306 0.9117771 1.012639
000240 23 1a 9f 3e 55 43 4e 3f 89 d2 00 40 42 27 93 3d
       0.31074628 0.8057149 2.01285 0.07185222
000250 cb 38 ba 3e 38 18 9f 3e a5 73 97 3e aa a0 a8 3f
       0.36371455 0.31073165 0.29580417 1.3174031
000260 8e b9 ed 3f 37 af 25 3d 00 c7 54 3f 0f f9 0b 40
       1.8572252 0.0404503 0.8311615 2.1870763
000270 f4 95 8b be 97 76 86 3f ca c0 de bc d8 95 0d be
       -0.27262843 1.0504941 -0.027191538 -0.13826692
000280 9e a8 bf 40 88 7f 31 41 b3 0d bb 40 2c 40 f8 3d
       5.989333 11.093636 5.8454223 0.12121615
000290 00 0a d4 3e df 11 18 3d 95 5b 74 3d 02 de e2 be
       0.4141388 0.03712642 0.059657652 -0.44310004
0002a0 00 fb 10 40 f1 d3 97 3e d1 00 5b 3e ac 01 9d 3f
       2.2653198 0.29653886 0.2138703 1.2266135
0002b0 d3 bc 37 3f 41 aa 05 3f 32 c8 f1 3f e8 ea 2a 3e
       0.717725 0.5221291 1.888922 0.16691172
0002c0 62 58 40 40 ee 7b a1 3e d5 0d b6 40 8a fd 0b 3e
       3.0053945 0.31539863 5.6891885 0.13670936
0002d0 2d be 58 bc da 90 4c 3c 7f a9 7e 3f 8e 59 e5 3e
       -0.013228935 0.012485707 0.9947738 0.44794887
0002e0 d3 68 0a 3f 5a db 8a 3e 50 76 4b 3e bc 91 11 41
       0.540662 0.27120477 0.19869351 9.09808
0002f0 c6 05 50 3e 95 3a be 3d c8 8f b7 bd 7b e5 c5 3e
       0.20314702 0.092885174 -0.08962971 0.38651642
000300 39 16 cf 3d 38 80 b6 3e a5 ef 23 40 bf 3a f6 3f
       0.101116605 0.35644698 2.5615017 1.9236678
000310 a4 19 f7 3e 86 22 e1 3c e6 1f 79 3e 80 7a 41 3e
       0.4826175 0.027482282 0.24328575 0.18894386
000320 c9 83 b5 3f 55 3c d4 3f bc a5 cd 40 27 d6 f8 3e
       1.4180843 1.6580912 6.4264812 0.48600885
000330 94 34 9d 3e db 8d c7 3f 43 e8 a4 3f 2b 6c cc 3f
       0.30704176 1.5590166 1.2883381 1.597051
000340 3b 29 c4 3e 9f a5 3a 3c 38 70 4a 40 ef 59 01 3e
       0.38312706 0.011392026 3.1630993 0.12631963
000350 02 ce dc 3e 8c d0 aa 3d a1 b6 11 3f ad 13 ca 3f
       0.4312592 0.083405584 0.56919295 1.5787255
000360 52 01 09 40 a8 31 2b be 0e 54 b9 3f 09 d8 db 3f
       2.1407056 -0.16718161 1.4478776 1.7175304
000370 59 67 c1 3f 3d aa 39 40 18 d4 8e 3e 4f 13 17 bd
       1.5109664 2.9010155 0.2789619 -0.03688365
000380 df 34 a7 40 ad 34 09 41 62 65 86 40 c5 32 3d 3c
       5.225204 8.57536 4.199876 0.011547749
000390 4b 78 c6 3e 4d 4f 51 be fb c6 2f 3e be 57 78 3e
       0.3876365 -0.20440407 0.17165749 0.24252221
0003a0 6d 53 5d 40 7c 21 4d 3e 15 4e a6 3e d4 3f 0d 3f
       3.458217 0.20032305 0.32481447 0.5517552
0003b0 1b 1e 52 3f 77 95 2a 40 fc 56 c3 3f d6 86 41 3e
       0.8207719 2.6653726 1.526092 0.18899092
0003c0 d0 35 6e 3f 50 9c d2 3e 07 c4 ab 40 a6 46 7f be
       0.9305086 0.41134882 5.367679 -0.24929294
0003d0 6d 26 5b 3c 93 dd 24 bd 4a 01 2b 40 98 54 00 40
       0.013375861 -0.040250372 2.6719537 2.0051632
0003e0 bf f0 84 3e 5b d9 a2 3e c4 72 8e bc a1 7a c9 40
       0.25964925 0.31806454 -0.017388709 6.2962193
0003f0 88 d9 60 3f ab 05 2d bd a0 97 ff 3e d8 ce c8 3e
       0.87831926 -0.042241734 0.49920368 0.3922031

fc2.bias f4 [4]
000000 95 fd 0d 40 c8 be 05 40 55 e9 31 3f c5 31 5e 3f
       2.2186024 2.0897694 0.6949666 0.8679469
