models/v3/target_agent_net.pth (torch, 87192 bytes, 4 tensors)

fc1.weight f4 [64, 326]
0	0xbc6e4100	-0.014541864
1	0x3aff285e	0.0019466986
2	0xbd239561	-0.03993738
3	0x3d18aa9d	0.037272085
4	0xbd7d1aa7	-0.061792996
5	0x3d7f459e	0.06232225
6	0xbd4b340e	-0.04961019
7	0xbe34a0d8	-0.17639482
8	0xbcb776bd	-0.022395486
9	0xbcfe8685	-0.031070003
10	0xbd0ca50e	-0.034337096
11	0xbda0a82f	-0.078445785
12	0x3c609271	0.013706789
13	0xbcd7ec5e	-0.026357826
14	0x3dbc0c38	0.09182018
15	0xbccd4f29	-0.02506216
16	0x3d920b9d	0.07131121
17	0x3d7dfa3d	0.062006224
18	0x3d2b1887	0.041771438
19	0x3c1ff82f	0.009763761
20	0x3cce49b3	0.025181627
21	0xbc5594ae	-0.013035936
22	0xbd218b8a	-0.039439715
23	0x3dcf9e2c	0.10137591
24	0x3d97d9d3	0.074145935
25	0xbc1f92ba	-0.009739572
26	0x3d722bae	0.059123687
27	0xbd2ff659	-0.042959545
28	0x3d7a06de	0.061041705
29	0xbd3cd5b6	-0.046102248
30	0xbc963c72	-0.01833937
31	0xbc229d30	-0.009925172
32	0x3d04017c	0.032227978
33	0x3a9fafa5	0.0012183083
34	0x3c4c3e4d	0.012466026
35	0x3e17cf8b	0.14825265
36	0xbdba9ab8	-0.091115415
37	0x3c513e8f	0.012771263
38	0x3db671a7	0.08908396
39	0xbb000693	-0.0019535169
40	0xbd98b38f	-0.07456123
41	0x3d90656b	0.07050594
42	0x3dbb690d	0.09150896
43	0x3cb96577	0.02263139
44	0xbd7ba8b2	-0.061440177
45	0x3d7d1b05	0.061793346
46	0x3d099143	0.033585798
47	0xbb9e8da1	-0.004838661
48	0xbd918896	-0.0710613
49	0x3d87ba3c	0.06627318
50	0xbb5e60c6	-0.0033932193
51	0x3b395978	0.0028282087
52	0x3bf11b21	0.0073579703
53	0xbd731175	-0.05934282
54	0xbc660aec	-0.01404069
55	0xbd564f8c	-0.052321956
56	0x3d49d981	0.049279694
57	0xbd7271a3	-0.059190404
58	0x3d730d2b	0.05933873
59	0xb989432c	-0.00026180723
60	0x3d299ef4	0.041411355
61	0x3d816551	0.06318153
62	0xbd5aebdf	-0.0534476
63	0x3d7064cf	0.05868989
64	0x3d1abdb1	0.03777856
65	0xbb4086d0	-0.002937723
66	0x3db49a8f	0.08818542
67	0xbb9dcfa9	-0.004816015
68	0xbd9f5867	-0.07780533
69	0xbd1287bf	-0.03577399
70	0x3ce7e333	0.02830658
71	0x3d7dfd8a	0.06200937
72	0xbde74761	-0.11292911
73	0xbac59a41	-0.0015075878
74	0x3d9e4a2d	0.07728992
75	0x3ccb2fba	0.024803031
76	0x3de1ffdd	0.1103513
77	0x3da18f69	0.078886814
78	0xbd5aac92	-0.053387232
79	0x3cf6993f	0.03010237
80	0xbd22a5a6	-0.039708756
81	0xbdf73084	-0.120698005
82	0xbc72e3e4	-0.014824841
83	0xbd1e923b	-0.038713675
84	0xbccbab93	-0.024862086
85	0x3d00bb0f	0.031428393
86	0xbc9c9d33	-0.019117927
87	0xbdc2057b	-0.094737016
88	0x3d64200c	0.055694625
89	0x3d9582f0	0.07300365
90	0x3c80967d	0.015696758
91	0x3d8066d4	0.06269613
92	0xbc910d4a	-0.017706532
93	0x3c66c074	0.01408397
94	0x3de2a538	0.11066669
95	0xbcd18bb0	-0.025579304
96	0xbc9e3908	-0.019314304
97	0xbd26be4d	-0.04070883
98	0xbda91b0c	-0.08257112
99	0xbcc7a67f	-0.024371384
100	0x3dd1a508	0.10236555
101	0x3e1ca911	0.15298869
102	0xbcadc87c	-0.021213762
103	0xbd94af17	-0.07259958
104	0xbd95086d	-0.07276998
105	0xbc45aabf	-0.012064635
106	0x3d2f267d	0.042761315
107	0xbd9df0d5	-0.07711951
108	0xbd00f7ab	-0.031486195
109	0xbc745318	-0.014912389
110	0xbd231f28	-0.039824635
111	0x3ca3922a	0.019967157
112	0xbc86d8f6	-0.016460877
113	0x3c30539c	0.0107621215
114	0xba9a111f	-0.001175437
115	0xbc07039a	-0.008240605
116	0xbdf3e795	-0.11909405
117	0xbe0afb0d	-0.13572331
118	0x3c948eb5	0.018134454
119	0x3c3d2daf	0.011546536
120	0xbd3d542e	-0.046222858
121	0xbcfe65cd	-0.031054402
122	0xbaea68f8	-0.0017884066
123	0x3d8b2b20	0.06795335
124	0xbdc34958	-0.095354736
125	0x3b6c561c	0.0036062067
126	0xbd3f1ca0	-0.04665816
127	0xbd12eb6b	-0.035869043
128	0x3dadd1e8	0.08487302
129	0x398011b8	0.00024427264
130	0xbca60cd8	-0.020269796
131	0x3d6f80d8	0.058472484
132	0xbd55b58a	-0.052175082
133	0x3cf5375c	0.029933624
134	0x3d2c63d7	0.042087402
135	0xbd4b2b5a	-0.04960189
136	0xbda68ca8	-0.08132297
137	0x3b1ba2ea	0.0023748227
138	0x3d561a69	0.05227128
139	0xbd0d3b1d	-0.034480203
140	0x3cecf5d5	0.028925816
141	0x3ca19dd8	0.019728586
142	0x3ca3816e	0.019959178
143	0xbd3aae0a	-0.045576133
144	0x3bf993cd	0.007616496
145	0x3d210d80	0.039319515
146	0xbcdcbc1b	-0.026945164
147	0xbdc7ba18	-0.097522914
148	0xbcbe7ee9	-0.023253875
149	0xbc8fd651	-0.017558249
150	0x3c96f048	0.018425122
151	0xbd64de71	-0.0558762
152	0xbd116c16	-0.03550347
153	0xbb0fd276	-0.0021945513
154	0xbc611cd8	-0.013739787
155	0xbcceeff0	-0.025260895
156	0xbb9a8069	-0.0047150147
157	0xbb0b2a52	-0.0021234942
158	0xbc169b56	-0.009192308
159	0x3c092eab	0.008372943
160	0xbd0d5106	-0.034501098
161	0x3d67d215	0.056596834
162	0xbcaccbc6	-0.02109326
163	0xbd525677	-0.05135199
164	0x3cd746ba	0.026278842
165	0x3d0b6ab3	0.034037303
166	0xbc00fa29	-0.007872143
167	0x3cbf62a1	0.02336246
168	0x3e276c12	0.1634982
169	0x3c9b7488	0.018976465
170	0xbdb37d4e	-0.08764134
171	0x3c2db913	0.010603207
172	0xbd6291b2	-0.055314727
173	0x3c73ba6b	0.0148759885
174	0xbd24624c	-0.040132806
175	0x3d068ac1	0.03284717
176	0xbcc259e8	-0.023724511
177	0xbcf71447	-0.030161036
178	0xbd5e7cc0	-0.05431819
179	0xbde6b835	-0.112656035
180	0xbe188f9a	-0.1489853
181	0xbcb0a703	-0.021564012
182	0xbb8ad5e3	-0.004236923
183	0x3b02188e	0.0019851062
184	0x3dbc5d4c	0.091974825
185	0x3dbcb63c	0.09214446
186	0xbc9cb316	-0.019128364
187	0x3e0909cb	0.13382642
188	0xbcda6d28	-0.026663378
189	0xbd8f1520	-0.06986451
190	0xbd07b554	-0.033131912
191	0xb90cc7f6	-0.00013425932
192	0x3d9021c9	0.07037694
193	0x3d1513b4	0.036395743
194	0x3d2e546e	0.042560987
195	0xbcb02ed3	-0.021506703
196	0xb9a65587	-0.0003172571
197	0x3c847a49	0.016171591
198	0x3d82473b	0.063612424
199	0xbc2874cf	-0.010281756
200	0xbc377a6d	-0.011198622
201	0xbd4036d1	-0.046927277
202	0x3d5836ca	0.052786626
203	0xbca2dea2	-0.01988155
204	0xba34c3fc	-0.0006895659
205	0xbae11276	-0.001717164
206	0xbe0a9830	-0.13534617
207	0x3d0c6037	0.034271445
208	0xbcb958d4	-0.022625364
209	0x3d80c62d	0.06287799
210	0xbd601f7a	-0.05471752
211	0xbe03e870	-0.12881637
212	0x3c4153ac	0.011799734
213	0x3d46d6aa	0.048544563
214	0xbda76f23	-0.081754945
215	0xbd0dd7c8	-0.034629613
216	0xbd46d4b1	-0.048542682
217	0x3d7da82e	0.061927967
218	0x3d2eaf90	0.0426479
219	0x3ca2ca09	0.019871728
220	0x3d45e45f	0.048313495
221	0xbda2836b	-0.07935222
222	0x3d12cd3f	0.03584027
223	0xbccb03c3	-0.024782067
224	0x3de752f3	0.11295118
225	0x3d26222c	0.040559933
226	0x3c9365f0	0.017992944
227	0x3dd223b2	0.102607146
228	0xbc002a37	-0.007822565
229	0x3c71e49c	0.014763977
230	0xbc60f810	-0.013731018
231	0xbcb83db1	-0.022490354
232	0x3d36026c	0.044435903
233	0xbcb98be3	-0.022649711
234	0x3deb5f72	0.11492814
235	0xbc8608e8	-0.016361669
236	0xbdf9e739	-0.12202305
237	0xbbd32c56	-0.0064444942
238	0xbdbafb2d	-0.09129939
239	0x3ddac432	0.106819525
240	0xbd62d119	-0.055375192
241	0xbd839512	-0.06424917
242	0xbce77155	-0.028252283
243	0xbc48df6d	-0.0122603
244	0xbd1fb03b	-0.038986426
245	0x3d08c4be	0.033390753
246	0xbd57beae	-0.05267208
247	0x3ca1ef43	0.01976741
248	0xb93daa71	-0.00018087939
249	0xba183d72	-0.0005807496
250	0x3d9d6328	0.07684928
251	0x3cff463c	0.03116142
252	0xbd8c87ef	-0.06861865
253	0x3d249d8b	0.040189307
254	0x3d48114d	0.048844624
255	0xbc98c94d	-0.018650675

fc1.bias f4 [64]
0	0x00000000	0.0
1	0x00000000	0.0
2	0x00000000	0.0
3	0x00000000	0.0
4	0x00000000	0.0
5	0x00000000	0.0
6	0x00000000	0.0
7	0x00000000	0.0
8	0x00000000	0.0
9	0x00000000	0.0
10	0x00000000	0.0
11	0x00000000	0.0
12	0x00000000	0.0
13	0x00000000	0.0
14	0x00000000	0.0
15	0x00000000	0.0
16	0x00000000	0.0
17	0x00000000	0.0
18	0x00000000	0.0
19	0x00000000	0.0
20	0x00000000	0.0
21	0x00000000	0.0
22	0x00000000	0.0
23	0x00000000	0.0
24	0x00000000	0.0
25	0x00000000	0.0
26	0x00000000	0.0
27	0x00000000	0.0
28	0x00000000	0.0
29	0x00000000	0.0
30	0x00000000	0.0
31	0x00000000	0.0
32	0x00000000	0.0
33	0x00000000	0.0
34	0x00000000	0.0
35	0x00000000	0.0
36	0x00000000	0.0
37	0x00000000	0.0
38	0x00000000	0.0
39	0x00000000	0.0
40	0x00000000	0.0
41	0x00000000	0.0
42	0x00000000	0.0
43	0x00000000	0.0
44	0x00000000	0.0
45	0x00000000	0.0
46	0x00000000	0.0
47	0x00000000	0.0
48	0x00000000	0.0
49	0x00000000	0.0
50	0x00000000	0.0
51	0x00000000	0.0
52	0x00000000	0.0
53	0x00000000	0.0
54	0x00000000	0.0
55	0x00000000	0.0
56	0x00000000	0.0
57	0x00000000	0.0
58	0x00000000	0.0
59	0x00000000	0.0
60	0x00000000	0.0
61	0x00000000	0.0
62	0x00000000	0.0
63	0x00000000	0.0

fc2.weight f4 [5, 64]
0	0x3cfe7480	0.03106141
1	0xbda073d0	-0.078345895
2	0xba001a17	-0.00048867
3	0xbe4529e5	-0.19254263
4	0x3dfa58a0	0.12223935
5	0x3e18a916	0.14908251
6	0x3e3027a4	0.17202622
7	0xbaaa5641	-0.0012995676
8	0x3dc9676a	0.09834178
9	0x3d6d38a2	0.057915337
10	0xbda5ed1c	-0.08101866
11	0xbd911bca	-0.070853785
12	0x3e8d3f4c	0.27587354
13	0xbdecefea	-0.115691975
14	0xbe2a47fe	-0.16629025
15	0x3e081bc1	0.13291837
16	0xbd866512	-0.065622464
17	0xbdf9f83a	-0.122055486
18	0x3d98db32	0.07463683
19	0xbda98662	-0.082775846
20	0x3e1df9e2	0.15427354
21	0xbd81a8fd	-0.0633106
22	0x3e1696e8	0.14706004
23	0xbd397309	-0.04527572
24	0xbe5570a5	-0.20843752
25	0x3e97bafe	0.2963485
26	0x3ec3d030	0.38244772
27	0x3b4dcdce	0.0031403187
28	0xbdf3add1	-0.11898387
29	0x3dbea01f	0.093078844
30	0xbdc15e8f	-0.09441864
31	0x3e175d97	0.14781795
32	0xbc9aab95	-0.018880645
33	0x39bc1ea6	0.0003588099
34	0x3deee98e	0.11665641
35	0x3d2c035c	0.04199539
36	0x3d923f9e	0.0714104
37	0xbc7329ce	-0.01484151
38	0xbdfd3196	-0.123629734
39	0x3dee094c	0.11622867
40	0xbba376be	-0.0049885204
41	0x3b08d9ab	0.0020881693
42	0xbe25df93	-0.16198568
43	0x3c676925	0.0141241895
44	0x3dc782b1	0.09741724
45	0xbd9e6aaf	-0.07735192
46	0x3de3c1f1	0.11120976
47	0x3ddd66fc	0.10810658
48	0x3d0e01d6	0.03466972
49	0xbd84aa15	-0.06477753
50	0xbcacd26d	-0.021096433
51	0xbdea07ef	-0.114272945
52	0x3d960c61	0.0732658
53	0x3e4dbb18	0.20090902
54	0x3e8fb37a	0.28066617
55	0xbd91b5b1	-0.07114733
56	0x3ddf9910	0.10917866
57	0xbcfa14aa	-0.030527432
58	0xbdd4f3ad	-0.1039804
59	0xbd80b1b8	-0.06283897
60	0x3d1a2bf2	0.037639566
61	0xbd6a7da2	-0.05724872
62	0xbdbf3ed7	-0.093381576
63	0xbdcd765b	-0.1003234
64	0xbcb9015c	-0.022583656
65	0x3dc987b2	0.09840335
66	0x3c06c771	0.0082262615
67	0xbd135fb4	-0.03597994
68	0x3c82974a	0.01594128
69	0xbd82d233	-0.063877486
70	0xbe56fea6	-0.20995578
71	0xbdceb7b1	-0.1009363
72	0x3ca60512	0.02026609
73	0x3d2eb169	0.04264966
74	0xbe2262af	-0.15857957
75	0x3beb65b0	0.007183753
76	0xbe9f3275	-0.31093183
77	0x3b107a3f	0.002204552
78	0xbd926873	-0.07148828
79	0x3e0a01c9	0.13477243
80	0x3e80bbbd	0.25143233
81	0xbe000475	-0.125017
82	0x3d233a95	0.03985079
83	0x3e58592e	0.2112777
84	0x3e678c25	0.22612055
85	0x3dc97f00	0.098386765
86	0x3e54180e	0.20712301
87	0x3e1e45af	0.1545627
88	0xbd06428b	-0.032778304
89	0x3df91591	0.121623166
90	0x3daf92b0	0.085729
91	0xbdd8fb35	-0.10594789
92	0xbd323bfd	-0.04351424
93	0x3cdb704c	0.026786946
94	0xbe2bb3b8	-0.16767776
95	0xbcbef70e	-0.023311164
96	0xbe573eb6	-0.21020016
97	0x3e6136ea	0.21993604
98	0x399c3ec5	0.00029801406
99	0xbdee9c8b	-0.11650952
100	0x3d926d00	0.07149696
101	0xbdfbbe95	-0.1229221
102	0x3d16c566	0.036809348
103	0xbc716666	-0.014733886
104	0x3c210eb5	0.009830167
105	0x3b8b1b1b	0.0042451746
106	0x3cffe4af	0.031236975
107	0xbc99adbd	-0.018759603
108	0xbe361ab1	-0.1778362
109	0xbdbab0a0	-0.0911572
110	0x3d8b8006	0.06811528
111	0x3d2906f1	0.041266385
112	0xbe301b51	-0.1719792
113	0x3dc74326	0.097296044
114	0x3dcac13f	0.0990014
115	0x3da20a0d	0.07912073
116	0xbc5f689e	-0.0136357825
117	0x3d83b3c3	0.06430771
118	0xbe01677e	-0.12637135
119	0xbd995b88	-0.07488161
120	0x3e2f2ec1	0.17107679
121	0x3e2baff4	0.1676634
122	0x3e804931	0.2505584
123	0x3bb890c9	0.005632494
124	0x3d1a960d	0.037740756
125	0x3e723f75	0.2365702
126	0xbe12bc7c	-0.14329714
127	0xbdc59560	-0.09647632
128	0x3e5a23b8	0.21302688
129	0x3e25a250	0.16175199
130	0x3e30e5e7	0.17275201
131	0xbddd790f	-0.10814106
132	0x3d90e474	0.07074824
133	0xbe561fd4	-0.20910579
134	0x3d3854f6	0.0450029
135	0x3dbdc973	0.09266939
136	0x3d894350	0.06702292
137	0x3e636feb	0.22210662
138	0x3d50a839	0.05094168
139	0x3cd49469	0.025949674
140	0xbd023872	-0.03179211
141	0xbd91e363	-0.07123449
142	0xbe509ec6	-0.20373067
143	0xbc95f21e	-0.018303927
144	0xbdb2a5cf	-0.08723032
145	0xbe0e13d0	-0.13874745
146	0x3e24182c	0.16024846
147	0x3e58dca4	0.21177918
148	0x3cb13109	0.021629827
149	0xbafc922b	-0.0019269636
150	0x3e411b68	0.18858111
151	0xbde6488d	-0.11244307
152	0x3ec15b35	0.37764898
153	0xbe6e354a	-0.23262516
154	0xbc109781	-0.008825184
155	0x3e0bcf1b	0.13653223
156	0xbe0b87d2	-0.1362603
157	0xbdd2d364	-0.10294226
158	0x3d524eb3	0.051344585
159	0x3e0094b2	0.12556723
160	0xbd03a137	-0.03213617
161	0xbe4bf70a	-0.19918457
162	0x3d33dfc2	0.043914564
163	0x3d74c563	0.059758555
164	0x3d4294f4	0.047505334
165	0x3d1d5bed	0.038417745
166	0xbdd1e1a2	-0.10248114
167	0xbd8df8e7	-0.0693224
168	0x3d664f43	0.056227934
169	0x3dc49113	0.09597983
170	0xbce84a0d	-0.028355623
171	0xb99bd600	-0.00029723346
172	0xbd919c79	-0.07109923
173	0x3dbed69e	0.09318279
174	0x3e2db2cd	0.16962738
175	0xbd2eca2c	-0.042673275
176	0xbdee5130	-0.11636579
177	0xbd15e0ef	-0.036591467
178	0x3d492a5d	0.049112666
179	0xbe579995	-0.2105468
180	0xbe414a9d	-0.18876119
181	0xbd87f37b	-0.06638237
182	0xbd87c2b5	-0.06628934
183	0xbd8e6546	-0.0695291
184	0xba6ebf85	-0.0009107518
185	0xbd20711c	-0.03917037
186	0xbdb40037	-0.087891035
187	0xbcdbd472	-0.0268347
188	0x3e7961d3	0.24353723
189	0xbd9d43a0	-0.07678914
190	0xbd8b6f28	-0.06808311
191	0xba7f3df0	-0.00097367074
192	0x3d153c8d	0.0364347
193	0x3ce0e6ff	0.027453898
194	0xbe87606d	-0.26440755
195	0x3d90d143	0.070711635
196	0xbd81850a	-0.06324203
197	0x3c071700	0.00824523
198	0x3e399b73	0.18125705
199	0x3c626909	0.013818988
200	0x3db7f439	0.08982129
201	0x3d7b2e43	0.061323415
202	0xbe2f38cc	-0.1711151
203	0x3e0af946	0.13571653
204	0xbe36c4ee	-0.1784856
205	0x3a628001	0.000864029
206	0xbd969ad3	-0.07353749
207	0xbd50c866	-0.050972365
208	0xbdca63cc	-0.09882316
209	0x3e3ffe77	0.18749414
210	0xbe4c3a4d	-0.19944115
211	0xbdc9acd4	-0.098474175
212	0xbe1076c7	-0.1410781
213	0xbdea8d63	-0.114527486
214	0x3d4bf803	0.04979707
215	0x3ddf622b	0.10907396
216	0x3d6fccad	0.058544803
217	0x3e0044d9	0.12526263
218	0x3c26c91e	0.010179786
219	0x3b0b5b99	0.0021264313
220	0xbdb486cb	-0.08814772
221	0xbd69f358	-0.057116836
222	0xbe8e54ba	-0.27799016
223	0xbca1d483	-0.019754654
224	0x3e4e85ba	0.201682
225	0xbcb1f83d	-0.021724815
226	0xbe88906e	-0.2667269
227	0xbe04c515	-0.12965806
228	0xbc2dc40a	-0.010605821
229	0xbddeb21f	-0.10873818
230	0x3dc338d1	0.09532321
231	0xbd07d22f	-0.03315943
232	0xbe060252	-0.13086823
233	0xbd9f5782	-0.07780363
234	0x3e31dff4	0.17370588
235	0x3dfeb7db	0.124374114
236	0xbd43645d	-0.047703136
237	0x3e0c036f	0.13673185
238	0x3e0ec2be	0.13941476
239	0x3e8a36b1	0.2699485
240	0x3c9dcfc5	0.019264111
241	0xbccc8736	-0.024966817
242	0x3de005a7	0.10938578
243	0xbe0954ee	-0.13411304
244	0xbebb234a	-0.3655036
245	0x3de7cb6c	0.113180965
246	0x3d5865a4	0.052831307
247	0xbc3c37a5	-0.011487876
248	0x3c5b692a	0.013391772
249	0xbd0a612d	-0.03378408
250	0xbda70c04	-0.08156589
251	0xbdc9698d	-0.09834585
252	0x3c3cf893	0.011533874
253	0x3be191f1	0.0068838526
254	0xbd83ed32	-0.06441726
255	0x3d0e811d	0.0347911

fc2.bias f4 [5]
0	0x00000000	0.0
1	0x00000000	0.0
2	0x00000000	0.0
3	0x00000000	0.0
4	0x00000000	0.0
