models/v3/target_qmix_net.pth (torch, 832955 bytes, 13 tensors)

hyper_w1.0.weight f4 [64, 1024]
000000 50 ec 13 bb ca 6b ae 3c 26 28 ec 3c f0 8d a6 bc
       -0.0022571273 0.021291632 0.028827738 -0.020331353
000010 00 7d 50 39 d8 84 1c 3c 08 f3 09 bc ec 88 90 3c
       0.00019882992 0.009553157 -0.00841976 0.017643414
000020 b8 08 b2 bb 70 d7 78 bc 68 c3 cf bc 36 b9 88 bc
       -0.0054331683 -0.015188083 -0.025361732 -0.016689878
000030 5e 7f ef bc 3c 29 c5 3c 04 73 58 3c 98 66 82 bc
       -0.029235538 0.024067514 0.013211016 -0.015918061
000040 02 2d bc 3c 80 c7 99 bc 60 b9 09 bb 26 9c 88 bc
       0.02297068 -0.018771887 -0.0021015033 -0.01667602
000050 92 a6 f1 bc 32 6c b0 bc 16 f1 e8 3c 04 79 86 3c
       -0.029498372 -0.021535967 0.028435271 0.016415127
000060 88 4e 68 bc d0 dc 32 bc 42 d2 d6 bc 94 06 d1 3c
       -0.01417888 -0.010916904 -0.026223306 0.025515832
000070 ba 12 a7 bc e0 c9 ef bc c2 7c ba 3c 70 48 d2 bb
       -0.020394672 -0.029271066 0.022764567 -0.0064173266
000080 4c b3 ef bc a0 41 ac 3c 00 65 5b ba d0 09 ac 3b
       -0.0292603 0.021027386 -0.0008369237 0.005250193
000090 34 52 cf bc d8 71 81 3b a8 ee 7b bc 9c 02 b8 3c
       -0.025307752 0.003950339 -0.015376724 0.022462182
0000a0 62 4d ba 3c b0 2d cd 3b c4 b5 2a bc 3c d3 48 3c
       0.022741977 0.00626155 -0.010419313 0.012257393
0000b0 48 4f 98 3b 98 da 67 bc 44 f2 89 bc 84 fa 29 3c
       0.004648123 -0.014151238 -0.016839154 0.010374669
0000c0 d4 3e dc 3c be 42 be bc 18 cd fb 3b 9a ea 8a bc
       0.026885428 -0.023225185 0.007684361 -0.01695757
0000d0 80 86 0a 3a dc c2 fb bc a6 1c 93 3c 60 39 bc bc
       0.0005284324 -0.030732565 0.017957997 -0.022976577
0000e0 50 48 f1 3b 3e 28 98 3c 20 25 c3 3c 98 a5 cf bc
       0.0073633566 0.018573876 0.023821414 -0.025347516
0000f0 d8 b1 40 bc 00 fb ec bb da 16 ce bc 9e a3 d4 3c
       -0.011761151 -0.00723207 -0.02515738 0.025956925
000100 fc 8f 70 3c 20 93 bb bc 50 f7 bf bb f4 4b 7e bc
       0.014682766 -0.022897303 -0.0058583394 -0.015521038
000110 10 1c 81 bb 40 c7 64 ba 80 46 d1 3c 40 09 d6 bb
       -0.003940113 -0.00087272003 0.025546312 -0.0065318644
000120 e4 25 dc bc 40 0a c5 ba 9a 78 b0 bc dc 04 a8 bc
       -0.026873536 -0.0015032962 -0.021541882 -0.02051013
000130 66 6a e6 3c c6 09 e9 3c 94 9a 9a bc 00 f1 ed 3a
       0.028126907 0.028447043 -0.018872537 0.0018153489
000140 b2 d5 8d bc e0 23 10 bc 40 b4 ae ba 2c ba fc bc
       -0.017313812 -0.008797616 -0.0013328865 -0.030850492
000150 e0 0d 05 3c 1c 97 36 bc c0 cc 01 bb 50 e6 39 bc
       0.008120984 -0.011144426 -0.0019805878 -0.011346415
000160 64 0d 1d 3c 20 92 ba 3b e0 db 9f 3b 8c f6 84 3c
       0.009585712 0.005693689 0.004878506 0.016230844
000170 48 91 76 bc 86 8b ed 3c e6 56 dc bc 52 5d e2 bc
       -0.015049286 0.028997194 -0.026896905 -0.02763239
000180 ce 5f fe 3c 5c 82 ff bc 9c 5e 80 3c c8 f7 53 bc
       0.031051543 -0.03119009 0.015670113 -0.012937494
000190 a6 b9 a9 bc 78 cd 00 bc b0 4d 95 3b b0 62 0b 3b
       -0.020718407 -0.007861488 0.00455638 0.002126854
0001a0 3a cd e1 3c bc de ab 3c 34 e9 c8 bc 38 93 dd 3c
       0.02756368 0.020980231 -0.024525262 0.027047738
0001b0 96 6d 93 bc 08 5b c0 bb 1c 80 97 bc 80 3f ac ba
       -0.01799659 -0.005870227 -0.018493704 -0.0013141483
0001c0 70 04 59 bb 52 eb ed 3c 30 d9 4d 3b 00 d4 7b 3a
       -0.0033114217 0.029042874 0.0031409971 0.00096064806
0001d0 ba 50 ff bc 3c af 78 bc 18 c5 f9 3c ee 81 ca 3c
       -0.031166423 -0.015178498 0.03048949 0.024720158
0001e0 a0 ed a1 3b 10 9e d2 bb 06 fb 91 bc e8 51 ef 3c
       0.004941657 -0.006427534 -0.017819893 0.02921386
0001f0 70 84 66 3b 22 c5 d9 bc 00 eb 7c b9 9c 9a 31 3c
       0.0035174154 -0.026583258 -0.00024120137 0.010840084
000200 4a 90 fb bc 80 36 49 3a c0 32 a1 3b 62 75 ee 3c
       -0.03070845 0.00076756626 0.00491938 0.029108707
000210 12 e6 98 3c 0c 0b bf 3c 80 9e 78 3a 8c a4 94 3c
       0.018664394 0.023320697 0.00094840676 0.018144868
000220 da fd fb 3c 60 88 63 bc 30 15 7a bb 78 33 3b bc
       0.030760694 -0.013887495 -0.0038159601 -0.011425845
000230 30 53 be 3c e0 fc bd bb f2 6a b9 3c b4 f1 ae 3c
       0.023233026 -0.0057979673 0.022634003 0.021355487
000240 26 54 96 3c 14 6d a9 bc ba 87 9f bc 84 9f 4f 3c
       0.018350672 -0.020681895 -0.0194739 0.012672309
000250 ea 1a a4 3c c8 33 c8 bb 28 0b e8 bc 3c df 7b 3c
       0.020032365 -0.0061096884 -0.028325632 0.015373047
000260 08 75 65 3c bc f7 b7 bc a2 2c bd 3c 08 1e a3 bc
       0.014004953 -0.022456996 0.023092572 -0.019911781
000270 ae 6a ea 3c 42 13 83 3c dc b2 cc bc d0 55 69 3c
       0.028615322 0.016000394 -0.02498763 0.014241651
000280 34 ac c9 bc 00 59 12 39 e8 6c f0 3c 00 69 69 b9
       -0.024618246 0.000139568 0.029348806 -0.00022259727
000290 f8 3e 76 bc 00 d4 78 bb 6a 86 ab bc 40 ab 80 3b
       -0.015029661 -0.0037968159 -0.020938117 0.0039266646
0002a0 b0 eb 0c bb d4 79 d0 3c 70 78 e2 3b 76 54 a8 3c
       -0.0021502785 0.025448717 0.00691133 0.020548087
0002b0 54 bd b6 3c 82 6c 8a bc 9c 13 c7 3c 40 01 08 3b
       0.022307076 -0.016897444 0.024301343 0.0020752698
0002c0 dc 2e c9 3c 70 97 ed bb d6 97 c9 3c 80 46 d8 3b
       0.024558477 -0.007250719 0.024608534 0.006600201
0002d0 e0 55 49 3c 58 89 90 bc 4e ed f5 3c a4 72 c2 3c
       0.012288541 -0.017643616 0.030020382 0.023736306
0002e0 1c 30 5f 3c 0e 40 cc bc 08 21 a5 3b 96 a0 d5 3c
       0.01362231 -0.024932887 0.005039338 0.02607755
0002f0 b0 56 0c 3c 10 cc 6b bb fc 7c 25 bc 50 d2 c1 bb
       0.00856559 -0.0035979785 -0.010100599 -0.005914964
000300 60 d6 a5 bb 52 27 ab bc 9c 9e 71 3c 1c e4 25 3c
       -0.005060956 -0.020892773 0.014747288 0.010125186
000310 68 e9 ac 3b a2 7c 85 3c 16 7c 9c bc 06 45 f9 3c
       0.0052768476 0.016294781 -0.019102138 0.03042842
000320 90 cd 2c 3b 26 d0 b2 bc e0 85 a3 bc ea 3f e1 bc
       0.0026367642 -0.021827769 -0.019961298 -0.027496297
000330 44 2c da bc 54 26 fb 3c 00 49 20 3a 00 04 14 bc
       -0.026632436 0.030657925 0.00061143935 -0.009034157
000340 00 56 18 ba 30 57 51 bc 98 f4 ba 3c 00 70 f7 b8
       -0.0005811155 -0.012777135 0.02282171 -0.000117987394
000350 9c 32 86 bc ae b5 c3 bc 00 9f 90 bc a8 8e b3 bb
       -0.016381554 -0.023890343 -0.017653942 -0.0054796524
000360 00 fc 86 bc 78 56 4e 3c 00 67 75 3b b2 7e b8 bc
       -0.016477585 0.012593858 0.0037445426 -0.02252135
000370 5c 1a 2e 3c 34 a4 98 bc 98 94 f4 bb 00 66 e4 bb
       0.010626402 -0.018632986 -0.007464003 -0.006970167
000380 08 b6 bc bb 4a c6 d6 3c 92 3d c9 3c 40 cb 84 ba
       -0.0057590045 0.026217598 0.024565492 -0.0010131374
000390 48 c2 d8 3b e0 ce 69 bb 9c 4f 95 bc be f0 97 3c
       0.006614957 -0.0035676286 -0.018226437 0.018547412
0003a0 20 a2 67 bb 30 15 3c bc 24 4b 8e 3c 08 ad 13 bc
       -0.0035344437 -0.011479661 0.017369814 -0.009013422
0003b0 54 05 05 bc cc 4a 96 3c 00 d0 f0 3a fc 6d 2f bc
       -0.008118946 0.018346213 0.0018372536 -0.010707375
0003c0 00 96 4d bb a4 9b 3a bc a0 10 5c 3c 7c 7d e3 bc
       -0.0031369925 -0.011389647 0.013431698 -0.027769797
0003d0 90 18 be bc f0 d1 f0 3c 10 41 2e 3c ec 30 50 3c
       -0.023205072 0.029396981 0.010635629 0.012706976
0003e0 02 15 8a 3c ac 54 34 bc e8 45 62 bc 0e 8b dd bc
       0.01685572 -0.0110065155 -0.013810612 -0.027043846
0003f0 30 c2 b7 bb 06 69 ee bc 6a 82 a6 bc d4 c0 63 3c
       -0.0056078658 -0.029102813 -0.020325858 0.013900954

hyper_w1.0.bias f4 [64]
000000 64 3f be 3c 0c 30 4a 3c fc 16 21 bc b0 ce 5b 3c
       0.023223586 0.012340557 -0.00983214 0.013415977
000010 00 bb 0b b9 38 0b f5 bb 10 97 0f 3c 02 1a e7 3c
       -0.00013325736 -0.007478144 0.008764043 0.028210644
000020 76 5b fd bc 12 e3 f1 3c f8 74 db bb ac 6d 7d 3c
       -0.030927401 0.02952722 -0.0066972934 0.015468042
000030 44 a9 aa 3c 0e 02 87 3c b0 b9 00 bc 04 6b 96 3c
       0.020832665 0.016480472 -0.007856771 0.018361576
000040 68 d1 a3 3c 3a b8 bb 3c ea be d2 bc 98 9c 5d bc
       0.019997314 0.022914995 -0.0257258 -0.013526104
000050 90 fc 0c 3b 00 f3 f1 bc 38 57 ab bc 6c b9 2d bc
       0.0021512844 -0.029534817 -0.020915613 -0.01060329
000060 90 fb 30 3c cc 9e 69 bc 90 c4 81 3c 22 cd 86 3c
       0.010802165 -0.0142590515 0.015840799 0.016455237
000070 f0 ac 4f 3c 6e c3 f5 3c 40 97 45 bc a0 3d 3c bc
       0.012675509 0.030000415 -0.012059987 -0.011489302
000080 f2 93 f8 3c c8 4d 7a 3c 90 a1 91 bb e0 25 ba 3c
       0.030343983 0.015277334 -0.0044443086 0.022723138
000090 d0 39 3c bc a0 51 ce ba a6 44 8f 3c ac d5 cc bc
       -0.011488393 -0.0015740879 0.017488789 -0.02500423
0000a0 8c e9 81 3c c2 96 aa bc 18 14 b8 3b 9a 8f b4 bc
       0.015858434 -0.02082384 0.0056176297 -0.02204113
0000b0 a2 05 db bc 42 c5 f5 3c 10 a3 68 bb c0 b0 be bc
       -0.026736084 0.030001286 -0.0035497583 -0.02327764
0000c0 88 a9 e2 3c 12 91 e5 bc 62 1d e6 3c 34 0d f6 3c
       0.02766873 -0.028023276 0.028090183 0.030035593
0000d0 68 72 be bc c0 de 8f ba f2 7a a8 3c e4 17 e9 bc
       -0.023247913 -0.0010976419 0.020566437 -0.028453775
0000e0 c0 82 0f bc b0 6a 03 bc 28 02 ef 3b 94 3c 7b bc
       -0.008759201 -0.008021042 0.007293958 -0.015334267
0000f0 36 02 e4 bc e0 42 06 3c 40 ec 11 ba be 46 89 3c
       -0.027833086 0.008194655 -0.0005566515 0.016757365

hyper_w1.2.weight f4 [128, 64]
000000 00 81 1a 3c 26 39 e7 3d 78 a5 d8 3c a8 98 44 3d
       0.00943017 0.11290197 0.02644609 0.047997147
000010 e2 0b ba bd 7e bb e2 3d fc ea 01 3d 94 69 01 bd
       -0.09084298 0.110709175 0.03171824 -0.031594828
000020 00 7c a2 3a a0 ed a7 3c 8a de cd 3d ee 9c a2 3d
       0.0012396574 0.02049905 0.100522116 0.07940088
000030 e4 00 48 bd 8c ad 05 bd f0 3c 96 bd 9c d9 e7 bd
       -0.048828974 -0.03263621 -0.07335842 -0.113208026
000040 ee 43 98 bd e4 c3 ad bd 74 8d ce 3d 48 5e c1 3d
       -0.074348316 -0.08484629 0.10085574 0.09441811
000050 20 00 87 3d 96 78 df 3d 40 c7 e5 bd 6a 18 ac bd
       0.06591821 0.10911672 -0.112196445 -0.08403094
000060 b8 31 af 3c f4 a8 2f bd b8 1c fd bc 06 d4 91 bd
       0.021386012 -0.042885736 -0.030897483 -0.071205184
000070 76 dc 85 3d 10 d0 3a bd ac 23 29 3d b4 85 84 3d
       0.0653619 -0.04560858 0.041293785 0.06470814
000080 d0 c4 da bd 4a 77 fa bd 3a 51 aa 3d 20 51 23 bc
       -0.1068207 -0.12229784 0.08316274 -0.009968072
000090 a0 2f a4 bd 0c d3 2d 3d 06 7b ee bd 30 cd 03 bd
       -0.08016896 0.042437598 -0.116445586 -0.032178104
0000a0 14 6e 3f bd 2c 59 a9 3d 88 dc 18 3d 66 89 c5 bd
       -0.046735838 0.08268961 0.03731969 -0.09645347
0000b0 ea f0 c6 bd 42 46 e2 bd dc f2 55 3d 68 dc 0a 3d
       -0.097139195 -0.11048557 0.052233562 0.033901602
0000c0 40 f3 18 bb d2 6f 98 bd fc 0a 0c 3d b0 f9 09 3c
       -0.0023338348 -0.07443203 0.034190163 0.008421347
0000d0 f6 07 e4 bd a0 f1 a4 bb 02 9b ef bd 80 12 34 3b
       -0.11134331 -0.0050336868 -0.11699487 0.0027476847
0000e0 02 14 ae 3d d8 80 36 bd 96 89 85 bd 96 a2 c4 bd
       0.0849991 -0.04455647 -0.06520383 -0.09601323
0000f0 de 1c d9 bd 5e 78 9b 3d 58 91 89 bd 5c 21 22 3d
       -0.10601209 0.075913176 -0.06717175 0.039582595
000100 be 9b d8 bd 36 40 da 3d b8 00 ee 3d 00 88 63 bc
       -0.105765805 0.106567785 0.11621231 -0.013887405
000110 70 a4 17 bc 40 99 37 3d a0 4b 43 bd 44 7a e9 bd
       -0.009255514 0.044823885 -0.047679543 -0.114002734
000120 20 3f 8f 3c 80 0a 7a bb 22 45 f4 bd c0 0f df bb
       0.017486155 -0.003815323 -0.119272485 -0.0068072975
000130 48 a5 d5 bd ac 9d d8 bd 88 a0 1b bd 88 e2 ef bc
       -0.104319155 -0.105769485 -0.03799489 -0.029282823
000140 d0 bd 0b 3c 1e 63 97 3d 5c 22 8f 3d 20 6c 05 3d
       0.008529142 0.07391952 0.069889754 0.03257382
000150 50 de c1 3d 62 6c e3 3d be 1a cd bd a8 97 46 3d
       0.09466231 0.11104657 -0.10014866 0.048484474
000160 42 e2 8f bd 14 28 49 3d a0 f9 66 3c 54 df 51 bd
       -0.07025577 0.049110487 0.014097601 -0.051238373
000170 18 89 be 3c 04 60 46 3d b0 c4 aa 3c 78 1e 36 bd
       0.02325873 0.04843141 0.020845741 -0.04446265
000180 58 3b cf 3d 10 c1 0f 3d dc ed d6 3d 42 3c cd 3d
       0.10118741 0.035096228 0.10494587 0.10021259
000190 f0 e4 8a 3d 38 ed cd bd 60 b5 b9 bd da 76 c3 3d
       0.067819476 -0.100550115 -0.09067798 0.095441535
0001a0 22 60 e7 bd ee 9d 8d bd 28 79 35 bd 1c aa cf 3d
       -0.11297633 -0.06914888 -0.044304997 0.10139868
0001b0 08 d3 41 bd fc 8b 2c 3d 5c 15 58 bd a0 5d ed bb
       -0.047320396 0.042125687 -0.052754745 -0.007243827
0001c0 dc 75 52 bd 48 c0 86 3d b0 a3 69 bd c8 46 fa 3d
       -0.05138193 0.065796435 -0.05704087 0.12220532
0001d0 30 89 3e bc c8 1d 16 bd 44 00 73 bd 18 d6 21 bd
       -0.011629388 -0.036649495 -0.059326425 -0.039510816
0001e0 40 46 8d 3b 00 0f 3f 3b 00 42 89 3a 22 e9 af 3d
       0.004311353 0.0029153228 0.001047194 0.085893884
0001f0 72 38 f4 bd c8 bf 83 3d 90 1e 3a 3d 60 9a 9e bd
       -0.119248286 0.06433064 0.045439303 -0.077442884
000200 68 ab 42 3d 32 33 a5 bd ac 12 87 bd f8 49 50 bd
       0.047526747 -0.08066405 -0.06595358 -0.050851792
000210 50 eb be bd 2e 54 e2 3d 90 b9 83 bc cc 2c 75 bd
       -0.09322226 0.11051212 -0.016079694 -0.059857175
000220 60 1d 0d bc de ba f3 bd 80 d8 34 3d a8 81 fa 3d
       -0.008612961 -0.119008765 0.044151783 0.12231761
000230 74 cf ac 3d 90 b6 ee 3d 48 1a 5d bd bc 23 0e 3d
       0.08438006 0.11655915 -0.053980142 0.034702048
000240 b0 b0 2f 3d 28 9e ed bd fc ef 07 bd ea 0b af bd
       0.04289311 -0.116024315 -0.03318785 -0.08547194
000250 68 d9 8f 3d 6c 34 f1 bd 00 a9 da bb 48 84 4f 3d
       0.07023889 -0.11777577 -0.0066729784 0.050663263
000260 c8 71 eb 3d 48 e3 fa 3d 68 4e e1 bd 4a 3c 85 bd
       0.114963114 0.12250382 -0.11001283 -0.0650564
000270 d2 02 e4 bd ca 9d f2 bd f6 85 fd bd 1e 96 ef 3d
       -0.111333504 -0.11846502 -0.12379067 0.116985545
000280 80 ed 34 bc fa 4a b1 3d 0c 19 ae bd 40 13 2c 3d
       -0.011042953 0.08656879 -0.08500871 0.042010546
000290 02 45 c5 3d 2c dd d7 bd e4 1b fb bd 12 f0 e6 bd
       0.09632303 -0.10540232 -0.12261179 -0.112762585
0002a0 02 4d 90 3d 54 80 6d 3d 38 2c a9 bd c4 c5 52 3d
       0.07045938 0.05798371 -0.08260387 0.051458135
0002b0 80 e4 25 bb 38 fa 19 bd 40 76 15 3b 38 d5 0d 3d
       -0.0025313199 -0.037592143 0.0022806078 0.03462717
0002c0 00 d0 ab ba d8 0b 2d bd 40 8d 85 bd 54 4c 0b 3d
       -0.0013108253 -0.042247623 -0.06521082 0.03400834
0002d0 d4 c4 19 3d 66 a7 8b 3d 66 2b e6 bd 44 8d dd 3d
       0.037541226 0.06819038 -0.11238746 0.1081796
0002e0 e6 92 bc 3d c4 8f 80 bd 56 45 c2 3d f0 fb 7d bc
       0.09207706 -0.06277421 0.09485881 -0.015501961
0002f0 56 aa fb bd 38 8d f9 3d 38 92 80 bd d6 3a ab bd
       -0.122883484 0.121851385 -0.06277889 -0.083608314
000300 98 45 00 3d 0e ad b9 3d 36 cb ce 3d f0 44 9f bd
       0.03131637 0.09066211 0.10097353 -0.07776821
000310 9c c9 7d bd b0 d8 a2 bd 10 6b a9 bd 7c e9 1c bd
       -0.061959848 -0.07951486 -0.08272374 -0.038308606
000320 b0 9d ef 3c 40 9b 9d 3d c8 b7 9d 3c dc 3d 5d bd
       0.029249996 0.07695627 0.019252673 -0.05401407
000330 56 51 e6 3d fe 5c e0 3d 5e 76 b7 3d ba 0d 9c 3d
       0.11245982 0.10955237 0.089581236 0.07619806
000340 ec 01 8c 3d e0 41 4e bd 40 7a e0 3b 20 23 14 3c
       0.06836304 -0.050355792 0.006850511 0.009041578
000350 0c f2 07 3d 44 a9 86 3d 70 0e 88 3d 10 c2 f3 3c
       0.03318982 0.065752536 0.06643379 0.029755622
000360 80 70 c5 3a 20 5b dd bc 28 c5 42 3d 1c 2f b1 3d
       0.0015063435 -0.02702099 0.047551304 0.086515635
000370 e8 9f c7 bd 66 7b 92 bd a6 c0 ec 3d 90 02 2d 3c
       -0.097472966 -0.07152443 0.11560182 0.010559693
000380 da 52 f9 bd 00 be d2 3c 10 35 42 3d 2c 60 9e bd
       -0.12174006 0.025725365 0.047413886 -0.07733187
000390 40 96 07 3b 38 6d e7 bd f2 aa ea bd b8 9d 30 3d
       0.0020688921 -0.11300129 -0.114583865 0.043119162
0003a0 00 5b 62 3a 02 1b 82 3d dc 13 b7 bd 20 4f 21 bd
       0.0008634776 0.063528076 -0.08939335 -0.0393821
0003b0 00 77 0c bb bc 44 73 bd b2 c6 95 3d d8 04 cf bc
       -0.0021433234 -0.059391722 0.07313289 -0.025270864
0003c0 c8 c9 9e 3c c0 ce 80 bc 00 44 eb 3a f0 0b ad bc
       0.019383326 -0.015723586 0.0017949343 -0.021123856
0003d0 7c a2 a9 3d 80 15 d5 3b 20 97 55 bd 20 73 8b bb
       0.082829446 0.006502807 -0.052146077 -0.0042556673
0003e0 0a 16 9a bd d2 81 d4 bd 6c 50 f5 bd e8 2a f2 bd
       -0.07523735 -0.10376324 -0.1197823 -0.1182459
0003f0 44 48 93 bd f2 f1 bc 3d d8 39 b4 bc c0 16 74 3c
       -0.07191518 0.09225835 -0.022000238 0.014898002

hyper_w1.2.bias f4 [128]
000000 48 77 64 3d ac 60 90 bd 56 33 80 bd ce b1 a3 3d
       0.055777818 -0.07049689 -0.062597916 0.07992898
000010 c0 d2 3d bc b0 c3 b2 3d e8 0c 93 3c 54 5d b7 bd
       -0.011585891 0.08728731 0.01795049 -0.08953348
000020 58 10 2c bd cc 5c 40 3d 60 41 48 3d bc 45 29 3d
       -0.042007774 0.046963498 0.04889047 0.04132627
000030 60 1f 80 bb 28 f6 e7 3d e4 12 81 3d 74 2b 17 3d
       -0.00390999 0.113262475 0.06302431 0.036906675
000040 3c bc 40 3d f0 f6 c4 3c 88 3b 70 3d 34 f7 42 3d
       0.047054514 0.02404353 0.058650523 0.047599033
000050 18 d2 b7 3d 1c cc 87 3d e0 a3 d8 bc 18 c1 c7 bd
       0.08975619 0.06630728 -0.02644533 -0.097536266
000060 e0 d8 bb 3d 74 2e 99 bd 90 d4 a3 3d 2c c5 aa 3d
       0.09172225 -0.07479563 0.079995275 0.08338389
000070 f8 d6 a8 3c 2c 9c 29 3d 14 28 e1 bd f8 40 9e 3d
       0.020610318 0.041408703 -0.109939724 0.077272356
000080 ac f0 c8 3d 9c cb 87 3d 58 34 4e 3d 7c 7e fa 3d
       0.098115295 0.06630632 0.050342888 0.12231156
000090 30 8c e1 3d fc 48 cb bd 50 e4 c8 bc 78 45 49 3d
       0.11013067 -0.0992603 -0.02452293 0.049138516
0000a0 d2 8e 97 bd 28 85 4a bd 88 71 ef 3d d8 ce a0 bd
       -0.07400288 -0.049443394 0.11691576 -0.07851952
0000b0 30 a4 04 3c 68 9a d7 3d ec de cc 3d a8 f4 d0 bc
       0.008095786 0.105274975 0.100034565 -0.025507286
0000c0 32 f9 a7 bd c4 d0 d9 bd 04 f0 d5 bd 08 6f 65 bd
       -0.08201827 -0.10635522 -0.1044617 -0.05601409
0000d0 40 88 fc 3b da 2f df bd c0 94 8c 3d 5a c6 b5 bd
       0.007706672 -0.10897799 0.06864309 -0.08875723
0000e0 c2 4e a8 bd 44 fb 9b 3d 04 3f 60 3d 9c ec 00 bd
       -0.08218147 0.076162845 0.054747596 -0.03147565
0000f0 6c 97 e9 3d 5c 4a d3 3d 00 58 c9 b9 fc b1 2c bd
       0.114058346 0.10316917 -0.00038403273 -0.042161927
000100 28 90 c0 bd cc bc 3f bd 60 82 79 bc 8a fb ad bd
       -0.094024956 -0.04681091 -0.015228838 -0.08495243
000110 a8 4c 89 3d 04 e4 4a bd 4c 42 76 3d 54 1e 56 bd
       0.06704074 -0.04953386 0.06012182 -0.052275017
000120 0e 66 db bd e4 1e 09 3d f0 82 82 bc 70 33 ac 3d
       -0.10712825 0.033476725 -0.015931576 0.084082484
000130 b0 11 dc bc b0 53 3e 3c 7c b3 40 bd 50 d4 32 3d
       -0.026863903 0.011616632 -0.04704617 0.04365951
000140 34 95 f0 3d 06 80 ce 3d 90 60 1f 3c 32 e0 a2 3d
       0.11747208 0.10083012 0.009727612 0.07952918
000150 aa 46 8b bd d0 0a ef bd 50 96 df 3c 0e 5a be bd
       -0.068005875 -0.11671984 0.027293354 -0.0929452
000160 34 40 ee 3d 60 99 99 bb 6a 63 bc bd 68 50 af 3d
       0.116333395 -0.004687473 -0.09198649 0.08560258
000170 7e 41 db 3d 4c 90 31 bd 94 fc 9f bd 5c 27 6e 3d
       0.10705851 -0.043350503 -0.07811847 0.058143005
000180 34 38 ab 3d 44 04 77 3d e0 0d 9e bb cc f5 fa bd
       0.08360329 0.060306802 -0.0048234314 -0.12253913
000190 b0 2b 26 bc 04 73 ac 3d fc a5 92 3d 1a 1f f9 3d
       -0.010142252 0.08420375 0.07160565 0.12164135
0001a0 28 bf fd 3c c4 0a b2 bd 38 10 96 3d 66 77 a7 3d
       0.03097494 -0.0869346 0.07327312 0.0817707
0001b0 9c 7d 51 bd d4 0b 76 3d da 33 a7 3d d0 e6 2e bd
       -0.05114518 0.060069874 0.08164187 -0.04270059
0001c0 d0 56 fd 3c 3e 2b e7 bd a0 fe 35 3c 82 84 a2 3d
       0.030925184 -0.11287545 0.011108071 0.0793543
0001d0 e8 03 c9 3d 4e b2 c7 3d b8 5d ac bd a8 ed 45 3d
       0.09815198 0.09750806 -0.08416313 0.04832235
0001e0 e8 1b b5 bd 22 9e fd 3d 20 49 a7 bc cc c9 3e 3d
       -0.08843213 0.12383677 -0.02042061 0.046579167
0001f0 70 93 85 3c 40 06 76 bd 1e dc a7 bd 78 f1 58 bd
       0.016305655 -0.060064554 -0.08196281 -0.052964658

hyper_w2.0.weight f4 [64, 1024]
000000 f0 83 69 bb f8 3f e2 bc e0 8f f7 3c 1a 51 ad bc
       -0.003563162 -0.027618393 0.030219972 -0.021156836
000010 a6 2a 8b bc f4 47 3f 3c 70 08 60 bb 44 eb 0a bc
       -0.01698811 0.01167487 -0.0034184717 -0.008478943
000020 10 eb b8 bc 10 fe ae 3c 7c 1e 07 3c 5c 81 35 bc
       -0.022573024 0.02136138 0.008247014 -0.011078205
000030 60 25 0a bc e0 4d 0e bc 78 4d b8 bc 96 0a 8e 3c
       -0.008431762 -0.008685559 -0.022497877 0.017339032
000040 b0 ac fa 3c f0 77 cb 3c 62 8c 89 bc b6 e9 d2 bc
       0.030599922 0.024837464 -0.016790573 -0.025746208
000050 60 2b 1d bc 8c 5f 2b bc fa 8d a3 bc e8 e7 cd 3c
       -0.009592861 -0.010459792 -0.01996516 0.025134996
000060 4a 41 a0 bc 20 40 44 3c b8 dd 08 bc 2a 09 a6 bc
       -0.019562382 0.011978179 -0.008353643 -0.020268042
000070 ce 52 d6 bc 3e b4 88 3c 40 d6 f6 3a 00 b9 d2 39
       -0.026162531 0.016687509 0.0018832162 0.00040192157
000080 84 34 21 3c 8a df 9c bc b8 a0 86 3b 9e 70 ad 3c
       0.009839181 -0.01914956 0.0041085146 0.021171864
000090 b4 28 7e 3c f0 0c f7 3b c0 92 47 ba 40 7a 69 ba
       0.015512634 0.007539384 -0.0007613115 -0.00089064613
0000a0 d0 31 ef bb 4c 7c 9c 3c 60 05 95 3b 76 de aa bc
       -0.0072996393 0.019102238 0.00454776 -0.02085803
0000b0 3e cc 90 3c 48 cc ae 3c e6 cb b1 3c 0e 72 8a 3c
       0.017675515 0.021337643 0.021703672 0.016900089
0000c0 f0 9c 3f 3c 18 e7 84 bb 44 be 0e 3c 30 f9 67 bc
       0.011695132 -0.004055869 0.008712355 -0.014158532
0000d0 b0 35 1f bb 3a 02 93 bc 88 7e 84 3c e4 a2 bb bc
       -0.0024293475 -0.017945398 0.016173616 -0.02290482
0000e0 d8 28 a6 3b fc 52 59 3c 6c 2b 65 bc e0 68 8e bb
       0.005070787 0.013264414 -0.013987403 -0.004345998
0000f0 dc e8 67 3c 94 e8 43 bc a0 a3 e5 3b 60 d7 ff 3c
       0.014154639 -0.011957306 0.007008031 0.031230628
000100 ec 3e 9c bc 50 a3 ca bc 5c 4b 81 bc f2 8a b7 bc
       -0.019072972 -0.024736077 -0.015783004 -0.022405121
000110 6a 04 c0 bc f0 25 84 3b 0e 82 f5 bc e8 8f d2 3c
       -0.023439605 0.004032843 -0.029969241 0.025703385
000120 00 3f d8 bc 68 76 a8 3b 40 d6 24 bb b0 1a 30 3b
       -0.026397228 0.0051410682 -0.0025152117 0.0026871376
000130 78 80 c7 bb 50 49 6d bb 78 37 9e 3c 98 8a a2 bb
       -0.0060883127 -0.0036207028 0.019313559 -0.0049603693
000140 1c 9e 06 bc ba 9b 8c 3c ba fe d5 bc 00 12 43 b9
       -0.008216407 0.0171641 -0.02612244 -0.00018603355
000150 c8 24 f9 bc 40 bf 1c bb d0 c8 6c 3b c6 22 b7 bc
       -0.030413046 -0.0023917705 0.0036130436 -0.022355448
000160 80 d9 bd b9 a0 9f c3 bb 44 1c 0b bc 08 a5 bd 3b
       -0.0003621094 -0.0059699565 -0.008490626 0.0057874955
000170 50 86 32 3c 1c 9c 22 3c 80 7b 17 3c 98 0d df 3c
       0.01089628 0.009924915 0.009245753 0.027228162
000180 f8 fd f7 bb 68 d3 e2 3b a4 4b 90 bc d0 d5 dc 3b
       -0.007568117 0.0069221742 -0.017614193 0.0067393556
000190 c4 70 cf 3c e0 a4 c7 ba 3c 56 db bc 32 45 f5 3c
       0.025322326 -0.0015231632 -0.026774518 0.029940221
0001a0 e8 b8 f3 3b 14 a4 87 bc 30 6a ca bc fa 38 87 bc
       0.007437814 -0.01655773 -0.024708837 -0.01650666
0001b0 a0 50 82 3b 94 9a 17 3c 70 77 79 3c 70 63 b7 bb
       0.0039768964 0.009253163 0.01522623 -0.0055965707
0001c0 a4 80 5b 3c f0 8f 54 3b 90 c4 08 bc a4 cb 09 3c
       0.0133973695 0.0032434426 -0.008347645 0.008410368
0001d0 0c 9b af bc 18 5e b5 3c 10 1b 09 3b 94 5a 61 3c
       -0.021436237 0.022139594 0.0020920672 0.013754506
0001e0 c8 14 e8 bb 10 4e e4 bc a4 9b 7b 3c 32 74 b5 3c
       -0.0070825554 -0.027869254 0.015356932 0.022150133
0001f0 00 63 c5 bc dc e1 51 3c 1e 9f fd 3c 9c c1 65 bc
       -0.024095058 0.012810197 0.030959662 -0.014023211
000200 48 67 19 3c 4c 58 09 3c ee 2d d5 bc a0 7b 8c bc
       0.009363003 0.008382868 -0.026022878 -0.017148793
000210 7c 37 a6 3c 6c 85 a5 3c 74 ff 79 bc a0 37 87 3b
       0.020290129 0.020205222 -0.015258659 0.004126504
000220 ca 26 a3 3c d8 ff 04 bc 22 74 f1 3c 0c 0f 53 bc
       0.019915957 -0.0081176385 0.029474322 -0.012882005
000230 5c 79 51 bc 34 7f e0 3c 50 f4 61 bc 68 99 df 3b
       -0.012785282 0.027404405 -0.013791159 0.0068237074
000240 78 86 43 3c f0 80 2d bb ac 73 56 bc 10 dc 78 bc
       0.011933915 -0.0026474558 -0.013089102 -0.015189186
000250 00 e9 87 3c 28 bf 79 bc d0 63 d9 3b c0 d2 77 ba
       0.016590595 -0.015243329 0.006634213 -0.00094537064
000260 68 96 e9 bb dc 10 c2 3c 50 84 d6 3c b0 20 2a 3b
       -0.0071285255 0.02368968 0.026186138 0.0025959425
000270 f8 b7 66 3c 58 88 dc 3c 40 24 01 3a 64 ca 2c 3c
       0.0140819475 0.026920483 0.0004926361 0.010546301
000280 c8 05 d8 bc 68 57 af bb e4 ac 8c bc ea 9e a1 3c
       -0.026369944 -0.005350996 -0.017172284 0.019729096
000290 00 fc 34 3a b8 c8 df bb 3a 44 fe 3c 50 f8 b7 3c
       0.0006904006 -0.0068293475 0.031038392 0.022457272
0002a0 ce 11 a4 3c 56 6d bf 3c ce 01 a5 bc 54 64 a6 3c
       0.020028021 0.023367565 -0.020142462 0.020311512
0002b0 ce e7 d2 bc 78 ed c4 3b 9c 2b 5f bc c4 9e b7 3c
       -0.025745299 0.006009754 -0.013621237 0.022414573
0002c0 8c f1 60 bc 28 0c d6 bb e0 84 0c 3b 08 67 65 3c
       -0.013729464 -0.006532211 0.0021441504 0.014001615
0002d0 f8 0f f1 3c 34 9e 67 3c f4 97 2c 3c 0c 44 fb bc
       0.02942656 0.01413684 0.010534275 -0.030672096
0002e0 d4 cc f9 bc 54 d8 8b bc 82 c6 db bc b8 76 f5 3b
       -0.030493177 -0.017070927 -0.026828054 0.007490959
0002f0 ec 96 24 3c 74 1e 2a bc c8 1e 81 3c 80 81 37 bc
       0.010045748 -0.010383237 0.015761748 -0.011200309
000300 50 a9 38 bb 86 95 d1 3c 20 da c3 ba 6c 72 d7 bc
       -0.002817709 0.025583994 -0.0014942326 -0.026299678
000310 c6 e7 b6 bc 00 98 99 bc 00 6a 44 bb 0a e8 ee 3c
       -0.022327315 -0.018749237 -0.0029970407 0.02916338
000320 a4 d5 81 3c 56 bd 94 3c 64 fc 10 bc b4 d9 38 bc
       0.015848942 0.018156689 -0.008849237 -0.011282373
000330 9a b2 d2 bc 9a bc f2 bc 10 93 fc bc 56 5c cd 3c
       -0.02571993 -0.029630948 -0.030831844 0.025068443
000340 40 09 57 bc e8 41 e5 3b 98 ba 9e bc a6 54 c7 3c
       -0.013124764 0.006996382 -0.019376084 0.024332356
000350 98 46 72 bc 70 f0 9a 3b 14 db 24 bc 50 a5 a5 3b
       -0.014787339 0.0047283694 -0.010061998 0.005055107
000360 b0 31 54 3b 40 d6 09 ba a0 cc 2d bb fe 2a f2 3c
       0.003237825 -0.0005258061 -0.002651967 0.029561516
000370 10 b5 97 bc 98 cc ea bb b8 9b da bb d8 a1 f2 3c
       -0.018518955 -0.0071655028 -0.006671395 0.029618189
000380 aa 26 de 3c 18 13 fe bc 0c b6 c1 3c 7a f9 cf 3c
       0.027118046 -0.031014964 0.023646377 0.025387514
000390 0a 10 d1 bc 00 c0 5a b9 2e eb c3 3c 6a 1f 80 3c
       -0.025520343 -0.00020861626 0.023915853 0.01563998
0003a0 c0 3a df bb 04 0d 41 bc 80 24 f8 3c 40 54 d2 bb
       -0.0068124235 -0.011782888 0.030290842 -0.006418735
0003b0 3c b0 9a bc 78 ad 9b 3b 94 04 c8 bc 70 26 5c 3b
       -0.018882863 0.0047509037 -0.024416246 0.0033592246
0003c0 0a c7 e8 bc 0a 8b ae 3c 12 4e f3 3c c8 d2 23 3c
       -0.028415222 0.021306533 0.029700313 0.009998985
0003d0 90 23 b7 3c e0 a1 27 bc ce 2c 9d bc 82 12 aa 3c
       0.022355825 -0.010231465 -0.019186404 0.020760778
0003e0 e0 66 14 3b 4c e6 1f 3c c8 d4 e1 3c 00 75 5f 3a
       0.0022644326 0.009759497 0.027567282 0.0008524209
0003f0 f4 8f f8 bc 80 91 24 3b 1e 38 e1 3c 78 77 22 3c
       -0.03034208 0.0025111139 0.02749258 0.009916179

hyper_w2.0.bias f4 [64]
000000 c0 93 a8 bb 60 fd cf bc 24 50 74 3c 3c 86 60 3c
       -0.0051445663 -0.025389373 0.014911685 0.013703879
000010 f4 66 94 bc b0 14 0b bb e4 04 bb 3c 70 49 ba 3c
       -0.018115498 -0.0021222048 0.02282948 0.022740096
000020 00 e5 8b b9 78 cb 78 bc 64 58 21 bc a4 e8 f2 3c
       -0.00026682764 -0.0151852295 -0.009847734 0.029651947
000030 ac e8 60 3c 88 31 99 3c 04 d3 d9 bc e2 3e f6 bc
       0.013727348 0.018700376 -0.026589878 -0.030059282
000040 18 d2 b9 3c 34 8d 95 bc c8 e0 77 bc 00 4c fc 3c
       0.022683188 -0.018255807 -0.015129276 0.030797958
000050 de 97 88 bc b8 ae d4 bb 22 d4 ec 3c 12 e3 e2 bc
       -0.016673978 -0.0064905547 0.028909747 -0.027696166
000060 38 f0 3b 3c cc 33 02 bc 28 d6 d9 3b e0 60 b8 bc
       0.011470847 -0.00794692 0.006647844 -0.022507131
000070 24 6e 70 3c be e2 85 3c ba 95 ee 3c dc b1 dc 3c
       0.014674697 0.01634347 0.02912413 0.026940279
000080 ce 52 f6 bc 0c 71 b5 bc 80 f6 fd 3a 16 31 86 bc
       -0.030068781 -0.022148632 0.0019375831 -0.016380828
000090 14 c9 f2 3c f8 86 8e 3b 94 10 45 3c 90 99 58 bc
       0.029636897 0.0043495856 0.012027878 -0.013220206
0000a0 80 4d e0 ba ae 3b 99 bc 44 55 41 bc 88 f7 59 bc
       -0.001711294 -0.018705215 -0.011800114 -0.013303645
0000b0 88 ed 1e 3c 04 c9 c3 bc a4 97 73 bc 18 8d 3a 3c
       0.009700187 -0.023899563 -0.014867697 0.011386178
0000c0 c6 35 be 3c 38 6c 22 3c 7a b5 95 bc 70 57 a4 bc
       0.023219 0.009913497 -0.018275011 -0.020061225
0000d0 9a e3 92 bc e4 4b 98 3c f8 05 16 bc 78 f0 67 bc
       -0.017930795 0.018590875 -0.0091566965 -0.014156453
0000e0 00 63 c9 bc 40 ad d9 3c 82 fc 83 3c 7c 50 49 bc
       -0.02458334 0.02657187 0.016111616 -0.012287255
0000f0 68 49 fb 3c 30 45 08 3c b4 3a 1b 3c dc b0 72 3c
       0.030674651 0.008317277 0.009474445 0.014812674

hyper_w2.2.weight f4 [32, 64]
000000 5a 3e e6 bd ea ed be 3d 46 76 8b 3d c8 35 84 3c
       -0.11242361 0.09322722 0.06809668 0.016138926
000010 b8 cd ff bc 72 96 82 3d b4 20 6c 3d 98 6a 60 bd
       -0.031226024 0.063763514 0.057648376 -0.054789156
000020 e6 44 b3 3d 80 a6 0f 3c b8 37 75 3d f0 d2 63 bd
       0.08753376 0.008767724 0.05986759 -0.055621088
000030 08 74 cc bc e4 83 58 bd 22 21 97 3d c0 27 ef bd
       -0.024957672 -0.052860156 0.073793665 -0.116775036
000040 4c 33 5a 3d 84 31 98 bd 38 ff a2 bd 00 6a c5 39
       0.053271577 -0.07431319 -0.07958835 0.00037653744
000050 b8 7f bd bc 82 a9 cc bd 74 f5 5a bd d8 1c c3 bd
       -0.02313219 -0.099932685 -0.05345674 -0.09526986
000060 0e 8d 85 bd a4 aa a0 bd 00 5c 37 ba 10 b8 03 3c
       -0.06521045 -0.07845047 -0.0006994605 0.008039489
000070 80 ef d0 bb aa 55 fb bd c0 09 c7 3d f8 c7 c0 3c
       -0.006376207 -0.122721985 0.097186565 0.023532853
000080 52 c1 9b bd ce a5 dd 3d 68 4c 9a 3c c0 5d af bc
       -0.07605232 0.1082264 0.018835261 -0.021407008
000090 76 b4 ed bd 70 cd 08 3d 18 2c 58 3d e0 47 85 3d
       -0.11606686 0.033399045 0.052776426 0.0650785
0000a0 28 3e 82 3d c0 2d 49 bd 70 ed c3 3c 80 25 c9 3d
       0.063595116 -0.049115896 0.02391693 0.09821606
0000b0 40 d3 6b 3c 38 41 80 bc fe e2 e1 3d c8 9b ff bc
       0.014393628 -0.015656099 0.110296234 -0.031202212
0000c0 d0 75 dc bd 40 33 56 3d 28 c9 1d bd fc c1 ed 3d
       -0.107646585 0.05229497 -0.038521916 0.11609265
0000d0 20 b8 3f bd 10 8b 49 bd 68 35 05 3d d8 2e 74 3d
       -0.046806455 -0.049204886 0.032521635 0.059614986
0000e0 28 a1 f0 3c e8 dd 91 3d c0 cc f4 3d 42 29 a2 3d
       0.02937372 0.071224034 0.119531155 0.079180256
0000f0 fc 46 97 bd 32 69 84 bd 62 18 9b 3d 68 3d 47 bd
       -0.07386586 -0.06465377 0.0757301 -0.048642546
000100 c4 b2 23 3d a8 0e d7 bd e2 5d b9 bd a2 a3 e0 bd
       0.039965406 -0.10500842 -0.0905111 -0.109687105
000110 38 01 69 3d ec f7 c9 bd 4c 58 8d 3d 30 b4 31 3c
       0.056885928 -0.098617405 0.06901607 0.010846183
000120 00 c8 8a b9 58 41 77 3d 08 3b 8c bd 9e 41 b9 3d
       -0.00026470423 0.06036505 -0.06847197 0.090457186
000130 b4 04 9c 3d cc 17 bb 3d 00 a0 0f ba 36 50 bd 3d
       0.076180845 0.09135398 -0.0005478859 0.09243815
000140 a0 43 ee 3d 08 ab 82 3c 2c fd 0c bd 58 fb c0 3d
       0.11633992 0.015950695 -0.03442113 0.0942294
000150 00 6f 75 bc 28 5e 92 bd 50 6e 32 3d 46 18 f4 bd
       -0.014980078 -0.07146865 0.043562233 -0.11918692
000160 92 5f 8e bd a8 d9 7d 3d 50 da ad 3c c0 cc 05 bc
       -0.06951822 0.06197515 0.021222264 -0.008166492
000170 46 d1 8a 3d e0 a2 5b bd 58 94 e7 3d 9c eb 32 3d
       0.06778197 -0.053622127 0.11307591 0.043681726
000180 b4 45 d2 bd 18 84 f9 bc 44 0c 00 3d be 7f 97 3d
       -0.10267201 -0.030458495 0.031261697 0.07397412
000190 34 2b b9 bd 6a 09 d0 bd 7c c6 35 3d 1e e8 d0 bd
       -0.090414435 -0.101580456 0.044378743 -0.10200523
0001a0 36 79 e4 3d e0 ab e1 3b a6 e5 a8 bd da 4d 95 bd
       0.11155932 0.006886944 -0.08246927 -0.0729024
0001b0 50 bb de bd 94 7e 8d 3d 88 32 2f bd 1c 76 2a 3d
       -0.10875571 0.069089085 -0.0427728 0.041616544
0001c0 b8 a2 47 bd ce 24 8e 3d 52 e5 fb 3d e2 69 f2 3d
       -0.048739165 0.06940614 0.12299599 0.11836602
0001d0 22 3e e7 3d f8 3c cd 3c ba 58 ae bd fe 9a cb bd
       0.11291148 0.025053486 -0.08513017 -0.09941672
0001e0 40 e5 e2 3c a2 cf 90 3d 36 cc e1 bd 72 cd a6 bd
       0.027697206 0.07070853 -0.11025278 -0.08144654
0001f0 d4 cf 1e bd 54 71 76 bd 34 d5 4d 3d 6c 8b 4d bd
       -0.03877242 -0.060166672 0.050252154 -0.05018179
000200 d4 24 f2 3d e0 d4 32 3c 82 d4 83 3d 04 c9 10 3d
       0.11823431 0.010915011 0.06437017 0.035347953
000210 ce db d2 bd b0 ce 0f 3c 1c d0 ed 3d f8 82 f6 bd
       -0.10295831 0.0087773055 0.11611959 -0.12036699
000220 2e 3a fe bd ea 5f a2 bd ee 07 f3 3d 80 39 22 3d
       -0.12413441 -0.079284504 0.11866747 0.039605618
000230 a0 4a e2 bd d6 fc b5 3d 18 ff 05 bd b4 38 9f 3d
       -0.1104939 0.08886115 -0.03271398 0.07774487
000240 78 1e e9 3d d4 d8 5a bd 00 da ae 39 28 d6 df bd
       0.113827646 -0.05342944 0.0003335029 -0.10929519
000250 40 f0 5f bc 74 d6 16 3d b2 bb a9 3d c8 2b 88 3c
       -0.01366812 0.036825612 0.08287753 0.016622439
000260 14 32 d5 bd 84 5c 2b bd 88 dd 04 bd 80 2f 9f bb
       -0.10409942 -0.041836277 -0.03243783 -0.0048579574
000270 00 b2 cb 3a 24 60 5f bd f6 aa b4 3d c0 7b ca bd
       0.0015540719 -0.054535046 0.08821671 -0.09886885
000280 26 21 c2 3d 20 91 b0 3d b8 ef 83 3c 60 b2 ee bc
       0.09478979 0.086214304 0.016105518 -0.02913779
000290 00 d0 75 3d a0 4f f4 3c bc 56 b0 3d ec 2c d3 3d
       0.060012817 0.029823124 0.08610293 0.103113025
0002a0 62 1e 82 bd 90 8c 86 3d 56 a0 fa 3d 3c ec 0f 3d
       -0.06353451 0.06569779 0.12237613 0.0351374
0002b0 78 4b 41 3d 38 4b 07 3d 9c 9f 6a 3d 52 72 8c bd
       0.047191113 0.03303072 0.05728112 -0.06857742
0002c0 f0 f9 47 bc c4 e7 8c bd b8 1d 19 bd f6 93 f9 3d
       -0.012205586 -0.06880143 -0.037381858 0.121864244
0002d0 c4 ad cb 3d 88 f7 7f 3d 8a 15 80 3d 90 e6 5a bc
       0.099452525 0.062491924 0.06254108 -0.013360634
0002e0 48 35 bd bd fa b7 b8 3d 8c 49 aa 3d 5a 44 b7 bd
       -0.09238678 0.09019466 0.08314809 -0.08948584
0002f0 ac 58 3e 3d 00 95 79 bc fa 8a 88 bd 9e cb 93 bd
       0.046471283 -0.015233278 -0.06667133 -0.07216571
000300 2a 46 b7 3d a2 a1 da bd d4 97 1e 3d 98 42 a4 bd
       0.089489296 -0.1067536 0.038719013 -0.08020514
000310 c4 86 cc bd 70 ab 06 3d 60 db 98 bc 10 25 64 3d
       -0.09986642 0.03287834 -0.018659294 0.055699408
000320 90 9d c3 bd 84 57 75 bd 90 e9 f5 bc 80 6f 6d 3c
       -0.09551537 -0.059897915 -0.030018598 0.014491916
000330 d4 ef fd bd 70 71 78 bc a0 cc 27 bd 78 33 ae bc
       -0.12399259 -0.015163764 -0.04096663 -0.021264777
000340 58 c3 70 bd 1e b3 e6 3d 60 85 de bb e0 07 4a bc
       -0.058780044 0.11264633 -0.006790802 -0.012330979
000350 f6 f0 f7 3d 88 18 27 bd e0 81 c9 3c 9e fe ff 3d
       0.121065065 -0.04079488 0.024598062 0.12499736
000360 76 ac 97 bd 56 2e 82 3d f4 bb 7a bd 08 17 0a 3d
       -0.07405941 0.06356494 -0.061214402 0.03371337
000370 36 b5 bb 3d 2c cb ee 3d 0c 13 df bd 80 58 1f bc
       0.091654226 0.11659846 -0.10892305 -0.00972569
000380 c0 5f 7b 3b 80 7d 5a 3b 80 3d 48 3d a0 5b 1d bd
       0.0038356632 0.0033338964 0.048886776 -0.03841746
000390 6e 28 93 bd a0 2f 92 bd a4 ad 5a bd e0 87 37 3d
       -0.07185446 -0.0713799 -0.053388253 0.044807315
0003a0 5e c1 ff bd 9c 74 49 bd 34 c9 f3 bd 50 c1 b7 3c
       -0.12488054 -0.049183473 -0.11903611 0.022431046
0003b0 28 32 95 bc ac b6 d9 3d 02 62 e3 3d d8 ad d2 bd
       -0.018212393 0.10630545 0.11102678 -0.10287064
0003c0 f8 3a d5 bd 54 14 39 3d a0 3d 3d 3d 2c 68 f0 bd
       -0.10411638 0.045185402 0.04620135 -0.11738619
0003d0 c0 b0 84 bd c0 c8 46 3c aa f3 e0 3d 00 14 92 39
       -0.06479025 0.0121328235 0.10983975 0.0002786219
0003e0 90 28 41 3c b8 58 6c bd 7c df 96 bd 88 aa eb 3d
       0.011789456 -0.057701796 -0.07366845 0.11507136
0003f0 56 ac ce 3d dc ab 9f 3d 70 e9 65 3c 40 4e 87 bd
       0.10091464 0.077964514 0.014032707 -0.06606722

hyper_w2.2.bias f4 [32]
000000 54 e7 24 3d e8 3b ed bc a2 0e d2 bd 08 4c 1a 3d
       0.040259674 -0.02895923 -0.10256697 0.037670165
000010 04 e5 f3 3d 56 17 e1 bd 44 ba 6e 3d f0 54 d0 3d
       0.11908916 -0.10990779 0.058283105 0.101724505
000020 58 a8 d9 bd 50 0c 18 3c a0 50 9b 3c f8 90 e8 3c
       -0.10627812 0.009280279 0.018959343 0.028389439
000030 58 78 86 bd 80 e2 78 bd 40 77 82 3d 16 53 c4 3d
       -0.065659225 -0.060762882 0.063704014 0.0958616
000040 00 7f 4e bd 5e 5d b6 3d 50 55 0c 3c 6c d0 4e 3d
       -0.050414085 0.08904527 0.008565262 0.050491735
000050 38 64 97 3d c4 57 a8 3d 4c 5e 32 3d 60 48 d9 3c
       0.07392162 0.08219865 0.04354696 0.026523769
000060 10 0d 30 bc 80 f2 af ba 46 be ca bd 9c 47 38 3d
       -0.010745302 -0.0013423711 -0.09899573 0.044990167
000070 18 06 81 bd f0 c1 f1 3d 1a 3a f3 bd 80 e1 27 bc
       -0.062999904 0.11804569 -0.11876316 -0.0102466345

hyper_b1.weight f4 [32, 1024]
000000 ea 67 b4 bc b8 03 bc 3c 42 21 8c 3c 60 9b 0f 3b
       -0.022022206 0.022950992 0.017105702 0.002191268
000010 8c 71 c4 3c 40 45 10 3c 40 7d 5e 3a 98 ce e0 3b
       0.023979925 0.008805573 0.00084872916 0.0068605654
000020 2e 86 c5 bc 88 b5 50 3c c0 53 2f 3a 10 15 49 3b
       -0.024111833 0.012738593 0.00066882 0.003068272
000030 32 63 e2 3c cc 12 c3 bc 9c 6b dd 3c 04 c3 e3 bc
       0.02763519 -0.023812674 0.027028851 -0.027802952
000040 ca 1f e9 3c 86 9c b2 3c 9e 95 da 3c 66 ea d4 bc
       0.028457541 0.021803152 0.026682671 -0.025990676
000050 f8 2a 8c bc a0 6e d0 bc c6 6b aa 3c e8 e6 ce bc
       -0.017110333 -0.025443375 0.020803344 -0.025256589
000060 1c 31 d8 3c f8 8b 90 3c d2 43 94 bc 70 cf f0 bc
       0.026390605 0.017644867 -0.018098745 -0.029395789
000070 fc c5 b2 bc 38 b9 cd bb 68 98 99 3b 62 c9 8e bc
       -0.021822922 -0.0062781833 0.0046873577 -0.017430011
000080 24 64 8f bc d0 80 07 bc 58 82 d5 bc f0 b3 37 bc
       -0.017503805 -0.008270457 -0.02606313 -0.011212334
000090 dc 4a 67 3c 02 2f f8 3c a0 7a 66 3b 62 f2 85 3c
       0.014116969 0.030295853 0.0035168305 0.016350929
0000a0 80 31 b8 bb e0 55 f1 bc ce ab b8 3c e0 5e 42 3c
       -0.0056211352 -0.029459894 0.02254286 0.01186344
0000b0 a4 ba c0 3c c0 95 28 3a 62 2e bb 3c 34 81 f4 bc
       0.023526497 0.0006431006 0.022849265 -0.029846765
0000c0 f2 f2 fa bc 4a 96 b9 3c 78 54 95 bb 16 91 a6 bc
       -0.030633423 0.022654671 -0.0045571886 -0.020332854
0000d0 ec ed 9e bc 48 b1 69 3c d0 90 85 3c 3e fa 9f 3c
       -0.01940056 0.014263459 0.016304404 0.019528504
0000e0 38 cf 0b 3c d0 3f b2 3c ac be 8e 3c 26 a9 e7 bc
       0.0085332915 0.021758944 0.017424904 -0.028278898
0000f0 48 09 84 3b ee 4e ea 3c 70 38 a9 3c 74 ff 22 bc
       0.0040294267 0.02860209 0.020656794 -0.0099486
000100 e8 f9 d2 3b f4 28 0a 3c 98 9f 86 3c 20 98 ac 3b
       0.0064384826 0.008432616 0.016433522 0.005267158
000110 a4 07 e6 3c 1c 14 1e bc 56 a8 be 3c 68 b6 f9 3b
       0.028079815 -0.009648349 0.023273628 0.0076206215
000120 8c 99 d6 3c 00 d2 b3 38 40 46 e4 3b 94 00 f4 bc
       0.026196264 8.574501e-05 0.0069663823 -0.029785432
000130 cc 55 fb 3c 7c a2 79 bc c0 cc 88 ba fc 05 fd 3c
       0.03068056 -0.015236493 -0.0010436997 0.030886643
000140 46 b2 e6 3c 70 46 95 bb 44 d7 15 bc 00 0b e4 bb
       0.02816118 -0.004555516 -0.009145562 -0.006959319
000150 80 94 17 bc 10 e1 6e 3b b8 6e 6c 3c 80 13 21 3b
       -0.009251714 0.0036450066 0.014430694 0.0024578273
000160 46 f1 98 3c 2a bd ee bc 70 ce 0b 3c 0c cc e7 3c
       0.018669736 -0.029142935 0.008533105 0.02829554
000170 18 bb f5 bc 9a 01 e3 3c 90 1b b8 3b e6 5b a9 bc
       -0.02999644 0.027710725 0.00561852 -0.020673703
000180 1c f8 b3 3c 2c 8a 4f bc 96 a2 e1 bc fc 13 df 3c
       0.021968894 -0.01266722 -0.027543347 0.027231209
000190 1c 9b a2 3c b8 2e 08 bc 78 26 cc 3b 66 40 b6 bc
       0.019849353 -0.00831192 0.006230172 -0.022247504
0001a0 80 f9 84 3c 9c bc 0e bc ba 33 ed 3c 78 d9 d6 bb
       0.016232252 -0.00871196 0.02895533 -0.006556686
0001b0 d4 53 60 3c 60 61 46 3b 5a ef ae bc b0 9d 3e 3c
       0.013691861 0.0030270442 -0.021354366 0.011634275
0001c0 2c 37 2a 3c 36 0c 89 bc 3a c7 87 3c 64 b3 fa bc
       0.010389131 -0.016729455 0.01657449 -0.030603118
0001d0 78 ba 62 bc e0 cb ba 3c 52 fa 8a 3c 08 49 d5 3c
       -0.013838403 0.022802293 0.016965065 0.0260358
0001e0 50 16 d3 bc a0 12 8a 3a 36 a2 c9 3c d8 8f c8 bb
       -0.025767475 0.0010534115 0.024613481 -0.006120663
0001f0 f2 ac b6 bc d2 11 85 3c 4a 5b ba 3c 88 29 50 3c
       -0.022299264 0.016243849 0.022748608 0.012705214
000200 e2 c7 ec bc 4c cf bb 3c 46 f6 f1 3c d8 83 bb 3b
       -0.028903905 0.022925995 0.029536378 0.005722504
000210 2a 2e c4 bc d0 ea 8f 3c a8 9c a5 3b 10 35 79 bc
       -0.023947794 0.017568022 0.0050540753 -0.015210405
000220 98 8b d5 3b 6a 78 f7 3c 0c 70 5f 3c dc e3 21 bc
       0.006516885 0.030208785 0.013637554 -0.009880986
000230 18 70 eb bc 4c c1 d3 bc 7a 49 ea 3c 90 ee fb bc
       -0.028739974 -0.025849007 0.02859949 -0.030753404
000240 76 44 8a 3c fc 51 21 bc a8 75 0b bc e4 90 3a 3c
       0.016878348 -0.009846207 -0.008511938 0.011387084
000250 60 e3 f2 ba 82 f3 a4 bc 74 69 ab bc 44 a7 bd 3c
       -0.0018530898 -0.020135645 -0.020924307 0.023151048
000260 60 9b 6b bb 7c 83 22 bc aa 98 83 bc a8 da 7b bc
       -0.0035950765 -0.009919044 -0.016064007 -0.015371956
000270 7c 59 32 bc 2c 50 62 3c 60 a0 4c bb 3e 05 e1 3c
       -0.010885593 0.01381306 -0.003122352 0.02746832
000280 6c 03 3c bc 64 fc eb bc 10 d8 31 bc fc 1f 04 bc
       -0.011475425 -0.028806873 -0.010854736 -0.008064266
000290 26 5c c5 bc 40 7f af 3a 90 45 31 3c e4 d3 cb bc
       -0.024091791 0.0013389364 0.010819808 -0.02488131
0002a0 00 40 63 3a c8 98 19 bc 68 11 b4 3b 8e 45 d7 bc
       0.00086688995 -0.009374805 0.005495239 -0.026278283
0002b0 d6 46 f4 bc f6 1a f8 bc c6 50 f4 bc 34 7b 39 3c
       -0.029818933 -0.030286293 -0.029823672 0.011320878
0002c0 40 d7 1a 3a fa 41 d7 bc 70 c5 74 bc 40 12 a9 bb
       0.00059067085 -0.026276577 -0.014939651 -0.0051596463
0002d0 a4 46 ef 3c 50 38 27 bc 80 2d 6f bc ea 94 b1 bc
       0.029208489 -0.010206297 -0.01459825 -0.021677453
0002e0 70 bc 33 bb 60 05 42 bb e0 e0 53 bb f0 0b 74 3c
       -0.002742555 -0.0029605255 -0.003233008 0.014895424
0002f0 38 5b ea 3b ee 91 dd bc 48 af d1 bb 3c 1d c0 3c
       0.0071519874 -0.027047124 -0.006399069 0.02345144
000300 f2 1b a2 3c 86 7c ac bc 42 0f ab bc a6 e5 f2 3c
       0.019788716 -0.021055471 -0.020881299 0.02965052
000310 a8 1a c0 3b 40 f4 c9 ba 94 ed d8 3c 60 59 4f bc
       0.0058625527 -0.0015407875 0.026480474 -0.012655586
000320 94 7a 74 bc 48 e0 c3 3b ea 60 ca 3c 6c ab 5a 3c
       -0.014921803 0.005977664 0.024704415 0.013346534
000330 68 cc f6 bb 34 46 5b 3c 38 03 6f 3c 44 65 29 3c
       -0.0075316913 0.013383437 0.01458817 0.010339085
000340 16 72 e6 bc 30 68 48 3c 30 12 18 3b 6c de 10 bc
       -0.028130572 0.0122318715 0.00232042 -0.008842092
000350 30 61 78 3c 9a da cd 3c b0 3a a1 bb 76 34 82 3c
       0.01515989 0.025128651 -0.004920326 0.015894156
000360 56 10 9a 3c 6a 05 d4 3c f8 07 e9 bb a0 4f 86 bb
       0.018806618 0.025881488 -0.0071115457 -0.0040988475
000370 de 66 d8 bc f0 18 49 bc 52 c7 9d 3c 3e 84 a8 3c
       -0.026416238 -0.012274012 0.019260082 0.02057087
000380 f8 9d b6 3c 02 71 a9 3c 70 d3 33 3c 7e 6a 9b bc
       0.022292122 0.02068377 0.010975704 -0.018971678
000390 54 56 71 3c c0 e5 1e 3c c4 dd e6 bc 20 aa 45 3b
       0.014730055 0.009698331 -0.028181918 0.0030161217
0003a0 00 be ac 3a 22 a5 ab bc 50 32 8c 3b a0 ec ed 3a
       0.0013179183 -0.020952765 0.0042784587 0.0018152185
0003b0 10 c7 44 bb c8 a2 9d 3c c2 e5 ea bc 26 39 cd bc
       -0.0030025877 0.01924266 -0.02867401 -0.025051665
0003c0 00 50 89 bc 70 1f 06 3b c8 2a 43 3c 10 bb ab bc
       -0.01676178 0.0020465516 0.011912055 -0.020963222
0003d0 08 e3 a3 3c f0 fb 11 bc 74 73 51 3c 00 8d 8b 39
       0.020005718 -0.008910164 0.012783874 0.000266172
0003e0 c0 43 ed 3b c4 d2 fe bc 7e a0 ad bc d0 5a 8a bb
       0.0072407424 -0.03110636 -0.021194693 -0.0042222515
0003f0 a0 8f 03 bc 64 66 9c 3c 38 af d2 bb 64 b1 d6 bc
       -0.008029848 0.019091792 -0.006429579 -0.026207633

hyper_b1.bias f4 [32]
000000 60 b0 b5 ba 3e 8a e9 bc e0 2d aa 3c 78 47 f5 bb
       -0.0013861768 -0.028508302 0.020773828 -0.0074853264
000010 86 50 d3 bc f4 0a 0d 3c c4 f9 47 3c 30 42 88 bb
       -0.025795233 0.008608568 0.012205545 -0.004158281
000020 60 10 e2 3b e2 ab e8 3c a4 bb 91 3c e0 70 74 bb
       0.0068989247 0.028402273 0.01778967 -0.0037298724
000030 f4 b0 2a 3c a8 96 d5 3c 5a 2e be bc 20 f4 3d 3c
       0.0104181655 0.026072815 -0.023215462 0.0115938485
000040 30 d6 ed 3b 00 61 f2 ba 34 27 73 3c 88 8b 49 bc
       0.007258199 -0.0018492043 0.01484089 -0.012301333
000050 86 a4 c6 bc 38 a5 22 3c d4 f6 ee bc 90 f5 67 3b
       -0.024248373 0.0099270865 -0.029170431 0.003539417
000060 90 6e 7a 3b 24 ad 8a 3c f4 4a 68 3c 24 94 8d bc
       0.0038212873 0.016928263 0.0141780265 -0.017282553
000070 44 61 30 bc 9c 94 17 bc b0 66 8f bb 00 8e 54 bc
       -0.010765377 -0.00925174 -0.004376255 -0.012973309
