models/v0/target_qmix_net.pth (torch, 490172 bytes, 13 tensors)

hyper_w1.0.weight f4 [64, 576]
-0.038799133 -0.0013868995 -0.0055976175 -0.0009135045 0.013852026 -0.0038013943 -0.015380656 0.0020480007
-0.009818677 0.041459475 0.03038219 0.020408347 0.020266514 -0.019755011 -0.03810014 -0.020621594
-0.026607633 0.04083137 0.010851875 0.012775678 0.027070355 0.0074991137 0.019947369 -6.9294125e-05
-0.027057093 -0.011614269 0.03468891 -0.041256458 0.036524136 0.019227326 0.033305246 -0.009255309
-0.028882798 -0.019744616 -0.041185938 0.033352207 0.01582317 -0.0050646476 -0.016635757 0.03403913
0.026962418 -0.004577663 0.039426405 0.020679828 0.00918749 0.020898033 0.027520891 0.021190513
0.0050280057 -0.0070333593 -0.03094044 0.01466085 0.022790682 0.033542518 0.032640625 -0.027811125
-0.013572207 0.0010392219 -0.0019863881 -0.021160316 -0.03493753 -0.036611214 -0.031684354 0.005120892
0.008805979 -0.038623095 0.008364294 -0.008450497 -0.027049681 0.035859514 0.010064449 -0.014975827
0.0248967 -0.018476984 4.1324645e-05 -0.020728465 -0.008892361 -0.03956954 -0.024995461 -0.0110808015
-0.03333365 -0.008436199 0.003390219 0.04005192 -0.00047938526 0.039426226 -0.02477773 -0.009401936
-0.0077931844 -0.037391033 0.021545772 0.041304026 0.005855277 0.0040871687 -0.017510276 -0.0364366
-0.026635405 -0.030593287 0.010329917 -0.009638276 -0.011710983 0.011736885 -0.040644404 0.005419608
0.039462555 0.03375609 0.041262392 -0.0148410015 0.011934411 0.03987189 0.024859484 -0.036923792
0.015568748 0.027064044 0.032120574 0.036868308 0.008349147 -0.0015336312 0.037785444 0.028977912
0.019753221 0.04080757 -0.0060844384 0.03566285 0.03141514 0.032164503 0.038202178 0.037917454
-0.007155191 0.0167129 0.026316483 -0.009682152 0.008332852 -0.027166158 0.036008377 0.02451219
-0.00637275 0.022581998 -0.027273472 0.00042375922 -0.0015945546 0.003134694 0.018936366 -0.013788208
0.0140949 -0.005756229 0.040671747 -0.01409558 0.002278924 -0.02048358 0.0016033202 -0.0036171526
-0.014074232 -0.010090601 -0.008197408 -0.015965939 0.0102430545 -0.015368089 0.024147395 -0.014607888
-0.0041873343 0.031118978 0.04042649 -0.0032259114 0.036545914 0.01872002 -0.0007064529 0.036311734
-0.0026141517 -0.0040017366 -0.0008591153 -0.0012539029 -0.0062166117 0.014245879 0.0073428564 -0.009542942
0.041087676 -0.008692279 -0.026922848 0.04018792 0.010672376 -0.00017346442 -0.029185038 0.038614366
-0.039035987 -0.035693504 0.012558933 0.035591718 0.03853337 0.020786207 0.037092257 0.03253044
-0.032316044 0.01623268 0.02851114 -0.012876248 0.022843976 -0.025837403 -0.00075770915 0.038636316
0.03974514 0.015506968 0.013093799 0.016013574 -0.006804075 0.041532043 0.021695998 0.027659629
0.041044805 0.017667811 0.019522656 -0.012517905 0.040389825 0.015523594 0.007226154 -0.0026950948
-0.025018236 -0.027169302 0.013666544 0.013235699 -0.0102866925 0.021974687 -0.017118206 0.0042525195
-0.03131444 0.03018574 0.0014148466 0.020142421 -0.015161842 0.0407816 0.014784545 0.04165246
0.039761234 -0.005010437 0.01606932 0.018381063 0.028025512 -0.0065666735 0.013345879 0.017245118
0.009711683 0.036963392 -0.039903753 -0.010810744 -0.04138986 -0.038003936 0.012627199 0.039068308
0.04054353 -0.02843846 0.005956024 -0.017375648 -0.038617775 0.0062487684 -0.011992559 -0.03209933
00000000: d7eb 1ebd a0c8 b5ba 386c b7bb 4078 6fba
00000010: 9cf3 623c d020 79bb 26ff 7bbc c037 063b
00000020: 84de 20bc 69d1 293d 12e4 f83c 682f a73c
00000030: f605 a63c 43d5 a1bc e40e 1cbd 9eee a8bc
00000040: 40f8 d9bc cb3e 273d 10cc 313c 1451 513c
00000050: a6c2 dd3c 20bb f53b aa68 a33c 0052 91b8
00000060: d6a6 ddbc c649 3ebc f515 0e3d 88fc 28bd
00000070: 559a 153d a082 9d3c 156b 083d 94a3 17bc
00000080: 9e9b ecbc 76bf a1bc 96b2 28bd 539c 083d
00000090: 989f 813c 58f5 a5bb b647 88bc 9d6c 0b3d
000000a0: 4ae0 dc3c 3800 96bb 957d 213d be68 a93c
000000b0: 2087 163c 5a32 ab3c 7e73 e13c ba97 ad3c
000000c0: f8c1 a43b 1878 e6bb ce76 fdbc 1034 703c
000000d0: 86b3 ba3c e163 093d 2db2 053d 28d4 e3bc
000000e0: f65d 5ebc 8036 883a 102e 02bb 6658 adbc
000000f0: a81a 0fbd a4f5 15bd 74c7 01bd 28cd a73b
00000100: f446 103c 4033 1ebd 640a 093c f473 0abc
00000110: 4b97 ddbc 6de1 123d 5ce5 243c 2c5d 75bc
00000120: 2af4 cb3c 0b5d 97bc 0054 2d38 bece a9bc
00000130: 44b1 11bc ac13 22bd 48c3 ccbc 408c 35bc
00000140: de88 08bd fc37 0abc 702e 5e3b 7b0d 243d
00000150: 0056 fbb9 657d 213d abfa cabc 940a 1abc
00000160: f85d ffbb 5727 19bd c280 b03c 692e 293d
00000170: a0dd bf3b a8ed 853b b671 8fbc 8b3e 15bd
00000180: 7e32 dabc c69e fabc d03e 293c dce9 1dbc
00000190: 6cdf 3fbc 104c 403c bf7a 26bd f896 b13b
000001a0: 7da3 213d d343 0a3d c102 293d ac27 73bc
000001b0: 8c88 433c b550 233d 1ea6 cb3c 673d 17bd
000001c0: 1014 7f3c 6ab5 dd3c dd90 033d 3903 173d
000001d0: dcca 083c 2004 c9ba e9c4 1a3d 1663 ed3c
000001e0: 82d1 a13c d725 273d f85f c7bb 3513 123d
000001f0: 29ad 003d edbe 033d e379 1c3d 554f 1b3d
00000200: 1876 eabb 7ee9 883c aa95 d73c e4a1 1ebc
00000210: 8486 083c 908b debc 857d 133d cacd c83c
00000220: 80d2 d0bb e2fd b83c 9e6c dfbc 002c de39
00000230: 6000 d1ba 706f 4d3b 7020 9b3c f0e7 61bc
00000240: 4cee 663c c09e bcbb 6b97 263d 26f1 66bc
00000250: 005a 153b 2ecd a7bc 8026 d23a c00d 6dbb
00000260: 9c97 66bc 0c53 25bc 6c4e 06bc 00cb 82bc
00000270: 7cd2 273c 70ca 7bbc c2d0 c53c ec55 6fbc
00000280: e835 89bb 3aed fe3c 3f96 253d d069 53bb
00000290: 2bb1 153d ba5a 993c 4031 39ba 9dbb 143d
000002a0: 3052 2bbb 0021 83bb 4036 61ba 005a a4ba
000002b0: b8b4 cbbb 8c67 693c 589c f03b 005a 1cbc
000002c0: 8d4b 283d 106a 0ebc 4e8d dcbc 179c 243d
000002d0: 30db 2e3c 00e4 35b9 7615 efbc 192a 1e3d
000002e0: 33e4 1fbd 5a33 12bd fcc3 4d3c 9fc8 113d
000002f0: 2bd5 1d3d d647 aa3c 0dee 173d a33e 053d
00000300: d45d 04bd 66fa 843c 3290 e93c e6f6 52bc
00000310: 4a23 bb3c f6a8 d3bc 00a1 46ba 1d41 1e3d
00000320: cdcb 223d f010 7e3c 6087 563c e62e 833c
00000330: b8f4 debb 811d 2a3d cebb b13c 7296 e23c
00000340: 991e 283d 16bc 903c faed 9f3c e617 4dbc
00000350: cd6f 253d ac56 7e3c 60c9 ec3b 30a0 30bb
00000360: 0bf3 ccbc 2892 debc a4e9 5f3c 8cda 583c
00000370: 8489 28bc 4204 b43c 7b3b 8cbc b858 8b3b
00000380: 9243 00bd 1648 f73c 6072 b93a b801 a53c
00000390: 6069 78bc 9b0a 273d e03a 723c c59b 2a3d
000003a0: addc 223d 982e a4bb cea3 833c e293 963c
000003b0: c295 e53c 402d d7bb aca8 5a3c a245 8d3c
000003c0: c01d 1f3c ed66 173d 1e72 23bd 8c1f 31bc
000003d0: 6a88 29bd 04aa 1bbd 50e2 4e3c 1706 203d
000003e0: f910 263d c6f7 e8bc c02a c33b 6057 8ebc
000003f0: ac2d 1ebd 78c2 cc3b 707c 44bc 967a 03bd

hyper_w1.0.bias f4 [64]
0.020207107 -0.02012877 0.0059330664 0.023177762 0.015747746 0.0036429875 -0.026762208 -0.042219017
0.013121431 0.02301367 -0.016585758 0.025819464 -0.007200746 -0.00062435184 -0.04618938 0.02073086
0.019892594 -0.022564216 0.010711554 -0.027777847 -0.030910967 0.007267803 -0.017873373 0.010021325
0.028624339 0.018204283 -0.031732857 -0.040298924 0.012361553 0.04359468 0.032309722 0.023056883
-0.020479606 -0.021097388 -0.0039592213 0.0058224313 0.028587926 -0.004479915 -0.012730982 0.03627198
-0.023868158 -0.025480988 -0.038055155 -0.041509084 -0.04251741 0.014301587 0.0061665587 -0.045117248
-0.009268191 0.0055230027 0.025493335 0.0073046796 -0.0355668 -0.034868944 0.009973109 -0.013737917
0.014083516 -0.027568689 -0.0059586205 -0.014002901 -0.0071528614 0.061123513 -0.0007760682 0.010040533
00000000: 6089 a53c 17e5 a4bc 2b6a c23b 4adf bd3c
00000010: 6b01 813c 30bf 6e3b 6b3c dbbc d9ed 2cbd
00000020: 45fb 563c 2a87 bc3c dbde 87bc 5783 d33c
00000030: 3cf4 ebbb 8bab 23ba 1331 3dbd c4d3 a93c
00000040: cbf5 a23c 97d8 b8bc 847f 2f3c 5e8e e3bc
00000050: ff38 fdbc c026 ee3b 2e6b 92bc 7c30 243c
00000060: 977d ea3c 2621 953c 50fa 01bd 7c10 25bd
00000070: 1c88 4a3c 5690 323d 3357 043d cae1 bc3c
00000080: d9c4 a7bc 6ed4 acbc 5bbc 81bb 18ca be3b
00000090: 3a31 ea3c 40cc 92bb 9c95 50bc ed91 143d
000000a0: 2887 c3bc 81bd d0bc b9df 1bbd 6e05 2abd
000000b0: bc26 2ebd 3451 6a3c d810 ca3b ddcc 38bd
000000c0: 9cd9 17bc 4efa b43b 66d7 d03c 185c ef3b
000000d0: 7eae 11bd bdd2 0ebd 4066 233c 0015 61bc
000000e0: 8cbe 663c bbd7 e1bc 8840 c3bb 6c6c 65bc
000000f0: 8d62 eabb a65c 7a3d 0e71 4bba 0c81 243c

hyper_w1.2.weight f4 [128, 64]
0.013637722 0.059791245 0.08503046 -0.018255115 0.0015740353 -0.013899341 0.011360586 0.13384674
0.07613478 0.034381732 0.08470327 0.0424319 0.012854253 -0.0027645791 -0.07399025 0.06336749
-0.07816762 -0.10319958 -0.11192152 0.05950725 -0.0009990716 0.078874856 0.00056776404 0.018737921
-0.08241368 0.08498431 -0.010653061 -0.05120961 0.056430295 -0.006616694 -0.11458681 0.044499442
-0.11533436 0.06357004 0.10250295 0.047082618 -0.028464347 0.041519865 -0.123149395 0.06732531
-0.043455005 0.093476236 0.09667138 0.08976432 0.11470596 -0.01932095 -0.0662213 -0.06215234
0.0015269667 -0.10225456 -0.014700502 0.014546439 -0.09445293 0.07114336 -0.06879988 -0.055825967
-0.034105808 -0.1205183 -0.02770187 -0.033265814 0.062040534 0.03351683 0.0426741 -0.04319425
-0.024784178 0.108506106 0.057505228 0.099503964 0.026236225 0.051899463 0.039311215 -0.034999188
-0.04688581 -0.118609816 -0.08593966 -0.0039442605 0.03309983 0.0467536 -0.03985266 0.08337133
-0.05487312 0.06428526 0.007042289 -0.0325647 -0.10622514 -0.01487349 -0.109635845 -0.04213696
-0.050080948 0.0019966848 -0.030434951 0.046889894 0.098008335 -0.05268697 -0.061970703 0.07460873
0.1030795 -0.050644115 0.041148182 -0.018512204 -0.006608635 -0.023764998 0.05854015 -0.07897018
-0.08176352 0.05732144 0.040623106 -0.11379896 0.0021353683 -0.08675434 0.025376737 0.082477644
-0.09671439 -0.07024748 0.07241702 -0.09774363 0.028921813 -0.08629219 0.046975926 -0.107500374
-0.118309915 0.02465953 0.01461418 0.07269265 -0.005348275 0.06443562 -0.11008101 -0.045224383
0.0058478266 -0.05290497 -0.06861104 0.09490545 -0.10883168 -0.013885543 0.05804865 -0.08126888
0.0679116 -0.07669142 0.050163776 0.028891185 0.11809825 -0.005514866 0.035070144 0.110014476
-0.043106735 0.07301013 0.055597857 0.07825431 -0.054759197 -0.025400177 0.12344545 0.03994248
0.106195845 -0.021165293 0.011971369 0.0214683 -0.022906303 0.104410805 0.06626735 -0.049136877
0.067306615 0.058932275 0.063555285 0.06773952 0.10888633 -0.008301213 0.063357234 -0.011403859
-0.111039996 -0.056692503 0.028833386 0.023881823 0.051803794 -0.06718685 -0.013398156 -0.090633854
0.10168655 -0.016876725 0.09497915 0.07879838 -0.10714282 0.017742267 -0.083370924 0.009419146
-0.05220346 0.044079974 -0.0714553 0.07155584 0.049117323 -0.05732172 0.031214846 0.10561158
-0.010203645 0.09235878 -0.082054846 -0.07887998 -0.024315957 -0.01288797 -0.03824994 -0.08632131
0.09452567 0.015110925 -0.11749527 -0.080144085 0.059038114 -0.03435302 0.041849446 0.08570487
-0.01869987 0.09704059 -0.0013403594 0.04385987 0.08461939 0.06463754 0.08598666 0.11547945
-0.037354443 -0.027740503 0.09833154 -0.112942085 -0.00787352 -0.08208772 0.06376184 -0.02855125
0.12061197 -0.09030452 -0.041834682 0.06682366 0.049903423 0.10824719 0.016856655 -0.11206131
0.0029404312 0.077415794 -0.027415596 -0.0016478479 0.019054227 -0.06433642 -0.08037792 -0.12570992
-0.09830509 -0.027937353 -0.11088143 -0.028030604 -0.11229102 0.016713113 -0.03867215 -0.05565904
0.043147832 0.024973303 -0.008732185 0.01330699 0.051978033 0.04169629 0.10406279 -0.003057301
00000000: c070 5f3c aae7 743d 7324 ae3d c08b 95bc
00000010: dc4f ce3a 10ba 63bc c021 3a3c 1f0f 093e
00000020: 8dec 9b3d dcd3 0c3d e878 ad3d 12cd 2d3d
00000030: a59a 523c f12d 35bb 3388 97bd d1c6 813d
00000040: 5816 a0bd 4d5a d3bd 1c37 e5bd e0bd 733d
00000050: 48f3 82ba 2489 a13d 00d6 143a 4580 993c
00000060: 81c8 a8bd 410c ae3d 2d8a 2ebc 2bc1 51bd
00000070: 7423 673d dad0 d8bb 7dac eabd 0c45 363d
00000080: 6c34 ecbd 0231 823d 11ed d13d b4d9 403d
00000090: 102e e9bc bc10 2a3d c035 fcbd dae1 893d
000000a0: e0fd 31bd 7870 bf3d a5fb c53d 5bd6 b73d
000000b0: f5ea ea3d f846 9ebc 089f 87bd 7493 7ebd
000000c0: 8024 c83a d76a d1bd 60da 70bc 3054 6e3c
000000d0: 8a70 c1bd 9cb3 913d f4e6 8cbd c5a9 64bd
000000e0: 88b2 0bbd 4cd2 f6bd 08ef e2bc bc41 08bd
000000f0: 371e 7e3d f248 093d 09cb 2e3d 74ec 30bd
00000100: 3008 cbbc 7338 de3d 9a8a 6b3d bcc8 cb3d
00000110: 5aed d63c 8894 543d cc04 213d 4f5b 0fbd
00000120: 560b 40bd b4e9 f2bd 2201 b0bd db3e 81bb
00000130: b093 073d b480 3f3d 8b3c 23bd 96be aa3d
00000140: a3c2 60bd fea7 833d 00c3 e63b 9062 05bd
00000150: 918c d9bd f0af 73bc c288 e0bd ce97 2cbd
00000160: ae21 4dbd d0da 023b b852 f9bc 9e0f 403d
00000170: 98b8 c83d 4bce 57bd fed4 7dbd 76cc 983d
00000180: 581b d33d 3470 4fbd ff8a 283d e8a6 97bc
00000190: 408d d8bb d0ae c2bc ccc7 6f3d 1ebb a1bd
000001a0: a273 a7bd e3c9 6a3d 6a64 263d 6e0f e9bd
000001b0: 89f1 0b3b 42ac b1bd e0e2 cf3c 0aea a83d
000001c0: 3212 c6bd e9dd 8fbd 604f 943d d02d c8bd
000001d0: 70ed ec3c f6b9 b0bd d469 403d 2829 dcbd
000001e0: 784c f2bd c802 ca3c 5070 6f3c e2df 943d
000001f0: 9540 afbb d3f6 833d 2772 e1bd 343d 39bd
00000200: 209f bf3b e2b2 58bd f283 8cbd ca5d c23d
00000210: 25e3 debd 3080 63bc 6cc4 6d3d 4c70 a6bd
00000220: 3d15 8b3d 6410 9dbd 8878 4d3d 35ad ec3c
00000230: 7fdd f13d 0db6 b4bb b6a5 0f3d 454f e13d
00000240: b090 30bd 5686 953d 94ba 633d cc43 a03d
00000250: 2e4b 60bd 0814 d0bc f8d0 fc3d ba9a 233d
00000260: 357d d93d d662 adbc 9023 443c 4ade af3c
00000270: 00a6 bbbc 55d5 d53d 2db7 873d c043 49bd
00000280: 0dd8 893d f862 713d 4629 823d 04bb 8a3d
00000290: ccff de3d d001 08bc 70c1 813d 40d7 3abc
000002a0: f068 e3bd 6636 68bd fe33 ec3c d0a3 c33c
000002b0: 3730 543d 4299 89bd f083 5bbc 3e9e b9bd
000002c0: 0a41 d03d 0f41 8abc 6e84 c23d 0c61 a13d
000002d0: b26d dbbd 3b58 913c 60be aabd c352 1a3c
000002e0: 4cd3 55bd 348d 343d 2857 92bd de8b 923d
000002f0: 3f2f 493d 2eca 6abd 47b6 ff3c e24a d83d
00000300: 302d 27bc 9a26 bd3d 5f0c a8bd d48b a1bd
00000310: 4232 c7bc 1028 53bc f8ab 1cbd 3ac9 b0bd
00000320: ad96 c13d d093 773c 5ca1 f0bd 9522 a4bd
00000330: f3d1 713d c1b5 0cbd 536a 2b3d 0986 af3d
00000340: 7830 99bc 38bd c63d 00af afba 68a6 333d
00000350: ee4c ad3d b060 843d c619 b03d 7d80 ec3d
00000360: f900 19bd 0d40 e3bc 0c62 c93d 2e4e e7bd
00000370: f0ff 00bc 9b1d a8bd 9195 823d 50e4 e9bc
00000380: 6903 f73d 94f1 b8bd d85a 2bbd d8da 883d
00000390: 8867 4c3d b4b0 dd3d f816 8a3c 6680 e5bd
000003a0: 40b4 403b 2c8c 9e3d ac96 e0bc 9afc d7ba
000003b0: 9c17 9c3c d0c2 83bd 2e9d a4bd 1aba 00be
000003c0: 2e54 c9bd e0dc e4bc ce15 e3bd 70a0 e5bc
000003d0: d6f8 e5bd f0e9 883c b066 1ebd bcfa 63bd
000003e0: c8bb 303d d094 cc3c 7011 0fbc 9005 5a3c
000003f0: ebe6 543d bbc9 2a3d df1e d53d 005d 48bb

hyper_w1.2.bias f4 [128]
0.022112355 -0.03272415 -0.09935871 -0.015596288 0.05511237 0.12634389 0.08170752 -0.046047423
-0.048176643 0.05108972 -0.109320804 -0.049173504 0.034171913 -0.05533702 -0.1279569 0.02313637
-0.033963487 -0.017363816 0.0289663 -0.056182753 0.08578141 -0.04721418 0.057116076 -0.0155790085
0.12411901 -0.028134294 0.13496639 0.021734906 0.14747916 -0.078290366 -0.039837856 0.016029958
0.12058185 -0.09300596 0.051075954 -0.0067758737 0.11606001 -0.087342724 0.104290985 0.05212439
0.010511824 0.058545068 0.087833226 -0.035231993 -0.13924983 0.003950966 0.089395344 0.01662324
0.1179734 -0.04793662 0.032639362 -0.049469586 0.058346786 0.10872605 0.004934295 -0.11394217
0.034091223 -0.110912435 0.13094032 -0.13386965 0.093348384 0.0090543525 0.047799826 0.034681793
-0.10900128 0.0031868976 0.06331154 -0.06910713 0.005598995 -0.10557302 0.040762994 -0.0063119717
-0.0006681624 -0.083600335 0.00501073 0.062898844 0.11525789 0.08299743 -0.0034197413 -0.12023151
0.05619387 -0.12426037 0.10708306 -0.11966635 -0.011461199 -0.08068167 0.035525326 0.12619935
0.00050057756 -0.066324264 0.05184414 0.0052468567 -0.07756846 0.10742795 -0.08188381 -0.10831834
-0.14620613 -0.09610803 -0.121686764 -0.07677084 0.06605838 -0.11986066 0.06185109 -0.04017116
-0.024907054 0.041907262 0.012837627 -0.020720445 0.09644541 -0.046369225 0.056486394 -0.071539804
0.03080473 0.033766355 -0.05798066 -0.038819544 -0.026494091 -0.089054495 -0.06365172 0.013220779
0.037607215 0.07328101 0.110781126 -0.104696386 -0.0556717 -0.113055505 0.05698118 -0.12366721
00000000: f824 b53c c209 06bd 947c cbbd 9387 7fbc
00000010: 82bd 613d 4b60 013e 4656 a73d 399c 3cbd
00000020: df54 45bd 7443 513d 96e3 dfbd 286a 49bd
00000030: d9f7 0b3d 12a9 62bd 2207 03be 7c88 bd3c
00000040: 4c1d 0bbd 903e 8ebc bc4a ed3c e31f 66bd
00000050: 2aae af3d a863 41bd 8cf2 693d 193f 7fbc
00000060: 1c32 fe3d e479 e6bc a134 0a3e 670d b23c
00000070: c704 173e b356 a0bd 052d 23bd 4251 833c
00000080: 9ef3 f63d e979 bebd 0535 513d 2608 debb
00000090: dfb0 ed3d bee0 b2bd 8396 d53d 6280 553d
000000a0: c939 2c3c f4cc 6f3d e8e1 b33d 6c4f 10bd
000000b0: 8297 0ebe 1b77 813b e814 b73d 762d 883c
000000c0: 0a9c f13d 3059 44bd dab0 053d 9fa0 4abd
000000d0: 0afd 6e3d c3ab de3d deaf a13b 835a e9bd
000000e0: 3da3 0b3d 0f26 e3bd 3815 063e 2015 09be
000000f0: 702d bf3d b558 143c c0c9 433d 7f0e 0e3d
00000100: 103c dfbd 45db 503b 7ba9 813d 0a88 8dbd
00000110: c677 b73b ab36 d8bd 19f7 263d a8d4 cebb
00000120: 9f27 2fba a736 abbd 0d31 a43b 1cd1 803d
00000130: 540c ec3d 8efa a93d bd1d 60bb f03b f6bd
00000140: 8b2b 663d 397c febd 5d4e db3d a213 f5bd
00000150: c1c7 3bbc 6e3c a5bd 0183 113d 673a 013e
00000160: 3139 033a 04d5 87bd 855a 543d d3ed ab3b
00000170: 36dc 9ebd 2f03 dc3d b3b2 a7bd 01d6 ddbd
00000180: 0fb7 15be 49d4 c4bd e936 f9bd 083a 9dbd
00000190: 9e49 873d 8179 f5bd 9257 7d3d 848a 24bd
000001a0: e109 ccbc f3a6 2b3d e954 523c ecbd a9bc
000001b0: 2c85 c53d a8ed 3dbd 475e 673d 7683 92bd
000001c0: 335a fc3c 974e 0a3d 217d 6dbd 3e01 1fbd
000001d0: 230a d9bc 3462 b6bd d55b 82bd f79b 583c
000001e0: 060a 1a3d 5b14 963d 37e1 e23d 0f6b d6bd
000001f0: 0208 64bd a589 e7bd 1965 693d 3c45 fdbd

hyper_w2.0.weight f4 [64, 576]
-0.024940168 -0.0026547734 0.0057992483 -0.021351103 0.013933355 -0.013877113 -0.031660024 -0.046858866
0.006952189 0.024448054 -0.012135141 -0.025561804 0.0013639405 0.004128999 0.023194047 -0.038859095
0.010327754 -0.02111611 -0.046104338 -0.025980894 0.018993443 -0.027846737 -0.03059483 0.01217126
0.013398368 -0.024863848 -0.024110058 -0.02862208 -0.039025273 -0.048574112 -0.04670938 0.012789389
-0.022843989 -0.007006186 -0.031022443 -0.049513828 -0.011182696 -0.013071267 0.025609728 0.011183058
-0.022771178 -0.040172186 0.0035508645 -0.027609361 0.027562153 -0.031228554 -0.02611993 -0.051846065
-0.024006212 0.01135238 0.0059339367 -0.009844501 0.003666889 -0.004243721 -0.035089552 0.03391104
0.0378542 0.012662221 -0.027658543 0.04121645 0.018649038 -0.038345255 0.012175456 0.041236546
0.028077442 0.0021619052 0.018770518 0.04045922 0.02079077 -0.036338508 0.011699034 -0.008472347
-0.049493365 -0.040928707 0.0368126 0.008033872 -0.017679142 0.034275223 0.047211673 0.045981634
-0.006776497 0.011796329 0.037209604 0.00075719494 -0.041519195 -0.01910546 -0.03342697 -0.041297592
0.038568098 0.015516951 0.030229513 0.021621916 -0.00808304 0.032127175 -0.015623593 -0.028514478
-0.03329285 -0.052906584 -0.015051674 0.0050850175 -0.03462818 0.002422642 -0.019380685 0.038465623
0.0049933344 0.0017188303 0.018368315 -0.0022820495 -0.025134971 0.0002821212 0.016089637 -0.013381323
-0.04061123 0.023471717 0.0005432461 0.008118767 0.010864105 -0.025338545 0.007489015 0.02457881
-0.03581888 -0.026940567 0.008073837 -0.0026179813 0.009575833 0.021866132 0.014673967 -0.022951191
-0.034790263 -0.00783075 0.0386968 -0.03161209 -0.0017644614 -0.03436382 -0.015422183 -0.009666845
0.034387764 0.037404027 0.033934925 0.035084613 -0.015909612 3.7559905e-05 0.010788572 0.027578454
-0.049873326 0.020998904 0.0020961128 0.02375513 0.0314251 0.026227666 0.0127967 -0.0137582235
-0.017933633 -0.018654048 0.015558388 0.018465359 0.027113888 0.034098107 0.030952696 -0.031135892
0.05802278 0.00953041 -0.004795328 0.038836095 0.0075934916 -0.020858562 -0.0077636945 0.021529036
-0.019983195 -0.051176973 -0.03217065 0.031038087 -0.040113077 0.03144495 0.0133752525 -0.014035851
-0.016807642 0.037093963 -0.00042875484 -0.035763606 -0.030438315 0.023619752 -0.031517636 -0.013260063
0.038748052 0.01744454 -0.028283577 0.021518108 -0.024470478 0.01292868 -0.03113342 -0.035412766
0.025007693 0.020640537 0.027958114 -0.035892647 -0.025637057 -0.03893046 -0.04136516 0.041547123
0.019380823 -0.02612558 0.017545003 -0.015876964 -0.035658743 -0.028404823 0.02053836 -0.012296414
-0.0126136355 -0.0032778084 -0.010934457 0.034351405 0.008589667 0.032587025 -0.022595564 -0.031077934
-0.03846486 -0.033722945 -0.02014051 0.028101351 0.0047139265 -0.03824397 0.035053138 -0.016107485
-0.006169159 -0.004695367 0.013763819 -0.079462685 -0.005289372 -0.0029794027 -0.031913154 0.028548393
0.019864306 0.0035741664 0.026138093 -0.024248963 0.01877505 -0.03217826 -0.046654742 0.024854904
-0.009634299 -0.024504282 -0.0289126 -0.027053848 0.033094678 0.010606602 0.0033076592 -0.011178425
0.002888117 0.037566762 0.03423694 -0.000535544 -0.0025463514 -0.031165605 -0.027077934 0.0041822083
00000000: 534f ccbc b5fb 2dbb 9f07 be3b 82e8 aebc
00000010: ba48 643c d55c 63bc f1ad 01bd 15ef 3fbd
00000020: 30cf e33b 4947 c83c 78d2 46bc fd66 d1bc
00000030: 40c6 b23a 8e4c 873b 7101 be3c b72a 1fbd
00000040: bd35 293c b1fb acbc e7d7 3cbd e2d5 d4bc
00000050: 2398 9b3c d71e e4bc 02a2 fabc f769 473c
00000060: d484 5b3c 45af cbbc 7582 c5bc da78 eabc
00000070: f7d8 1fbd a6f5 46bd 5652 3fbd 968a 513c
00000080: 5123 bbbc 2694 e5bb c722 febc 03cf 4abd
00000090: a037 37bc de28 56bc 7ecb d13c 2539 373c
000000a0: 9f8a babc 978b 24bd 9fb5 683b 072d e2bc
000000b0: 06ca e13c 06d3 ffbc 77f9 d5bc 8a5c 54bd
000000c0: ada8 c4bc 55ff 393c 7871 c23b d44a 21bc
000000d0: 3050 703b e90e 8bbb 10ba 0fbd 4de6 0a3d
000000e0: 010d 1b3d 3475 4f3c 2b94 e2bc 95d2 283d
000000f0: dec5 983c ea0f 1dbd 907b 473c a7e7 283d
00000100: aa02 e63c c0ae 0d3b a1c4 993c 91b8 253d
00000110: 6851 aa3c b0d7 14bd 4ead 3f3c 99cf 0abc
00000120: 8eb9 4abd dca4 27bd cfc8 163d 80a0 033c
00000130: d9d3 90bc 2d64 0c3d 0761 413d 3d57 3c3d
00000140: 600d debb 6445 413c 1969 183d 7e7e 463a
00000150: 0810 2abd 0e83 9cbc b8ea 08bd aa27 29bd
00000160: 95f9 1d3d cf3a 7e3c e2a3 f73c 7220 b13c
00000170: ba6e 04bc c997 033d 19fa 7fbc 3297 e9bc
00000180: 155e 08bd 93b4 58bd 4c9b 76bc 38a0 a63b
00000190: 47d6 0dbd 30c5 1e3b 3ec4 9ebc 218e 1d3d
000001a0: 209f a33b 604a e13a 2679 963c 708e 15bb
000001b0: dbe7 cdbc abe9 9339 6ace 833c 563d 5bbc
000001c0: f657 26bd c247 c03c a168 0e3a 9404 053c
000001d0: 5cff 313c c892 cfbc 6966 f53b 8059 c93c
000001e0: d1b6 12bd 77b2 dcbc 2048 043c 7092 2bbb
000001f0: f4e3 1c3c 9a20 b33c 146b 703c 2304 bcbc
00000200: 3c80 0ebd 8c4c 00bc 8980 1e3d ae7b 01bd
00000210: 8045 e7ba 14c1 0cbd 53ad 7cbc b061 1ebc
00000220: 2fda 0c3d f734 193d 59ff 0a3d e2b4 0f3d
00000230: e054 82bc a489 1d38 8dc2 303c 36ec e13c
00000240: f947 4cbd e505 ac3c f05e 093b 1e9a c23c
00000250: 9bb7 003d 67db d63c 40a9 513c 2c6a 61bc
00000260: 8ee9 92bc 60d0 98bc 9ce8 7e3c aa44 973c
00000270: f21d de3c 75aa 0b3d 8290 fd3c b310 ffbc
00000280: 4ba9 6d3d 7025 1c3c 2022 9dbb 9912 1f3d
00000290: d3d2 f83b 93df aabc 9766 febb a95d b03c
000002a0: ccb3 a3bc f29e 51bd 5fc5 03bd 9643 fe3c
000002b0: 9c4d 24bd 6bcc 003d e023 5b3c a0f6 65bc
000002c0: 2eb0 89bc d7ef 173d 80ca e0b9 dc7c 12bd
000002d0: c659 f9bc 367e c13c a318 01bd bc40 59bc
000002e0: 47b6 1e3d dae7 8e3c f6b2 e7bc be46 b03c
000002f0: 5076 c8bc d0d2 533c 840b ffbc fa0c 11bd
00000300: efdc cc3c 5816 a93c 6a08 e53c 2b04 13bd
00000310: ce04 d2bc 8c75 1fbd 846e 29bd 512d 2a3d
00000320: 88c4 9e3c 5005 d6bc 8aba 8f3c 6810 82bc
00000330: e70e 12bd 3bb1 e8bc 1040 a83c e676 49bc
00000340: 6ca9 4ebc 80d0 56bb 7026 33bc 0fb4 0c3d
00000350: adbb 0c3c f979 053d 551a b9bc 2797 febc
00000360: 548d 1dbd 1221 0abd b6fd a4bc ce34 e63c
00000370: 4877 9a3b b6a5 1cbd e193 0f3d d8f3 83bc
00000380: a826 cabb 98db 99bb a481 613c 55bd a2bd
00000390: 7852 adbb 1542 43bb 5eb7 02bd 52de e93c
000003a0: 78ba a23c 903c 6a3b 8e1f d63c c3a5 c6bc
000003b0: 22ce 993c 5acd 03bd 0b19 3fbd 839c cb3c
000003c0: 2ed9 1dbc 34bd c8bc 1eda ecbc 08a0 ddbc
000003d0: 498e 073d 50c7 2d3c 50c5 583b b625 37bc
000003e0: 9046 3d3b 9bdf 193d 093c 0c3d c063 0cba
000003f0: b0e0 26bb 034f ffbc 8bd2 ddbc e80a 893b

hyper_w2.0.bias f4 [64]
-0.011219458 0.033078823 0.03280753 -0.0017607004 -0.025785914 -0.03868352 0.03634264 -0.023310704
0.019839097 -0.026628569 -0.032717094 -0.0025213761 0.025183786 -0.020418208 0.0037409824 0.0046985596
-0.02570512 -0.019838773 0.021305662 -0.039767526 -0.028320353 0.021630134 -0.020595342 0.02354126
-0.015783086 0.03856318 -0.006866362 0.0054519293 -0.0097384285 0.0029693395 0.030747594 0.034892756
-0.012640869 -0.0015162298 -0.008948628 0.033788156 -0.030354938 0.032262 0.011935496 -0.043546822
0.015381018 0.028451685 -0.04095818 0.04115852 0.018735852 -0.015963536 -0.024122622 0.035392124
0.028449576 -0.023949694 0.027495556 -0.010609742 -0.034005832 -0.027119702 0.023602461 0.011303756
0.02556255 -0.0089306375 -0.035885114 -0.00741654 -0.019587517 -0.02120116 0.009660494 -0.024511907
00000000: d1d1 37bc a97d 073d 3061 063d 4dc7 e6ba
00000010: fb3c d3bc 9c72 1ebd 05dc 143d 17f6 bebc
00000020: 9a85 a23c 2824 dabc 5c02 06bd ac3d 25bb
00000030: 3a4e ce3c 1644 a7bc 452b 753b 60f6 993b
00000040: 8b93 d2bc ec84 a2bc 3689 ae3c 46e3 22bd
00000050: 1600 e8bc ae31 b13c 90b7 a8bc 9ad9 c03c
00000060: 884b 81bc 6df4 1d3d 38ff e0bb 19a6 b23b
00000070: ee8d 1fbc 4099 423b 61e2 fb3c b5eb 0e3d
00000080: a61b 4fbc 3bbc c6ba 449d 12bc 7365 0a3d
00000090: ebaa f8bc 2925 043d 198d 433c 275e 32bd
000000a0: aa00 7c3c 8213 e93c c4c3 27bd d695 283d
000000b0: ee7b 993c f6c5 82bc ce9c c5bc 55f7 103d
000000c0: 160f e93c 2632 c4bc 5c3e e13c 7cd4 2dbc
000000d0: b349 0bbd 232a debc f359 c13c 6433 393c
000000e0: 8e68 d13c cf51 12bc 45fc 12bd 7206 f3bb
000000f0: 0076 a0bc 0eae adbc 0c47 1e3c 32cd c8bc

hyper_w2.2.weight f4 [32, 64]
-0.11974091 -0.06587641 0.0687407 0.055707857 -0.09482856 0.07916888 -0.015598431 0.06466368
0.06309016 0.029144391 -0.05123707 -0.035827503 0.084561855 0.12455262 0.02895468 -0.057798564
-0.06682528 -0.043680687 -0.13058792 -0.062064923 -0.056324173 0.0805216 -0.09410545 -0.090232894
-0.0846297 -0.09824757 0.074797034 -0.11830329 -0.0994293 0.03225921 0.00044143182 0.099671364
0.031314194 -0.12211794 -0.01822381 -0.09865384 -0.057006955 0.08999993 -0.09020309 -0.0414829
0.121455036 0.020216286 0.11557955 -0.10523129 -0.10268423 0.06727967 0.024382163 -0.022693425
0.037328914 0.0025417954 -0.07025078 0.03816618 -0.09020232 0.042589284 -0.019452626 0.10692899
0.09894997 -0.029652169 0.09241997 0.044163235 -0.08384447 0.09161141 -0.097365946 -0.09983879
0.058699213 -0.10328209 0.08841068 0.042155635 0.06137979 0.016140034 0.047489822 0.05655952
0.100509465 0.10841757 0.12738825 0.09830404 -0.09366648 0.036690727 -0.083479956 -0.058436915
0.05317512 -0.09835043 -0.011409955 0.09648194 0.040239543 0.009578928 -0.029195383 0.026229456
0.115106925 -0.111457914 0.06889816 0.0032212948 0.12645929 -0.08739065 0.0179933 -0.09671818
-0.05792877 0.060275223 0.044219613 0.016341701 0.102531716 -0.01943785 0.07769927 0.119880676
0.07644953 -0.0894717 -0.058979414 0.025457952 0.03404799 0.07532889 -0.10984325 0.0930935
-0.11102489 0.09448019 0.099087924 0.023279876 -0.05868447 -0.057861622 0.087150045 0.029040411
-0.03101179 -0.045145754 0.04893626 -0.014605644 0.05035475 -0.081200264 0.075051814 -0.007940882
-0.12194559 -0.12315007 -0.112779886 -0.0040178746 -0.01744093 0.076907046 -0.12077999 -0.12443927
0.022550479 -0.018201038 0.10330789 -0.11481943 0.021130264 0.0040793717 -0.03199651 -0.06255248
-0.06351898 -0.053947426 -0.10514186 -0.025582967 -0.01151601 -0.070732 -0.09623025 -0.068694904
0.057068244 0.06628315 -0.04675536 0.078026004 -0.12522358 -0.116113305 -0.022703279 0.08374448
-0.084965706 -0.04511233 0.079237394 0.031010255 -0.036409244 0.10681187 -0.12024161 -0.050915014
-0.0844185 -0.028349295 -0.035198744 0.054037746 0.10972035 -0.111367956 0.018868154 -0.05715692
-0.020574152 0.050890356 -0.047153167 0.047931492 0.068170145 0.099342436 0.11505241 0.0530428
-0.019682929 -0.11827966 -0.0005139695 -0.027176617 0.055141494 0.038830362 -0.10011066 0.020386517
-0.086164124 -0.076795824 0.03281559 -0.0058430163 0.064057946 -0.006397594 0.11709534 0.08734329
0.017311528 0.08102228 -0.102338 0.06736162 -0.02388969 -0.1131565 0.014589171 0.11818156
0.03544455 0.050944153 -0.08618963 -0.049571134 0.05530696 -0.10854678 -0.068929285 0.10659818
-0.083700255 0.12437752 -0.12315136 -0.04024048 0.0839902 0.016129404 -0.047601793 -0.00077329576
-0.01593557 0.09632325 -0.06394048 0.019236222 0.115518495 0.052813344 -0.034712456 -0.111118145
-0.0136889005 0.04385212 -0.06667061 0.041529737 0.03431043 -0.065846145 -0.007641053 -0.110808805
0.103314415 -0.02350837 0.107098125 0.06729916 -0.12009236 -0.08048088 -0.09207485 -0.03437431
-0.08813138 0.04689985 0.056824792 -0.103898324 -0.044234246 0.10341226 -0.04411341 0.05312029
00000000: b93a f5bd 36ea 86bd edc7 8c3d ec2d 643d
00000010: 7a35 c2bd 4b23 a23d 9090 7fbc 646e 843d
00000020: 6a35 813d 38c0 ee3c f6dd 51bd dcbf 12bd
00000030: c42e ad3d 7215 ff3d 5d32 ed3c 30be 6cbd
00000040: b1db 88bd 85ea 32bd d7b8 05be ca37 7ebd
00000050: 2db4 66bd 82e8 a43d 5cba c0bd 06cc b8bd
00000060: 5652 adbd 0636 c9bd 302f 993d ff48 f2bd
00000070: 97a1 cbbd 3c22 043d fa6f e739 8020 cc3d
00000080: 5043 003d f818 fabd 194a 95bc 060b cabd
00000090: 2080 69bd e251 b83d 66bc b8bd f9e9 29bd
000000a0: 6bbd f83d a09c a53c f9b4 ec3d 8183 d7bd
000000b0: 1c4c d2bd ecc9 893d 1abd c73c 90e7 b9bc
000000c0: 34e6 183d 4094 263b a4df 8fbd 2454 1c3d
000000d0: febb b8bd 1a72 2e3d 1d5b 9fbc 96fd da3d
000000e0: 48a6 ca3d 1be9 f2bc ae46 bd3d 82e4 343d
000000f0: a6b6 abbd c39e bb3d cc67 c7bd 4878 ccbd
00000100: 966e 703d 8f85 d3bd a910 b53d 63ab 2c3d
00000110: 6069 7b3d 1b38 843c b084 423d f5aa 673d
00000120: e8d7 cd3d 080a de3d 1172 023e a153 c93d
00000130: 36d4 bfbd 0449 163d 8af7 aabd 8c5b 6fbd
00000140: 28ce 593d f36b c9bd d2f0 3abc 5398 c53d
00000150: 38d2 243d f0f0 1c3c 282b efbc 28df d63c
00000160: 2ebd eb3d 0c44 e4bd 7a1a 8d3d 5c1c 533b
00000170: 8b7e 013e def9 b2bd af66 933c 2e14 c6bd
00000180: b846 6dbd 27e3 763d a01f 353d 08df 853c
00000190: 26fc d13d 203c 9fbc cb20 9f3d 0084 f53d
000001a0: 9291 9c3d f03c b7bd 6694 71bd 328d d03c
000001b0: e875 0b3d 0846 9a3d 7ff5 e0bd cea7 be3d
000001c0: 0461 e3bd d47e c13d 9cee ca3d 70b5 be3c
000001d0: 205f 70bd 4f00 6dbd b97b b23d 28e6 ed3c
000001e0: 700c febc c1ea 38bd 6371 483d 834c 6fbc
000001f0: c840 4e3d 534c a6bd c4b4 993d 791a 02bc
00000200: 9cbe f9bd 1b36 fcbd 24f9 e6bd 60a8 83bb
00000210: 48e0 8ebc 7181 9d3d 805b f7bd 04da febd
00000220: c8bb b83c 581a 95bc 1693 d33d 7326 ebbd
00000230: 6019 ad3c 40ac 853b c60e 03bd 841b 80bd
00000240: 3d16 82bd faf7 5cbd 9e54 d7bd 5f93 d1bc
00000250: a6ad 3cbc f0db 90bd 5e14 c5bd eaaf 8cbd
00000260: 64c0 693d 76bf 873d 8c82 3fbd 19cc 9f3d
00000270: 9c3a 00be d0cc edbd 3afc b9bc 3a82 ab3d
00000280: 8002 aebd b5c7 38bd 3747 a23d 3809 fe3c
00000290: dc21 15bd 2fc0 da3d 3c41 f6bd 438c 50bd
000002a0: 9be3 acbd c83c e8bc 8f2c 10bd af56 5d3d
000002b0: 10b5 e03d e214 e4bd 6391 9a3c 601d 6abd
000002c0: 208b a8bc 6872 503d ae23 41bd d053 443d
000002d0: ca9c 8b3d 0c74 cb3d 99a0 eb3d 6843 593d
000002e0: 183e a1bc 9b3c f2bd e9bb 06ba 7fa1 debc
000002f0: 0cdc 613d 960c 1f3d d106 cdbd a001 a73c
00000300: d176 b0bd 2147 9dbd a469 063d c676 bfbb
00000310: d030 833d e9a2 d1bb aecf ef3d 0ae1 b23d
00000320: e8d0 8d3c 02ef a53d 9696 d1bd e4f4 893d
00000330: 50b4 c3bc 98be e7bd 6b07 6f3c 2c09 f23d
00000340: 4e2e 113d d1aa 503d 3084 b0bd 1a0b 4bbd
00000350: 8d89 623d c64d debd cc2a 8dbd 2650 da3d
00000360: 0a6b abbd a4b9 fe3d c836 fcbd 34d3 24bd
00000370: 0e03 ac3d d021 843c 19fa 42bd 00b7 4aba
00000380: 508b 82bc 2045 c53d 3af3 82bd 4895 9d3c
00000390: f694 ec3d ce52 583d a62e 0ebd e991 e3bd
000003a0: 6947 60bc 489e 333d 9a8a 88bd 161b 2a3d
000003b0: 1889 0c3d 58da 86bd cc61 fabb baef e2bd
000003c0: 8296 d33d a094 c0bc 4356 db3d 24d4 893d
000003d0: fcf2 f5bd 29d3 a4bd bd91 bcbd 14cc 0cbd
000003e0: 3a7e b4bd 0f1a 403d 1dc1 683d a5c8 d4bd
000003f0: f82e 35bd cfc9 d33d 43b0 34bd a994 593d

hyper_w2.2.bias f4 [32]
0.0401232 0.124517746 0.0936328 0.04668108 0.0739283 -0.13621596 -0.06921728 -0.013797814
0.09169418 -0.09690792 -0.09542813 -0.08918758 -0.10356607 0.02798557 -0.10611926 -0.0006747894
0.038785573 -0.033230033 0.05039123 -0.1415658 -0.07665149 0.024893256 -0.018487655 -0.0057547125
0.05399992 0.101182014 -0.09944517 0.029299235 0.0105705075 0.009314538 -0.10513277 0.09662145
00000000: 3958 243d 2903 ff3d 8ec2 bf3d a934 3f3d
00000010: b867 973d 327c 0bbe cac1 8dbd 3a10 62bc
00000020: 29ca bb3d a977 c6bd d36f c3bd faa7 b6bd
00000030: 731a d4bd fe41 e53c 0e55 d9bd 5ae4 30ba
00000040: 9fdd 1e3d 371c 08bd 0967 4e3d a0f6 10be
00000050: 75fb 9cbd f1ec cb3c 6c73 97bc 0792 bcbb
00000060: 052f 5d3d 8438 cf3d e9a9 cbbd f304 f03c
00000070: ec2f 2d3c 019c 183c da4f d7bd 77e1 c53d

hyper_b1.weight f4 [32, 576]
0.06053305 -0.0016990425 0.033359416 0.04707177 0.015542862 0.019482672 0.0030376236 -0.020730415
0.010957834 -0.016520474 0.018568113 -0.016110081 -0.0036253966 0.029060591 0.033353392 0.0027370169
0.023945235 0.040142387 -0.020865502 0.040031135 0.032627363 0.033845056 -0.000548104 0.03620051
0.0020769255 -0.01952327 0.026770355 0.029646456 -0.009359196 0.041481208 -0.0071200295 0.03151284
0.04070436 0.0017924131 0.035108175 0.042307664 0.013982338 -0.0019214862 -0.014624699 -0.015913341
0.0391465 -0.00030781396 0.012724742 0.0263745 0.008317243 0.004401872 0.06214462 0.026478028
0.03334906 0.010719758 -0.03840661 -0.015830701 -0.021443512 -0.052084368 -0.026278382 0.04155213
0.026148472 0.02145787 -0.035741292 -0.0028526373 0.010058456 -0.008732077 0.013207898 -0.004493404
-0.02245835 0.027020175 -0.014835549 -0.021668639 -0.017104944 0.0032608174 0.018455526 0.05830216
0.015593939 0.0020377953 0.025946993 -0.00086379424 -0.054455947 -0.049969077 -0.049661756 -0.006713856
-0.026205346 0.016747449 0.01765135 0.010374189 -0.034182947 0.019927856 0.0030934028 -0.036508262
-0.02835679 -0.0581924 0.013509363 -0.024080798 -0.0008739896 -0.010449877 0.007332469 0.030380446
0.060916517 0.04100956 -0.0022927038 -0.014024019 -0.017202696 -0.032501694 0.033589173 0.007923696
0.038098697 -0.03672906 -0.030182675 0.03111383 -0.0049634688 -0.05661946 0.030377854 -0.022500902
-0.017320156 0.025354471 -0.011643543 -0.0104473345 0.027570684 0.029741053 -0.018430317 0.024367742
-0.0019107333 0.034646597 0.04000329 0.024975996 0.033627126 -0.040164977 -0.039949127 -0.015540451
0.031468634 -0.017435735 0.009781871 0.029223341 -0.0167407 0.026931558 -0.03326462 -0.03016243
0.03962039 0.0034922548 0.026318822 -0.02270327 0.013876144 0.017097289 -0.01701368 0.034500126
0.057616774 0.05388644 0.00010121241 0.015331123 -0.003111486 -0.033053786 -0.016181558 -0.035514466
-0.03771875 0.024467077 0.004360866 -0.003573034 0.016008344 0.020438384 0.026777457 -0.02721577
-0.042080425 -0.023808222 0.03872962 -0.037778884 0.00020394652 0.012008119 -0.018817004 0.043583788
0.015248218 0.02514701 0.028905738 -0.032414995 0.010332365 -0.005252365 -0.03534944 0.034625795
-0.025902485 0.038535524 -0.017029708 -0.017217612 0.002669841 0.027976442 0.02763084 -0.029581606
0.026130218 -0.039129503 -0.060281083 -0.007107988 -0.0025345385 0.034374323 0.0040218495 0.044435702
0.0041230125 -1.0765836e-05 -0.018240517 0.022164606 -0.008421216 0.0059929155 -0.031680353 -0.031872287
0.022855494 -0.01662235 -0.039346658 -0.020583745 -0.0011833608 0.02168088 0.020156289 0.03129093
0.03176791 -0.0072658323 0.011658832 -0.022876814 -0.039924763 -0.031163037 0.023188686 0.01587857
-0.011269043 -0.01477857 0.029681046 0.01831955 0.020926777 0.0074866675 -0.037140634 -0.022823801
-0.0037453435 -0.00791806 0.035234492 -0.009618911 0.027803179 -0.05227867 -0.023385372 0.032056566
0.020014524 -0.006442625 -4.3019652e-05 -0.01649554 -0.03172926 -0.03224979 -0.011914421 -0.0045105782
0.0026775203 0.050366353 -0.020863077 -0.032615393 -0.040189907 0.0011155307 -0.012504995 0.028061915
0.0185122 -0.018611774 0.013366491 -0.03942564 -0.007854354 -0.014590666 -0.022505185 0.039252106
00000000: 81f1 773d 68b2 deba e2a3 083d 54ce 403d
00000010: 7da7 7e3c 209a 9f3c de12 473b d5d2 a9bc
00000020: 7d88 333c f255 87bc 281c 983c 4af9 83bc
00000030: 1098 6dbb 7a10 ee3c 919d 083d 865f 333b
00000040: cc28 c43c 586c 243d 21ee aabc b0f7 233d
00000050: 45a4 053d 1da1 0a3d a3ae 0fba fc46 143d
00000060: 071d 083b 44ef 9fbc 814d db3c 20dd f23c
00000070: 5057 19bc 33e8 293d 234f e9bb 9c13 013d
00000080: 9db9 263d 67ef ea3a 97cd 0f3d cd4a 2d3d
00000090: 2d16 653c 61da fbba 6f9c 6fbc b25c 82bc
000000a0: 1558 203d 1762 a1b9 707b 503c 560f d83c
000000b0: 0c45 083c 943d 903b 5b8b 7e3d 73e8 d83c
000000c0: 0699 083d eda1 2f3c 4050 1dbd 63af 81bc
000000d0: 4eaa afbc 6b56 55bd c345 d7bc 9132 2a3d
000000e0: 5235 d63c 6ac8 af3c 7665 12bd 50f3 3abb
000000f0: 39cc 243c fc10 0fbc f065 583c 683d 93bb
00000100: 93fa b7bc 6a59 dd3c cd10 73bc 6e82 b1bc
00000110: ab1f 8cbc 70b3 553b 0b30 973c 3fce 6e3d
00000120: b97d 7f3c 888c 053b ca8e d43c 4070 62ba
00000130: 330d 5fbd 60ac 4cbd 206a 4bbd e8ff dbbb
00000140: 98ac d6bc f231 893c 9099 903c 81f8 293c
00000150: 6b03 0cbd be3f a33c b0ba 4a3b b089 15bd
00000160: 804c e8bc 275b 6ebd 6056 5d3c 1845 c5bc
00000170: 731c 65ba f635 2bbc 3545 f03b 6ae0 f83c
00000180: 9983 793d a4f9 273d 3041 16bb 00c5 65bc
00000190: abec 8cbc 7f20 05bd cd94 093d 64d2 013c
000001a0: 610d 1c3d 3671 16bd a841 f7bc 6ee2 fe3c
000001b0: 98a4 a2bb cfe9 67bd fada f83c d053 b8bc
000001c0: 00e3 8dbc 2eb4 cf3c 8fc4 3ebc 4c2b 2bbc
000001d0: eadb e13c 82a3 f33c 2dfb 96bc dc9e c73c
000001e0: 9271 faba 97e9 0d3d 7dda 233d 769a cc3c
000001f0: 99bc 093d 0884 24bd b2a1 23bd 609d 7ebc
00000200: 41e5 003d 63d5 8ebc 2444 203c ca65 ef3c
00000210: cb23 89bc 929f dc3c 7b40 08bd 3317 f7bc
00000220: fd48 223d 50de 643b 929a d73c 35fc b9bc
00000230: c458 633c 9d0f 8c3c 4660 8bbc 0150 0d3d
00000240: 91ff 6b3d 07b8 5c3d 0042 d438 642f 7b3c
00000250: 13ea 4bbb 6863 07bd 308f 84bc 9e77 11bd
00000260: fa7e 1abd 2e6f c83c 98e5 8e3b 9029 6abb
00000270: ee23 833c 666e a73c 665c db3c 9bf3 debc
00000280: 865c 2cbd 7609 c3bc f3a2 1e3d 08be 1abd
00000290: 7ada 5539 b4bd 443c 1e26 9abc ea84 323d
000002a0: a9d3 793c 1a01 ce3c bacb ec3c 96c5 04bd
000002b0: 1449 293c 081c acbb 93ca 10bd c7d3 0d3d
000002c0: 7331 d4bc 6dd7 1d3d e381 8bbc f30b 8dbc
000002d0: 80f8 2e3b da2e e53c 125a e23c 2055 f2bc
000002e0: 0a0f d63c 4246 20bd 4ce9 76bd 20ea e8bb
000002f0: 801a 26bb 17cc 0c3d b8c9 833b 3602 363d
00000300: 561a 873b ea9e 34b7 236d 95bc 8c92 b53c
00000310: 24f9 09bc 3860 c43b 42c3 01bd 848c 02bd
00000320: 723b bb3c 982b 88bc f629 21bd 3e9f a8bc
00000330: 001b 9bba 1a9c b13c cd1e a53c eb2a 003d
00000340: 111f 023d 3816 eebb b004 3f3c 2868 bbbc
00000350: 2688 23bd a049 ffbc 33f6 bd3c c613 823c
00000360: cba1 38bc d121 72bc aa25 f33c e212 963c
00000370: a26e ab3c b852 f53b c720 18bd fbf8 babc
00000380: 7074 75bb c0ba 01bc 0b52 103d a398 1dbc
00000390: 7ec3 e33c 2922 56bd ae92 bfbc bf4d 033d
000003a0: 80f5 a33c a81c d3bb 0070 34b8 a821 87bc
000003b0: 8af6 01bd 5b18 04bd b434 43bc 79cd 93bb
000003c0: 5679 2f3b f34c 4e3d 0be9 aabc b897 05bd
000003d0: 2c9e 24bd 0037 923a c0e1 4cbc 1ae2 e53c
000003e0: e6a6 973c b877 98bc 20ff 5a3c c87c 21bd
000003f0: 8caf 00bc b00d 6fbc cb5c b8bc d1c6 203d

hyper_b1.bias f4 [32]
-0.0036272884 -0.0081302095 -0.0031420873 -0.011936747 -0.0068284934 -0.027249785 -0.039749604 -0.049094528
-0.00604826 -0.03156456 -5.4844946e-05 -0.06278746 -0.013744376 -0.028267913 0.0009182884 -0.01532207
-0.013374289 -0.04111652 0.01767508 -0.03362516 -0.0008634318 0.013600225 0.008502413 -0.023257175
-0.05556554 -0.023571659 -0.002013329 -0.011151667 -0.010312927 -0.0056509203 0.009180534 -0.03638689
00000000: cdb7 6dbb 9234 05bc 7aeb 4dbb 5892 43bc
00000010: 8ec1 dfbb f13a dfbc 7bd0 22bd 5817 49bd
00000020: 7b30 c6bb d749 01bd 5009 66b8 b696 80bd
00000030: 1730 61bc 1c92 e7bc 4bb9 703a 6b09 7bbc
00000040: d51f 5bbc cc69 28bd 54cb 903c 89ba 09bd
00000050: ed57 62ba 7ad3 5e3c b44d 0b3c d585 bebc
00000060: b198 63bd 5a19 c1bc 0ef2 03bb 7bb5 36bc
00000070: 8df7 28bc 5b2b b9bb f369 163c 6b0a 15bd

hyper_b2.0.weight f4 [32, 576]
-0.012239207 -0.016874328 0.028133323 0.035883762 0.033991586 -0.012395039 0.008493419 0.024518838
0.040692266 -0.02687911 0.01828176 -0.010860946 0.001994106 0.0097870035 0.00715701 0.018666135
0.038549636 0.01401197 -0.011994619 0.021165509 -0.024407856 0.03289746 0.020124072 0.0037606384
0.03081909 0.04412893 -0.023667565 -0.014030022 0.019474441 -0.02545053 0.020170765 0.01584206
-0.004869967 0.025614494 0.01602278 0.020201752 0.01091358 0.014450913 -0.025235625 0.01501892
0.033009514 0.014211988 0.048069265 0.028705182 -0.0076526976 -0.0076598204 0.026129218 0.024534976
0.03392521 -0.00375566 0.010076661 -0.018564459 0.0072299503 0.029108161 -0.0049333386 0.017325774
-0.041440696 0.031950284 -0.0138939675 0.0040310323 -0.024209207 0.014408704 -0.013994059 -0.040308885
-0.009923253 0.0343587 0.012671921 -0.02250531 0.026038203 0.034234453 0.032014105 0.0032979723
0.035023373 0.026548462 0.019823238 0.03530189 -0.0033563033 -0.013600483 0.014943536 -0.01363106
0.02179465 0.020948995 0.026597675 -0.039712097 -0.021784252 -0.033458874 -0.022528555 -0.012907609
-0.037715003 0.032193083 0.011615071 0.033683937 -0.01779993 0.013912316 -0.003966733 0.023081074
0.00061557104 0.02386885 -0.028024942 0.0050805956 -0.015532281 -0.030561736 -0.015441969 0.036365304
-0.033700317 0.035037998 -0.024277579 0.026320208 -0.037078988 -0.010580554 -0.037773654 0.018057834
0.026090432 -0.032250833 0.03218243 0.03550328 -0.034602817 0.00487794 0.0030932117 0.033159137
-0.018362766 0.04529946 -0.041224178 0.0111926235 -0.031867992 0.040843 -0.014721876 -0.026115164
0.029767703 -0.024381375 -0.026592717 -0.04149246 -0.033987 0.007789392 0.02622087 -0.008487225
-0.039876964 0.004870806 -0.03920251 0.0041108723 0.023337226 0.0066560498 0.0069771684 0.01537549
-0.023805792 0.03336799 0.01516737 -0.024130723 -0.03404714 -0.038180824 -0.02367337 -0.011663666
0.0076032914 -0.034903996 -0.024529874 -0.0041088797 0.024064127 0.023680668 0.0117212385 -0.029007237
-0.0373714 0.022712026 0.0351076 -0.024084777 -0.018271068 -0.033324655 -0.0019741065 0.043507878
0.041058723 -0.014567005 -0.035668798 0.028519664 -0.025274133 -0.038196407 0.009276807 -0.03842654
-0.03499448 0.036722947 -0.00011875853 0.037192885 0.011327837 -0.005737141 -0.019138023 -0.009247225
0.04013625 -0.0063824505 0.0269376 0.030159812 0.03848545 -0.030313632 0.019169109 0.030758353
-0.013808968 0.012559294 0.012145951 -0.015478609 -0.0113878455 0.013882291 -0.00733212 0.028104078
-0.006411135 0.01264815 0.012202773 -0.020254731 -0.021569297 0.014125217 0.0039115394 -0.009350095
0.013041262 -0.0036859177 0.012185946 0.027389873 -0.0032892965 -0.023674369 0.038783904 -0.0033454453
0.029340858 0.00012903287 0.028054353 -0.026442295 0.025029797 0.001319129 -0.007002011 -0.018617347
0.033679496 -0.019404858 0.033213113 -0.048968147 0.03084867 0.006344264 0.021109287 -0.033270936
-0.020342287 0.003584247 0.013277069 0.013170358 -0.011483273 -0.020699587 -0.010320228 -0.017337838
0.038370352 -0.007816334 -0.027398502 -0.030715814 0.010666687 -0.002450224 0.01999728 0.02752151
-0.009154007 -0.03314422 0.032142166 0.025377776 0.014795903 0.022663746 0.005263839 -0.012943517
00000000: f486 48bc 083c 8abc db77 e63c dafa 123d
00000010: c33a 0b3d 9014 4bbc fb27 0b3c bbdb c83c
00000020: efac 263d 9431 dcbc a1c3 953c 1cf2 31bc
00000030: 8caf 023b ab59 203c 5a85 ea3b b9e9 983c
00000040: 39e6 1d3d 7692 653c 1485 44bc 4a63 ad3c
00000050: fcf2 c7bc 7dbf 063d 3ddb a43c 0b75 763b
00000060: 5178 fc3c 89c0 343d 7be2 c1bc 2dde 65bc
00000070: dd88 9f3c a17d d0bc 293d a53c 35c7 813c
00000080: 3e94 9fbb 7dd5 d13c 3542 833c 257e a53c
00000090: dfce 323c 86c3 6c3c f1ba cebc eb11 763c
000000a0: fc34 073d 66d9 683c 47e4 443d 2127 eb3c
000000b0: 7bc3 fabb 3bff fabb f10c d63c 93fd c83c
000000c0: 29f5 0a3d 8521 76bb 9418 253c 7e14 98bc
000000d0: 38e9 ec3b 3d74 ee3c d8a7 a1bb c8ee 8d3c
000000e0: b8bd 29bd 4dde 023d 86a3 63bc c016 843b
000000f0: 6352 c6bc 7c12 6c3c 5647 65bc ee1a 25bd
00000100: 2495 22bc b5bb 0c3d e49d 4f3c 0e5d b8bc
00000110: 124e d53c 6d39 0c3d 3921 033d cb22 583b
00000120: ab74 0f3d 297c d93c 5864 a23c b798 103d
00000130: 6df5 5bbb 8fd4 5ebc bcd5 743c cf54 5fbc
00000140: b28a b23c 3a9d ab3c 5ee3 d93c 27a9 22bd
00000150: e374 b2bc 2c0c 09bd ce8d b8bc 707a 53bc
00000160: 0c7b 1abd e5dc 033d 244d 3e3c 2bf8 093d
00000170: 29d1 91bc 7cf0 633c 5efb 81bb 8514 bd3c
00000180: 465e 213a 9b88 c33c 9094 e5bc 207b a63b
00000190: 1c7b 7ebc 9b5c fabc 5000 7dbc c9f3 143d
000001a0: 5809 0abd 0184 0f3d c6e1 c6bc 7a9d d73c
000001b0: 23e0 17bd 0f5a 2dbc 8cb8 1abd 06ee 933c
000001c0: 9abb d53c 7319 04bd b9d1 033d e36b 113d
000001d0: afbb 0dbd 20d7 9f3b 7bb7 4a3b e0d1 073d
000001e0: 836d 96bc ed8b 393d afda 28bd 4461 373c
000001f0: 0388 02bd fd4a 273d 0634 71bc 78ef d5bc
00000200: 66db f33c 73bb c7bc f8d8 d9bc fff3 29bd
00000210: f435 0bbd 283e ff3b 26cd d63c 000e 0bbc
00000220: 0756 23bd 489b 9f3b d092 20bd 7fb4 863b
00000230: b62d bf3c fe1a da3b bba0 e43b 7be9 7b3c
00000240: 5d04 c3bc e0ac 083d 9080 783c cbad c5bc
00000250: 0475 0bbd 7f63 1cbd a8ee c1bc f618 3fbc
00000260: 0825 f93b 7ef7 0ebd e0f2 c8bc c8a3 86bb
00000270: 2222 c53c f6fd c13c 700a 403c 96a0 edbc
00000280: c112 19bd 920e ba3c fdcc 0f3d 704d c5bc
00000290: 35ad 95bc 6f7f 08bd 0360 01bb 5135 323d
000002a0: 312d 283d 73aa 6ebc 7219 12bd 12a2 e93c
000002b0: b30b cfbc d673 1cbd c0fd 173c 2665 1dbd
000002c0: 5f56 0fbd cd6a 163d 000e f9b8 9157 183d
000002d0: 6498 393c a0fe bbbb 58c7 9cbc ac81 17bc
000002e0: e965 243d e023 d1bb 3eac dc3c b611 f73c
000002f0: eba2 1d3d 4b54 f8bc 8908 9d3c f1f8 fb3c
00000300: 023f 62bc 7fc5 4d3c d0ff 463c fe99 7dbc
00000310: 1694 3abc 8c72 633c 4842 f0bb 863a e63c
00000320: 8014 d2bb 303a 4f3c 24ee 473c 40ed a5bc
00000330: 18b2 b0bc 746d 673c 5f2c 803b 2431 19bc
00000340: 04ab 553c 708f 71bb 90a7 473c ba60 e03c
00000350: 3d91 57bb c0f0 c1bc dfdb 1e3d 423f 5bbb
00000360: 3d5c f03c ff4c 0739 3ed2 e53c 839d d8bc
00000370: 4a0b cd3c a0e6 ac3a 2071 e5bb 6883 98bc
00000380: 83f3 093d f0f6 9ebc 790a 083d d392 48bd
00000390: 5ab6 fc3c 8be3 cf3b 62ed ac3c 1b47 08bd
000003a0: dea4 a6bc b0e5 6a3b 1088 593c 7cc8 573c
000003b0: 5624 3cbc 2e92 a9bc 2c16 29bc 1508 8ebc
000003c0: 3b2a 1d3d 1510 00bc d372 e0bc bb9f fbbc
000003d0: 54c3 2e3c f093 20bb 56d1 a33c ca74 e13c
000003e0: b0fa 15bc 3cc2 07bd 81a7 033d 0ee5 cf3c
000003f0: 846a 723c 52a9 b93c 487c ac3b 0c11 54bc

hyper_b2.0.bias f4 [32]
-0.042433612 -0.04523985 0.05816441 0.054150872 -0.030844491 0.029871639 -0.019596443 -0.008663032
0.029382903 0.016040409 -0.015554231 0.0020743795 0.015346926 0.03785618 0.0056652124 -0.0035121255
-0.025618937 -0.008075725 0.025387237 0.019085165 -0.005649441 0.039043613 0.027034953 0.047599163
0.012743086 -0.03595971 0.018582098 -0.008967251 0.017186701 -0.04736033 0.011499811 0.00044146553
00000000: dece 2dbd 6c4d 39bd ce3d 6e3d 4ecd 5d3d
00000010: 96ad fcbc 5eb5 f43c b888 a0bc 64ef 0dbc
00000020: 6ab4 f03c 2d67 833c 2cd7 7ebc 50f2 073b
00000030: ac71 7b3c 150f 1b3d 3fa3 b93b b02b 66bb
00000040: cede d1bc 0c50 04bc e5f8 cf3c 7e58 9c3c
00000050: f21e b9bb 32ec 1f3d 6878 dd3c 57f7 423d
00000060: 60c8 503c 7d4a 13bd 7c39 983c 60eb 12bc
00000070: 20cb 8c3c e8fc 41bd b469 3c3c 8074 e739

hyper_b2.2.weight f4 [1, 32]
0.11563485 0.06914776 -0.07643482 -0.05077794 0.014960572 0.11297154 -0.16896111 -0.02485025
-0.15111355 0.050289117 0.15294772 -0.092091836 0.047828346 0.11904542 0.062639885 -0.15398768
-0.02300933 0.07221055 -0.019627051 -0.06705633 0.15729141 -0.11472582 -0.10561529 -0.08343056
0.120092794 0.090670936 -0.14409053 0.00076436996 -0.04072644 0.08407785 0.13510166 0.10449912
00000000: f7d1 ec3d 579d 8d3d dc89 9cbd 87fc 4fbd
00000010: 301d 753c 9f5d e73d 2404 2dbe c092 cbbc
00000020: 83bd 1abe f6fb 4d3d 549e 1c3e a59a bcbd
00000030: a8e7 433d 16ce f33d 5749 803d f2ae 1dbe
00000040: 107e bcbc 20e3 933d e9c8 a0bc d454 89bd
00000050: 0011 213e 5ff5 eabd d44c d8bd a4dd aabd
00000060: 36f3 f53d afb1 b93d 788c 13be 0060 483a
00000070: c4d0 26bd 0231 ac3d 1758 0a3e a203 d63d
