models/v0/target_agent_net.pth (torch, 87192 bytes, 4 tensors)

fc1.weight f4 [64, 326]
000000 e0 9f 60 3d 92 4f 3b bd 2d ba 30 3c fc a2 b3 3d
       0.05483997 -0.04573018 0.010786575 0.08771321
000010 92 11 8e 3d 50 ae cf 3c 05 ca 97 3a f6 4f 40 bc
       0.06936945 0.025351673 0.0011580592 -0.011737814
000020 b7 37 1b 3d b4 b0 e3 3d a7 ce b0 bc 01 3d a4 3d
       0.03789493 0.11117688 -0.021582915 0.08019448
000030 a9 87 1d 3d 6c 8e e3 3c 3b b7 66 3d d9 4e d3 3c
       0.038459454 0.027777873 0.056327086 0.025794433
000040 62 1f a9 bc df bd 6e 3d 28 64 ba bc bf e1 b2 3d
       -0.020644847 0.058286544 -0.022752836 0.08734464
000050 6c 38 f1 3d 11 1a e9 bc b4 df 44 3d 44 e1 0a 3d
       0.1177834 -0.028454812 0.048064902 0.033906236
000060 d8 1c a9 3c 3f 2a 89 3d 71 2f 9b bc d1 bc b0 3d
       0.020643637 0.06697511 -0.01894352 0.08629764
000070 05 c6 cb 3b 35 22 ad bd f7 d3 73 3d 7c e5 fa 3d
       0.006218674 -0.0845379 0.059528317 0.12250802
000080 88 94 4b bd 29 b8 5d 3d 90 e5 ec 39 bf df a0 bd
       -0.049702197 0.054130707 0.00045184465 -0.07855176
000090 b2 19 53 3c 1d 88 93 3c 40 5e 91 3d b3 22 b5 3c
       0.012884544 0.01800924 0.07098055 0.022111272
0000a0 a6 da 2c bb aa 2b 4a 3c 88 20 02 bc ec 5c ca bd
       -0.0026375442 0.012339512 -0.007942326 -0.09881005
0000b0 ee f3 67 3d b5 3c c3 3d c0 b0 c5 bd 90 09 04 bb
       0.056629114 0.09533063 -0.09652853 -0.0020147301
0000c0 e6 c2 dc 3c db a8 a2 3b d3 c4 e0 bd 78 97 50 3d
       0.026948404 0.004963977 -0.10975041 0.0509257
0000d0 c7 b3 fc 3d 16 91 75 3c f4 18 4c bd bc 6d eb 3d
       0.12338977 0.014988204 -0.049828485 0.114955395
0000e0 8d ba a5 bd 3c 8b 00 3e 16 f5 7f 3d 92 be 32 3d
       -0.08092222 0.12553114 0.06248959 0.043638773
0000f0 1a c8 fb 3c 1d 3a 82 3d 71 ec 0c bd 9f a0 6b bd
       0.030735064 0.063587405 -0.034405176 -0.057526227
000100 ea 66 03 be 59 da 38 3d d9 8f f8 bb 45 c4 6e b8
       -0.12832227 0.045130108 -0.0075855074 -5.6926412e-05
000110 69 bd 93 bd 8c 39 bb 3d f6 d8 6c bd 74 54 ba 3d
       -0.072138615 0.091418356 -0.057824098 0.090981394
000120 7b a9 dd bc 17 35 19 be cd 8a 72 3c 13 fc a3 bd
       -0.027058354 -0.14961658 0.0148036005 -0.08007064
000130 5b 60 cd bc 25 a0 b5 3c f6 a5 14 3c ea 80 03 3e
       -0.02507036 0.02217109 0.009072771 0.12842146
000140 34 33 c0 bc 41 71 3b 3d 22 ea c0 3c 4b 0a c8 3d
       -0.023461916 0.045762304 0.023549143 0.09767588
000150 38 5c ff bc ad ab 17 3d 8c 13 ab 3c 35 7a 08 3e
       -0.031171903 0.037028957 0.020883344 0.13327868
000160 0a 38 e6 3c 9a 15 5f bc 59 9a 1b bc 6e e9 e0 b8
       0.028102893 -0.01361599 -0.009497249 -0.00010724632
000170 e8 7f 95 bd 2b f9 7d 3d f1 45 ae bd 38 69 fc ba
       -0.07299787 0.062005203 -0.08509434 -0.0019257432
000180 0c 33 89 3d ac 04 26 3b ac a2 a7 ba f7 f2 8d bd
       0.066991895 0.0025332374 -0.0012789569 -0.069311075
000190 93 09 97 bd a5 ea c6 3d 59 69 dc bb c6 69 eb 3c
       -0.07374873 0.09712724 -0.0067264256 0.02873696
0001a0 d8 34 5d bc d1 ae 62 ba a4 ad bc 3d af 58 4f bb
       -0.013501368 -0.00086472655 0.09212807 -0.0031638553
0001b0 38 65 48 3d 40 7c c0 bd 14 8a aa bc 15 98 7d 3d
       0.048924655 -0.09398699 -0.020817794 0.061912615
0001c0 7b f0 2c 3d 18 08 ad bc 89 bd cf 3c 81 bd 16 bd
       0.042221528 -0.021122023 0.025358932 -0.03680182
0001d0 ab 39 78 bd 10 dd 33 bc c3 24 33 3b 0c b7 c3 3d
       -0.06060187 -0.010977998 0.0027335144 0.09556398
0001e0 90 a3 12 3c fa f1 f2 3b 0b c2 c9 3d 5f a9 e0 3c
       0.008950129 0.0074140998 0.09851464 0.027424512
0001f0 1e 4d 86 3c 62 dd 30 bc d1 5d 75 bc 52 4e 26 bd
       0.016394194 -0.010794969 -0.014975981 -0.040602036
000200 02 f4 27 3d 70 f6 9b 3d 42 75 fb 3d 73 97 93 3d
       0.04100419 0.076153636 0.122782245 0.07206621
000210 53 75 a5 ba 0a dc a4 bc dd 5d 4b 3d ad 4d 3c 3d
       -0.0012623466 -0.020124454 0.049650062 0.045972515
000220 13 4b 14 3d e2 30 51 bc 46 8c da 3c b9 cb 12 bd
       0.03620441 -0.012768002 0.026678216 -0.035838816
000230 6d c6 a0 3d d4 4e 6f 3b 97 e0 da bd 96 8d 0d 3d
       0.07850347 0.003651549 -0.10687368 0.034558855
000240 d4 00 61 bc 3f 5e ad 3d de 1f 54 bc 9a 5d 20 3d
       -0.013733108 0.08465242 -0.012947051 0.039151765
000250 f2 ce 7f 3d a2 28 b4 3c 1b b1 0f 3d 49 c1 bd 3b
       0.062453218 0.021992031 0.03508101 0.0057908637
000260 43 70 cc b9 c9 33 65 bc ca fb c8 bc 23 f8 76 3d
       -0.00038993554 -0.013989397 -0.024534125 0.060295235
000270 c9 5b ac bd 98 30 cb 3d 94 a9 bc 3b 5a 43 9c 3d
       -0.08415944 0.09921378 0.00575752 0.07630034
000280 72 36 57 3d 0e cb 6a bd e8 4b ea bb 3e 94 47 bd
       0.052542157 -0.057322554 -0.007150162 -0.04872536
000290 16 40 1f bd 0e 85 5e bd 78 9e 95 bc 7f 7a a7 3d
       -0.038879476 -0.05432611 -0.01826404 0.08177661
0002a0 77 a4 a9 3b 73 f0 46 bc d4 24 cc 3c 4f a1 05 bd
       0.0051770764 -0.0121422885 0.024919905 -0.03262454
0002b0 ba 5f 8a 3d be b6 31 3d 35 4b 01 be 25 a6 07 3d
       0.0675654 0.043387167 -0.12626345 0.033117432
0002c0 ad c7 10 bd e8 e9 45 bd b6 58 fa 3b e0 35 7c bd
       -0.035346676 -0.048318774 0.0076399697 -0.061574817
0002d0 e0 37 73 bd 60 60 66 bd fd 57 64 3d 24 c8 e2 3d
       -0.05937946 -0.056244254 0.055747975 0.1107333
0002e0 a8 5b 13 3c 50 b8 a3 bc 75 9f 59 3d a4 80 38 3c
       0.0089940205 -0.019985348 0.053130586 0.011261139
0002f0 28 71 ed bb f3 ec d5 bc ee 31 a3 3d 53 57 1a 3d
       -0.0072461553 -0.026113963 0.07968508 0.037680935
000300 7c 25 8f 3d 27 19 b6 bd 6e 12 89 3c e2 00 87 ba
       0.069895715 -0.08891516 0.01673242 -0.0010299946
000310 6d 55 3a 3d 45 85 f4 bc 41 5c 57 bd cd 18 4d 3b
       0.045491625 -0.029848704 -0.052578215 0.00312953
000320 58 51 4e bd 75 f5 4b bd d4 98 17 bc 87 3d 7f 3d
       -0.050370544 -0.049794633 -0.009252746 0.062314536
000330 cf aa ea bd 48 4a c3 3d 2d 77 3f 3d 31 fd 06 be
       -0.114583604 0.095356524 0.046744514 -0.13182522
000340 63 5f 40 bc 24 4a 8b bc f4 78 4d 3d 5a b5 39 3b
       -0.011741492 -0.017003126 0.050164178 0.0028336854
000350 c8 ae 3e 3d 7c 13 18 bb cb ae 69 3c 3e 47 64 bd
       0.046553403 -0.0023204973 0.014262865 -0.055732004
000360 20 7b 93 3c 6f 37 70 3c c4 37 a7 3d da 99 f8 bc
       0.018003047 0.014661654 0.08164933 -0.0303468
000370 d4 7e a9 3c c9 3b fa ba bf b8 0d bd 91 ad 40 bd
       0.02069036 -0.0019091304 -0.034600016 -0.047040526
000380 0c 3f 11 3d 4d ce c9 bd d3 83 51 3d f9 b3 ff bc
       0.035460517 -0.09853802 0.051151108 -0.031213747
000390 92 35 44 bc c3 af bc 3b e0 8a c1 3b 74 6c 97 bd
       -0.011975663 0.005758257 0.005906448 -0.07393733
0003a0 66 d1 00 3d 05 a8 c6 3c e2 13 26 3d 68 fe c6 3d
       0.031449698 0.02425004 0.040546305 0.09716493
0003b0 70 08 89 3d 37 51 00 3a d0 51 9f 3c 2d d4 a0 bd
       0.066910625 0.00048949145 0.01944819 -0.07852969
0003c0 00 f9 2d bd bb 38 9c bd 6e 28 55 3d ce a8 8d 3b
       -0.042473793 -0.07628008 0.05204051 0.0043231016
0003d0 00 fa 29 bd 60 84 72 bd 34 e6 93 3c 07 fc 50 bd
       -0.041498184 -0.059208274 0.018054105 -0.051021602
0003e0 ac 6a 2a bd 82 0c b5 bd bd 7d 04 3c f6 29 3f 3c
       -0.041605636 -0.08840276 0.008086619 0.011667719
0003f0 83 99 bc ba 5b 6e 7a 3c 57 63 00 3c 12 a8 f7 bc
       -0.0014389012 0.0152851 0.007836184 -0.03023151

fc1.bias f4 [64]
000000 00 00 00 00 00 00 00 00 00 00 00 00 00 00 00 00
       0.0 0.0 0.0 0.0
000010 00 00 00 00 00 00 00 00 00 00 00 00 00 00 00 00
       0.0 0.0 0.0 0.0
000020 00 00 00 00 00 00 00 00 00 00 00 00 00 00 00 00
       0.0 0.0 0.0 0.0
000030 00 00 00 00 00 00 00 00 00 00 00 00 00 00 00 00
       0.0 0.0 0.0 0.0
000040 00 00 00 00 00 00 00 00 00 00 00 00 00 00 00 00
       0.0 0.0 0.0 0.0
000050 00 00 00 00 00 00 00 00 00 00 00 00 00 00 00 00
       0.0 0.0 0.0 0.0
000060 00 00 00 00 00 00 00 00 00 00 00 00 00 00 00 00
       0.0 0.0 0.0 0.0
000070 00 00 00 00 00 00 00 00 00 00 00 00 00 00 00 00
       0.0 0.0 0.0 0.0
000080 00 00 00 00 00 00 00 00 00 00 00 00 00 00 00 00
       0.0 0.0 0.0 0.0
000090 00 00 00 00 00 00 00 00 00 00 00 00 00 00 00 00
       0.0 0.0 0.0 0.0
0000a0 00 00 00 00 00 00 00 00 00 00 00 00 00 00 00 00
       0.0 0.0 0.0 0.0
0000b0 00 00 00 00 00 00 00 00 00 00 00 00 00 00 00 00
       0.0 0.0 0.0 0.0
0000c0 00 00 00 00 00 00 00 00 00 00 00 00 00 00 00 00
       0.0 0.0 0.0 0.0
0000d0 00 00 00 00 00 00 00 00 00 00 00 00 00 00 00 00
       0.0 0.0 0.0 0.0
0000e0 00 00 00 00 00 00 00 00 00 00 00 00 00 00 00 00
       0.0 0.0 0.0 0.0
0000f0 00 00 00 00 00 00 00 00 00 00 00 00 00 00 00 00
       0.0 0.0 0.0 0.0

fc2.weight f4 [5, 64]
000000 50 ed 99 bd 2b d3 5c 3c c4 8f 07 3e a1 30 84 be
       -0.07515967 0.013478081 0.13238436 -0.2581835
000010 1f 5d 46 bd dc 30 25 3d 47 d4 83 3d 85 1f cb 3d
       -0.04842865 0.0403298 0.06436973 0.09918121
000020 64 8d f8 bd 4a 26 1c be f9 df 14 3e 2f 72 0f bb
       -0.12136343 -0.15248981 0.14538564 -0.0021888127
000030 65 87 a4 3d dd f1 04 bd 95 80 0f be 53 ca a9 3c
       0.08033637 -0.03245722 -0.14013894 0.020726359
000040 52 51 22 bc 72 bd 09 3c c4 ae aa 3d 6e 9c 0c 3e
       -0.009907084 0.008406984 0.08334115 0.13731548
000050 25 8b 34 be 78 2f 54 3c 13 86 58 3c 9d f5 71 3d
       -0.17631204 0.012950771 0.01321556 0.059072126
000060 cf ef f8 3c fe 3a 0b be 26 51 6e 3d bf bd 31 be
       0.030387787 -0.13596722 0.058182858 -0.17357539
000070 b2 5f 43 be 1c 46 24 3e 2b 0c ad 3e 74 c6 80 bd
       -0.19079474 0.1604237 0.33798346 -0.06287852
000080 bb b0 8d bc 40 f3 55 3b 23 a6 8a 3e 1e a1 45 be
       -0.017296186 0.003264621 0.27079877 -0.19299743
000090 84 c2 a7 3e 01 f0 9c 3d fe b6 51 3d aa 84 ad bd
       0.3276559 0.076629646 0.051199906 -0.08472569
0000a0 d1 29 1c 3e 2f 9b 8c bc 30 63 93 3d 9b 58 3f bd
       0.15250327 -0.017163841 0.07196653 -0.04671536
0000b0 bd 95 36 be 6e 4c 13 3d e0 a0 9b bd e8 eb c1 bd
       -0.17830558 0.03596156 -0.07599044 -0.09468824
0000c0 d0 00 22 3d dc 8d c3 3d d6 62 6e bd e3 04 16 be
       0.039551556 0.09548542 -0.058199726 -0.14650302
0000d0 0b ba 41 3e 1a 2c 0a bd 9f 5e ce 3c 07 8e fb bd
       0.18918626 -0.033733465 0.025191603 -0.12282949
0000e0 a1 18 de 3c e5 72 ab 3d ec a1 97 be 55 0d d4 bd
       0.027111353 0.08371524 -0.29615724 -0.103541054
0000f0 11 8c 27 3d 50 52 62 bc 9b 6f ed bc 1c 54 1d bd
       0.040905062 -0.01381357 -0.028983882 -0.03841029
000100 a7 7e 60 bd e9 ac f9 3d c8 6c 40 3c fa 5c 6d 3d
       -0.054808285 0.12191183 0.0117446855 0.057949997
000110 c7 03 2b be dc cf 1f 3e d0 66 44 3c 2c 2b 16 be
       -0.1670066 0.15606636 0.011987403 -0.14664906
000120 84 09 5c 3e e4 dd 6b bd 08 5a 8c be 69 d6 18 3c
       0.21488005 -0.05758466 -0.27412438 0.009328463
000130 55 35 95 3e b2 a0 e0 bd da d0 0e be af 64 c2 bd
       0.29142252 -0.1096815 -0.13946858 -0.0949186
000140 9e e4 23 be 9f a7 28 3e 96 d3 07 bd 19 2b 33 be
       -0.1600518 0.16470192 -0.03316077 -0.17496909
000150 9d 24 0a 3d 46 9b b8 3d bd 36 09 3d 5e 1c 1c be
       0.033726323 0.09013991 0.033499468 -0.15245196
000160 c3 c8 ef 3d 3d f4 2b 3e 07 14 17 3d 8d 79 03 3d
       0.11708214 0.16792388 0.036884334 0.03209834
000170 bf e5 de bd 17 bc d0 bd 63 7a 9c 3c 7e dc 7d bd
       -0.10883664 -0.10192125 0.019101327 -0.061977856
000180 8b 3a 28 bd 90 74 ee bc 60 a6 99 bb 1a ce 5c be
       -0.041071456 -0.029108316 -0.004689023 -0.21562997
000190 b1 c9 e0 3d 7f 5a b0 bd af af 3f be 4b ce 27 3e
       0.109759696 -0.08611011 -0.18719362 0.16387288
0001a0 2a 63 5b 3c 97 5b d6 3d 83 20 08 be 99 7e 00 be
       0.013390342 0.10466688 -0.13293652 -0.12548293
0001b0 ea a3 d9 bc 3a 49 02 3e c7 ce d6 bd 26 a0 99 be
       -0.026567418 0.12723246 -0.104886584 -0.30004996
0001c0 e0 e5 08 3e 02 7f c2 bc c1 fc 9e 3d a3 ed 3d be
       0.1336894 -0.023742203 0.07763053 -0.18547682
0001d0 95 b3 da bd 2b cf ac bb a4 84 11 3d f1 1d a6 bd
       -0.10678784 -0.00527372 0.035526887 -0.081111796
0001e0 92 28 46 3c cc eb 3b 3d 2d aa 58 3e ad 15 45 bd
       0.012094634 0.04587917 0.21158667 -0.048116375
0001f0 06 61 c4 3d 65 2c f7 bd c3 1c a9 bd f4 7d f9 bd
       0.09588818 -0.120690145 -0.08257439 -0.12182227
000200 c4 0e b4 bd f9 3f 83 3e 7c b9 b1 bd e2 78 31 bd
       -0.08791879 0.25634745 -0.086779565 -0.043328173
000210 44 36 3b be 80 bf e6 3c d0 06 d3 bd 9f cf eb 3d
       -0.1828242 0.028167486 -0.10304034 0.1151421
000220 35 1b cc 3d 41 6d a0 3d eb aa a4 bd aa de 89 bd
       0.09966127 0.078333385 -0.080404125 -0.06731923
000230 9f 2a 9e 3c fc db 86 3e 55 60 a2 bc 68 09 58 bd
       0.019307433 0.2633971 -0.019821325 -0.052743345
000240 55 cd e0 3d 1f c6 07 3e 93 8f 07 bc af e7 36 be
       0.10976664 0.13259171 -0.008273977 -0.17861818
000250 e5 ee 05 3d 98 bd 48 bd 2e de eb bd ee 11 fd 3d
       0.03269853 -0.049008936 -0.11516987 0.123569354
000260 91 2b a5 bd 81 bb 0d be c1 16 ee 3d 1c 39 22 be
       -0.0806495 -0.13841058 0.11625434 -0.15842098
000270 14 3f ff 3d 76 80 b5 bd d6 09 77 3e 20 7a 40 bd
       0.12463203 -0.088623926 0.24124846 -0.046991467
000280 b8 24 a0 3e 49 12 bb bc 74 a3 09 3e 6c c2 34 3e
       0.31278014 -0.022835867 0.13441259 0.17652291
000290 df 03 7a 3c 51 6e 4e 3d e0 cb e8 bd f4 77 04 be
       0.015259712 0.050398175 -0.11367011 -0.12936383
0002a0 f1 47 e0 bd 76 39 76 bd 97 cf 36 be e8 3e 32 3e
       -0.10951222 -0.060113393 -0.17852627 0.1740681
0002b0 11 71 32 bd 3c 40 71 bd 41 0d 3d 3c d0 d6 14 bd
       -0.04356486 -0.05889915 0.0115388045 -0.036337674
0002c0 98 94 96 3d b4 02 13 3e 03 38 92 3a e5 63 e2 3d
       0.07352561 0.143565 0.0011155609 0.110542096
0002d0 3f 05 77 be df d7 bf 3d a2 ce b0 bd 0c 41 37 3d
       -0.24123095 0.09367346 -0.08633162 0.044739768
0002e0 73 c4 76 be 31 d9 40 3e ae da 84 3b 4a bd 28 be
       -0.24098377 0.18832852 0.004054389 -0.16478458
0002f0 c1 0b ec bd 3a 9c bc bc 58 ca 2e bc 8e ab 71 3d
       -0.115256794 -0.023023713 -0.01066836 0.059001498
000300 22 2f 46 3d 6c eb f9 bd c8 0e 67 bd 82 85 0b 3e
       0.048384793 -0.12203106 -0.05641058 0.13625148
000310 38 03 95 3d 67 5b 2e bd 02 c2 ad bd fd fd 9b bd
       0.072760046 -0.042567637 -0.0848427 -0.07616804
000320 b0 3a 24 3d d8 32 ce 3d 18 f8 13 be 67 03 3e bd
       0.04009503 0.100682914 -0.14450109 -0.046389963
000330 57 6e 3c 3e 4a 94 19 be fb a3 6e be 6b ff 34 3d
       0.18401466 -0.14997974 -0.23304741 0.044188898
000340 63 d4 08 3e 4d da 09 3e 7c 57 dd 3c ba 31 c9 3c
       0.13362269 0.13462181 0.027019255 0.024559844
000350 9f 92 2f be fe 0c 8a 3b 66 02 8a bd d6 f1 b7 3c
       -0.17145775 0.0042129746 -0.06738739 0.022454184
000360 84 16 c0 be 2c 80 04 bd bf 65 21 3e 5a f9 0d bd
       -0.37517178 -0.032348797 0.1576147 -0.03466163
000370 a8 12 e9 bd 88 5a 87 3d dd fc 52 3c d2 e1 34 3e
       -0.113805115 0.06609064 0.01287767 0.17664269
000380 61 0f ea 3d f3 11 0c be c5 5b c4 3d a0 9e 74 bc
       0.114287145 -0.13678722 0.09587816 -0.014930397
000390 4b cf 91 bd 1e ed d2 3c 48 8a 75 bd 91 9d 0a be
       -0.07119616 0.025747832 -0.05994633 -0.1353667
0003a0 fb 08 29 bd 29 e4 21 3e db 3d 55 bd 49 0d 7a bd
       -0.04126833 0.15809692 -0.052060943 -0.061047826
0003b0 6f 12 3e 3d ff 67 93 3d 27 0c 72 bd be a3 5b 3e
       0.0464043 0.0719757 -0.05909362 0.21449181
0003c0 e2 a3 be bd 02 b9 cf 3d b4 ab 9b bd ad 78 2b be
       -0.09308602 0.10142709 -0.07601109 -0.16745253
0003d0 27 7b 2b 3e 74 87 9c be 2a 85 10 be 88 49 d9 bd
       0.16746198 -0.30572093 -0.14113298 -0.10609728
0003e0 f3 54 67 bc 4d 9b d4 bd 93 fa 41 3e 41 4f 59 3c
       -0.014119375 -0.10381184 0.18943243 0.0132635245
0003f0 d8 1a 03 be aa 77 8d bc f4 03 bf 3d f4 07 86 3e
       -0.12803209 -0.017268974 0.09326926 0.26177943

fc2.bias f4 [5]
000000 00 00 00 00 00 00 00 00 00 00 00 00 00 00 00 00
       0.0 0.0 0.0 0.0
000010 00 00 00 00
       0.0
