models/v0/target_agent_net.pth (torch, 5784 bytes, 4 tensors)

fc1.weight f4 [64, 9]
000000 00 f5 97 3c 18 23 18 be 1c 7b e0 3d 58 a3 7c 3c
       0.018549442 -0.14857137 0.10960981 0.015419804
000010 77 f0 cf 3c ef 53 2f be cf e6 30 3d a5 d0 78 bc
       0.025383217 -0.17121862 0.043188866 -0.0151864635
000020 2c 69 cf 3d 47 47 cb bd 4e fd fa 3d a1 13 a5 bc
       0.10127482 -0.099257044 0.12255345 -0.020150961
000030 f2 c6 5e 3d d8 a0 1d 3c b8 50 1b bd 95 69 c4 bd
       0.054388948 0.009620868 -0.037918776 -0.09590451
000040 46 d3 94 bd ba 72 57 3d d9 a4 94 bd cd d6 62 3e
       -0.0726686 0.052599646 -0.07258005 0.22152252
000050 5a 5e 76 3e 8d fa 63 bc 97 7b 3d bd 48 41 e5 bd
       0.2405943 -0.013914716 -0.046260443 -0.11194092
000060 ba cb 13 3b 80 32 e6 3d d6 1a af bc fd 7f 30 3e
       0.002255185 0.11240101 -0.021375101 0.17236324
000070 ee ff 99 bd 42 87 e4 3b b5 c0 44 be fc a0 e4 3d
       -0.07519518 0.006974132 -0.19214137 0.11163518
000080 12 12 9a bd 46 0b b2 3a 3f e2 f6 3d 3d 4c 4d 3d
       -0.07522978 0.0013583682 0.12054872 0.050121535
000090 22 3f fa bd 31 66 38 3d 14 d9 40 bd 46 57 b6 3d
       -0.12219073 0.045019332 -0.04708202 0.08903365
0000a0 04 07 b4 3d 79 63 1e be 19 30 c3 bc 6b c3 76 bd
       0.087904006 -0.15467633 -0.023826646 -0.06024496
0000b0 e8 4f c0 bd 7d d0 f5 bc e3 fa 49 be 87 90 39 bd
       -0.09390241 -0.030006642 -0.19724612 -0.045303848
0000c0 10 4e 0c 3d 66 f6 5b 3d e4 8c ab bd b6 da 70 bc
       0.034254134 0.05370178 -0.08376482 -0.014700582
0000d0 0a c4 b6 3d e7 ba 39 3e 5a 0a b5 3d 6f fd b8 bb
       0.0892411 0.18137704 0.08839865 -0.005645446
0000e0 6e 26 c0 3d c3 4d 49 3d c9 fe 8f 3e 96 12 c7 3d
       0.0938233 0.049146425 0.28124073 0.09720342
0000f0 c1 7a 37 bd 2c b5 49 be d2 92 0e 3e 96 52 03 3e
       -0.0447948 -0.19698018 0.13923195 0.12824473
000100 ff 40 be 3d 73 c0 ae 3c e8 2c 61 3d a4 5e b5 bc
       0.09289741 0.021332001 0.054974467 -0.022139855
000110 1b a9 b8 3d 32 a3 ff 3c bf ec a7 3d 8b 3a 9e bc
       0.09016629 0.031205747 0.081994526 -0.019315025
000120 5e c6 0d 3e de 28 19 bd 9f 43 dd bd 52 f9 d2 bd
       0.13845202 -0.03739249 -0.10803913 -0.1030146
000130 a7 9b f7 3b ff f0 44 be 4b 3f 84 3d 6e 5d e1 3d
       0.007556397 -0.19232558 0.06457385 0.110041484
000140 19 c9 0a be 10 41 17 3d 1f c7 80 bd 00 ef 45 be
       -0.13553275 0.036927283 -0.06287979 -0.19329453
000150 77 1c c9 3d 64 e6 a4 bd e7 1d 66 ba 36 cc 61 3d
       0.09819882 -0.08051756 -0.00087782595 0.05512639
000160 c0 af d8 3d 2a 28 af 3c c7 f3 17 bd 2b c6 41 be
       0.10580397 0.021381456 -0.03709772 -0.18923251
000170 17 2b 10 be 96 d9 63 3e e8 0e 0c be 6e 74 e1 3d
       -0.14078937 0.22250971 -0.13677561 0.11008535
000180 85 b2 7d 3d 20 9d c5 3d 48 13 dd bc 3d 3b b2 be
       0.061937828 0.0964911 -0.026986733 -0.3481082
000190 41 8c 29 3e a0 8f e7 3d 8f 12 d7 bc bd 3e d5 3d
       0.16557409 0.11306691 -0.026253967 0.10412357
0001a0 15 21 53 be b0 8c 0e 3e f5 30 6e bc fb bf 5c be
       -0.20618089 0.13920856 -0.014538039 -0.2155761
0001b0 83 4b 3c 3d af 09 ff bd bd 6d 35 3e 55 49 17 be
       0.04597045 -0.12453019 0.17717643 -0.14774068
0001c0 06 5f 55 be 97 13 08 be bc 7e 02 3c a2 af 12 be
       -0.2083703 -0.13288723 0.007964786 -0.14324811
0001d0 87 df df 3d 96 c6 93 3d da 00 88 3e a6 7c 83 3c
       0.10931306 0.07215612 0.2656315 0.016050648
0001e0 62 40 4f 3e 9f 66 5d 3e 20 58 c1 bd 7f 3f b9 3c
       0.20239404 0.21621178 -0.09440637 0.022613285
0001f0 77 59 37 3e 87 6b b8 bc a6 a6 7c be c3 66 ff 3b
       0.17905222 -0.02251221 -0.24672946 0.0077942326
000200 08 70 ac 3c ed f0 ed bd 11 d9 ed 3c 10 8b 8b 3d
       0.021049514 -0.116182186 0.02903417 0.068136334
000210 19 4f 24 bd b9 6d 4a be 41 62 8c bb 54 c6 5d 3c
       -0.040114496 -0.19768418 -0.0042841737 0.013536055
000220 f6 4a b4 3c d6 2d a7 3c b6 ce d1 bd 1a a8 cf 3d
       0.0220084 0.020407598 -0.10244505 0.10139485
000230 e6 52 1a bd 0a 7b 57 bd 7f f3 b6 3d c2 09 16 3e
       -0.037676714 -0.052607574 0.08933162 0.1465216
000240 62 3b 0e be ad 5e 91 bd 6a 6b cf bb 3b da 43 3e
       -0.1388984 -0.07098136 -0.0063299434 0.19126217
000250 a3 a4 97 bc 5e 1b 14 bc 84 f1 81 be fe b6 8e bc
       -0.018511122 -0.009039728 -0.25379574 -0.017421242
000260 df 17 fa 3d 7d a4 61 3d f0 c9 e0 bc c0 b0 6d 3d
       0.12211584 0.05508851 -0.027440041 0.05802989
000270 38 8b 95 bd 1a 62 75 3b 28 97 3c 3d b6 bc ec 3d
       -0.073019445 0.0037442506 0.04604259 0.11559431
000280 89 2d 58 be 70 95 32 bd 70 26 0c 3d 70 40 8a 3c
       -0.2111112 -0.043599546 0.034216344 0.01687643
000290 e7 85 d4 3c 87 e6 3f be 0d 42 81 be 85 7b ec bd
       0.025942756 -0.18740283 -0.25245705 -0.11546997
0002a0 61 07 d9 3d 04 b6 c9 3a 85 96 c1 bc 8e 4c 3b 3d
       0.105971105 0.0015389328 -0.023631344 0.045727305
0002b0 c5 52 9d bd a1 68 31 3e c0 9f 17 be b0 bc 44 be
       -0.07681803 0.17325069 -0.14807034 -0.19212604
0002c0 fc 22 14 bd 0c dc 19 be 33 64 ee 3b 9c 42 e0 bb
       -0.036166176 -0.15025347 0.0072751283 -0.006843878
0002d0 f1 41 cd bd 37 d3 26 bc 6f 65 d5 bb b4 5e b6 3d
       -0.10022343 -0.0101821935 -0.006512336 0.08904782
0002e0 98 31 3d 3d a3 9b e7 3d 8e de 24 3e 08 2b a9 3d
       0.046189874 0.11308982 0.16100523 0.08260161
0002f0 69 65 46 be 80 83 88 bd 48 39 82 bd ca ce b4 3d
       -0.19374622 -0.06665707 -0.06358582 0.088285044
000300 d2 fa 48 3c 92 59 39 be bd 12 83 bc cf 42 a3 3d
       0.0122668315 -0.18100575 -0.016000146 0.07971727
000310 2a 87 45 3e 15 2c 04 3d 79 38 f0 3c 64 d2 b9 bd
       0.19289842 0.032268602 0.029323803 -0.09073332
000320 7a 2a 09 3e 59 0a 27 3d c5 f2 1a bd b5 94 05 3d
       0.1339511 0.040781353 -0.03782918 0.03261252
000330 99 96 5d be 92 3c 9b 3e 98 67 e3 bb 61 94 e2 3c
       -0.2163948 0.3031965 -0.0069398396 0.027658643
000340 b3 78 19 be ef 16 61 bd 1c 2a 61 3e bd 3c 57 3e
       -0.1498745 -0.05495351 0.2198872 0.21019264
000350 c8 f1 07 bd 31 0d 89 3e 73 29 9d 3c 5f af 95 3d
       -0.033189565 0.26767877 0.019184804 0.0730884
000360 bc 96 dc ba 0d de 8c bd df ec 96 3d 75 95 f0 3d
       -0.001682959 -0.0687829 0.07369398 0.11747257
000370 0e 45 92 3c df a6 f8 bd 7b 50 36 be 88 7b bc bd
       0.017855193 -0.12141203 -0.17804138 -0.09203249
000380 96 b5 ff bd 4c c8 41 bd d9 8f f3 3d 59 36 ac 3d
       -0.12485807 -0.04731016 0.11892671 0.084088035
000390 3f 69 15 bd a5 9a 84 bc 1d 8c 07 be e1 32 34 be
       -0.036477324 -0.016187022 -0.13237043 -0.17597534
0003a0 a2 9b d8 bd d0 4f 7e bd 90 b1 16 3d c2 62 a0 3e
       -0.105765596 -0.062087834 0.03679043 0.31325346
0003b0 29 26 bd 3c 35 29 3f 3d 35 7c 47 3e 6a 7e 17 3e
       0.023089485 0.046670157 0.19480975 0.14794317
0003c0 d4 f2 7a 3e 49 b1 4e 3b e6 df 11 3e db e4 d3 3d
       0.24506694 0.0031538776 0.14245567 0.10346385
0003d0 32 c0 a7 3c 79 66 28 be c1 71 3b bd 34 64 8b bd
       0.020477388 -0.1644534 -0.04576278 -0.068062216
0003e0 4c ca 2d 3e bd f6 b3 bd 27 6e 8f be 6f d8 99 bd
       0.16971701 -0.08787296 -0.28013727 -0.075119846
0003f0 b3 8a 2a 3e 02 61 40 3c 38 f9 a2 bd a7 c5 d4 3a
       0.16654472 0.011741878 -0.07957691 0.0016233221

fc1.bias f4 [64]
000000 00 00 00 00 00 00 00 00 00 00 00 00 00 00 00 00
       0.0 0.0 0.0 0.0
000010 00 00 00 00 00 00 00 00 00 00 00 00 00 00 00 00
       0.0 0.0 0.0 0.0
000020 00 00 00 00 00 00 00 00 00 00 00 00 00 00 00 00
       0.0 0.0 0.0 0.0
000030 00 00 00 00 00 00 00 00 00 00 00 00 00 00 00 00
       0.0 0.0 0.0 0.0
000040 00 00 00 00 00 00 00 00 00 00 00 00 00 00 00 00
       0.0 0.0 0.0 0.0
000050 00 00 00 00 00 00 00 00 00 00 00 00 00 00 00 00
       0.0 0.0 0.0 0.0
000060 00 00 00 00 00 00 00 00 00 00 00 00 00 00 00 00
       0.0 0.0 0.0 0.0
000070 00 00 00 00 00 00 00 00 00 00 00 00 00 00 00 00
       0.0 0.0 0.0 0.0
000080 00 00 00 00 00 00 00 00 00 00 00 00 00 00 00 00
       0.0 0.0 0.0 0.0
000090 00 00 00 00 00 00 00 00 00 00 00 00 00 00 00 00
       0.0 0.0 0.0 0.0
0000a0 00 00 00 00 00 00 00 00 00 00 00 00 00 00 00 00
       0.0 0.0 0.0 0.0
0000b0 00 00 00 00 00 00 00 00 00 00 00 00 00 00 00 00
       0.0 0.0 0.0 0.0
0000c0 00 00 00 00 00 00 00 00 00 00 00 00 00 00 00 00
       0.0 0.0 0.0 0.0
0000d0 00 00 00 00 00 00 00 00 00 00 00 00 00 00 00 00
       0.0 0.0 0.0 0.0
0000e0 00 00 00 00 00 00 00 00 00 00 00 00 00 00 00 00
       0.0 0.0 0.0 0.0
0000f0 00 00 00 00 00 00 00 00 00 00 00 00 00 00 00 00
       0.0 0.0 0.0 0.0

fc2.weight f4 [4, 64]
000000 b0 2f 96 3d 59 7e 03 3e c2 8b de 3d 6d 28 1c 3c
       0.073333144 0.12841167 0.108665004 0.009531123
000010 5f a4 94 bd e6 47 82 be 93 04 9d 3d b6 59 45 bd
       -0.07257914 -0.2544548 0.07666888 -0.04818126
000020 98 14 51 3e 05 3e d5 bd f4 31 7c 3d 52 85 34 3e
       0.20418012 -0.1041222 0.061571077 0.17628983
000030 d4 93 64 3d 09 4d 02 be 00 6e 10 3d f8 d0 65 be
       0.055805042 -0.12724699 0.035261154 -0.22442997
000040 fa 2a 8b bc 73 52 65 be b1 cd 9f bd 61 55 23 3e
       -0.016988266 -0.22394733 -0.078029044 0.15950538
000050 0e d7 c8 bd 05 bc a6 bd fa 58 5c 3e 92 5f 36 3a
       -0.098066434 -0.08141331 0.21518317 0.000695699
000060 87 1e 05 be 5e 20 34 3d 7d 26 11 3e 77 fe f8 bd
       -0.12999927 0.04397618 0.14174838 -0.1215791
000070 6a 9e e5 3c 08 99 eb bd 2f 84 dc 3d 5f be cf bb
       0.02802964 -0.11503798 0.107673995 -0.0063398327
000080 c5 5b 35 3d 72 20 1d be b3 6f 89 3c 70 ff 48 3e
       0.04427697 -0.15344408 0.016776895 0.19628692
000090 be 5b b5 3c 65 ee ac bd 70 0e dc bd 7d 3a 83 3e
       0.022138473 -0.08443908 -0.10744941 0.2563056
0000a0 93 01 df 3d 1b ee 60 bd dd b7 e1 3d 70 f9 51 be
       0.10888972 -0.054914575 0.11021397 -0.20505309
0000b0 2b 98 80 3c f4 c9 4e 3d 3d ff 29 3d 8d cc 7c bd
       0.01569756 0.050485566 0.04150318 -0.061718512
0000c0 3a 00 80 be 39 1c 5b 3e 3d ce 07 3e a1 0a 1b 3d
       -0.25000173 0.21397485 0.13262267 0.037851933
0000d0 ea 9e b9 3c f1 af b1 3c ce 88 6a be 02 e4 33 be
       0.022658784 0.02169034 -0.2290375 -0.17567447
0000e0 e4 c3 c8 bd 11 3a 0b 3e d4 d9 c5 bd 88 91 01 3e
       -0.09802988 0.1359637 -0.09660688 0.12653172
0000f0 d2 c6 a9 bd af 3b 94 bc 5b 56 17 bd be c3 99 bd
       -0.08289875 -0.018094866 -0.03694759 -0.07508038
000100 58 4c e7 3d 1f 6e a7 3d d4 e6 80 bd d7 b1 4f be
       0.11293858 0.08175301 -0.06294027 -0.20282684
000110 08 7b e6 bd 43 e5 b5 bd ca b5 8d 3c ec 81 46 bd
       -0.11253935 -0.08881619 0.017298598 -0.048463747
000120 c7 2d 6c bd 7a b5 eb 3d f2 61 9e be 50 1b e4 bd
       -0.057660844 0.11509223 -0.309341 -0.11138022
000130 1d 7a 5b be ac 6f 00 be 79 93 21 be 6d bd e0 bd
       -0.21433301 -0.125426 -0.15778913 -0.1097363
000140 d2 f2 35 3e 0d ac 94 bd 51 b0 01 bd 53 7e 23 3e
       0.1776841 -0.072593786 -0.03166229 0.15966158
000150 2d 50 0e bd e3 d4 70 be 73 3d 4f be 6d 24 83 3e
       -0.03474443 -0.2351871 -0.20238285 0.25613728
000160 ca 58 4f bc 91 35 95 bd f9 70 17 be 86 83 bd 3c
       -0.012655446 -0.072856076 -0.1478919 0.023134004
000170 b6 a1 b5 bc e2 39 67 3e 8b 9a cf bd 3c c2 94 bd
       -0.022171836 0.22580674 -0.101368986 -0.0726361
000180 b6 01 09 be 1f 3b 3e be fd 6b 0e be 8d c9 23 be
       -0.13379559 -0.1857724 -0.13908382 -0.15994854
000190 08 83 aa 3b e0 9b 93 bd f9 69 8b 3d f5 10 a6 3b
       0.0052036084 -0.07207465 0.06807322 0.0050679394
0001a0 99 a7 d0 bd 0b b7 39 be 3d c4 01 bd 00 96 3a be
       -0.10188217 -0.18136232 -0.031681288 -0.18221283
0001b0 3e bc be bd c5 54 fa 3c 31 98 a4 3c 3d 95 5f bd
       -0.09313248 0.030558 0.020092102 -0.054585684
0001c0 c3 14 01 be df 5c ee 3c a2 05 ed bd 81 f1 47 3e
       -0.12605576 0.029097019 -0.1157334 0.1952572
0001d0 fe 38 11 bd 08 ef 0a be ab 82 73 3d ee 8c 13 3c
       -0.035454743 -0.13567746 0.059450787 0.009005768
0001e0 44 03 8f bd 2e 8c a7 3d 7c fa b3 3d db 31 69 3d
       -0.06983045 0.08181034 0.087880105 0.05693231
0001f0 4e b9 b9 3d 95 d8 27 be 1f 15 72 3d b7 b7 06 3e
       0.09068547 -0.16391213 0.059102174 0.13156019
000200 59 08 c2 3d fa d9 5a bd d4 ef 3f 3e cd 71 72 3e
       0.094742484 -0.053430535 0.18743831 0.23676224
000210 b7 58 88 3d 96 b9 fe bd b5 31 8d 3e 66 b4 e0 bd
       0.06657546 -0.124377415 0.27576986 -0.10971908
000220 db 94 47 bd 5a a8 38 bd 2b b7 78 3d 96 87 59 bd
       -0.048725944 -0.045082428 0.060721558 -0.05310782
000230 0d 72 30 3e f7 f4 c6 bd b8 51 d0 3d 51 f8 ae 3d
       0.17231007 -0.09714692 0.101718366 0.08543456
000240 4d c2 d4 bd 1f cd b0 bc 67 1f b7 3e 26 4d 68 3e
       -0.103886224 -0.021582184 0.35766146 0.2268568
000250 52 33 2b 3e 0e 1f 57 3c 55 bc 6b bc 49 57 5a bd
       0.16718796 0.013129963 -0.014388164 -0.053305898
000260 e3 16 78 bd 5e 90 76 bd 28 51 ea bd c8 c0 20 be
       -0.0605687 -0.060196273 -0.114412606 -0.1569854
000270 ee 39 b8 3c a1 16 4f 3e 79 c6 1e be f6 d4 33 bd
       0.02248856 0.20223476 -0.15505399 -0.043904267
000280 53 93 8e bc 91 a5 1c bd 23 3b 55 3e 65 0e 04 3e
       -0.017404234 -0.038243834 0.2082334 0.12896116
000290 fb bb 96 bd 9b 6c ff 3c fc 2e 66 bd 80 b4 35 3d
       -0.07360073 0.031179717 -0.05619715 0.04436159
0002a0 90 4d a6 bd af 5d 57 bc ca e9 7c 3d 7f ea c6 3b
       -0.081202626 -0.0131448945 0.061746396 0.0060704346
0002b0 92 c9 e5 bc ec 72 49 3d 82 f6 77 3b 71 51 64 3d
       -0.028050218 0.049181864 0.003783614 0.05574173
0002c0 22 43 ce 3d 67 0f 07 3e 69 86 2b 3b 50 82 5b 3c
       0.10071398 0.1318947 0.0026172644 0.013397768
0002d0 44 0c b1 3c 68 a1 75 be ee 68 c3 3d aa a3 3b 3e
       0.021612294 -0.23987353 0.09541498 0.18324152
0002e0 ae 35 e6 bd b3 4b 61 bd f6 7d 23 3e f6 1c e6 3d
       -0.11240707 -0.055003833 0.15966019 0.112359926
0002f0 1e ec e5 3d cf 25 f8 3d 2b 18 14 be 83 02 84 3e
       0.112266764 0.121165864 -0.14462344 0.25783166
000300 3e 66 cf bc c1 51 ae bd d7 70 1e 3e a8 c9 db bc
       -0.025317308 -0.08511687 0.15472732 -0.026829556
000310 e9 1e a3 bb 11 0a e1 3c 38 e4 07 be d9 4e f4 bd
       -0.00497805 0.02747062 -0.13270652 -0.119291015
000320 e5 75 37 3d d5 23 4b 3d b1 e9 3c 3e 7f 92 8b 3d
       0.044790167 0.04959472 0.18448521 0.06815051
000330 8a a2 32 be 2b 08 85 3e 85 3a c5 3b a1 6c ad bd
       -0.17444816 0.25982794 0.006018939 -0.08467985
000340 59 05 f1 bd 50 73 9c be e9 68 04 bd 07 0c 33 3b
       -0.11768598 -0.30556726 -0.032326613 0.0027320401
000350 2f f9 04 3e ee de 3c bb 92 ba d4 bd 54 8c 43 bc
       0.12985681 -0.00288194 -0.10387148 -0.011935312
000360 8d 0b 70 3d 4f 90 48 be 48 f1 62 be 44 f1 27 bc
       0.058604766 -0.195863 -0.22162354 -0.010250393
000370 01 d8 08 3e d4 c4 f2 bd d3 f9 7e bd 45 fc 24 be
       0.13363649 -0.11853948 -0.06224997 -0.16111858
000380 4b 6c e6 bd d2 61 1d bc 14 b3 7d 3d a9 3d 8b 3d
       -0.11251124 -0.009605842 0.06193836 0.0679887
000390 da cd 0c 3d b9 04 69 be cb 99 d0 3c d1 de ac 3c
       0.034376003 -0.22755708 0.02546396 0.02110234
0003a0 55 7e 95 bd 75 94 46 be 3b 9f 39 bd 86 70 de bc
       -0.072994865 -0.1939257 -0.04531787 -0.027153265
0003b0 08 51 09 3e 9d 89 05 bd 62 b9 0e be 9b 38 a0 bb
       0.13409817 -0.03260194 -0.13937905 -0.0048895604
0003c0 a0 69 8f 3d ad f6 9d bc fd 05 be 3d 2f 86 da bd
       0.07002568 -0.019282663 0.09278486 -0.10670125
0003d0 a4 4c 74 bd a6 45 d0 bd 7b 5a 25 3e c0 68 8f be
       -0.059643403 -0.101695344 0.16147797 -0.28009605
0003e0 d0 48 0b 3e c9 91 42 be 9e e1 86 3e ab be f6 3d
       0.13601995 -0.19000925 0.26344007 0.12048086
0003f0 4e b7 cc bc 59 6c 60 bd 2e 7c 8b bd ca b3 5f be
       -0.02498975 -0.05479083 -0.06810795 -0.21845928

fc2.bias f4 [4]
000000 00 00 00 00 00 00 00 00 00 00 00 00 00 00 00 00
       0.0 0.0 0.0 0.0
