models/v0/target_agent_net.pth (torch, 86680 bytes, 4 tensors)

fc1.weight f4 [64, 324]
00000000: 905e aebd 298f 42bc 23fc eebb 0243 383c
00000010: 9d16 793d 4e54 043e 829e 4f3d 269f c0bc
00000020: d7d2 bdbb 92d2 473d 85a7 98bd 9262 f0bd
00000030: 2538 89bd a8a0 413d 4433 3f3d 4bf9 a0bc
00000040: 6d79 9dbd 3a0f eabd 75f1 b8bc 09d5 e83d
00000050: 276a 8bba ef93 09bd 1180 a1bd a9a4 22bc
00000060: 9138 a8bc 78f1 dc3c 4b9a 71bc c5f3 173d
00000070: dc91 dfbd 81e7 73bd 3d36 83bd 1924 ae3c
00000080: cc85 97bb c317 d43d 5791 d93d f893 b8bd
00000090: 027e b33c 67e6 493d 9d9f df3d ce81 c53c
000000a0: 59bc 043d 16bb 683c 0730 d9bd c11a 15bd
000000b0: f7fd 50bd db22 8f3d 10f9 243c 346d 5bbe
000000c0: e8dd a83d 2622 483d c0c3 99bd bf91 cc3c
000000d0: e8ea cd3d c7d3 cfbb 3fe9 ec3c 1210 8f3c
000000e0: cf4d 93bd f800 083d ca0b 9c3c 2804 d0bb
000000f0: 76d6 ad3c 5def 8d3c e211 4b3d 44c6 b1bd
00000100: 2f9e a53c 21bf bfbc 0cff 22bd e026 19bc
00000110: 01b2 5e3d 71c1 2d3d b839 e4bc 802e 5cbb
00000120: ed75 47bc 5511 e93c 9243 233d 26fc a0bc
00000130: 4d85 43bc b330 ab3d 7244 00bc c53e 523c
00000140: 006e 51bc 03ce 9d3d 82d2 743a 3965 543d
00000150: 887c f0bc 5756 80bd eac4 e4bc e3d6 393a
00000160: a32e a83c d995 8cbd 4812 0bbe 3398 573b
00000170: 1d0e 3bbd bc88 5fbc 7cbf bcbc 0e90 053c
00000180: 8fc6 b53a e4b4 33bd 5a29 8b3d f217 c9bd
00000190: 83c4 c4bc 4007 a7bd 8993 1c3d d9b0 c43c
000001a0: 871d 2ebd 1da6 493c 192e 283b 673b 29bb
000001b0: d0c2 9dbc de38 973d 5cf3 cbbd 53ce f5bc
000001c0: 42e4 68bc cf32 f23d c734 5c3b 4cb9 8c3c
000001d0: 80a9 7b3d 7507 243d dcfb 70bd b5e3 583d
000001e0: 1f7d 693c d14c 633d 98c8 b8bd 8431 eb3c
000001f0: 5c69 9abb 3698 c53b cfb0 59bb 6a58 883c
00000200: bdab b2bd 8bea 8a3d 38eb 3bbd 4a75 63bd
00000210: 73cb 1cbd edb6 65bb ecf7 b0bd 003c 8c3c
00000220: 6aaa 46bd 14ae a1bd ae9f 623d f14f 073d
00000230: afac b0bd 15d7 af3d 9cd8 87bd c74e a9bd
00000240: d098 9abd c8f9 b63c 797c 6e3d 4146 40bd
00000250: 96aa acbd 31b5 7e3c 3822 a8bd 24d7 303d
00000260: d938 9bbb efd3 443d 4049 16bd fab8 c83d
00000270: 39a2 30bd 4ea6 a23c 23e8 b4bd 8409 ab3d
00000280: f381 71bb eefa 223d 7028 1ebd 8949 b83d
00000290: 1742 92bc 9f98 e43d ecf9 56bd 2855 f33c
000002a0: 52e7 a83c 5b68 01be e8ae 6abd 2bf5 c1bd
000002b0: 8dcb bdbd e864 35bc 60af 3ebd 20b7 51bc
000002c0: ddda c2bd ee0e 87bd e6b8 73bc 11ce b93d
000002d0: b5b2 a8bd f37d 813b b654 163c 2de9 713c
000002e0: 19ce 8ebd 581c a8bd a3e8 b8bc 556d 69bd
000002f0: 07d4 7b3c d5c4 d03d 4692 6c3c 88f9 3c3d
00000300: 7fc7 0a3d f2ab 313c bda9 bb3d 0f0d dc3c
00000310: 9f4e 10bd 4b20 17bb dd7a 2ebd 2c48 babb
00000320: 53b3 19be a294 4fbd 7b75 1a3c 3cc0 a3bd
00000330: 1787 873d 8e39 193d a6fb cebd 12ca d43c
00000340: ade5 0fba ef54 2e3d c97d 233d deda 1e3d
00000350: d761 313d 5904 22bd 2de7 70bd 4269 30be
00000360: 5bc3 95bd 3af5 06bd 6fcc 4c3d e2cb 33bc
00000370: 10ba 7abd 0e6a 8f3d 9488 093c 78ee 323d
00000380: 43fe 42bc 8239 383d 2aa6 1abd 9732 dc3d
00000390: 35c2 65bc 5312 4e3d bf69 08bd 69c3 89bd
000003a0: 8194 58bd dd60 2ebd c783 97bc 9cb4 9e3d
000003b0: e2c6 21bd a2ad 10bd 1e02 bd3c 2974 62bc
000003c0: e0db 15bc b4ed 803c 5659 023e 3b3b 613c
000003d0: 3033 e93c e416 423d 7730 5a3d 12a1 383d
000003e0: b6cf 8dbc 2639 483c cc38 fd3c 7d07 9b3d
000003f0: 3961 e3bd 4569 29bc d033 e33c b65e 0a3d
-0.0851413 -0.011874952 -0.0072932406 0.011246445 0.06081258 0.12922785 0.050688274 -0.023513388
-0.0057929563 0.0487848 -0.07453827 -0.11737551 -0.06700162 0.047272354 0.04667975 -0.019650122
-0.07689176 -0.114286855 -0.022576073 0.11368758 -0.0010636494 -0.033588346 -0.07885755 -0.009926953
-0.020534785 0.02697061 -0.014746259 0.03709771 -0.10916492 -0.05954695 -0.064068295 0.021257447
-0.004624104 0.10356095 0.106234245 -0.09012598 0.021910671 0.049291994 0.10919116 0.024109747
0.032406185 0.014204761 -0.106048636 -0.036402468 -0.05102345 0.0698907 0.010069147 -0.21428376
0.0824545 0.04886069 -0.075080395 0.02497184 0.100545704 -0.0063423845 0.028919814 0.017463718
-0.07192575 0.03320405 0.01904859 -0.0063481517 0.021220427 0.017326051 0.0495776 -0.08680394
0.02021703 -0.023406567 -0.039794013 -0.009347647 0.054368977 0.04242081 -0.027859554 -0.0033597052
-0.012174112 0.028450647 0.039859362 -0.019651484 -0.011933637 0.08358898 -0.007828819 0.012832348
-0.012782574 0.07705309 0.00093392294 0.051854346 -0.029356256 -0.06266468 -0.027925927 0.00070892106
0.02053005 -0.06864519 -0.13581192 0.0032897114 -0.045667756 -0.01364344 -0.023040526 0.008152021
0.0013868379 -0.043873683 0.067949966 -0.0981902 -0.024019485 -0.0815568 0.038226638 0.024010109
-0.04250863 0.012307671 0.0025662242 -0.002582276 -0.019257933 0.073838934 -0.099585265 -0.03000561
-0.014214577 0.11826097 0.0033600794 0.0171782 0.061440945 0.040046174 -0.05883394 0.052951533
0.014251023 0.05549318 -0.09022635 0.028710134 -0.004712267 0.006030108 -0.0033216958 0.016643722
-0.08724163 0.06783017 -0.04587862 -0.055531777 -0.03827996 -0.003505166 -0.08641037 0.017118454
-0.048502363 -0.07894531 0.055328064 0.033035222 -0.08626687 0.085859455 -0.06633112 -0.08266979
-0.07548678 0.022335902 0.058224175 -0.046942 -0.08430974 0.015546129 -0.08209652 0.043173924
-0.0047370014 0.048053678 -0.03669095 0.098009065 -0.043123458 0.01985469 -0.08833339 0.08351424
-0.0036851137 0.039790086 -0.038612783 0.08998401 -0.01785378 0.11161923 -0.052484438 0.029703692
0.020618115 -0.12637465 -0.05729571 -0.0947059 -0.0926734 -0.011071421 -0.04655397 -0.012800008
-0.09514401 -0.065946445 -0.014875626 0.09072507 -0.08237211 0.003951782 0.00917547 0.014765066
-0.06972904 -0.08208531 -0.022571867 -0.056989033 0.0153703755 0.10193793 0.014439171 0.04613641
0.03388166 0.010844218 0.091632344 0.026861696 -0.03523123 -0.002306002 -0.04259764 -0.005684873
-0.15009813 -0.050678857 0.009427424 -0.0799565 0.06617563 0.037408404 -0.10106592 0.02597526
-0.00054892414 0.042561468 0.03991488 0.038782947 0.043306198 -0.039554927 -0.058814216 -0.17227653
-0.07312652 -0.03294871 0.04999965 -0.010973902 -0.0612126 0.0700265 0.008394379 0.043684453
-0.011901441 0.04497672 -0.037756123 0.10751837 -0.014023353 0.050310444 -0.033303972 -0.06726725
-0.052876 -0.042572845 -0.018495454 0.07749292 -0.03949631 -0.03532184 0.023072299 -0.01382164
-0.009146661 0.015738346 0.12729391 0.013747032 0.02846679 0.04738511 0.053268876 0.045075484
-0.017310958 0.0122206565 0.030910872 0.07569788 -0.11102528 -0.01034004 0.027734667 0.03378173

fc1.bias f4 [64]
00000000: 0000 0000 0000 0000 0000 0000 0000 0000
00000010: 0000 0000 0000 0000 0000 0000 0000 0000
00000020: 0000 0000 0000 0000 0000 0000 0000 0000
00000030: 0000 0000 0000 0000 0000 0000 0000 0000
00000040: 0000 0000 0000 0000 0000 0000 0000 0000
00000050: 0000 0000 0000 0000 0000 0000 0000 0000
00000060: 0000 0000 0000 0000 0000 0000 0000 0000
00000070: 0000 0000 0000 0000 0000 0000 0000 0000
00000080: 0000 0000 0000 0000 0000 0000 0000 0000
00000090: 0000 0000 0000 0000 0000 0000 0000 0000
000000a0: 0000 0000 0000 0000 0000 0000 0000 0000
000000b0: 0000 0000 0000 0000 0000 0000 0000 0000
000000c0: 0000 0000 0000 0000 0000 0000 0000 0000
000000d0: 0000 0000 0000 0000 0000 0000 0000 0000
000000e0: 0000 0000 0000 0000 0000 0000 0000 0000
000000f0: 0000 0000 0000 0000 0000 0000 0000 0000
0.0 0.0 0.0 0.0 0.0 0.0 0.0 0.0
0.0 0.0 0.0 0.0 0.0 0.0 0.0 0.0
0.0 0.0 0.0 0.0 0.0 0.0 0.0 0.0
0.0 0.0 0.0 0.0 0.0 0.0 0.0 0.0
0.0 0.0 0.0 0.0 0.0 0.0 0.0 0.0
0.0 0.0 0.0 0.0 0.0 0.0 0.0 0.0
0.0 0.0 0.0 0.0 0.0 0.0 0.0 0.0
0.0 0.0 0.0 0.0 0.0 0.0 0.0 0.0

fc2.weight f4 [5, 64]
00000000: 68d6 7bbe 919a 92bd bf9c 173e e4bb 113e
00000010: eb16 113d eca1 943d 54bf b2bd db3d 55bd
00000020: 1a6a 1abe c8e2 d93c 9ab7 143e e9fd a6bd
00000030: ca32 be3d 7cc9 1bbe 003a b73d 1cb8 0f3e
00000040: 32d5 8a3d 2d96 a43d 3ffd a93c 4400 edbd
00000050: a197 443e 6f02 553e c112 66bc 1738 053b
00000060: 26d4 ddbc 7e77 123e 71e0 aebd 9404 6abd
00000070: 44ab 093e 5f74 d6bd fb61 e93c d1eb 9e3d
00000080: b700 0e3d 5159 023e 418d 5b3e 91ae 633c
00000090: a1ab 513d 1aaf cd3c 554e 043e c5f7 fe3d
000000a0: 90ff a3bd 72a1 51bd f7b2 b7bd a62a c0bc
000000b0: 1157 5f3e dce5 bb3d 2bd8 e7bd 35b1 76be
000000c0: 85fa 273d 2c64 103e b373 6c3e 9551 2cbe
000000d0: 8a36 aabd 5a8d 36be 37f8 9bbd f067 843e
000000e0: 58ad e73d 5058 3ebe 914d 8b3d adfb 433e
000000f0: 4c34 82bd bdef 023e ed9b 0abe 8539 a53d
00000100: a3d8 87be 7e63 ebbb c21b e8bd 2f90 9cbc
00000110: 3a7e dd3d b2c4 c8bc cb05 30be 351b 18bd
00000120: 24a2 f93d 8291 04be ba36 8dbd 27e7 223e
00000130: 0948 113e 9f63 8bbd e4d3 593e 9888 58bd
00000140: 5060 323c 842b 29be a25c 543e dcdb c53c
00000150: 860f 573e 3878 adbd 5bb1 38bd 947f 30bd
00000160: 2a3c b3bd bc86 d2bd 08c7 583e 1ce4 0abd
00000170: 5449 973e 5edb a3bc 5857 acbd c447 0dbe
00000180: b448 2cbe 34e1 0bbd 2227 e03c e931 ebbd
00000190: ecf2 213d 3e38 d13c 630b 96bd a341 71be
000001a0: 9675 093d 9b7f 65bc a1fe 36bd 4a3b 52bc
000001b0: 1eb6 ecbd 7415 34be 5d4b a63d f2e0 ccbd
000001c0: 4e15 633d 95de 41be 9db4 f53c 348e 773e
000001d0: 3588 85bd b3da b7bd 017b b1bd 71db 8f3e
000001e0: 6a2b a13d aa1f 45bc bb2e 27bd f50e 27be
000001f0: b648 f03d 9103 f3bd d826 1dbd 1cd7 50bd
00000200: 4ad0 24be 7ac2 293e a4f7 7b3d 1c04 50be
00000210: c72f 16be 23fc 34bd 8838 783d 31c9 17bd
00000220: 0c34 f63d c474 363c 8b76 9d3d b12c a9bc
00000230: 9472 38be 4fea 89bd 934f c53d 72d4 4cbd
00000240: 93a9 f1bd 4e5e 913d d5fa 4e3d dd58 bcbd
00000250: 9525 28be 52bc 7e3d b18d abbe 57e1 dcbd
00000260: df36 0d3e 2d47 703e 9c51 2e3e 75c9 eb3d
00000270: 817a 653d 0c6b 7a3d aead 243e 6e1c 97bc
00000280: 65f9 8dbd a039 b1bd 95a3 243d 4746 d33d
00000290: 8002 14be dfc8 2fbe 1aec 31bd d5aa c0bd
000002a0: 0ddd 5b3e 01ae 8b3d 8378 e0bd 972d 963d
000002b0: 82be c0bd bbad 64be dd10 99bc b1d3 c83d
000002c0: d7bb 52be 6661 3e3e 1811 123e 5422 17be
000002d0: 38c4 0cbc d7e7 0b3d 5a18 753c 76b5 3d3e
000002e0: 45c8 11be e6fd 96bd 1e7c 923d cbbc 173e
000002f0: 84ec e73c 1e39 edbc 40d7 3f3e 717e 4abd
00000300: bb88 10bd 26bc e2bb b525 cfb9 0b42 333e
00000310: af53 1f3e fd9f 1dbe 1eb8 6c3e ea79 e3bc
00000320: 1d58 f43d 67d6 5bbd d693 563e 5776 3ebd
00000330: 9938 96bc a729 31bc 65cc 88bc 3fda a9bd
00000340: 22f2 3c3d 2af3 02bd 6e8d 853e fc68 a33c
00000350: 2423 933d 2aba d6bc 20b2 27bd a796 043e
00000360: 2608 5abd e1e8 133e 5296 c83d 96d8 c93d
00000370: b71e 96be 265d 873d 1f40 293e c6c7 ca3d
00000380: 92d4 0f3e 4cea 0d3e 05e5 80be 511e 22be
00000390: c363 dd3d 6466 123d 38ea 933d e846 10be
000003a0: 3fa7 c33d 90c3 dcbd baee 373d 6734 833e
000003b0: aa10 183d b5f7 dd3c eb01 80b9 c6d0 f4bd
000003c0: a846 4a3e b8ce c03c cd0a 9fbe d555 b3bd
000003d0: c37d 2dbe 1b88 a93d 969b fbbc 4425 2f3e
000003e0: 51bd c53c 587a 81bc c908 7bbd 297e 213e
000003f0: 8053 aa3c d189 f4bd 0ef6 c1ba acbd 8fbd
-0.24593508 -0.071583875 0.14805888 0.14231831 0.035422247 0.07257447 -0.08727899 -0.052060943
-0.15079537 0.026597396 0.14523163 -0.08153898 0.09287031 -0.15213579 0.089466095 0.14035076
0.06778945 0.08036456 0.02075064 -0.11572316 0.19198467 0.2080171 -0.014042557 0.0020327622
-0.0270787 0.14303395 -0.085389026 -0.057133272 0.13444239 -0.10471415 0.028489104 0.07759822
0.03466865 0.12729384 0.21440603 0.0138966 0.05118907 0.025107909 0.12920506 0.12449602
-0.08007729 -0.051179357 -0.08969682 -0.023457836 0.21810557 0.091747016 -0.11320528 -0.24091037
0.0410104 0.14100713 0.23091011 -0.16827996 -0.08311184 -0.17827359 -0.076157026 0.25860548
0.113123596 -0.18588376 0.06801904 0.19138975 -0.06357631 0.12786765 -0.13536043 0.080676116
-0.26532468 -0.0071834913 -0.113334194 -0.01911172 0.108150914 -0.024507854 -0.1718971 -0.03713532
0.12189129 -0.12946132 -0.06895204 0.1590849 0.14187635 -0.068061106 0.21272236 -0.05286464
0.0108872205 -0.16520506 0.20738462 0.024152689 0.21002015 -0.084701955 -0.045091014 -0.043090418
-0.0875171 -0.10279605 0.21169674 -0.03390895 0.29548132 -0.020002063 -0.08415097 -0.13796908
-0.16824609 -0.034150317 0.02736241 -0.11484129 0.03953831 0.025539514 -0.073263906 -0.23560195
0.033559404 -0.014007474 -0.044676427 -0.012831518 -0.115581736 -0.17586309 0.08119843 -0.100038424
0.05544024 -0.18932565 0.02999335 0.2417534 -0.0652012 -0.089772604 -0.08666039 0.28097108
0.07869609 -0.012031475 -0.04081605 -0.163143 0.117326185 -0.118659146 -0.038367122 -0.050986394
-0.16095081 0.16578093 0.061515465 -0.20314068 -0.14666663 -0.04418577 0.060600787 -0.037057105
0.12021646 0.0111362375 0.07688626 -0.020651193 -0.18012458 -0.06734144 0.09634318 -0.05000729
-0.11799922 0.07098065 0.05053218 -0.09196637 -0.16420586 0.062191315 -0.3350654 -0.10785168
0.13790463 0.23464651 0.17023319 0.11513034 0.056025032 0.061137244 0.16081879 -0.018446174
-0.06932334 -0.08653569 0.040195066 0.10316139 -0.14454079 -0.1716647 -0.043438055 -0.094075836
0.21471043 0.06820298 -0.10960486 0.07332914 -0.094113365 -0.22331898 -0.018684799 0.09806002
-0.20579468 0.18591842 0.14264333 -0.14759189 -0.008591704 0.034156647 0.014959419 0.18526253
-0.14236553 -0.07372646 0.0715258 0.14818113 0.028311022 -0.0289579 0.18734455 -0.04943699
-0.035286646 -0.0069194017 -0.0003951021 0.17505662 0.15559267 -0.15393062 0.2311711 -0.027768094
0.11930869 -0.053671267 0.20954832 -0.046499576 -0.018337535 -0.010813153 -0.016699025 -0.0829358
0.046129353 -0.03197018 0.26084465 0.019947521 0.07184437 -0.026211817 -0.040941358 0.12948094
-0.053230427 0.14444305 0.09794296 0.098557636 -0.2932031 0.066095635 0.16528367 0.09901385
0.14045933 0.13858908 -0.25174728 -0.15831877 0.10810044 0.03574218 0.07222408 -0.14089549
0.09553384 -0.10779488 0.0449054 0.25625917 0.037125267 0.027095655 -0.00024415491 -0.11953883
0.19753516 0.023536071 -0.31062928 -0.087566055 -0.16942506 0.08277913 -0.030713838 0.1710406
0.024138125 -0.015805408 -0.061287675 0.15770783 0.020791769 -0.11940349 -0.0014798061 -0.07018599

fc2.bias f4 [5]
00000000: 0000 0000 0000 0000 0000 0000 0000 0000
00000010: 0000 0000
0.0 0.0 0.0 0.0 0.0
