models/v4/target_qmix_net.pth (torch, 832955 bytes, 13 tensors)

hyper_w1.0.weight f4 [64, 1024]
0	0x3c5103a8	0.012757219
1	0x38fce400	0.00012058765
2	0x3c112df4	0.008861054
3	0xbce1f72c	-0.027583681
4	0xbcce08f2	-0.02515075
5	0xbc9f85e0	-0.019473016
6	0x3cb75848	0.022380963
7	0x3c11eea4	0.008906994
8	0xbc9d8db6	-0.019232612
9	0x3c2b9644	0.010472838
10	0x3c8d1f1e	0.017226752
11	0x3ce91c5c	0.028455906
12	0x3c493760	0.012281269
13	0xba45bb40	-0.0007542856
14	0xbbe16a80	-0.006879151
15	0x3ceb4b3a	0.028722394
16	0x3ccc0bbc	0.02490794
17	0x3cde2e32	0.027121637
18	0xbca031cc	-0.019554995
19	0xbc164a3c	-0.009172972
20	0x3c8538f4	0.016262509
21	0xbcaa53ea	-0.020791966
22	0x3caa4aca	0.020787615
23	0xbc926ade	-0.017873224
24	0xbc4c5068	-0.012470342
25	0x3cead616	0.028666537
26	0xbbf89480	-0.007586062
27	0x3c287044	0.010280672
28	0xbc8dd29e	-0.017312344
29	0x3ce76eba	0.02825104
30	0x3c9be604	0.019030578
31	0xbcdf9764	-0.027293868
32	0x3c72d2b0	0.01482074
33	0x3ccc0824	0.024906226
34	0xbb91f358	-0.0044540577
35	0x3ba8fa50	0.0051567927
36	0xbc464d78	-0.012103431
37	0xbca89b2e	-0.020581808
38	0x3c29211c	0.010322835
39	0xbb657250	-0.0035010763
40	0x3cea6b24	0.028615542
41	0x3cdacf94	0.02671031
42	0xbcd7021a	-0.02624612
43	0x3aad49c0	0.0013220832
44	0xbbed14a0	-0.0072351247
45	0x3be67750	0.007033266
46	0xbb8ddc98	-0.0043292753
47	0x3ba71998	0.0050994866
48	0xbc0cd654	-0.008596022
49	0xbcbc2fbc	-0.02297198
50	0xbca029ca	-0.019551177
51	0xbc8fef72	-0.017570231
52	0xbc3d6d70	-0.011561736
53	0x3cb24152	0.021759663
54	0x3c8398c0	0.016064048
55	0xbca24706	-0.019809257
56	0x3cdf6afa	0.02727269
57	0x3c36fc94	0.011168618
58	0x3c5730f8	0.013134234
59	0x3cb61938	0.022228822
60	0xbbabe360	-0.005245611
61	0xbc3c0b38	-0.011477284
62	0xbba58c90	-0.0050521567
63	0x3ca037ec	0.019557916
64	0x3cb4b97a	0.022061098
65	0xbb33ae00	-0.0027416945
66	0x3b800d40	0.0039078295
67	0x3ab51680	0.001381591
68	0x3cb895c0	0.022532344
69	0xbcd07c92	-0.025450025
70	0x3cc14fde	0.023597654
71	0x3ca0d402	0.019632343
72	0x3c3eb680	0.011640191
73	0x3c8f10b8	0.017464027
74	0xbca9223e	-0.02064621
75	0x3c04f4f8	0.008115046
76	0xbc010260	-0.007874101
77	0xbbeaff28	-0.0071715303
78	0xbcea660e	-0.028613117
79	0xbc10cb14	-0.00883748
80	0x3c8d71cc	0.017266177
81	0xbb9da138	-0.0048104785
82	0xbb9ea368	-0.004841257
83	0xbcdd486a	-0.027012069
84	0x3c9f0274	0.01941035
85	0x3c072e28	0.008250751
86	0xbcc2b5da	-0.023768354
87	0xbcbc818c	-0.023010992
88	0x3c452664	0.012033079
89	0x3ce4993a	0.027905095
90	0x3aea9760	0.0017897896
91	0x3c4e65d8	0.012597524
92	0xbca32740	-0.019916177
93	0xbcf4acf0	-0.02986762
94	0x3b8817e8	0.0041532405
95	0x3c1d32cc	0.00959463
96	0xbc84f7a8	-0.016231373
97	0x3c7a7008	0.015285499
98	0x3c86e016	0.016464274
99	0xbccec184	-0.02523876
100	0xbb69d4d0	-0.0035679825
101	0xbcb37bca	-0.021909613
102	0xbcdcf9a0	-0.0269745
103	0xbcdf6aea	-0.02727266
104	0x3bba2bc8	0.0056814887
105	0x3ac213c0	0.0014806911
106	0x3cb0dc9e	0.021589573
107	0x3c41bed0	0.011825278
108	0x3c643434	0.013928462
109	0xbc85bf1e	-0.016326483
110	0xbce999e6	-0.028515767
111	0x3bde5f78	0.006786283
112	0xbcb75ca8	-0.02238305
113	0xbbb265a0	-0.0054442436
114	0xbc4dadb4	-0.012553621
115	0xbbb46890	-0.005505629
116	0xbc62c0d8	-0.013839923
117	0x3c8717ca	0.016490836
118	0x3c686eec	0.014186602
119	0xbc950c1a	-0.018194247
120	0xbc5a9a0c	-0.013342392
121	0x3bf6fce0	0.0075374693
122	0xbc36f120	-0.011165887
123	0xbcf5c8e0	-0.030003011
124	0x3cd44e3a	0.025916208
125	0x3cfa6c80	0.030569315
126	0xbc4ce148	-0.012504883
127	0x3c2f5544	0.010701481
128	0xbc0f9d7c	-0.008765575
129	0x3c0dad48	0.0086472705
130	0x3c93fbb8	0.018064365
131	0x3cfe492e	0.031040754
132	0x3c5872f0	0.013210997
133	0xbcd04eac	-0.025428139
134	0xbb6639d0	-0.0035129674
135	0xbcd42948	-0.02589859
136	0xbc604b00	-0.013689756
137	0xbb72afe0	-0.00370311
138	0xbc6a4600	-0.014298916
139	0x3ce26062	0.02763385
140	0xbc3b15f8	-0.011418812
141	0x3ce614be	0.028086063
142	0x3a29de80	0.00064799935
143	0x3ca3e5c6	0.020007025
144	0x3cbaba86	0.02279402
145	0x3c6cf3f8	0.014462464
146	0xbc827d8e	-0.01592901
147	0x3c599448	0.013279982
148	0xbc86f076	-0.016472083
149	0x3c5bf73c	0.0134256445
150	0x3b84c7f0	0.0040521547
151	0x3c68a178	0.014198653
152	0x3c81f262	0.015862647
153	0x3c843dda	0.016142774
154	0xbc4e7794	-0.012601752
155	0x3bebb6c0	0.0071934164
156	0xbc98c3a6	-0.01864798
157	0xbcb86e96	-0.022513669
158	0xbcc6ac10	-0.024251968
159	0xbc48e83c	-0.0122624
160	0xbb07d6f0	-0.0020727478
161	0x3b7b9740	0.0038389713
162	0x3cc4cb44	0.024022706
163	0xbc29e1fc	-0.01036882
164	0xbcfcef88	-0.030875936
165	0xbc90c17c	-0.017670386
166	0xbc37fee8	-0.011230208
167	0xbb33d740	-0.0027441531
168	0x3c930bf8	0.017950043
169	0xbc5284f0	-0.012849078
170	0xbcf8ca86	-0.030370008
171	0x3cdcacca	0.026937861
172	0xbcba7a28	-0.022763327
173	0x3b16f510	0.0023034252
174	0xbbd05f20	-0.006358996
175	0x3ce189e0	0.027531564
176	0xbc5843e0	-0.013199776
177	0x3805b000	3.1873584e-05
178	0x3c60f708	0.013730772
179	0xbc14a480	-0.009072423
180	0xbcd6cdda	-0.026221205
181	0x3b7a00c0	0.003814742
182	0x3c91bcd6	0.01779024
183	0x3bab5498	0.00522859
184	0xbcabf58a	-0.020991106
185	0x3c111dd4	0.008857209
186	0x3b26fb80	0.0025479496
187	0xbcb014c8	-0.021494284
188	0xbcb9d194	-0.022682942
189	0xbc9a9c48	-0.018873349
190	0x3c644304	0.013931993
191	0x3cd2e23e	0.025742646
192	0x3cc740aa	0.024322826
193	0xbcc4e618	-0.024035498
194	0x3cec338e	0.028833177
195	0xbbbfb9d8	-0.0058510117
196	0x3cd4e1e2	0.025986616
197	0xbcdcc596	-0.026949685
198	0xbc4c6e6c	-0.0124774985
199	0x3c8cb7fa	0.01717757
200	0x3c1a7cac	0.009429138
201	0x3cf71402	0.030160908
202	0xbcb1d1e8	-0.021706536
203	0x3cc061de	0.023484167
204	0x3c1e92cc	0.009678554
205	0xbc3a50f4	-0.01137184
206	0xbca35bc0	-0.01994121
207	0xbcabe430	-0.020982832
208	0xbb9990a8	-0.004686434
209	0xbcba9c18	-0.02277951
210	0x3c9c00ea	0.019043405
211	0xbc317700	-0.0108315945
212	0xbc145814	-0.009054203
213	0x3ccaa3b6	0.024736267
214	0xbcad1f02	-0.02113295
215	0xbcde6678	-0.02714847
216	0xbbe7e590	-0.0070769265
217	0xbcbd3844	-0.023098119
218	0xbbc7bff0	-0.006095879
219	0x3bb9fdb0	0.005675994
220	0xbcd4071e	-0.0258823
221	0x3bd13120	0.00638403
222	0x3bf670e0	0.00752078
223	0x3c1520e8	0.009102084
224	0x3c1f8558	0.0097363815
225	0x3cd185b0	0.025576442
226	0xbb6a14b0	-0.0035717897
227	0xbcc1e702	-0.023669723
228	0xbc9f1770	-0.019420356
229	0xbce35968	-0.027752593
230	0xbcd71598	-0.026255414
231	0x3cacbf16	0.02108721
232	0xbc5947e8	-0.013261773
233	0x3cd60e00	0.026129723
234	0x3c5f4c0c	0.013628971
235	0x3c9f15d6	0.019419592
236	0x3cefea12	0.029286418
237	0xbb89d860	-0.004206702
238	0xbc21281c	-0.009836223
239	0xbc5fa4e8	-0.013650157
240	0xbbcd5ce0	-0.006267175
241	0x3b7484f0	0.0037310682
242	0x3c976836	0.018482309
243	0x3b936250	0.0044978037
244	0x3cbe3ad0	0.023221403
245	0xbce960f4	-0.028488614
246	0x3ceb9c4c	0.028761052
247	0x3ce30ec4	0.027717002
248	0x3bd6b968	0.006552864
249	0xba9217c0	-0.0011145994
250	0xbbcab240	-0.0061858
251	0x39c12400	0.0003683865
252	0xbc915e28	-0.017745093
253	0xbc8d5c70	-0.017255992
254	0x3cc3284a	0.023822922
255	0xbbef8180	-0.007309139

hyper_w1.0.bias f4 [64]
0	0xbcb56228	-0.022141531
1	0xbb2fdd30	-0.002683472
2	0xbc6c7124	-0.014431272
3	0xbcd2003a	-0.025634874
4	0x3cfefa7a	0.031125296
5	0xbce87dcc	-0.028380297
6	0xbc905a98	-0.017621323
7	0xbc1ba110	-0.0094988495
8	0x3cc3fa68	0.023923114
9	0x3c8475ac	0.016169392
10	0xbcb31690	-0.021861345
11	0x3ca971a4	0.02068407
12	0x3cf87802	0.030330662
13	0xbbf9ad10	-0.0076195076
14	0xbcf0bf44	-0.029388078
15	0xbb092ae0	-0.0020930097
16	0x3c4aec1c	0.012385394
17	0x3ce50aa6	0.02795918
18	0x3c61903c	0.013767298
19	0xbbfb2d20	-0.0076652914
20	0x3cbe5a66	0.023236465
21	0xbc5aaa34	-0.013346244
22	0xbc780e60	-0.015140146
23	0xbcdb8e5c	-0.02680128
24	0x3ca7dde6	0.020491552
25	0xbce61662	-0.028086845
26	0xbc939a96	-0.018018048
27	0xbc899c98	-0.016798303
28	0xbccf8fa8	-0.025337055
29	0x3cbeb4ba	0.023279537
30	0x3b96c678	0.004601296
31	0x3c298b2c	0.010348123
32	0xbc28ae30	-0.010295436
33	0xbc408f2c	-0.011752885
34	0xbccb709c	-0.02483397
35	0xbcfff63c	-0.031245343
36	0xbcf02a52	-0.029317055
37	0xbc558ca4	-0.01303402
38	0x3cc1343c	0.023584478
39	0xbcd4197c	-0.025891058
40	0x3caf5f32	0.021407697
41	0x3c6038d0	0.01368542
42	0x3cc661e8	0.024216607
43	0x3c0a88c0	0.008455455
44	0xbbaeb870	-0.0053320453
45	0xbc8235da	-0.015894819
46	0xbca1b6c0	-0.019740462
47	0x3c0d7a98	0.008635186
48	0x3a829e40	0.0009965375
49	0x3aa65160	0.0012689047
50	0xbc8b9a20	-0.017041266
51	0xbc3a56c0	-0.011373222
52	0xbb430720	-0.0029758886
53	0x3c1329b0	0.008982107
54	0x3cbd02e4	0.023072667
55	0x3c5b81e4	0.013397668
56	0xbcaecf5c	-0.021339111
57	0x3cbee0ce	0.023300555
58	0xbbae7e30	-0.0053251013
59	0x3cd40e8e	0.025885846
60	0x3b8d1410	0.00430537
61	0xbc75cd34	-0.0150025375
62	0x3bca4250	0.006172456
63	0x3cb58054	0.022155918

hyper_w1.2.weight f4 [128, 64]
0	0xbcff3920	-0.031155169
1	0x3df04892	0.11732592
2	0xbd95bcac	-0.07311377
3	0x3dd7092a	0.10499795
4	0xbde10ab0	-0.109883666
5	0x3dc64a0c	0.09682092
6	0xbdeb022a	-0.11475022
7	0x3c4a1190	0.012333289
8	0x3d5846a4	0.052801743
9	0x3d4a6fe4	0.049423113
10	0xbdc34438	-0.09534496
11	0xbd8ca6de	-0.06867765
12	0xbd32b764	-0.043631926
13	0x3da4b2f0	0.08041942
14	0xbdde6726	-0.10859518
15	0x3cb23eb0	0.021758407
16	0xbdc2b820	-0.09507775
17	0xbb882820	-0.004155174
18	0x3d3362e0	0.043795466
19	0xbc978510	-0.018496066
20	0xbd87c6b4	-0.066296965
21	0xbcf7b908	-0.030239597
22	0x3d853336	0.06503908
23	0xbcdaa0e8	-0.026688054
24	0x3d905ebc	0.07049319
25	0x3de22e82	0.11044027
26	0xbdc2f740	-0.095198154
27	0xbd99e75e	-0.07514833
28	0xbda1f10a	-0.07907303
29	0x3d3682cc	0.04455833
30	0x3dcadd7e	0.099055275
31	0xbd0f8624	-0.035040036
32	0x3d25e120	0.0404979
33	0xbd869002	-0.06570436
34	0xbcef1280	-0.029183626
35	0x3d18096c	0.03711836
36	0xbdf01ef2	-0.11724652
37	0x3c7de100	0.015495539
38	0x3dff92b0	0.1247915
39	0x3ded8d6c	0.1159924
40	0x3c6e0970	0.014528617
41	0xbd57a3b0	-0.05264634
42	0x3d517f28	0.051146656
43	0x3dc8b488	0.098000586
44	0x3d38da6c	0.04513018
45	0x3d77e598	0.060521692
46	0xbd496fd0	-0.0491789
47	0xbde0999c	-0.10966799
48	0x3db0fbfc	0.08641812
49	0xbde45f26	-0.111509606
50	0xbdedb38e	-0.11606513
51	0xbd7a98dc	-0.061180934
52	0xbd38a994	-0.045083597
53	0xbd5cb0c4	-0.053879514
54	0x3dc1c71c	0.09461805
55	0x3dcfe6b0	0.10151422
56	0xbcc78628	-0.024355963
57	0xbdb41f38	-0.08795017
58	0x3df5a50e	0.11994372
59	0x3d687aec	0.056757852
60	0xbb230f40	-0.0024880916
61	0xbcfae1f0	-0.030625314
62	0x3d639174	0.055558637
63	0x3d9b1f2e	0.075743064
64	0xbce8b630	-0.028407186
65	0x3d146734	0.036231235
66	0xbd7e325c	-0.062059745
67	0xbd76e3fc	-0.060276017
68	0xbd517300	-0.051135063
69	0x3bfa6860	0.007641837
70	0x3d4f95e0	0.05068004
71	0x3d796cec	0.06089489
72	0x3d4d9e68	0.050199896
73	0x3da4cfbc	0.08047435
74	0xbdbbfc94	-0.09179035
75	0x3d88dbf4	0.06682578
76	0xbdb332e6	-0.087499425
77	0x3cd55388	0.026040807
78	0x3df34b0a	0.11879547
79	0xbd1b8508	-0.037968665
80	0x3d6c0bb8	0.057628363
81	0x3d26349c	0.040577516
82	0xbdb36482	-0.08759405
83	0x3d9e6704	0.077344924
84	0xbd92eba0	-0.07173848
85	0xbc596c20	-0.013270408
86	0x3de60c30	0.11232793
87	0xbda58b4a	-0.08083208
88	0xbd2f906c	-0.04286234
89	0xbdc94d9c	-0.09829256
90	0xbc9e4958	-0.019322082
91	0x3d2a15e8	0.041524798
92	0x3dd3b68c	0.103375524
93	0xbd56d510	-0.052449286
94	0x3da3ca5a	0.0799758
95	0x3d9aca00	0.0755806
96	0xbdfb14c4	-0.1225982
97	0x3d7d2eac	0.061812088
98	0x3d9856da	0.074384406
99	0xbda8f888	-0.082505286
100	0xbad5c480	-0.0016309172
101	0x3b12ba40	0.0022388846
102	0x3dd3bad2	0.103383675
103	0xbdb03cca	-0.086053446
104	0xbc1b1750	-0.009466007
105	0x3d2bfc00	0.041988373
106	0x3dde92e4	0.10867861
107	0xbd364190	-0.04449612
108	0xbd11a428	-0.035556942
109	0xbdd72f84	-0.1050711
110	0xbdc2fed2	-0.09521259
111	0x3d1444e8	0.036198527
112	0x3db473e6	0.088111684
113	0xbd8cc340	-0.068731785
114	0xbdd4d6dc	-0.10392544
115	0x3b9e7260	0.004835412
116	0x3ddb1a76	0.106984064
117	0xbd42d280	-0.04756403
118	0xbded5f1e	-0.11590408
119	0xbdd28e2c	-0.102810234
120	0x3b175c80	0.0023095906
121	0xbd0f08fc	-0.034920678
122	0x3d083274	0.03325124
123	0x3dd8d078	0.10586637
124	0xbdef6c96	-0.11690633
125	0xbdd6d73a	-0.1049027
126	0xbc8c1880	-0.017101526
127	0xbdb7b6c2	-0.08970405
128	0xbdc732ba	-0.09726472
129	0xbd8709f2	-0.06593694
130	0xbda4daae	-0.08049522
131	0xbd24d268	-0.04023972
132	0xbddcc594	-0.107798725
133	0x3db1e0d0	0.08685458
134	0x3dbb773e	0.09153603
135	0xbd8f8776	-0.07008259
136	0x3dd985f8	0.10621256
137	0x3d8196b2	0.06327571
138	0x3c413ff0	0.011795029
139	0xbd8e66c8	-0.06953198
140	0xbc921890	-0.017833978
141	0xbd365e94	-0.04452379
142	0xbd281ee4	-0.041045085
143	0x3df1c70e	0.11805545
144	0xbd0d360c	-0.03447537
145	0x3d163494	0.036671236
146	0x3b8474a0	0.004042223
147	0x3dc8d806	0.09806828
148	0xbd8be128	-0.068300545
149	0x3d436f58	0.047713608
150	0x3df24dc6	0.1183124
151	0x3d959cca	0.07305296
152	0xbd48ce34	-0.049024776
153	0xbc1bea30	-0.009516284
154	0xbd838f32	-0.06423797
155	0xbd4d26cc	-0.050085828
156	0x3bbd97a0	0.0057858974
157	0xbdf6d162	-0.12051655
158	0xbd7959e8	-0.060876757
159	0xbddd552c	-0.10807261
160	0xbb3c60c0	-0.002874419
161	0x3dd094fc	0.101846665
162	0xbac9c600	-0.0015394092
163	0x3d9b4cd4	0.07583013
164	0xbdda801c	-0.10668966
165	0x3d85cbb6	0.065329954
166	0xbd50e408	-0.050998718
167	0xbd87e7c4	-0.06636003
168	0xbdeb28ac	-0.11482367
169	0xbbea2540	-0.007145554
170	0x3d207d58	0.039182037
171	0xbceb4098	-0.028717324
172	0x3d9d0bb4	0.07668248
173	0xbdbdc348	-0.092657626
174	0x3ca69828	0.020336226
175	0x3cb868f0	0.022510976
176	0xbdaf701c	-0.08566305
177	0x3d9ec530	0.07752454
178	0xbdb1f020	-0.08688378
179	0x3db6efec	0.0893248
180	0x3a14ce00	0.00056764483
181	0xbc90c918	-0.017674014
182	0x3c48d630	0.0122580975
183	0xbd1c9dd8	-0.03823647
184	0xbdd152f6	-0.10220902
185	0xbdff4482	-0.12464239
186	0x3c403230	0.011730716
187	0xbb831e60	-0.0040014237
188	0x3c8c3428	0.017114714
189	0x3db8d824	0.090256006
190	0xbc0e8bb0	-0.008700296
191	0xbcb9b658	-0.022669956
192	0x39a14000	0.00030755997
193	0x3d9c24a0	0.07624173
194	0xbd644b04	-0.055735603
195	0xbdb96d64	-0.09054068
196	0x3dd36a4e	0.103230104
197	0xbd494d34	-0.049145892
198	0xbd94f834	-0.072739035
199	0xbc877110	-0.016533405
200	0xbce4e490	-0.027941018
201	0xbde7c860	-0.113175154
202	0xbd58e9b4	-0.05295725
203	0xbb4cf900	-0.0031276345
204	0xbdd81432	-0.10550727
205	0x3dd0061a	0.10157414
206	0x3dd066b8	0.10175842
207	0xbdadf8b4	-0.08494702
208	0xbdea411c	-0.114382
209	0xbdbe2ce4	-0.09285906
210	0x3c0e6e20	0.008693248
211	0x3dd5cc5e	0.104393706
212	0x3d97f23c	0.074192494
213	0x3d6cdc0c	0.05782704
214	0x3dd62cd4	0.10457769
215	0x3db5deea	0.08880408
216	0xbc7e2630	-0.015512034
217	0xbaf16180	-0.0018415898
218	0x3c9036b8	0.017604217
219	0x3de7c43e	0.11316727
220	0xbbd23dc0	-0.0064160526
221	0xbcf33768	-0.029689506
222	0xbc9315a0	-0.017954648
223	0x3dadcbbe	0.08486126
224	0x3cb1e1d8	0.021714136
225	0xbd5282bc	-0.05139421
226	0xbb166cc0	-0.0022953004
227	0x3d30eedc	0.043196544
228	0x3c692240	0.014229357
229	0x3c810bf8	0.015752777
230	0x3d444c58	0.04792437
231	0xbc8c6310	-0.01713708
232	0xbd9cccba	-0.07656236
233	0xbd8a5866	-0.06755142
234	0x3de3e732	0.111280814
235	0xbd1cbc34	-0.038265422
236	0x3df16a64	0.117878705
237	0x3df128be	0.11775349
238	0x3d47df14	0.04879673
239	0x3ddf2758	0.10896176
240	0xbd564c30	-0.05231875
241	0x3d46b674	0.048513845
242	0xbc18ec30	-0.009333655
243	0xbcb8c608	-0.022555366
244	0xbdb86adc	-0.09004757
245	0x3d7efd14	0.062253073
246	0x3d6a000c	0.05712895
247	0xbdca093c	-0.098650426
248	0x3d5a36c0	0.05327487
249	0xbbef1860	-0.007296607
250	0xbb2de600	-0.0026534796
251	0x3d8da824	0.06916836
252	0x3c1329b0	0.008982107
253	0x3da3d6fc	0.079999894
254	0x3cedc990	0.029026777
255	0x3dd34a32	0.10316886

hyper_w1.2.bias f4 [128]
0	0x3d02ef24	0.031966344
1	0x3d5b8750	0.05359584
2	0x3db1f47c	0.0868921
3	0xbd2080a0	-0.039185166
4	0xbd883dd6	-0.06652419
5	0x3dff958a	0.12479694
6	0x3d54ebc4	0.051982656
7	0xbdc50950	-0.09620917
8	0xbdf6b5fc	-0.120464295
9	0xbbcd6f60	-0.0062693805
10	0xbc680740	-0.014161885
11	0xbd9909a6	-0.074725434
12	0xbd86f3e4	-0.06589487
13	0x3d6a9118	0.05726728
14	0x3d4a3f98	0.049377054
15	0xbddb5a12	-0.10710539
16	0x3d865e92	0.065610066
17	0xbdfc1b72	-0.12309922
18	0xbdc314ee	-0.095254764
19	0x3d1514b4	0.036396697
20	0xbd8252fa	-0.06363483
21	0x3ced8380	0.028993368
22	0x3dcd8dc8	0.10036808
23	0x3d4f3f7c	0.050597653
24	0x3d9d14ac	0.076699585
25	0x3dbcb0e0	0.09213424
26	0xbda24b5e	-0.079245314
27	0x3a3a9700	0.00071178377
28	0x3cce2c88	0.025167719
29	0xbda5eba6	-0.08101587
30	0xbd6f9e54	-0.058500603
31	0xbd7b4f80	-0.061355114
32	0x3dcb199c	0.09916994
33	0x3de01f0a	0.1094342
34	0xbd18c180	-0.03729391
35	0x3d454b28	0.048167378
36	0xbdee7824	-0.11644009
37	0xbca5edd0	-0.020255
38	0xbdeac746	-0.1146379
39	0x3d8189ec	0.06325135
40	0x3daf3ba0	0.085562944
41	0x3d52a7d4	0.051429585
42	0xbd5fc318	-0.054629415
43	0x3b460340	0.003021434
44	0xbc8c2a08	-0.017109886
45	0xbd00f00c	-0.031478927
46	0xbd169ec0	-0.03677249
47	0xbd252450	-0.040317833
48	0xbdf03448	-0.11728722
49	0x3da80ad0	0.08205187
50	0xbdbb31d6	-0.09140365
51	0x3c561650	0.013066843
52	0x3dd1a30e	0.10236178
53	0xbda1ef06	-0.07906918
54	0x3dcc419c	0.099734515
55	0xbde5e10c	-0.11224565
56	0x3ded019c	0.115725726
57	0x3d553fec	0.052062914
58	0x3da0c6d8	0.078504264
59	0x3db04a18	0.08607882
60	0x3df16da6	0.11788492
61	0xbdffb84a	-0.12486322
62	0xbd8828d8	-0.06648415
63	0x3d973bbe	0.07384442
64	0x3d52f188	0.051499873
65	0x3d5cd9b4	0.053918555
66	0xbd5ee568	-0.054417998
67	0xbde9e75e	-0.11421083
68	0xbd722cd0	-0.059124768
69	0xbd54adbc	-0.0519235
70	0x3db04e22	0.08608653
71	0x3c4033b0	0.011731073
72	0x3c4ad040	0.012378752
73	0xbdb5797c	-0.08861062
74	0x3c74df70	0.01494585
75	0x3d800990	0.06251824
76	0x3de0fe0e	0.10985957
77	0x3dc7ac30	0.09749639
78	0xbd767068	-0.060165793
79	0x3c35f150	0.011104897
80	0xbcd49138	-0.025948152
81	0xbd7c593c	-0.061608538
82	0x3d8b4780	0.06800747
83	0x3c953210	0.018212348
84	0xbdefd458	-0.11710423
85	0x3df9906c	0.121857494
86	0xbbb41580	-0.005495727
87	0x3ddc73fa	0.10764308
88	0xbd7360f4	-0.059418634
89	0xbc1474a0	-0.009061009
90	0x3dd27656	0.10276477
91	0x3ddc1334	0.1074585
92	0xbd53cd60	-0.051709533
93	0xbd8f8f3c	-0.07009742
94	0x3d2659d8	0.040613025
95	0x3daaaa42	0.08333255
96	0x3cd0c258	0.025483295
97	0x3d3a01d8	0.045411915
98	0x3cb036e0	0.021510541
99	0xbdfc2e2a	-0.123134926
100	0xbda68f0e	-0.08132754
101	0x3df3f8dc	0.119127005
102	0xbd182eb0	-0.0371539
103	0x3c8f5c40	0.017500043
104	0xbcc693d0	-0.024240404
105	0xbd0ca050	-0.034332573
106	0x3cbd02e8	0.023072675
107	0x3ce6f4d0	0.028192908
108	0xbd24bff4	-0.040222123
109	0xbd14d7f4	-0.03633876
110	0x3d399a68	0.04531327
111	0x3d1da5b8	0.03848812
112	0x3d05eb64	0.03269519
113	0xbbfddb80	-0.0077471137
114	0x3da2d450	0.07950652
115	0xbacd0d00	-0.0015644133
116	0x3da711ac	0.081576675
117	0x3d90c332	0.070684806
118	0x3d250ebc	0.040297255
119	0xbc402d60	-0.011729568
120	0xbdc58082	-0.096436515
121	0x3d4b1a70	0.04958576
122	0x3ba48d00	0.0050216913
123	0xbde6175a	-0.11234923
124	0xbdf1c2a2	-0.118047014
125	0xbd599e8c	-0.053129718
126	0x3c665e60	0.014060587
127	0x3c8d3880	0.017238855

hyper_w2.0.weight f4 [64, 1024]
0	0x3cb0c87a	0.02157997
1	0xbcfa7bb4	-0.030576564
2	0xbc116230	-0.008873507
3	0x3b36b670	0.0027879737
4	0x3add6ee0	0.0016894005
5	0xbcab6470	-0.020921916
6	0x3c395568	0.011311866
7	0xbcb09e5e	-0.02155989
8	0xbced3854	-0.028957523
9	0xbc4ab750	-0.012372807
10	0x3c9fe1cc	0.019516848
11	0x3c5f4d78	0.01362931
12	0x3cbc2788	0.022968069
13	0xbcff6938	-0.031178102
14	0x3ae84c20	0.0017722882
15	0x3cbb1a26	0.022839617
16	0x3bc899f0	0.0061218664
17	0x3c1c1464	0.009526346
18	0x3cf82424	0.03029067
19	0x3c9e19c4	0.019299395
20	0xbca9783c	-0.020687215
21	0x3cad1b74	0.021131255
22	0xbb9c1380	-0.004763067
23	0xbc5dd610	-0.013539806
24	0x3b8169c8	0.0039493777
25	0xbbe5c308	-0.007011775
26	0xbbb63cf8	-0.0055614673
27	0xbc235bbc	-0.009970602
28	0xbc94b308	-0.018151775
29	0xbb963248	-0.0045836307
30	0x3cd4d9fe	0.025982853
31	0xbc1758e8	-0.0092375055
32	0x3cf6d2fe	0.030129906
33	0xbcccc7b2	-0.024997566
34	0xbcb08da0	-0.021551907
35	0x3c0a0404	0.008423809
36	0xbc4404a4	-0.011963997
37	0xbbe55498	-0.0069986098
38	0xbcb949dc	-0.022618227
39	0x3cccca62	0.024998847
40	0x3c9e8280	0.019349337
41	0x3b8d5d58	0.004314106
42	0x3c0e566c	0.008687597
43	0x3cb141e2	0.02163786
44	0x3cdcb812	0.02694324
45	0xbcc14bb6	-0.023595672
46	0xb92c9600	-0.00016459078
47	0x3c5595cc	0.013036203
48	0xbc82ba82	-0.015958074
49	0x3c9b7f6c	0.018981658
50	0x3c682eb0	0.014171287
51	0xbca497e2	-0.020091955
52	0x3c97b276	0.018517714
53	0xbbbc0038	-0.0057373308
54	0xba119440	-0.0005553402
55	0x3cd8b048	0.026451245
56	0xbcb99590	-0.022654325
57	0xbc2d8540	-0.010590851
58	0xbc00b640	-0.007855952
59	0xba3f1b00	-0.0007290095
60	0x3ac905c0	0.0015336797
61	0x3b35f9e0	0.0027767345
62	0x3aecfee0	0.001808133
63	0x3cab2328	0.020890787
64	0xbcf3a6f2	-0.029742692
65	0x3b929b88	0.004474107
66	0x3ce11a2a	0.027478296
67	0x3bdc8260	0.006729409
68	0xbac2cd00	-0.001486212
69	0xbcc9d0ee	-0.024635758
70	0xbcd5331e	-0.026025351
71	0xbbfa14e0	-0.007631883
72	0xbcd4c5aa	-0.02597316
73	0xbbdad910	-0.006678708
74	0x3bbb4250	0.005714692
75	0x3cd01128	0.025398806
76	0xbcfdff54	-0.031005539
77	0xbc579e78	-0.0131603405
78	0xbc04a1d8	-0.008095227
79	0x3ce67892	0.028133664
80	0x3ca33edc	0.019927435
81	0x3bd6cb00	0.006554961
82	0x3cceab32	0.025228117
83	0x3cbe3a40	0.023221135
84	0x3c27fe54	0.010253508
85	0xbcc53104	-0.024071224
86	0x3acd84e0	0.0015679859
87	0x3cd5de48	0.026106969
88	0x3c8569e6	0.016285848
89	0xbc8d858a	-0.01727559
90	0xbc27eef0	-0.010249838
91	0x3b8cc630	0.0042960867
92	0x3cbcdbba	0.023053993
93	0x3ce3c9ea	0.027806241
94	0x3cee9e4e	0.02912822
95	0x3c3d731c	0.011563089
96	0x3c5ef134	0.013607312
97	0x3be63800	0.0070257187
98	0xbc85a03a	-0.016311754
99	0xbcf9ef06	-0.030509483
100	0xbc897748	-0.01678051
101	0xbce1411e	-0.02749687
102	0xbb40d1d0	-0.0029421933
103	0xbc4db23c	-0.012554701
104	0xbb96f348	-0.004606638
105	0xbcf80cc0	-0.030279517
106	0x3b0c9ba0	0.0021455064
107	0x3ceaefea	0.028678853
108	0x3c1d5d2c	0.009604733
109	0x3cd66d8e	0.026175287
110	0xbc90a700	-0.017657757
111	0x3cac2674	0.02101443
112	0xbc4b6ba8	-0.012415804
113	0xbcd49546	-0.025950085
114	0xbcc92ce2	-0.024557535
115	0xbcd8732a	-0.026422102
116	0x3ccb429a	0.024812032
117	0xbcd76092	-0.026291166
118	0x3cf5aa90	0.029988557
119	0x3cd05474	0.025430895
120	0xbbd78448	-0.0065770485
121	0xbc848db2	-0.016180847
122	0x3c062520	0.008187562
123	0xbbac32f8	-0.0052550994
124	0x3cfcfade	0.030881342
125	0x3cfd88d6	0.030949038
126	0x3b573f50	0.0032844134
127	0x3b485920	0.00305707
128	0x3c3cc144	0.0115206875
129	0x3bba8fb8	0.005693402
130	0xbb9a17a0	-0.0047025234
131	0x3b324960	0.002720438
132	0xbc290ec4	-0.010318462
133	0x3c08b1ac	0.0083431415
134	0xbba56c50	-0.0050483122
135	0xbcc4c53c	-0.02401983
136	0x3c9413e8	0.018075898
137	0x3c8afc06	0.016965877
138	0x3b607050	0.003424663
139	0x39b83c00	0.00035139918
140	0xbc1af3f0	-0.009457573
141	0x3ce0e9dc	0.027455263
142	0xbc5978f4	-0.013273466
143	0x3cb2a91a	0.02180915
144	0x3b916280	0.004436791
145	0xbcb4d5d6	-0.022074621
146	0xbcf9f1d6	-0.030510824
147	0x3cecfc82	0.028928999
148	0xbcb1ac3e	-0.021688577
149	0x3cc5d5b6	0.024149757
150	0x3ca7836a	0.020448405
151	0x3bf36d58	0.0074288063
152	0xbb2b4ae0	-0.0026137158
153	0x3a0ef240	0.0005452968
154	0xbcb3a04a	-0.021927018
155	0xbb982388	-0.0046429075
156	0xbc20837c	-0.009796973
157	0xbca5a254	-0.020219006
158	0xbcb5195a	-0.022106815
159	0x3cb00a50	0.021489292
160	0x3c985aa8	0.018597916
161	0xbca61f08	-0.020278469
162	0xbcf9588e	-0.030437734
163	0x3cc029d4	0.023457445
164	0x3ba28148	0.004959259
165	0x3cac9a9c	0.021069817
166	0x3c8480bc	0.016174667
167	0x3cf7b4ce	0.030237582
168	0xbc9ec454	-0.019380726
169	0x3ce02fdc	0.027366571
170	0xbbcfe620	-0.0063445717
171	0x387f1000	6.081164e-05
172	0xbca173cc	-0.019708537
173	0x3ca3d188	0.019997373
174	0xbce8d82c	-0.028423391
175	0xbcc399e0	-0.023877084
176	0x3cbf81f4	0.023377396
177	0xbba4ed28	-0.005033154
178	0x3cc84ba0	0.024450123
179	0x3cd0b5d8	0.025477335
180	0x3cc503a8	0.024049595
181	0x3a85a2e0	0.0010195635
182	0xbbf6a928	-0.007527489
183	0x3bd25ce8	0.0064197667
184	0xb9b52780	-0.0003455244
185	0xbc792fbc	-0.015209135
186	0xbccb83de	-0.024843153
187	0xbc29af10	-0.01035668
188	0xbc6b9f24	-0.014381204
189	0xbb7ca1f0	-0.003854867
190	0xbbc7ef60	-0.006101534
191	0xba8206e0	-0.0009920262
192	0xbcc13cac	-0.0235885
193	0x3cb0d998	0.021588132
194	0x3c236bd8	0.009974442
195	0x3cbb6908	0.022877231
196	0x3cb8007a	0.022461165
197	0x3ca0989c	0.01960402
198	0xbc3d0820	-0.011537582
199	0xbc108368	-0.008820392
200	0x3ca155e8	0.019694284
201	0x3b6c56f0	0.003606256
202	0xbb9f6a68	-0.0048649795
203	0xba8c1c60	-0.0010689609
204	0x3c1bb3cc	0.009503316
205	0x3be7e5b0	0.0070769414
206	0xbc7682dc	-0.015045848
207	0x3b5049c0	0.003178224
208	0xbc9b0d34	-0.018927194
209	0xbb87bd50	-0.004142441
210	0xbb05f3e0	-0.002043955
211	0xbcb4736c	-0.022027694
212	0x3c45aa10	0.012064472
213	0x3cd7ab2e	0.026326742
214	0xbc587f0c	-0.013213884
215	0xbcb9846a	-0.022646148
216	0x3c130ab0	0.008974716
217	0xbcc933a6	-0.02456076
218	0xbc2bec10	-0.010493293
219	0x3cc00410	0.023439437
220	0xbbc5d150	-0.006036915
221	0x3caa1486	0.02076174
222	0xbcc702e4	-0.02429337
223	0xbbd7dfb8	-0.0065879487
224	0xbcfdb9c0	-0.030972362
225	0xbb9fbf68	-0.0048751123
226	0xbcc25a60	-0.023724735
227	0x3ca182f6	0.019715767
228	0x3c1f2c5c	0.009715166
229	0xbc8d6388	-0.017259374
230	0x3cae4bcc	0.021276377
231	0xbcba4cc8	-0.02274169
232	0x3cabb770	0.020961493
233	0x3c51fe90	0.01281704
234	0xbcc71ae0	-0.024304807
235	0x3b48b9f0	0.0030628406
236	0x3c6e6814	0.014551181
237	0x3caf91d6	0.021431845
238	0xbc472cf4	-0.012156714
239	0xbcb3de52	-0.021956597
240	0x3c5ef7f4	0.013608921
241	0xbcfce7f0	-0.030872315
242	0xbc6c75a4	-0.014432345
243	0x3c369be8	0.011145569
244	0xbcf97f18	-0.03045611
245	0x3c7c5380	0.015400767
246	0x3ab13ec0	0.0013522729
247	0xbc0b7a4c	-0.008513045
248	0x3bc0d610	0.0058848932
249	0xbcd82b76	-0.026387911
250	0xbbbfff08	-0.0058592595
251	0x3b761880	0.0037551224
252	0xbca3ffbc	-0.020019405
253	0xbcc1fada	-0.023679186
254	0x3cf99bca	0.030469794
255	0xbcb3c51c	-0.021944575

hyper_w2.0.bias f4 [64]
0	0xbc67e1dc	-0.01415297
1	0xbcc95636	-0.024577241
2	0x3cd94698	0.02652292
3	0x3c94a90c	0.018147014
4	0x3cde7520	0.027155459
5	0xb9337600	-0.00017114729
6	0xbc2a8854	-0.01040848
7	0x3bad9e98	0.005298447
8	0xbc9c8be6	-0.019109678
9	0xbcc31938	-0.023815736
10	0xbce3a962	-0.027790729
11	0xbcd7d28c	-0.026345514
12	0x3cfa4eea	0.030555207
13	0x3bc8d6b0	0.0061291084
14	0x3c9c6298	0.019089982
15	0xbcc07796	-0.023494523
16	0x3cdf9faa	0.027297813
17	0xbc980170	-0.018555373
18	0x3c9ae2d0	0.01890698
19	0x3c7a0b44	0.015261475
20	0xbc89e448	-0.016832486
21	0xba08a300	-0.0005212277
22	0xbc907804	-0.017635353
23	0xbbb3b958	-0.005484741
24	0x3a994ae0	0.0011695288
25	0x3cb0d734	0.021586992
26	0x3c941d98	0.018080518
27	0xbcc3f0e0	-0.02391857
28	0x3aaa13c0	0.0012975857
29	0xbc6f8d6c	-0.01462112
30	0xbc071c1c	-0.008246448
31	0x3a2ee500	0.0006671697
32	0xbcfb212c	-0.030655466
33	0x3c6d3cc0	0.014479816
34	0x3cef5716	0.02921633
35	0xbc768c48	-0.015048094
36	0xbc42af0c	-0.011882555
37	0xbbb85e18	-0.005626451
38	0xbce1b658	-0.027552769
39	0xbb2b9890	-0.0026183464
40	0xbc83cde6	-0.016089391
41	0xbccb07fc	-0.02478408
42	0x3cd363e4	0.025804467
43	0xbcc0a6cc	-0.023517035
44	0x3b187230	0.002326142
45	0x3c98c71c	0.01864963
46	0xbc3c5570	-0.011494979
47	0x3c8ebb52	0.017423306
48	0x3ae78b20	0.0017665364
49	0x3bd49208	0.006487135
50	0xbbf99de0	-0.007617697
51	0xbbbb95f0	-0.005724661
52	0x3c1f613c	0.009727772
53	0x3c53683c	0.012903269
54	0xbc43037c	-0.011902686
55	0xbc81b214	-0.015831985
56	0x3cf6e9e6	0.030140828
57	0xbb74bba0	-0.0037343279
58	0x3ba6e778	0.005093511
59	0x3cedc4ac	0.029024445
60	0x3c582010	0.013191238
61	0xbc98a8f8	-0.018635258
62	0xbcae7906	-0.021297943
63	0xbccdf75c	-0.025142364

hyper_w2.2.weight f4 [32, 64]
0	0x3c5ea5d0	0.0135893375
1	0xbd7795f8	-0.060445756
2	0x3dcf1312	0.10111059
3	0xbb0688c0	-0.0020528287
4	0xbcb18320	-0.02166897
5	0xbddb50dc	-0.10708782
6	0xbda12de8	-0.07870084
7	0xbac55100	-0.0015054047
8	0x3da27188	0.079318106
9	0x3d4fa02c	0.05068986
10	0x3de4a06e	0.11163412
11	0xbcbbadd0	-0.022910029
12	0xbde84ca2	-0.113427415
13	0x3dabc4ee	0.08387171
14	0xbbf94960	-0.007607624
15	0x3d9c609a	0.07635613
16	0x3ddd83aa	0.108161286
17	0xbd5008a4	-0.05078949
18	0x3d04b958	0.03240332
19	0xbd0eea34	-0.034891322
20	0x3d641cbc	0.055691466
21	0xbdd64364	-0.104620725
22	0x3c910310	0.017701656
23	0x3dfdc722	0.12391497
24	0x3ce57fa0	0.028014958
25	0x3dcf66f8	0.101270616
26	0xbd6dcd40	-0.05805707
27	0x3d181704	0.037131324
28	0xbdeb5796	-0.11491315
29	0x3c84c410	0.016206771
30	0x3dd58100	0.104249954
31	0xbda83a6c	-0.08214268
32	0x3c86eac8	0.016469374
33	0xbd616a7c	-0.055033192
34	0x3d71f05c	0.059067115
35	0xbd130394	-0.035892084
36	0x3d402d04	0.04691793
37	0xbd1acc88	-0.037792712
38	0x3d429ff8	0.04751584
39	0x3de32c90	0.11092484
40	0xbd8c9a3c	-0.06865355
41	0xbc08bf70	-0.0083464235
42	0xbcdb2ad0	-0.026753813
43	0xbd8cae92	-0.06869234
44	0x3db2365e	0.08701776
45	0x3c9e90e8	0.019356206
46	0xbdfcb08e	-0.12338363
47	0x3d1fc5d8	0.039007038
48	0xbd54fef8	-0.05200097
49	0x3d6272d0	0.055285275
50	0xbca66fc0	-0.020316958
51	0xbd38d294	-0.045122698
52	0xbd5a3034	-0.053268626
53	0xbd3b0128	-0.0456554
54	0x3df960fc	0.121767014
55	0xbddbae92	-0.10726656
56	0xbdb3ee76	-0.08785717
57	0x3c2ee4f0	0.0106747
58	0x3da8afca	0.08236654
59	0xbbc99fe0	-0.006153092
60	0xbdb946ca	-0.09046705
61	0x3ddc917c	0.107699364
62	0x3d157888	0.0364919
63	0xbd175bbc	-0.03695272
64	0xbd64e7f8	-0.055885285
65	0xbcef8ea8	-0.029242828
66	0xbd713804	-0.05889131
67	0x3dfae422	0.12250544
68	0xbdd92746	-0.10603194
69	0x3d1306e0	0.03589523
70	0x3d97c504	0.074106246
71	0xbc003aa0	-0.007826477
72	0xbde48238	-0.1115765
73	0x3dcb4a24	0.099262506
74	0xbcb0e638	-0.021594152
75	0xbda6f870	-0.081528544
76	0xbdc50a34	-0.09621087
77	0xbdb27dee	-0.087154254
78	0xbdca2208	-0.09869772
79	0x3d018494	0.031620577
80	0x3de43af4	0.11144057
81	0xbd009f00	-0.031401634
82	0xbda660d8	-0.0812394
83	0xbd252dd8	-0.040326923
84	0xbd851f24	-0.0650008
85	0x3d52aaf8	0.05143258
86	0x3d6b0170	0.057374418
87	0xbdf3329c	-0.11874887
88	0x3df01052	0.11721863
89	0x3d909eb0	0.07061517
90	0xbd045944	-0.032311693
91	0xbdab2770	-0.083571315
92	0x3da643c4	0.08118394
93	0x3c358f20	0.011081487
94	0xbcd1c050	-0.025604397
95	0x3ce11098	0.027473733
96	0x3da350ba	0.07974382
97	0x3d1dee24	0.038557187
98	0x3da91276	0.08255474
99	0xbde1ae16	-0.110195324
100	0xbc87a5a8	-0.016558483
101	0xbcd365d0	-0.025805384
102	0x3dfdda04	0.12395099
103	0xbc169b50	-0.009192303
104	0xbc61d070	-0.0137826055
105	0xbd587978	-0.052850217
106	0xbdb87804	-0.09007266
107	0xbde2f78c	-0.11082372
108	0x3db41f80	0.08795071
109	0x3cff1110	0.031136066
110	0x3d56569c	0.05232869
111	0x3dc2c57c	0.095103234
112	0x3d645e8c	0.05575423
113	0xbdde534c	-0.10855731
114	0xbdeee30a	-0.11664398
115	0x3ba02880	0.0048876405
116	0xbd0a5034	-0.033767894
117	0xbb841060	-0.0040302724
118	0xba455600	-0.00075277686
119	0xbdf3cb50	-0.11904013
120	0xbc8134e0	-0.015772283
121	0xbdb7d234	-0.0897564
122	0x3d2f781c	0.042839155
123	0x3dfa7b6a	0.122305706
124	0x3dbfffa8	0.093749344
125	0xbde041a4	-0.1095002
126	0xbdda0bbc	-0.106467694
127	0xbdc62c24	-0.09676388
128	0x3d01f5dc	0.03172861
129	0xbcee9970	-0.0291259
130	0xbc3e2910	-0.01160647
131	0xbd499ea0	-0.049223542
132	0xbd02f794	-0.03197439
133	0x3ddfac18	0.10921496
134	0xbdbd3132	-0.09237899
135	0xbda7225c	-0.081608504
136	0xbdfe25be	-0.124095425
137	0x3de83b8c	0.11339483
138	0x3df41dcc	0.11919746
139	0xbdce242c	-0.10065493
140	0xbbedadc0	-0.0072533786
141	0x3dcc69e2	0.09981133
142	0x3d6a0d74	0.057141736
143	0xbd24ddf4	-0.040250733
144	0xbdcf34fe	-0.10117529
145	0x3dac715a	0.084200576
146	0x3d3d1bec	0.046169207
147	0xbd9cf5b6	-0.07664053
148	0x3d2c20d8	0.04202351
149	0xbdadda90	-0.08488953
150	0xbcaf6558	-0.02141063
151	0xbc93e048	-0.018051282
152	0x3df53d90	0.11974633
153	0x3bd90c60	0.0066237897
154	0xbc5edb90	-0.0136021525
155	0x3d992238	0.0747723
156	0x3ddd6e66	0.108120725
157	0x3cbab090	0.02278927
158	0xbdccf166	-0.100069806
159	0x3d8fb190	0.07016289
160	0x3dc16756	0.09443538
161	0xbde10530	-0.109873176
162	0xbdc842c8	-0.097783625
163	0xbdb041d4	-0.08606306
164	0xbdcf74c4	-0.10129693
165	0xbdfa82fa	-0.12232013
166	0x3ccce458	0.025011227
167	0x3c3fe860	0.011713117
168	0xbc291ef0	-0.0103223175
169	0xbd18cd04	-0.037304893
170	0xbcc30888	-0.023807779
171	0xbda9d5fc	-0.082927674
172	0xbc9816e8	-0.01856561
173	0x3d3d351c	0.046193227
174	0xbd768320	-0.060183644
175	0xbdccffe0	-0.10009742
176	0xbdc1fcd4	-0.09472051
177	0xbd5e92fc	-0.054339394
178	0xbd090eb4	-0.033461288
179	0x3cc154d8	0.023600027
180	0xbbf82c40	-0.0075736344
181	0x3df41332	0.11917724
182	0xbda53436	-0.08066599
183	0x3d73b66c	0.059500143
184	0xbdf97fd4	-0.121825844
185	0x3cb94e70	0.02262041
186	0xbdcf528c	-0.101231664
187	0xbc56fd50	-0.013121918
188	0xbdce3ffc	-0.10070798
189	0xbc89d7a0	-0.01682645
190	0xbd06fe40	-0.032957315
191	0x3dbb74ac	0.09153113
192	0x3db9ef90	0.09078896
193	0xbd35faec	-0.04442875
194	0x39ca9c00	0.0003864467
195	0xbdada74e	-0.084791765
196	0xbd12f28c	-0.035875842
197	0xbd820908	-0.06349379
198	0xbde7e660	-0.113232374
199	0x3dc14728	0.094374
200	0xbd640134	-0.05566521
201	0xbda97456	-0.082741424
202	0x3de31108	0.11087233
203	0xbdb6ff42	-0.08935405
204	0x3d8901a0	0.06689763
205	0xbcd16cd0	-0.025564581
206	0xbd75b2bc	-0.059984908
207	0x3d9d030e	0.07666598
208	0xbdc59074	-0.09646693
209	0xbde992e8	-0.11404973
210	0x3dd72bf0	0.10506427
211	0x3dc5cbc0	0.09658003
212	0x3dda33fc	0.106544465
213	0xbdaf22d6	-0.08551566
214	0xbd7ba5ac	-0.061437294
215	0xbcdc99d8	-0.026928827
216	0x3db31a8c	0.08745298
217	0xbda0aed4	-0.07845846
218	0xbda1fdbc	-0.07909724
219	0xbc9c9258	-0.01911275
220	0x3d58eeb4	0.05296202
221	0xbdbc17be	-0.09184216
222	0xbde538c2	-0.11192466
223	0xbd48b0f8	-0.048996896
224	0xbd7e5aec	-0.06209843
225	0xbd7ab6b8	-0.06120941
226	0xbde0b57a	-0.10972114
227	0xbde56766	-0.11201362
228	0x3d8906f4	0.06690779
229	0x3dc13504	0.0943394
230	0xbcdb42e8	-0.026765302
231	0x3dff6922	0.12471224
232	0xbd4311b0	-0.04762429
233	0xbbdd29e0	-0.0067493767
234	0xbd1646b4	-0.03668852
235	0xbd83a6f8	-0.06428331
236	0xbd412b2c	-0.047160313
237	0xbcf97728	-0.030452326
238	0xbbd650c0	-0.006540388
239	0x3dfc2d40	0.12313318
240	0x3cfae680	0.03062749
241	0x3d5e26d0	0.054236233
242	0x3d292ff8	0.041305512
243	0x3d44e408	0.04806903
244	0xbd74b170	-0.05973953
245	0xbdaabdc2	-0.08336975
246	0xbddc0da8	-0.10744792
247	0x3ba364e0	0.0049863905
248	0x3d23ec3c	0.040020213
249	0xbcca0e10	-0.024664909
250	0x3ba18220	0.004928842
251	0xbc9d8be0	-0.019231737
252	0x3c37ba30	0.011213824
253	0xbd9e9a20	-0.07744241
254	0xbca67638	-0.020320043
255	0x3ca2de58	0.019881412

hyper_w2.2.bias f4 [32]
0	0x3da57b1e	0.08080123
1	0xbdd5b11a	-0.1043417
2	0x3d0edb8c	0.034877345
3	0xbd8164d4	-0.063180596
4	0xbdd77e38	-0.10522121
5	0xbd2af85c	-0.04174076
6	0x3d8ba94c	0.068194
7	0x3d152530	0.036412418
8	0xbdb05daa	-0.08611615
9	0xbdb7f018	-0.08981341
10	0xbd86cc54	-0.06581941
11	0xbb972ea0	-0.0046137124
12	0xbd8947dc	-0.06703159
13	0xbbd6a520	-0.006550446
14	0x3cacf5a8	0.021113232
15	0xbd82aea4	-0.06380966
16	0xbded9978	-0.116015375
17	0xbdb34a0a	-0.08754356
18	0x3d24b07c	0.04020737
19	0xbc4fffd0	-0.012695268
20	0x3ad41f80	0.0016183704
21	0x3dce24b4	0.10065594
22	0x3dcc6a40	0.09981203
23	0xbdb0583c	-0.08610579
24	0xbdae9f48	-0.08526474
25	0xbdb38668	-0.0876587
26	0x3c285d70	0.0102761835
27	0xbd78f1dc	-0.06077753
28	0x3d3a479c	0.04547845
29	0x3d19f8e0	0.03759086
30	0x3c0ba100	0.008522272
31	0xbd240988	-0.040048152

hyper_b1.weight f4 [32, 1024]
0	0xbc63a2d4	-0.013893802
1	0x3b334390	0.0027353503
2	0xbc4d9010	-0.012546554
3	0x3cb18942	0.021671895
4	0x3ce3bde6	0.027800512
5	0x3c615750	0.013753727
6	0xbc7baacc	-0.015360545
7	0xbc6f7fd0	-0.014617875
8	0xbc1e2b30	-0.009653851
9	0xbca6e016	-0.020370524
10	0x3aa34ba0	0.0012458451
11	0xbcac2976	-0.021015864
12	0x3b2a1a70	0.00259557
13	0xbcb3c61a	-0.021945048
14	0x3ce82eea	0.028342683
15	0x3c438344	0.011933152
16	0xbc97b378	-0.018518195
17	0x3b3391d0	0.0027400143
18	0x3c2f50d0	0.01070042
19	0xbca49d7e	-0.02009463
20	0xbce64278	-0.028107867
21	0xbbb73418	-0.005590927
22	0x3998cc80	0.00029144064
23	0x39fed480	0.0004860498
24	0xbba66400	-0.005077839
25	0xbc3ba008	-0.011451729
26	0x3b418050	0.0029525943
27	0x3c7d3858	0.015455328
28	0xbcf63064	-0.030052371
29	0x3b047ea0	0.0020217076
30	0x3b8c2420	0.0042767674
31	0xbbea7840	-0.007155448
32	0xbcb9de1a	-0.022688914
33	0xbb3c2300	-0.0028707385
34	0xbc9d1eb0	-0.019179672
35	0x3b73b430	0.0037186258
36	0x3b149ac0	0.0022675246
37	0xbcd284b8	-0.02569805
38	0xbc4d110c	-0.012516271
39	0x3cd7e7c4	0.026355632
40	0xbbf2b4b8	-0.0074067973
41	0x3b42dab0	0.0029732399
42	0x3c4bd4d0	0.012440875
43	0x3b50ce00	0.0031861067
44	0x3c6cc354	0.014450867
45	0xbc969628	-0.018382147
46	0xbcee49fa	-0.02908801
47	0xbcb8cf30	-0.022559732
48	0x3cf5a44e	0.029985573
49	0x3cce7d96	0.025206368
50	0x3cf2b758	0.02962844
51	0x3ceb06f0	0.028689831
52	0x3c75a1f0	0.014992222
53	0x3cdd2d9e	0.026999291
54	0xbb799940	-0.003808573
55	0x3c832bd8	0.016012117
56	0xbb98f820	-0.0046682507
57	0xbc828064	-0.015930362
58	0x3cd1888c	0.025577806
59	0xbca116ee	-0.019664254
60	0xbc8df9b0	-0.017330974
61	0x3c9bc438	0.019014463
62	0xbb857f20	-0.0040739924
63	0x3bdfbe10	0.006828077
64	0xbc7ee9ec	-0.015558701
65	0xbcacc71e	-0.02109104
66	0xba833420	-0.0010010041
67	0x3c60326c	0.0136838965
68	0xbcc745c2	-0.024325255
69	0xbc1be0b4	-0.009514023
70	0xbcf11ea8	-0.029433563
71	0xbc8966dc	-0.01677268
72	0x3c94a150	0.018143326
73	0xbb8d4c60	-0.004312083
74	0x3bef82c0	0.007309288
75	0xbb9cdd00	-0.0047870874
76	0xbc3f706c	-0.011684518
77	0x3c1b78e8	0.0094892755
78	0x3cfe7e78	0.031066164
79	0x3c0fce64	0.008777235
80	0x3c9cac56	0.019125145
81	0x3c985116	0.018593352
82	0xbcbfee88	-0.02342917
83	0x39ee3880	0.00045436993
84	0x3cc272f0	0.023736447
85	0xbc86b0c2	-0.016441707
86	0x3cb5b3b2	0.022180412
87	0xbb64acd0	-0.0034893043
88	0xbc782168	-0.015144683
89	0x3cdb8d0a	0.026800651
90	0xbc412ab0	-0.011789963
91	0xbc840746	-0.01611675
92	0x3cd963b6	0.026536804
93	0x3c82e05a	0.01597612
94	0xbb504a30	-0.00317825
95	0xbceb7a6a	-0.028744895
96	0x3cd335ca	0.025782485
97	0xbc5c1be0	-0.01343438
98	0x3aab0220	0.0013046898
99	0xbca93bd4	-0.020658411
100	0x3b9692d8	0.004595142
101	0x3cd899c0	0.026440501
102	0xbae53f00	-0.0017490089
103	0xbbd1ebb8	-0.0064062737
104	0x3cc7987c	0.024364702
105	0xbc930ce0	-0.017950475
106	0xbc8140e8	-0.01577802
107	0xbcd2ab6e	-0.02571651
108	0x3c97b328	0.018518046
109	0xbcb510d0	-0.022102743
110	0x390e9a00	0.00013599545
111	0x3ca4503a	0.020057786
112	0xbc91f0f2	-0.017815087
113	0xbc48257c	-0.012215968
114	0x3ce855b2	0.028361175
115	0x3c39b0dc	0.0113336705
116	0x39dc7500	0.00042048842
117	0xbc493488	-0.012280591
118	0xbcc17ed0	-0.02362004
119	0x3cf4d64e	0.029887345
120	0xbc50af78	-0.0127371475
121	0x3a894ca0	0.0010475107
122	0x3ba81780	0.0051297545
123	0xbaae3900	-0.0013292134
124	0xbcbf2a72	-0.02333567
125	0x3b94a780	0.004536569
126	0x3ac23780	0.0014817566
127	0x3ccc09bc	0.024906985
128	0x3cd08d56	0.02545802
129	0x3c5920f0	0.013252482
130	0x3b8e5288	0.0043433346
131	0x3c965d24	0.01835496
132	0x3be8ca28	0.007104177
133	0xbabba2a0	-0.0014315434
134	0x3c280b04	0.010256533
135	0x3c61a7ac	0.013772886
136	0xbab0b4c0	-0.0013481602
137	0xbc870e12	-0.016486201
138	0x3c91950a	0.017771263
139	0xbc4091cc	-0.011753511
140	0xbc85e486	-0.01634432
141	0x3cb0983e	0.02155697
142	0x3c924c00	0.017858505
143	0x3c9193d0	0.017770678
144	0xbcfd7b80	-0.030942678
145	0x3b2a1ee0	0.0025958344
146	0x3b007dd0	0.001960624
147	0x3c855f72	0.016280863
148	0xbba8b5b0	-0.005148612
149	0xbcd531c4	-0.026024707
150	0x3c9d64aa	0.01921304
151	0x3ce13cd4	0.027494825
152	0x3c868eb8	0.016425475
153	0xbc12fe98	-0.008971833
154	0x3ce6b0de	0.028160509
155	0x3cd5f3de	0.026117261
156	0x3b5696c0	0.0032743663
157	0x3c828b88	0.015935674
158	0x3ca17dac	0.019713245
159	0x3a67ec00	0.00088471174
160	0xbca46898	-0.020069405
161	0x3b96f4c0	0.004606813
162	0xbc43183c	-0.011907633
163	0x3ca3e7a6	0.02000792
164	0x3cd90cc4	0.026495345
165	0x3bbf6700	0.005841136
166	0xbcd7d2ea	-0.026345689
167	0x3c3c8428	0.011506118
168	0xbca1bda2	-0.019743744
169	0xbcd81942	-0.026379231
170	0xbce2ba84	-0.027676828
171	0x3cb6474a	0.02225079
172	0xbceb646c	-0.028734408
173	0x3cba296a	0.022724826
174	0xbcac6ffa	-0.021049488
175	0xbba3d150	-0.004999317
176	0x3c5a6fec	0.013332348
177	0xbc8b65ea	-0.01701637
178	0x3ccdf5dc	0.025141649
179	0xbc27c130	-0.010238931
180	0x3cdcfa7a	0.026974905
181	0x3ccac69a	0.024752904
182	0xbceedff8	-0.029159531
183	0x3c879b8e	0.016553666
184	0xbafe6260	-0.001940798
185	0x3c68d8c4	0.014211837
186	0x3a502940	0.0007940717
187	0x3cae4d8a	0.021277208
188	0x3be351c8	0.0069372393
189	0xbc6fe9a0	-0.014643103
190	0xbc1bbc74	-0.00950538
191	0xbbfd89b8	-0.0077373646
192	0x3c386620	0.011254817
193	0x3ba4b148	0.0050260164
194	0xbc46b3d8	-0.012127839
195	0x3c9b857e	0.018984552
196	0xbc9df92a	-0.01928385
197	0xbb6e5cb0	-0.0036371164
198	0x3c7e7634	0.0155311115
199	0x3a78c400	0.00094896555
200	0xbce0f842	-0.027462129
201	0x3c9e3904	0.019314297
202	0xbc777d9c	-0.015105631
203	0xbcd681b4	-0.026184894
204	0xbc6e0a10	-0.014528766
205	0xba968c60	-0.0011485927
206	0x3ba4db60	0.0050310344
207	0xbca8ccd4	-0.020605482
208	0x3cb15ba8	0.02165015
209	0x3c6577ec	0.014005642
210	0xbb9ab900	-0.0047217607
211	0x3caee1ba	0.02134787
212	0x3cf9ef72	0.030509684
213	0xbcb6147c	-0.022226565
214	0x3cf8adf2	0.030356381
215	0x3b929a70	0.004473977
216	0x3cab625c	0.020920925
217	0xbcb817ae	-0.022472229
218	0xbc8120c2	-0.01576269
219	0x3cbc3f40	0.022979379
220	0x3c96b3f4	0.018396355
221	0xbc083e58	-0.008315645
222	0x3cd60142	0.026123647
223	0xba201b00	-0.0006107539
224	0x3c3cb944	0.01151878
225	0x3b95c9e0	0.0045711845
226	0x3ce1441a	0.027498294
227	0xbcd4f750	-0.025996834
228	0x3cf48c94	0.02985219
229	0x3c53e7d0	0.012933686
230	0xbc3834d8	-0.011243068
231	0xbcf90816	-0.030399363
232	0x3cf3a45e	0.029741462
233	0x3c18e2f8	0.009331457
234	0x3cc36ca8	0.023855522
235	0xbc6be090	-0.014396802
236	0x3c57b504	0.013165716
237	0x3bf23488	0.007391516
238	0x3c80e69c	0.015734963
239	0xbc0f9ce8	-0.008765437
240	0xbbe1fd48	-0.0068966486
241	0x3b61c120	0.0034447387
242	0x3be2c5f8	0.0069205724
243	0xbca75a54	-0.020428814
244	0x3cebd01e	0.028785761
245	0xbcef0734	-0.02917824
246	0xba29f1c0	-0.0006482862
247	0x3b9f1450	0.0048547164
248	0x3b5cfe20	0.0033720806
249	0x3c853cd6	0.01626436
250	0xbcfe2ac8	-0.031026259
251	0xbad57e40	-0.0016288236
252	0x3ca93a68	0.020657733
253	0x3cafc066	0.021454047
254	0xbc203c98	-0.009780072
255	0xbc746cd8	-0.0149185285

hyper_b1.bias f4 [32]
0	0xbb8fd6b0	-0.0043896064
1	0xbc9f6b90	-0.01946047
2	0x3c735f38	0.014854245
3	0x39dd4f80	0.00042211637
4	0x3bdaa390	0.00667233
5	0xbc579f44	-0.0131605305
6	0x3cf92f12	0.030417953
7	0x3c695744	0.014241997
8	0x3c5e56b4	0.013570476
9	0xbcfd3d5e	-0.030913051
10	0x3cc42ae0	0.023946226
11	0xb9ed9200	-0.0004531294
12	0x3caf8a14	0.021428145
13	0x3cf1c70a	0.029513855
14	0xbc680928	-0.014162339
15	0x3c9c5794	0.01908473
16	0x3c84223c	0.016129605
17	0xbcb4f9c2	-0.02209175
18	0x3c24abac	0.010050695
19	0xbc647a34	-0.013945151
20	0xbc0a60f8	-0.008445971
21	0xbb59f290	-0.003325615
22	0xba9c5d80	-0.0011929721
23	0xbce45c3e	-0.027876016
24	0x3ceeeea4	0.029166527
25	0x3cf55d4e	0.029951718
26	0x39269f00	0.00015890226
27	0xbc0406c0	-0.00805825
28	0x3cf114b8	0.029428825
29	0x3c1b2288	0.009468682
30	0x3b1d3eb0	0.0023993663
31	0x3c230a50	0.009951189

hyper_b2.0.weight f4 [32, 1024]
0	0xbb9d7080	-0.004804671
1	0x3c9ca35e	0.019120868
2	0x3c49be2c	0.012313407
3	0x3c908f04	0.01764632
4	0x3ae819a0	0.0017707832
5	0x3b10d500	0.0022099614
6	0xbc8e6930	-0.017384142
7	0xbc4e9334	-0.012608338
8	0xbb46a040	-0.0030307919
9	0xbb5f1de0	-0.0034044906
10	0x3afcd3e0	0.0019289218
11	0x3cc82724	0.024432726
12	0x3c6f37cc	0.014600705
13	0x3c6a6aac	0.014307659
14	0x3ce5ee7c	0.02806782
15	0x3cd94c8c	0.026525758
16	0x3c7e821c	0.01553395
17	0x3cfbfca6	0.03076012
18	0xbced2c06	-0.028951656
19	0x3ce504ba	0.027956355
20	0x3cee09d8	0.029057428
21	0x3cb4ab32	0.022054289
22	0xbbdaaf40	-0.0066737235
23	0xbc746ccc	-0.014918517
24	0xbcf6f726	-0.030147146
25	0x3ca74a18	0.020421073
26	0xbbfcca98	-0.0077145807
27	0x3cc6b212	0.024254832
28	0xbbd6baf8	-0.00655305
29	0xbc9aeb70	-0.018911093
30	0x3cf3310e	0.029686477
31	0xbca5be14	-0.020232238
32	0xbc455f08	-0.012046583
33	0xbc96d8d2	-0.018413935
34	0xbbe32260	-0.006931588
35	0x3cf4594e	0.02982774
36	0x3caa5f26	0.020797323
37	0xbbbe3260	-0.005804345
38	0xbc1b9164	-0.009495113
39	0xbc0c1818	-0.008550666
40	0x3c89af30	0.016807169
41	0x3ca3652c	0.019945703
42	0x3c04be5c	0.008102026
43	0x3c380414	0.011231441
44	0x3c747e44	0.014922682
45	0x3c4203d4	0.011841733
46	0x3c2e0d14	0.010623235
47	0xbca2971e	-0.019847449
48	0xbc21a598	-0.009866141
49	0xbcf51f36	-0.02992211
50	0xbaf910a0	-0.0019002147
51	0x3bb7c778	0.0056084953
52	0xbc45b60c	-0.012067329
53	0x3c53faac	0.012938183
54	0x3c8d8be8	0.017278627
55	0xbcdf5184	-0.02726055
56	0xbcaadb88	-0.020856634
57	0xbcf2d30e	-0.029641654
58	0xbc075e70	-0.008262262
59	0xbcb7956c	-0.022410117
60	0xbc9c2a30	-0.019063085
61	0x3cee9c80	0.02912736
62	0xbc726348	-0.014794178
63	0xb9674d00	-0.00022058561
64	0x3bc0ebf8	0.0058875047
65	0x3cd99638	0.026560888
66	0x3b657180	0.0035010278
67	0xbc99f5f8	-0.018794045
68	0x3c529bc8	0.012854524
69	0xbcf3dfca	-0.029769797
70	0xbc023864	-0.007948015
71	0x3c35afa0	0.011089236
72	0xbc81a274	-0.015824534
73	0x3af23a60	0.0018480532
74	0x3cf7a208	0.03022863
75	0xbcf54c34	-0.029943563
76	0xbcca507a	-0.024696577
77	0x3cf6f576	0.030146342
78	0xbaf01160	-0.0018315725
79	0x3c867d90	0.016417295
80	0x3c1be944	0.009516064
81	0x3ca52322	0.020158354
82	0x3cfe0534	0.03100834
83	0x3c883748	0.016627923
84	0x3c6d8848	0.014497824
85	0x3ca3146e	0.019907203
86	0x3ba1ca28	0.004937429
87	0x39f68680	0.00047020987
88	0x3cce1428	0.025156096
89	0xbc9fb55e	-0.019495662
90	0xbc616af0	-0.013758406
91	0x3c9cc25e	0.01913565
92	0xbc27e6b0	-0.010247871
93	0x3c12ed28	0.008967675
94	0x3c9da6dc	0.019244604
95	0xbb99cd10	-0.004693635
96	0x3b0ff5f0	0.0021966659
97	0x3a9af840	0.0011823252
98	0x3abf26c0	0.0014583692
99	0x3ca9f2a0	0.020745575
100	0x3c9a2b34	0.018819429
101	0x3bce1798	0.0062894337
102	0x3cc2411c	0.023712687
103	0xbc8517c6	-0.016246688
104	0xbc3706e0	-0.011171073
105	0xbb79a7c0	-0.0038094372
106	0xbb7825c0	-0.0037864298
107	0xbcacb922	-0.021084372
108	0x3c930de8	0.017950967
109	0x3c6f653c	0.0146115385
110	0x3c59fff4	0.013305653
111	0xba27a140	-0.00063945726
112	0xbc250a38	-0.010073237
113	0x3be55878	0.0069990717
114	0x3cd6f8be	0.026241656
115	0xbc36d9d4	-0.011160333
116	0x3cb1af7c	0.021690123
117	0x3cbe2686	0.023211729
118	0xbca6da0e	-0.020367648
119	0x3969fb00	0.00022314116
120	0x3c0175f8	0.007901661
121	0x3ba450d0	0.0050145164
122	0xbc93fe8e	-0.018065717
123	0xbc901cb2	-0.017591808
124	0x3ceae9de	0.02867597
125	0xba999f40	-0.0011720434
126	0xbc6720dc	-0.014106955
127	0x3ca48b56	0.020085972
128	0x3cb58178	0.022156462
129	0xbccccf1a	-0.025001097
130	0xbc94baf8	-0.01815556
131	0xbc19d9c8	-0.009390302
132	0xbc967240	-0.018365026
133	0x3c0ab830	0.008466765
134	0x3c5dfdb8	0.013549261
135	0x3b67f8a0	0.0035395995
136	0x3bf4a490	0.0074659064
137	0xbce42cea	-0.027853448
138	0xbc502e60	-0.012706369
139	0xbc9dd7ba	-0.019267906
140	0x3cd056b6	0.025431972
141	0x3cecdb48	0.028913155
142	0xbc2dd778	-0.010610454
143	0x3cfb8774	0.030704238
144	0x3c0d2104	0.008613829
145	0x3be3c908	0.006951455
146	0xbcb46ab6	-0.02202354
147	0x3c5d84ac	0.013520401
148	0xbc875c60	-0.01652354
149	0xbbac1c00	-0.0052523613
150	0xbcd64748	-0.026157036
151	0xbc99a814	-0.018756904
152	0x3cb1c00e	0.021698024
153	0x3cba8dc6	0.022772681
154	0x3cf195dc	0.029490404
155	0xbcf98d48	-0.030462876
156	0xb9b06b00	-0.00033649057
157	0x3c9c1912	0.019054923
158	0x3cdb54f8	0.026773915
159	0xbb8f9b48	-0.0043825246
160	0xbcdaa38c	-0.026689313
161	0xbc6c7f38	-0.014434628
162	0x3cd8e038	0.026474103
163	0x3cca6f94	0.024711408
164	0xbc62490c	-0.013811361
165	0x3cb7edf2	0.022452328
166	0x3c91e956	0.017811459
167	0xbb7c0640	-0.0038455874
168	0x3cd8e83a	0.026477922
169	0x3be48b00	0.006974578
170	0xbc89f512	-0.016840491
171	0xbcd1528a	-0.025552053
172	0x3caee9f2	0.021351788
173	0x3c353e84	0.011062268
174	0x3ba8b978	0.0051490627
175	0xbb171e70	-0.0023058914
176	0x3ce2bb72	0.027677272
177	0x3cc5a5d2	0.02412692
178	0x3c1cbf08	0.00956703
179	0xbc1122a4	-0.008858357
180	0x3bdb6320	0.006695166
181	0xbcd620c6	-0.026138674
182	0xbca515aa	-0.020151932
183	0xbce02746	-0.027362477
184	0x3cda1052	0.02661911
185	0xbc45b5ac	-0.01206724
186	0x3c96f8e6	0.01842923
187	0xbbcc5318	-0.0062354915
188	0x3bd262d8	0.0064204745
189	0xbb483eb0	-0.0030554943
190	0xbc9c391e	-0.019070204
191	0x3bfce848	0.00771812
192	0x3c8af8e0	0.016964376
193	0xbcb12750	-0.021625191
194	0x3c41f20c	0.011837494
195	0xbb7887a0	-0.0037922636
196	0xbcc74c76	-0.024328452
197	0x3cacc4e0	0.021089971
198	0x3bf1c908	0.007378701
199	0xbbfad6c0	-0.0076549947
200	0xb949b200	-0.00019235164
201	0x3c658bd8	0.014010392
202	0x3b9c5270	0.0047705695
203	0x3c6bed7c	0.014399882
204	0x3ce496f6	0.027904015
205	0xbcd6de6c	-0.026229106
206	0xbbb74348	-0.0055927373
207	0xbcc9ec42	-0.02464879
208	0x3c79f0c4	0.015255157
209	0xbc3b5e88	-0.011436112
210	0x3cae77dc	0.021297388
211	0x3cfc84f2	0.030825112
212	0xbc84b012	-0.016197238
213	0xbcd0602e	-0.025436487
214	0xbceb6a2a	-0.028737146
215	0x3cf661f2	0.030076
216	0xbcb7ba28	-0.022427633
217	0xbcf9ad8c	-0.030478261
218	0xba13ba80	-0.00056353956
219	0x3c92879a	0.017886925
220	0x3cc04fc4	0.023475535
221	0x3b7d6a10	0.0038667955
222	0xbcd97178	-0.026543364
223	0xbc39c558	-0.011338554
224	0x3ca9f11e	0.020744856
225	0xbc2dbe5c	-0.010604467
226	0x3b875ce8	0.0041309483
227	0xbceddfb6	-0.029037338
228	0xbcf0f514	-0.029413737
229	0xbcd3e442	-0.025865678
230	0xbcec4d26	-0.028845381
231	0xba8f1da0	-0.0010918863
232	0xbcef5b1a	-0.029218245
233	0x3bf010b0	0.007326208
234	0xbcf13a62	-0.029446784
235	0x3be170f8	0.006879922
236	0xbcb7962e	-0.022410478
237	0x3c796858	0.015222631
238	0x3bd99bf0	0.0066409037
239	0x3b3118a0	0.0027022734
240	0xba8be6c0	-0.0010673627
241	0x3c4126b0	0.011789009
242	0xbb9e24a8	-0.004826147
243	0xbc2f0f40	-0.010684788
244	0xbb004e10	-0.001957778
245	0x3c020e20	0.007937938
246	0xbbb4b2d8	-0.005514484
247	0x3cf4d880	0.029888391
248	0x3cb10618	0.021609351
249	0x3c1b1980	0.009466529
250	0xbcabc3a4	-0.020967312
251	0x3aaf76c0	0.0013386831
252	0x39af8d80	0.00033484027
253	0x3ae63140	0.0017562285
254	0x3be07968	0.0068504103
255	0x3cb17460	0.021661937
