models/v4/target_qmix_net.pth (torch, 834236 bytes, 13 tensors)

hyper_w1.0.weight f4 [64, 1024]
000000 34 5f 56 3c 60 cf bc bb d8 62 ee bc 70 16 cc 3b
       0.013084222 -0.0057620257 -0.029099867 0.0062282607
000010 b0 49 61 3c 68 55 16 3c 5c 3a 08 bc ca f2 f9 bc
       0.013750479 0.009175636 -0.008314695 -0.030511279
000020 0c 85 2d 3c 7c c6 2a bc 98 c2 94 3b d4 74 12 bc
       0.010590803 -0.010423299 0.004539799 -0.008938987
000030 5e 74 9d 3c a0 13 97 3b e6 f4 c9 3c 94 fb 9a 3c
       0.019220527 0.004610494 0.02465291 0.01891879
000040 16 ad 9f bc d0 eb 9e 3b 5c fb 53 bc ce d9 da bc
       -0.019491713 0.0048498884 -0.012938347 -0.026715185
000050 40 53 0c bb b4 50 46 bc 86 16 d6 3c e4 ae d0 bc
       -0.0021411926 -0.012104202 0.026133787 -0.02547402
000060 b0 49 b1 bc b6 4d 9e 3c 70 b0 ef bc 64 9a 6c bc
       -0.021641582 0.019324165 -0.029258937 -0.0144411065
000070 34 52 64 bc 82 46 c7 3c fc c5 69 3c 74 78 aa 3c
       -0.013935614 0.024325613 0.014268395 0.02080939
000080 68 63 d0 bc f4 69 5f 3c 90 64 9d 3c 42 70 ef 3c
       -0.025438026 0.013636101 0.019212991 0.029228333
000090 1c 03 6d bc 66 ce 9f bc 3c 0f e8 bc a0 ab f1 3a
       -0.014466073 -0.019507598 -0.028327577 0.0018437989
0000a0 b0 74 9b 3b 20 e3 f7 bb e0 e4 1d bc 58 c6 c8 3c
       0.004744135 -0.007564917 -0.009637088 0.02450864
0000b0 26 20 84 bc 88 6e ee 3b b6 32 aa bc c4 80 b0 3c
       -0.01612861 0.00727636 -0.020776134 0.021545775
0000c0 d8 fc be bb 24 a9 7f bc fc ad 86 bc 40 5a a5 3b
       -0.005828481 -0.015604291 -0.016440384 0.005046159
0000d0 94 06 30 bc d0 ef fe bc f4 c9 44 bc 70 4c 78 3c
       -0.010743756 -0.03112021 -0.01201104 0.015154943
0000e0 8e 90 e0 bc 64 fe 6c 3c ca a6 97 bc b8 25 35 3c
       -0.027412679 0.014464948 -0.018512148 0.011056356
0000f0 38 f8 ca bb 3a 9d 97 3c 40 55 61 ba 8c d8 08 bc
       -0.0061941408 0.018507589 -0.0008595772 -0.00835241
000100 88 a5 ba bc b4 d6 a8 3c 2e 3f a8 bc c0 6e b0 3c
       -0.02278401 0.02061019 -0.020537939 0.021537185
000110 40 2a 97 bc 90 22 99 bb da 7a eb 3c ee fa 80 3c
       -0.018452764 -0.0046733096 0.028745104 0.015744653
000120 30 3e db bc aa 05 c7 bc c0 f8 4b 3c fc ff f0 bc
       -0.026763052 -0.024294693 0.012449443 -0.029418938
000130 a8 b3 9a 3c 5c ae 45 bc e8 eb ec 3c 88 8d a0 3c
       0.018884495 -0.012065496 0.028921083 0.019598737
000140 d6 cb cb 3c 40 d9 e8 ba 1c 84 20 3c 28 3b eb bb
       0.02487747 -0.0017764941 0.009797122 -0.007178683
000150 36 18 ce 3c 40 bc fd 3b 50 65 5a bc a0 d9 b7 3b
       0.025158029 0.0077433884 -0.013329819 0.0056106597
000160 08 e3 29 3c 9e 97 fe bc 4e e3 dc 3c 68 a4 88 bb
       0.01036907 -0.031078156 0.026963856 -0.0041699894
000170 54 ae 95 3c 68 e4 d8 3c 10 eb be bc 84 83 d1 bc
       0.018271603 0.0264761 -0.023305446 -0.025575407
000180 c6 34 89 3c f0 81 5b bb d0 0f 34 bb 9c bc 73 3c
       0.016748797 -0.0033494197 -0.0027475245 0.014876511
000190 70 9c 01 bc 38 46 c4 bb 28 cf 4a 3c 16 9e e8 3c
       -0.007910833 -0.005989816 0.012378491 0.028395694
0001a0 60 1d e3 3c b4 3b 72 3c 3e dd ef 3c 00 f6 28 3b
       0.027723968 0.014784742 0.029280301 0.0025781393
0001b0 d0 04 96 3c b8 a1 c0 3c e0 ec c3 ba 00 af d6 b9
       0.018312842 0.023514614 -0.0014947914 -0.00040947646
0001c0 68 39 a0 bc bc 31 05 3c 66 ad be 3c 00 78 ab 3c
       -0.019558623 0.008129533 0.023276042 0.020931244
0001d0 2c d1 ef bc 20 38 f9 3b d8 26 80 3b 54 e5 ec bc
       -0.029274546 0.0076055676 0.0039108805 -0.028917946
0001e0 4e 86 9a 3c b8 c2 76 bc 3a 4d cd bc 48 56 03 bc
       0.01886287 -0.015061073 -0.025061239 -0.0080161765
0001f0 20 b2 ed 3c a4 43 f8 3c 24 74 8e bc 78 b9 29 3c
       0.0290156 0.030305691 -0.017389365 0.010359161
000200 80 e0 8e bc 16 3a 8c bc f8 f8 dd 3c 6c 07 a6 3c
       -0.017441034 -0.017117541 0.027096257 0.02026721
000210 14 11 f6 bc 62 4d 95 bc 80 82 1d bb a8 2b 5e 3c
       -0.03003744 -0.018225376 -0.0024034083 0.013560213
000220 dc 36 18 bc 70 1f 45 bb b4 02 77 3c 7c cf eb 3c
       -0.009290423 -0.0030078553 0.015076328 0.02878546
000230 5c 1c 00 3c 78 8a bd 3c d2 0b bd 3c 40 fc 17 3a
       0.007819261 0.023137316 0.023076925 0.0005797781
000240 60 93 b4 3c 00 18 18 bc 7e dc c5 bc 86 4d fb 3c
       0.02204293 -0.009283066 -0.02415299 0.030676614
000250 a0 d7 f8 3b 52 7c da 3c ac 41 54 bc c0 0b 9c 3c
       0.007594064 0.026670609 -0.0129551105 0.019048572
000260 94 5f c5 3c d0 0a 01 3c 16 5c b8 bc 72 24 a5 3c
       0.024093427 0.007876113 -0.022504847 0.02015898
000270 54 0b 00 3c c8 fb d0 3c e4 41 56 3c be c8 e1 bc
       0.007815201 0.025510684 0.013077233 -0.027561542
000280 6c d6 1d 3c 9e 16 f5 3c 52 93 e4 bc dc 79 a4 3c
       0.009633642 0.029918011 -0.027902279 0.020077638
000290 66 47 9e 3c 88 0f d9 3c 34 5c e1 3c 18 dd c9 3b
       0.019321155 0.026496664 0.027509786 0.0061603896
0002a0 c2 40 b3 bc c0 82 6f bb 00 43 57 3a 90 7b 3b 3b
       -0.021881465 -0.003654644 0.0008211583 0.0028607585
0002b0 38 e5 e1 3c 28 29 c5 3c 2e e1 a2 3c e0 16 7e 3c
       0.02757512 0.024067476 0.019882765 0.0155083835
0002c0 1c 83 7a bc c0 e8 80 3b 68 37 7b bc c0 b6 ca 3c
       -0.015290048 0.003933996 -0.015333034 0.024745345
0002d0 08 75 15 3c 80 5e 5c 3a 0e d6 83 3c 50 f5 c0 3b
       0.009122141 0.00084064156 0.01609328 0.0058886185
0002e0 30 c9 d4 bc a0 ee 21 bb 00 25 8e b9 38 a5 71 bc
       -0.02597484 -0.0024708882 -0.00027111918 -0.014748864
0002f0 52 8f e6 bc f8 df f6 bb 6a 52 df 3c 08 31 c9 bb
       -0.028144512 -0.0075340234 0.027260978 -0.006139878
000300 a0 17 c8 3a 0e eb be bc 74 85 87 3c c0 bf e7 3c
       0.001526583 -0.023305442 0.016543128 0.028289676
000310 78 88 d5 bc 00 44 9f bc 00 76 cb b9 64 40 eb bc
       -0.02606605 -0.019441605 -0.00038807094 -0.028717227
000320 28 77 ff bb 40 3b c7 bb 00 f3 a4 3c fe f8 d0 bc
       -0.007796187 -0.006080061 0.020135403 -0.025509354
000330 60 66 88 3a 88 73 d4 bc 36 33 96 bc a0 52 07 bc
       0.0010406487 -0.025933996 -0.018334966 -0.008259445
000340 20 1f 11 bb a0 00 87 ba 58 63 e2 3b 7a bc f4 3c
       -0.0022143796 -0.0010299869 0.0069088154 0.029875029
000350 9c 0f 54 3c b0 52 5b 3c 08 3f 7c 3c 78 4a 1d 3c
       0.012943175 0.013386413 0.015395887 0.009600274
000360 6a 93 d1 3c 14 5b 65 bc c4 39 92 bc f2 12 ca 3c
       0.025582988 -0.0139987655 -0.01784981 0.024667237
000370 24 aa aa 3c 00 b4 dd 39 68 34 94 bb 30 c8 dc bb
       0.020833082 0.00042286515 -0.004522849 -0.0067377314
000380 68 67 56 3c b2 da a1 3c 38 1c 83 bc 20 1b 3d 3c
       0.013086177 0.019757602 -0.016004667 0.011542112
000390 ac ea 32 3c 78 3f 61 3c 4a 90 ec 3c cc cd 16 bc
       0.010920208 0.013748042 0.028877396 -0.009204339
0003a0 c0 06 c3 ba 72 22 e4 3c 42 8e 96 bc 06 2d 97 bc
       -0.0014879331 0.027848456 -0.01837838 -0.018454086
0003b0 0c 85 81 bc e6 f6 ea 3c 14 d4 86 3c d0 10 fd 3c
       -0.015810512 0.028682183 0.016458549 0.030891806
0003c0 6c 16 b4 bc c8 b4 75 3c 20 b2 f4 3b 30 12 f5 3b
       -0.021983348 0.014996715 0.007467523 0.0074789748
0003d0 00 dd 7b b9 c0 4a 91 3a 38 3b cd bb 40 44 2e bc
       -0.00024019554 0.0011084899 -0.006263163 -0.010636389
0003e0 24 80 49 bc fc c5 f4 3c 4e b8 e7 bc 22 ec 9a 3c
       -0.0122986175 0.029879563 -0.028286126 0.018911425
0003f0 bc a1 1d 3c 5c 05 56 3c 90 7b 64 3c 60 e0 b6 3c
       0.00962108 0.013062801 0.013945475 0.022323787

hyper_w1.0.bias f4 [64]
000000 b2 bc 86 bc 24 60 9f 3c 88 00 fb bc 80 19 d3 3c
       -0.016447399 0.019455023 -0.030639902 0.025768995
000010 d0 eb 56 bb d8 a3 bb bb 54 f0 73 bc b0 93 dc 3b
       -0.0032794364 -0.005726319 -0.014888842 0.006731473
000020 18 4f c0 bc 40 20 76 bb 2c 29 31 bc b6 57 c3 3c
       -0.023475215 -0.0037555844 -0.010813039 0.023845535
000030 ec bf 90 bc 60 c5 fe ba 30 2f cc 3b d2 b6 ce bc
       -0.01766964 -0.0019437484 0.006231211 -0.02523366
000040 bc 2e d4 3c 98 ad 02 3c 52 c1 a5 3c 60 ea 5f bc
       0.025901191 0.007975958 0.020233784 -0.013666719
000050 da fe fc bc fc a0 ae 3c 60 89 41 3b 46 05 b4 bc
       -0.030883241 0.021316998 0.0029531345 -0.02197517
000060 04 45 ef 3c 18 a2 0a bc 48 e4 8b bb 00 9d ae ba
       0.029207714 -0.008461498 -0.0042691566 -0.0013321936
000070 00 1a 90 3a 10 30 72 3b a0 32 5b bb 00 58 bd 37
       0.0010994077 0.0036954917 -0.0033446923 2.2571534e-05
000080 28 5c f2 3c 2c f4 ed bc d0 84 03 bc 40 45 9a 3b
       0.02958496 -0.029047094 -0.00802727 0.0047079623
000090 4c 47 27 3c 00 4b c9 3a 6c 9b 68 3c 2c 15 42 3c
       0.01020987 0.0015357435 0.014197212 0.011845868
0000a0 98 c4 4b 3c 56 47 c3 3c ae 6c f2 3c e6 99 d2 bc
       0.012437008 0.023837727 0.029592838 -0.02570815
0000b0 18 28 55 bc f2 62 a5 bc 40 09 fe ba 58 05 d3 bc
       -0.013010047 -0.020188782 -0.0019381419 -0.025759384
0000c0 f8 57 4a bc 74 b4 d4 bc 20 14 0b bc cc 4b 73 3c
       -0.012350075 -0.025964953 -0.008488685 0.014849614
0000d0 48 02 53 3c 58 3d 9a 3b 60 c5 cf ba 22 eb 84 3c
       0.012878962 0.00470702 -0.0015851669 0.016225401
0000e0 de b5 ba 3c 04 ae 4d bc 4c 01 2f bc 66 58 ce bc
       0.0227918 -0.012553696 -0.010681462 -0.025188636
0000f0 26 b5 d5 bc 02 67 cb 3c 80 00 3a bc 10 64 44 bc
       -0.026087355 0.024829391 -0.011352658 -0.011986747

hyper_w1.2.weight f4 [128, 64]
000000 66 aa 8a bd 08 93 ef bd a0 76 b8 3b c8 e9 cb 3c
       -0.06770782 -0.11697966 0.0056293756 0.024891749
000010 2c 25 0d bd c0 24 e0 bb 98 d2 d5 bd 98 70 b0 3d
       -0.034459278 -0.0068403184 -0.10440558 0.086152256
000020 f8 34 da 3d 50 fd 72 3d 78 b7 e3 3c 14 35 71 3d
       0.10654634 0.05932361 0.027797446 0.05888851
000030 98 82 59 3d 18 6b e7 bd f8 af b4 bc 18 36 a2 bd
       0.05310306 -0.112997234 -0.022056565 -0.07920474
000040 a0 a6 8b 3d fc 84 4b 3d 28 95 e2 bd 2c 8d b4 3d
       0.068188906 0.04968737 -0.110636055 0.08815989
000050 a4 51 33 3d 8e 92 e4 3d 70 84 dd bc fe 35 e9 3d
       0.04377903 0.111607656 -0.02704069 0.11387251
000060 4c 39 66 bd 38 36 ac bc 80 39 4b bd e0 92 57 bc
       -0.056206986 -0.021021947 -0.049615383 -0.013157576
000070 48 b0 7c bd c4 57 f1 bd 2c 68 1c bd 60 f6 f8 bd
       -0.061691552 -0.11784318 -0.038185284 -0.12156367
000080 88 9f 5b 3d 42 a6 c7 bd 4c 08 fa bd aa b7 df 3d
       0.053618938 -0.09748508 -0.12208614 0.10923703
000090 78 22 cb bd 06 4f 9c 3d 18 b3 4d 3d 2e a6 d2 3d
       -0.09918684 0.0763226 0.050219625 0.102856025
0000a0 84 41 da 3d 60 6e b7 bc 50 ba 0c bc 08 1b c1 bd
       0.10657027 -0.022391498 -0.008589342 -0.09428984
0000b0 ee 62 d8 bd 50 34 cb bd 62 2c f8 3d 90 37 d0 3d
       -0.10565744 -0.09922087 0.1211784 0.10166848
0000c0 c0 d8 06 bc 96 ce c8 bd 00 5d 0a bb 90 0b 4a bc
       -0.008230388 -0.09805028 -0.0021112561 -0.012331858
0000d0 0e 0c e3 bd 80 0f e9 3a e0 a7 b5 bc c8 0c bb 3d
       -0.110862836 0.0017781109 -0.022174776 0.09133297
0000e0 ca 66 c1 bd fc 3f 67 3d 60 de 76 3d 20 02 15 bc
       -0.094434336 0.056457505 0.060270667 -0.009094745
0000f0 88 97 35 3d 20 00 6e 3c 68 36 fe bd 60 5b d8 3d
       0.044333965 0.014526397 -0.12412721 0.105643034
000100 64 68 6a 3d d4 eb 52 3d 10 9e 87 3d 50 2c bd 3c
       0.05722846 0.051494434 0.06621945 0.023092419
000110 ac 07 52 bd 1c 32 3c bd 40 6b 59 bc 90 c9 c0 bd
       -0.051276848 -0.045946226 -0.013270199 -0.09413445
000120 ec 20 b6 bd b4 1c 21 3d 20 5b d1 3d 70 c9 45 bd
       -0.08892998 0.039334014 0.10222459 -0.04828781
000130 b8 b6 96 3d f2 1e d3 bd 28 f1 c2 3c f0 22 e0 bc
       0.073590696 -0.10308637 0.023796633 -0.02736041
000140 b8 a3 6a bd c0 30 8e 3c 38 d3 b5 bc 68 2b 26 bd
       -0.05728504 0.01735723 -0.022195444 -0.04056874
000150 e0 fd 9d 3c 78 ce be 3d f8 7c b1 3c 66 12 c9 3d
       0.019286096 0.093167245 0.021666035 0.09817962
000160 80 5f e3 3b 1c 8d 5a 3d a8 8f 00 3d f6 54 cf bd
       0.0069388747 0.05335723 0.031387 -0.10123627
000170 62 79 8e 3d 58 a9 7a bd 78 32 3c bd 48 09 95 3c
       0.06956746 -0.061196655 -0.04594657 0.018192902
000180 f0 59 3f 3c f0 39 e6 3c 88 6a 2d 3d e0 d2 d9 bb
       0.011679158 0.028103799 0.042337924 -0.0066474527
000190 62 b3 9d bd ce b7 94 3d 34 4f 5e bd ec 4c e3 3d
       -0.0770023 0.072616205 -0.054274753 0.11098656
0001a0 b4 5f 79 bd 8e 6e b2 3d 40 25 f5 bb de 23 a0 bd
       -0.060882285 0.08712493 -0.007481247 -0.07819341
0001b0 64 3b 77 3d 10 34 ee bc 08 95 05 3d 80 04 79 bb
       0.060359374 -0.02907756 0.03261283 -0.0037997067
0001c0 e8 1e 84 bd 28 e8 9b bc e0 80 d4 bd 00 b0 e7 38
       -0.064512074 -0.0190316 -0.103761435 0.00011047721
0001d0 2c c0 2a 3d ac 86 08 bd c8 4d e1 bc c8 8e d8 3d
       0.041687176 -0.033331558 -0.02750291 0.10574108
0001e0 6a 9f d0 3d c0 e3 59 bd e4 7e f0 bd 80 84 24 bd
       0.10186656 -0.053195715 -0.117429525 -0.040165424
0001f0 40 f0 a1 bb 9c 90 a3 bd 12 50 b4 3d b4 6f 5f bd
       -0.00494197 -0.079865664 0.08804335 -0.054549888
000200 4c 5a 3e 3d 30 8f ba bd b0 84 0e bd f6 14 ac 3d
       0.046472833 -0.09109342 -0.03479451 0.084024355
000210 36 f8 bf 3d c0 05 cf 3d 00 b5 40 ba 40 16 4a bd
       0.09373514 0.101085186 -0.000735119 -0.049337626
000220 b4 05 61 bd 80 6b 23 3c b4 ca 79 3d 20 f4 a3 bc
       -0.05493708 0.0099743605 0.06098433 -0.020013869
000230 e0 d0 e7 bb c0 15 50 3d 50 05 df bc 50 20 b5 3d
       -0.0070744604 0.050801992 -0.027224213 0.08844054
000240 e2 61 ac bd cc 57 b2 bd 7c c6 2a bd b4 cd 68 3d
       -0.08417107 -0.08708152 -0.041693196 0.0568368
000250 f8 cd f9 bd 5c fb eb bd f2 4c a9 bd 4e 3d f5 3d
       -0.121974885 -0.11522552 -0.08266629 0.119745836
000260 92 f6 97 bd 30 9b 89 3c 00 ae 13 bd 24 bc 2f bd
       -0.074200764 0.016797632 -0.03605461 -0.042904034
000270 1c c1 20 3d 50 87 2d 3c f2 0d 9d 3d a6 86 ae 3d
       0.039246663 0.010591343 0.076686755 0.08521776
000280 70 43 62 3c 38 91 86 bd 20 cb 8a bd 60 da bc 3b
       0.013810024 -0.06570667 -0.06777024 0.005763337
000290 1c 9e cd 3d 50 13 82 3d 5e 4c aa bd 80 1d 36 3b
       0.100399226 0.0635134 -0.08315347 0.002778858
0002a0 22 6c a6 bd 88 f3 63 bd 3c ce 4d 3d 18 2c 81 3d
       -0.081260934 -0.05565217 0.05024551 0.06307238
0002b0 74 e6 a9 3d 46 b5 bf bd c0 42 db 3c e4 50 a6 3d
       0.082959086 -0.09360747 0.026765227 0.081208974
0002c0 dc 15 e1 bd b4 81 a0 3d e8 30 7a 3d ac 8b bb bd
       -0.109904975 0.07837239 0.061081797 -0.091575
0002d0 5e 55 8b 3d ac 30 fd bd b2 e3 a9 3d a0 4c f0 bd
       0.06803392 -0.12362799 0.082953826 -0.11733365
0002e0 a0 ff d7 3b 64 68 b2 3d 9c 33 ee bd cc 51 39 3d
       0.006591752 0.08711317 -0.116309375 0.045244023
0002f0 46 21 f9 bd 64 00 b9 bd c2 59 9a bd 68 5f b2 3c
       -0.121645495 -0.09033278 -0.07536651 0.021774009
000300 58 0c e8 bc 90 56 c9 bc c0 5d cc 3d 1e 0b a2 bd
       -0.028326198 -0.024577409 0.09978819 -0.07912277
000310 46 07 81 3d be c3 ed 3d 1c 7e d6 bd 68 ea e8 3d
       0.063002154 0.116096005 -0.10473272 0.113728344
000320 90 fe e0 3d ec c9 16 bd 84 a4 32 3d be c6 b7 3d
       0.10986054 -0.03681366 0.043613926 0.08973454
000330 b0 d4 af 3c 5c 74 09 bd 8e 0f c9 3d 60 5f a0 bb
       0.021463722 -0.033558235 0.0981742 -0.004894182
000340 90 97 a8 bd e8 27 54 3d 10 83 e3 3d c0 50 e4 bc
       -0.08232033 0.05179587 0.111089826 -0.027870536
000350 da f5 86 3d 50 9a a7 3d e0 54 65 3c ac 9e 4b 3d
       0.06589861 0.0818373 0.013997287 0.04971187
000360 82 d4 f2 bd 8c f6 c4 bd 42 54 ea bd fc c3 91 bd
       -0.11856939 -0.096173376 -0.11441852 -0.07117459
000370 9c 62 5f bd ea 50 ce bd e4 8e a7 3d 04 9d bd 3d
       -0.0545374 -0.10074027 0.08181551 0.09258464
000380 c6 80 ba 3d e8 54 72 3d f2 65 e2 bd a0 60 b8 3d
       0.09106593 0.059163004 -0.11054601 0.09002805
000390 14 06 10 bd ca ba c5 3d 1e 96 d5 3d 98 82 02 bd
       -0.035162047 0.09654768 0.10429023 -0.031862825
0003a0 1c 6d d9 3d 60 20 f6 bb 00 ee 49 bb 62 3a ea 3d
       0.10616514 -0.0075111836 -0.0030812025 0.11436917
0003b0 a8 9c 66 bd 4c c6 a0 bd b0 b3 0e bd 72 77 f9 bd
       -0.056301743 -0.07850322 -0.034839332 -0.121809855
0003c0 94 fd ee 3d 40 31 cf 3d 00 70 d5 bc 00 e8 f9 3b
       0.1166946 0.101168156 -0.026054382 0.0076265335
0003d0 3c 67 b0 3d c6 bc c8 bd 80 b5 96 bb 48 18 62 bd
       0.086134404 -0.09801631 -0.004599273 -0.055198938
0003e0 5c 97 e7 3d 78 89 fe 3c 20 19 da 3b be f7 cd bd
       0.113081664 0.03107141 0.006655827 -0.10057019
0003f0 44 a6 89 bd 68 5e d6 bd 9a 3e f9 bd f6 55 af bd
       -0.06721166 -0.10467225 -0.121701434 -0.085613176

hyper_w1.2.bias f4 [128]
000000 88 ae cd bc 56 5d e2 bd 24 80 4c bd 00 ec 5e 3c
       -0.025107637 -0.11052959 -0.049926892 0.0136060715
000010 34 89 60 3d a0 13 9b bd ca 70 8e bd 84 7e 95 bd
       0.054818347 -0.075721025 -0.069551066 -0.072995216
000020 04 3e 46 bd d8 df 6a 3d 88 f8 ac bd 80 8d b3 3a
       -0.048398986 0.05734238 -0.08445841 0.0013698786
000030 18 0b a5 bd f0 a5 02 3c 26 f9 80 3d 20 ff bd bd
       -0.080587566 0.007974133 0.06297521 -0.09277177
000040 38 7b cd bd ae 14 a2 bd 66 2e c4 bd 6a 52 c6 3d
       -0.10033268 -0.079141006 -0.09579162 0.09683688
000050 c0 49 e5 bd 38 50 bf bd d8 cb da 3c 2e a8 f9 3d
       -0.11195707 -0.093414724 0.026708528 0.12190281
000060 46 fc ea 3d ae 6e af 3d c0 b9 94 bc 74 85 55 bd
       0.114738986 0.08566032 -0.018154979 -0.052129224
000070 40 a7 b4 3d 00 f2 f3 ba 24 3a 32 3d e2 22 be 3d
       0.08820963 -0.001861155 0.04351248 0.09283997
000080 86 8e c5 3d 34 31 1c bd 46 d5 f0 bd 90 cf c5 bd
       0.09646325 -0.03813286 -0.11759429 -0.0965873
000090 3e 5f e2 bd 5c ef 1f 3d ee 00 f7 3d 76 f0 ab 3d
       -0.11053322 0.03904663 0.12060724 0.08395474
0000a0 b6 24 d1 3d 1c 4d 60 bd 2c dc 48 3d 86 6a a6 bd
       0.1021208 -0.054761037 0.049038097 -0.081257865
0000b0 4c fa 17 bd 60 b8 af 3c b8 f2 2f 3d ca 80 98 3d
       -0.037103936 0.021450222 0.042956084 0.074464396
0000c0 38 fd 4a 3d d2 7a 83 bd 34 20 f2 bd 64 19 8d 3d
       0.049557894 -0.064199105 -0.118225485 0.068896085
0000d0 7a ca 93 3d 9c c5 b2 3d 18 bc a4 bd 60 33 b1 bc
       0.07216354 0.08729097 -0.080436885 -0.021630943
0000e0 dc 33 fa bd 56 99 d2 bd 1c 44 18 bd c0 da fe 3c
       -0.12216923 -0.10283153 -0.03717433 0.031110168
0000f0 18 0c f8 bd 7c af cc 3d 54 50 1c bd a8 8e 82 bd
       -0.12111682 0.099944085 -0.038162544 -0.06374866
000100 00 4e bf bd 5c 23 20 3d 12 00 f5 3d ea 13 b2 bd
       -0.09341049 0.03909622 0.11962904 -0.086952046
000110 78 e5 f9 bd 3c 89 b4 bd 24 0d 7a 3d 6c 75 f6 bd
       -0.12201971 -0.08815238 0.061047688 -0.12034115
000120 88 3e 35 3d 78 a0 c3 bc 50 5c e6 3c d6 6c e2 3d
       0.044249088 -0.023880228 0.02812019 0.11055915
000130 a0 38 5d 3c 82 01 80 bd 42 9d b3 bd 00 10 14 ba
       0.01350227 -0.062502876 -0.08770229 -0.0005648136
000140 68 3b 9d bc 00 81 ea bb 74 d8 f9 bd f2 8d f8 bd
       -0.019193366 -0.0071564913 -0.12199488 -0.12136449
000150 48 e6 9c bd 70 04 13 3c 52 3f e3 bd 74 04 90 bd
       -0.0766111 0.008973226 -0.11096062 -0.07032099
000160 4c ae ce bd c2 9b f5 3d a8 31 92 bc 1e 37 d9 bd
       -0.10091838 0.11992599 -0.017845944 -0.10606216
000170 36 90 86 3d a0 eb d7 bd 00 2c 52 39 40 38 de bc
       0.06570475 -0.10542989 0.00020043552 -0.027126431
000180 70 34 c0 3d 36 75 fc bd 12 c9 f6 bd b0 8d 84 bd
       0.09385002 -0.12327044 -0.1205007 -0.06472337
000190 40 ea 56 3d ee 62 c2 3d 00 3f d1 bc 20 1e 4a bd
       0.052469492 0.094915256 -0.025542736 -0.049345136
0001a0 e0 e2 da bd d0 c2 8d 3c e8 38 74 3d d8 cb 1a bd
       -0.10687804 0.017304808 0.059624583 -0.037792057
0001b0 d0 87 19 bc 64 6b 77 bd 4a d2 ae bd 58 d6 98 3c
       -0.009370759 -0.06040515 -0.08536203 0.018656895
0001c0 5a 26 d2 3d 54 f8 3a 3d 42 45 82 bd c8 c3 13 bd
       0.10261221 0.04564698 -0.06360866 -0.036075383
0001d0 1e a8 ed bd 74 e7 3b bd 80 a3 76 3b a0 df ba 3c
       -0.116043314 -0.045875028 0.0037634075 0.02281171
0001e0 d2 eb 9f 3d d8 4f 55 bd 58 0e 7b bd 10 4b d7 3c
       0.07808651 -0.052078098 -0.061292976 0.02628091
0001f0 6a d2 b5 3d 8c 8b 23 3d f0 2a 58 bd 0c 5f b9 bd
       0.08878024 0.039928004 -0.052775323 -0.09051332

hyper_w2.0.weight f4 [64, 1024]
000000 50 35 77 3c 6a bf dc bc a0 25 d4 3b aa 47 de 3c
       0.015088394 -0.026946742 0.006474212 0.027133781
000010 58 9a aa 3c d0 09 63 bb a2 e2 96 bc e6 d3 f8 3c
       0.02082555 -0.00346433 -0.018418614 0.030374479
000020 a4 0b 4e bc ee 8e ae bc 30 00 c1 bc a4 1b 82 bc
       -0.0125760175 -0.021308389 -0.02355966 -0.01588232
000030 80 4d f5 3a 08 22 5e bc 18 6e aa 3b 40 69 81 3a
       0.0018715113 -0.013557918 0.0052011125 0.0009873286
000040 60 eb 6c 3b 80 f7 79 3a e0 44 f3 3c 00 ae b9 b9
       0.0036151037 0.00095354766 0.029695928 -0.0003541559
000050 c0 ab 31 3b b0 19 ea bc 96 f4 b7 3c 20 3f cc 3b
       0.0027110428 -0.028576702 0.022455495 0.006233111
000060 7c 1c 29 3c 42 4d ff bc 46 e7 b7 bc d4 3a b5 bc
       0.010321733 -0.03116477 -0.022449147 -0.022122778
000070 b2 39 a3 3c 6c 1a f9 bc 98 a3 85 3c 38 d9 ef 3c
       0.019924972 -0.030408107 0.01631336 0.029278383
000080 ac 09 86 bc c0 7c ac 3b 30 e8 d7 bc 54 bc 6a 3c
       -0.016362034 0.005263895 -0.026355833 0.0143271275
000090 e0 c2 92 3c 10 11 70 3c a4 25 6a 3c f0 ea dd bb
       0.01791519 0.0146525055 0.014291201 -0.0067723915
0000a0 c8 ed f3 3b 50 50 2f 3b 18 23 ac 3c 6e ee c0 3c
       0.007444117 0.002675075 0.021012828 0.023551192
0000b0 46 ef e8 bc 60 0f 3b 3c d8 b4 cc bb b0 52 c3 bc
       -0.028434407 0.01141724 -0.006247144 -0.02384314
0000c0 9e 85 d4 bc 68 e4 48 bc e0 74 18 bb dc 46 f7 3c
       -0.02594262 -0.012261488 -0.0023263022 0.030185156
0000d0 46 f9 96 3c 98 48 8a bc c0 5f 8f bc 94 28 93 3c
       0.01842941 -0.016880319 -0.017501712 0.017963685
0000e0 84 e4 7c bc 54 8e 68 3c e8 e8 bf 3b 34 fc f4 3c
       -0.015435342 0.01419409 0.005856622 0.029905416
0000f0 80 ed ad bc c0 f1 26 bb 3c fb e6 3c cc d8 c6 bc
       -0.021231413 -0.0025473684 0.02819597 -0.024273299
000100 94 27 cd bc 00 36 e4 3a a8 2b e8 3b c0 58 5b ba
       -0.025043286 0.0017411113 0.0070852824 -0.0008367412
000110 f8 9f 16 bc 9a 5a ff bc b8 27 b7 bb 78 05 30 3c
       -0.009193413 -0.031171132 -0.0055894516 0.010743491
000120 ec 95 db bc 44 56 06 3c 00 b6 3e 3b 90 c8 f5 bb
       -0.026804887 0.008199278 0.002910018 -0.0075007156
000130 88 38 87 3c 70 6f 44 bb fc fc c9 bc da da e4 3c
       0.016506448 -0.0029973648 -0.024656765 0.027936388
000140 a8 8f 97 3c e8 79 c7 bc 48 8b 35 3c 40 1b a8 bc
       0.018501118 -0.024350122 0.0110805705 -0.020520806
000150 9c 0e b4 3c 38 53 f1 bb 32 16 c4 3c 72 59 ce 3c
       0.021979623 -0.007364657 0.023936365 0.025189135
000160 80 f8 56 bb c0 a5 d5 bb 2e 7f ee bc 90 47 8e bc
       -0.0032801926 -0.006520003 -0.029113378 -0.017368108
000170 dc b1 52 3c 28 b8 b5 bc 4c 1c e0 bc 68 00 4d 3c
       0.012859788 -0.02218254 -0.027357243 0.012512304
000180 80 63 78 3a 48 84 ec 3b bc b3 4d 3c 9c 95 f0 3c
       0.0009475276 0.0072179176 0.012555059 0.029368214
000190 94 d4 5a bc 08 f9 c9 bb c4 22 7c bc 00 bd c5 3a
       -0.013356347 -0.00616372 -0.015389148 0.0015086234
0001a0 d8 a6 74 bc 58 7e a2 3b e0 0a a7 bc fe 33 b0 3c
       -0.014932357 0.004958909 -0.020390928 0.021509167
0001b0 fc f6 2c bc a0 79 6a bc 00 44 9f ba 00 6b cd 3c
       -0.010556933 -0.014311224 -0.0012151003 0.025075436
0001c0 40 38 2b 3a f4 d9 dd bc 2c 63 83 bc 06 c7 df 3c
       0.0006531514 -0.027081467 -0.0160385 0.027316581
0001d0 90 6e 76 bb a8 1c fa bb f8 bd 51 bc 54 7c 62 bc
       -0.0037602521 -0.0076328106 -0.01280164 -0.013823587
0001e0 00 13 5f 3c 0a 57 c0 bc 58 d6 61 3c 1e 82 a8 3c
       0.01361537 -0.023479003 0.013784014 0.020569857
0001f0 8c bf f5 3c 44 e0 f8 3c 30 7d 65 bb 9c d6 25 bc
       0.029998563 0.030380376 -0.0035017245 -0.010121968
000200 ae fe 92 bc 72 c5 82 bc cc 9e 76 bc 50 cb 37 bc
       -0.017943706 -0.01596329 -0.015052509 -0.011217907
000210 40 57 03 ba 20 60 cc 3b 40 ba fc 3a a8 6f b5 3c
       -0.00050102547 0.006237045 0.0019281581 0.022147968
000220 c0 2f 6b 3a 62 42 c4 bc 36 0b d8 bc 8c f5 a7 bc
       0.0008971654 -0.023957435 -0.026372533 -0.020502828
000230 94 1c af 3c 30 7b ae 3b 70 07 29 3c 20 61 82 3a
       0.021375932 0.0053247437 0.010316715 0.0009947158
000240 52 ef 9e bc 00 36 1d b9 e4 2d d0 3c 98 09 1b 3c
       -0.019401226 -0.00014992803 0.025412507 0.009462737
000250 50 d9 fe bc 24 fc cf bc fc 70 9d bc 00 ab c8 3c
       -0.031109482 -0.025388785 -0.019218914 0.024495602
000260 b0 12 74 3b aa 70 e0 3c 44 fa 6d bc 98 3b e6 bc
       0.0037242584 0.027397472 -0.014525 -0.028104588
000270 44 b7 16 bc ea 4f 8f 3c c8 46 0a 3c c0 9b ea 3b
       -0.009198967 0.01749416 0.008439727 0.00715968
000280 10 87 db 3c f2 a9 b0 3c 60 ca 47 bc a0 ef a4 bc
       0.026797801 0.021565411 -0.012194246 -0.020133793
000290 30 89 e8 bb 7a dd c3 bc 10 44 52 bb aa 38 cf bc
       -0.007096432 -0.02390932 -0.0032084025 -0.025295574
0002a0 72 e5 d2 bc ac 88 5c bc 7c 41 f9 3c 5c fc fb bc
       -0.025744174 -0.0134603195 0.030426733 -0.030759983
0002b0 02 a1 e7 bc aa 57 83 bc 26 ac d7 3c 66 bd b2 bc
       -0.028275017 -0.016033012 0.026327204 -0.021818828
0002c0 c0 63 c0 3a 28 f3 55 3c d8 35 54 bc 80 14 27 ba
       0.0014678165 0.013058461 -0.0129522905 -0.0006373599
0002d0 f0 3e 3d bc e4 33 7e 3c 40 70 99 bc 80 39 71 3b
       -0.01155065 0.015515301 -0.018730283 0.0036807954
0002e0 7c 39 b8 3c 14 bd 01 bc 1c 8b 77 3c b0 2c 9c 3b
       0.022488348 -0.007918615 0.01510885 0.0047660694
0002f0 78 bf ab bb 80 1c cd bc e8 60 ca bb 20 fd 89 bc
       -0.0052413307 -0.025038004 -0.006176103 -0.016844332
000300 3c 04 59 3c 1a dd a2 3c 16 97 e2 bc 9a 47 e4 3c
       0.013245638 0.01988082 -0.027659934 0.027866174
000310 00 11 62 bb 00 54 4e 38 c4 38 3b bc 40 b5 8f bc
       -0.0034494996 4.919246e-05 -0.011427108 -0.017542481
000320 b2 69 b4 3c 58 81 52 3c f6 24 b3 bc b6 bc ef 3c
       0.022023056 0.012848221 -0.02186821 0.02926479
000330 80 04 8c b9 06 b7 e6 3c 20 ee ed 3c d8 e9 d9 3c
       -0.00026706234 0.028163444 0.02904421 0.026600763
000340 e0 f4 47 3c 44 51 96 3c 62 0f ff 3c 20 90 65 3b
       0.012204379 0.018349297 0.031135265 0.0035028532
000350 3e a4 c6 3c d8 90 9b bc e0 22 d7 3b 26 91 b4 bc
       0.024248239 -0.018989965 0.0065654367 -0.022041868
000360 d8 cd b1 bc d4 b5 43 bc e2 36 9c bc 88 40 0f 3c
       -0.0217046 -0.011945207 -0.019069139 0.008743413
000370 84 a5 7e bc 18 b0 33 3c 80 a7 3f 3c a8 dd 90 bb
       -0.015542392 0.010967277 0.01169765 -0.0044209547
000380 78 e9 ba bb 48 2b 39 3c b4 ad ed 3c 70 53 a5 bb
       -0.005704101 0.011301823 0.029013492 -0.005045347
000390 50 aa d4 bb 00 61 14 b9 08 f5 44 3c 08 2d 57 bc
       -0.0064900294 -0.00014150515 0.012021311 -0.013133295
0003a0 6c 8e b1 3c 6e a2 cb bc b6 44 e4 bc 3a 4e 96 bc
       0.021674357 -0.024857726 -0.027864795 -0.018347848
0003b0 f0 4b 25 3b e2 09 e0 3c 24 7b 90 bc 58 1d 6f 3c
       0.0025222264 0.027348462 -0.017636843 0.014594398
0003c0 2c 1d bd 3c 96 75 c8 3c 10 86 6d bc d0 a7 f9 bb
       0.0230852 0.024470132 -0.014497295 -0.0076188818
0003d0 12 ab 8a 3c 34 04 3c bc ec f8 d8 bc d6 66 f2 bc
       0.016927276 -0.0114756115 -0.026485883 -0.029590052
0003e0 22 e9 ca bc 36 af c3 3c 40 1d 10 3c 7c 8b 26 3c
       -0.02476937 0.023887258 0.008796036 0.010165092
0003f0 50 18 84 3b 4c b5 8a bc a8 09 a8 3b 40 58 00 3a
       0.0040312186 -0.016932152 0.0051281042 0.0004895963

hyper_w2.0.bias f4 [64]
000000 40 1f 64 bb b4 bd d7 bc 88 e3 e6 3b be c2 91 bc
       -0.0034808666 -0.026335575 0.007046167 -0.017793056
000010 c8 7e 92 bb 54 7c d2 3c c8 52 f1 bb d2 f0 fc bc
       -0.00447068 0.02569405 -0.0073646046 -0.03087655
000020 6c 30 60 3c 4c a6 1b bc 9c 71 a7 bc 04 73 c0 bc
       0.01368342 -0.0095000975 -0.020439915 -0.023492344
000030 94 50 16 bc 3c a9 dd 3c 3e d6 d6 3c ba c2 ac 3c
       -0.009174485 0.027058236 0.026225206 0.021088947
000040 34 f5 9d bc 16 de 91 bc 1c bc 22 3c c4 18 77 3c
       -0.019281961 -0.017806094 0.009932544 0.015081588
000050 70 76 3c 3c ee c8 94 3c 94 a1 9c 3c 98 65 9c bc
       0.011502847 0.018162217 0.019120015 -0.019091412
000060 c8 64 32 bc e0 f8 b3 bc e0 64 91 ba 00 96 fb bc
       -0.010888286 -0.021969259 -0.0011092685 -0.030711174
000070 52 95 88 bc 66 82 ee bc 02 7f d2 bc 14 9d bf 3c
       -0.016672764 -0.029114913 -0.025695328 0.02339033
000080 6e 49 8c bc a0 2e fe 3b c6 f4 bf 3c 80 4a 5b 3c
       -0.017124858 0.007757023 0.023432147 0.013384461
000090 a0 5b 01 bb 98 77 07 3c 00 05 3a 3c 60 d7 19 3c
       -0.001973845 0.0082682595 0.011353731 0.009389728
0000a0 7a 83 f9 3c 7c 01 08 bc e0 8d 66 3c fc b4 3a bc
       0.0304582 -0.008301135 0.014071912 -0.011395689
0000b0 e8 c6 c4 3c 04 77 2d bc 68 ad cd bb 04 5a b1 bc
       0.024020627 -0.010587458 -0.006276775 -0.021649368
0000c0 e0 a3 7d bb be 96 eb 3c 50 02 88 3b dc ba 3c bc
       -0.0038702413 0.028758403 0.0041506663 -0.01151916
0000d0 c8 1b ec 3b 90 d2 3b bb 68 8d 17 3c 00 46 0e bb
       0.00720546 -0.002865944 0.0092500225 -0.0021709204
0000e0 d0 66 c6 bb 00 8f b8 3b e2 2f f2 bc 7e a1 ed 3c
       -0.0060547367 0.0056322813 -0.029563848 0.02900767
0000f0 7e cd db bc 7e d9 c4 3c 38 cd ed 3b da 84 91 bc
       -0.026831385 0.02402949 0.00725713 -0.017763544

hyper_w2.2.weight f4 [32, 64]
000000 e4 1e 88 3d 46 b4 bf bd 50 84 81 bc 26 e3 a7 3d
       0.06646517 -0.09360556 -0.015810162 0.08197622
000010 2c 40 23 3d 40 1a e6 bb c8 ce bd bd 60 17 a6 bb
       0.03985612 -0.007022172 -0.09267956 -0.0050687045
000020 46 eb ad 3d a8 fc 9c bd 76 cd 9f 3d f2 35 9d 3d
       0.084921405 -0.07665378 0.078028604 0.07676305
000030 30 73 53 bd c8 f9 f4 bd c0 e1 14 3c 40 3c 4a 3b
       -0.051623523 -0.119617045 0.009087026 0.0030858666
000040 aa 2e 88 bd 58 a7 2e 3d 14 2b 77 3d 58 fe 6a bd
       -0.066495255 0.04264006 0.060343817 -0.057371467
000050 1c dc cc bd 80 36 7e bb 7e aa b6 bd fc 5b b4 3d
       -0.1000292 -0.0038789809 -0.089192376 0.08806607
000060 14 52 48 bd ac 86 db 3d e2 f5 dd bd a6 61 87 3d
       -0.0489064 0.10719046 -0.10837914 0.06610422
000070 fa 11 c9 3d 50 76 b9 bd 80 84 24 3c 3e 27 8a 3d
       0.09817882 -0.090557694 0.010041356 0.06745766
000080 a2 ff be bd a2 61 d2 3d 54 3a b7 3d da be bd bd
       -0.09326102 0.10272528 0.08946672 -0.09264918
000090 96 2a 9f 3d 50 2f ee bc 00 20 33 ba 7a 5e aa bd
       0.077717945 -0.029075295 -0.00068330765 -0.08318801
0000a0 c0 0a 6e bd 96 b3 b6 bd 40 04 62 3b fa 3a 98 bd
       -0.05811572 -0.08920972 0.0034487396 -0.07433124
0000b0 30 69 9f 3d 80 11 7f 3c 38 2c 3a bd c0 a2 06 3c
       0.07783735 0.015568137 -0.045452327 0.008217514
0000c0 90 b5 10 3d 1c 72 64 bd 90 7b 21 bd e0 31 a8 bc
       0.0353294 -0.055772886 -0.03942448 -0.020531595
0000d0 0e c1 db bd e6 c9 83 bd 8a c3 f5 3d 08 97 30 3d
       -0.10730182 -0.064349934 0.12000187 0.043112785
0000e0 92 be da 3d 50 80 6c bd a0 fa e0 3b f6 78 ed 3d
       0.1068088 -0.057739556 0.0068658143 0.11595337
0000f0 16 0e de bd 78 84 b1 bd 80 ee 25 3b 3c 7f 2e bd
       -0.108425304 -0.086678445 0.002531916 -0.04260181
000100 30 76 c9 3d a8 a0 f3 bd 80 3c 06 3b 72 f2 bc bd
       0.098369956 -0.11895877 0.0020482838 -0.0922593
000110 94 94 f5 bd ac 13 90 bd 38 e7 08 3d 50 f6 3d 3c
       -0.1199123 -0.07035002 0.033423632 0.01159437
000120 4a cc a3 3d 44 d9 12 bd c4 f4 44 3d e0 86 c5 bb
       0.079979494 -0.035851732 0.04808499 -0.0060280412
000130 e0 ba 88 bb da e9 ed bd 40 2e 52 3d 04 db 38 3d
       -0.004172668 -0.11616869 0.05131364 0.045130745
000140 6e 6b 87 bd 20 dd d6 3c 80 52 9f 3d 80 4c 10 3b
       -0.066122875 0.026228487 0.077794075 0.0022018254
000150 30 31 40 bd d8 e5 df bd 0c fd a6 bd 60 c6 0d bd
       -0.04692191 -0.10932511 -0.081537336 -0.034613013
000160 80 9e ad 3d 3c 3a 1d bd 84 89 1b bd 8c 06 c9 3d
       0.08477497 -0.038385615 -0.037972942 0.09815702
000170 b0 17 36 bc f0 8d 71 3d c8 35 c4 bd 24 9c 67 3d
       -0.011114046 0.058973253 -0.095805705 0.05654539
000180 ec 60 2a bd 80 6b c5 bd 4a 48 fc 3d 00 26 94 ba
       -0.04159634 -0.096396446 0.123184755 -0.0011302829
000190 48 bd da bc 98 47 e2 3c 9c 17 d6 3d 80 a9 d9 bb
       -0.026701584 0.02762203 0.10453722 -0.0066425204
0001a0 f6 b2 a7 3d 78 6d a8 3d e0 ff 5d bd 54 c7 db 3d
       0.08188431 0.082240045 -0.0541991 0.10731378
0001b0 70 87 c6 bc 7e 5b d9 bd 28 aa 36 bd 0c 20 1a bd
       -0.024234504 -0.10613154 -0.044595867 -0.03762822
0001c0 d0 9e 11 bc dc 7f 2b bd 5a d3 b2 bd 60 ca 1f bd
       -0.0088879615 -0.041869983 -0.08731718 -0.03901136
0001d0 fc 36 ed 3d 1c 34 03 bd b6 1a db bd 00 fd 0c bd
       0.11582753 -0.032032117 -0.10698454 -0.034420967
0001e0 4c 2d 0b 3d a8 57 d6 bd 28 a9 90 bd 90 73 2e bc
       0.033978745 -0.10465938 -0.07063514 -0.010647669
0001f0 a0 ad be 3d de 58 e1 bd d0 ec 21 bc 84 8d 6e 3d
       0.0931046 -0.11003278 -0.009883121 0.05824043
000200 18 c6 d2 bd 9e 7b e5 bd 0c 44 f0 bd 38 5d cc bc
       -0.1029169 -0.11205219 -0.11731729 -0.024946794
000210 24 9b 4d bd 60 97 b9 bb c6 6e fe 3d f2 90 ab bd
       -0.05019678 -0.0056637973 0.12423472 -0.083772555
000220 d8 b2 b5 bd 40 75 c3 3d ec 71 6c 3d 94 61 ff bd
       -0.08872002 0.09543848 0.057725832 -0.124697834
000230 86 ee 8e 3d 04 eb b5 3d f2 f4 97 bd 10 a8 a1 3c
       0.069790885 0.08882716 -0.074197665 0.019733459
000240 10 fb 9c 3c 28 70 5d bd 96 f5 fe 3d d6 dc 8e bd
       0.019162685 -0.05406204 0.124491856 -0.06975715
000250 62 1a 9e 3d 6e b1 a7 3d 22 95 bb 3d 30 d0 1e bd
       0.07719876 0.08188139 0.09159304 -0.03877276
000260 9a 38 e4 bd 08 0e aa bd 14 9c d4 bd 38 75 8a bd
       -0.111436084 -0.083034575 -0.10381332 -0.06760639
000270 a2 f9 90 bd b0 24 11 3c f8 42 f3 3d b8 97 c2 bc
       -0.07078864 0.008858845 0.11878008 -0.023753986
000280 00 df eb bb 44 a4 6b 3d a8 61 14 3d ee 54 e0 bd
       -0.0071982145 0.057529703 0.036225945 -0.10953699
000290 f8 3f 00 3d 3c 34 ec 3d e0 e8 43 bc ac 1b 3b bd
       0.031311005 0.115334004 -0.011957377 -0.045680687
0002a0 46 5a fc bd 90 ba 51 bd 88 20 0d 3d f0 d9 e0 3c
       -0.12321906 -0.05120331 0.034454852 0.02744767
0002b0 c0 4a 83 3c 54 2d b3 3d 32 ca e2 3d 24 15 86 bd
       0.016026855 0.0874888 0.11073722 -0.06547001
0002c0 28 f0 4f bd 40 88 e4 bd 86 2c 9a 3d 84 e8 81 3d
       -0.05076614 -0.111588 0.075280234 0.06343177
0002d0 38 6a bf 3c 80 70 ce 3c 96 24 84 3d b6 6a eb bd
       0.023366079 0.025200129 0.06452291 -0.11494963
0002e0 a8 46 ef 3d 00 d2 e4 ba d8 51 d1 3d fa 24 f0 3d
       0.116833985 -0.0017457604 0.102206886 0.11725803
0002f0 16 7c 95 bd 60 43 71 bc 8e dc d4 bd 64 1b f9 3d
       -0.07299058 -0.014725536 -0.1039363 0.121634275
000300 f8 f9 20 bd 14 4d da 3d b2 df f4 3d 02 e4 a5 bd
       -0.03930089 0.10659233 0.11956729 -0.0810013
000310 10 92 34 3c a8 8e 44 bd 20 de 80 bd e0 6f 3f bd
       0.011021152 -0.04798761 -0.06292367 -0.04673755
000320 70 a8 7d 3d f4 15 a0 3d a4 c8 14 3d 34 e0 83 3d
       0.061928213 0.07816687 0.03632416 0.06439248
000330 80 b2 35 3b f0 e6 a2 bc 98 48 62 3d 3a 22 9e bd
       0.0027724802 -0.01988551 0.055245012 -0.07721372
000340 1e 19 ac 3d d0 e3 cb bd 78 b7 df bd 18 fa 65 bd
       0.08403228 -0.09955561 -0.10923666 -0.05614671
000350 14 26 dc bd b4 08 34 bd 56 07 93 bd a0 a5 bf 3c
       -0.1074945 -0.043953612 -0.071791336 0.023394406
000360 20 91 c6 3d 00 eb 3c ba 3e 27 a0 bd f0 4f a2 bc
       0.09695649 -0.00072066486 -0.07819985 -0.019813508
000370 f6 52 cf bd ba 44 97 3d cc 62 2e 3d dc 40 4b bd
       -0.101232454 0.073861554 0.04257469 -0.0496224
000380 e4 b1 61 bd 6a 0e e8 3d de 6c b9 bd f4 dd 8a 3d
       -0.05510129 0.11330874 -0.09053968 0.067806154
000390 f4 26 35 bd 24 bb 5d bd 3e b6 ad bd 44 a5 fa 3d
       -0.0442266 -0.05413355 -0.084820256 0.12238553
0003a0 52 06 85 bd 34 4a 10 3d bc 1e 0c 3d 2c b6 cb bd
       -0.06495346 0.035227016 0.034208998 -0.09946856
0003b0 d4 2b d0 bd a0 7d aa 3b ec 91 10 3d 48 8a 0f bd
       -0.101646096 0.005202964 0.035295412 -0.035043985
0003c0 fc eb 99 bd f4 76 47 bd a0 c6 92 bb 48 da c4 3c
       -0.075157136 -0.048697427 -0.0044792444 0.024029866
0003d0 c0 09 c0 bd 22 5e d7 bd 8e e2 ca 3d f0 34 05 3d
       -0.0937686 -0.10516001 0.09906493 0.03252119
0003e0 00 ac a8 3d 3a 72 ad 3d 2a 15 ee 3d 20 da 94 3d
       0.082359314 0.084690526 0.116251305 0.072681665
0003f0 50 1d 97 bd b0 76 17 bd 20 62 09 3d 9c 6a 52 bd
       -0.07378638 -0.036978424 0.033540845 -0.051371202

hyper_w2.2.bias f4 [32]
000000 72 70 c7 3d 40 af 76 3c 46 f3 f9 3d 5e 85 e7 bd
       0.09738244 0.015056431 0.12204604 -0.11304735
000010 18 83 84 bc 64 be b6 3d 44 59 16 3d 5c ba 62 3d
       -0.016175792 0.08923033 0.036706224 0.055353507
000020 9e 00 f1 3d 6c 91 48 bd c8 a3 e0 bc 56 5f 9b bd
       0.11767696 -0.04896681 -0.027421847 -0.07586543
000030 6a 14 d1 3d 7a 89 c8 bd 60 79 a7 3d 82 45 fd 3d
       0.10208972 -0.097918466 0.08177447 0.12366773
000040 58 08 b8 bd e0 14 83 3b 80 72 d2 ba c0 fb 87 3c
       -0.089859664 0.004000291 -0.0016055852 0.016599536
000050 e8 7d 5d bd a2 c3 f8 bd ae 47 ed 3d 5a 94 fe 3d
       -0.05407515 -0.12146689 0.115859374 0.124306396
000060 5a d1 f2 3d a2 71 d2 bd 1e 23 b3 3d 80 1f b1 bd
       0.11856337 -0.1027558 0.087469324 -0.08648586
000070 38 e0 02 3d 2c 07 4b bd 3c b7 d9 bd ac dd 60 bd
       0.031952113 -0.049567387 -0.10630652 -0.054898903

hyper_b1.weight f4 [32, 1024]
000000 54 41 eb bc 80 5e be 3a 34 7e 62 bc 46 c5 b3 3c
       -0.028717674 0.0014524013 -0.0138240345 0.021944653
000010 f8 9d 98 3c 12 58 cc bc f0 c1 17 bc 00 a2 fd 39
       0.018630013 -0.024944339 -0.009262547 0.0004837662
000020 f0 4c 7e bc 8a 13 e4 bc 40 3a 45 bc 64 2a 4a bc
       -0.015521273 -0.027841348 -0.012037814 -0.012339208
000030 80 f5 dd bc 7a c6 c7 bc 90 e2 07 3c 80 1f c1 bc
       -0.027094603 -0.024386633 0.008293763 -0.02357459
000040 30 9d 40 3c e0 bf a3 bc a0 04 f8 ba d8 ef 0c 3c
       0.011756226 -0.019988954 -0.0018922277 0.008602105
000050 20 7a 81 3a b0 2a 70 3c 40 e6 d6 bb 88 25 d6 bc
       0.0009878315 0.014658615 -0.0065582097 -0.026140943
000060 44 41 37 bc 04 dc dc bc b4 d1 5c 3c da 38 db 3c
       -0.011184994 -0.02696038 0.0134777315 0.026760507
000070 68 7d 20 bc 60 8b e4 ba e2 c1 ce 3c 4a 58 ad bc
       -0.009795524 -0.0017436557 0.025238935 -0.021160264
000080 34 10 fd bc aa 60 b2 3c f0 44 85 3b 94 8f 93 3c
       -0.030891515 0.021774609 0.004067056 0.0180128
000090 8e ed 9b 3c 88 8d 41 bc f4 c6 2e bc d0 93 71 bc
       0.019034173 -0.011813529 -0.010667551 -0.014744714
0000a0 94 3c de 3c 58 b6 dc bb 00 a0 06 bc b8 f3 c1 bc
       0.027128495 -0.0067356043 -0.008216858 -0.023675784
0000b0 cc ae 0b bc 00 8e 9d 39 bc 0d b1 bc 70 32 01 bb
       -0.008525562 0.00030051172 -0.021612994 -0.00197139
0000c0 48 e7 5b bc 60 f3 da bc e8 56 fe bb ac 1d 32 bc
       -0.013421841 -0.026727378 -0.007761825 -0.010871332
0000d0 a8 71 e9 bb 80 7e f0 ba 0c fb 81 bc 98 f8 95 bb
       -0.0071241446 -0.0018348247 -0.015866779 -0.004576754
0000e0 3e 54 a1 3c 7a ae a2 bc 88 40 61 bc e8 c5 b8 bc
       0.01969349 -0.019858588 -0.013748296 -0.022555307
0000f0 78 23 91 3c fc 53 46 bc f2 9a e2 3c 48 fa 9d bb
       0.017717108 -0.012104984 0.027661774 -0.0048210956
000100 d8 23 e3 3b 8c 7c b5 bc 90 1b e1 3c 30 7a 32 3c
       0.006931763 -0.022154115 0.027478963 0.01089339
000110 2c c1 38 bc e0 19 8b ba a0 ef 0e 3b 60 7f aa 3a
       -0.0112765245 -0.001061257 0.0021810308 0.0013007931
000120 50 4a 2a bc 88 c3 a5 3c fa ff c0 3c 60 ce 35 3c
       -0.010393694 0.020234838 0.02355956 0.011096567
000130 86 c5 cf bc e8 37 dd 3c a4 7c 1c 3c c0 ef e1 bc
       -0.025362741 0.027004197 0.009551201 -0.027580142
000140 a0 94 13 bb 00 1e aa ba e0 e6 82 ba f8 81 aa 3c
       -0.0022519007 -0.0012978911 -0.0009987019 0.020813927
000150 a0 03 f5 3c a8 89 e6 3c 44 2e 39 bc 7e c7 a9 3c
       0.029908955 0.028141811 -0.0113025345 0.020725008
000160 28 51 42 bc 7c 1b 9e bc ea ba b3 bc a2 92 c3 bc
       -0.0118601695 -0.019300215 -0.021939714 -0.02387363
000170 10 6a 6e 3c 40 9c 1f ba 90 16 d2 3c a8 ea 32 3c
       0.014551654 -0.0006088652 0.025645524 0.010920204
000180 50 58 2d bc 46 79 e7 bc a8 67 9e 3c 94 4b c9 3c
       -0.010580137 -0.02825607 0.019336537 0.024572171
000190 a8 8e a9 3c a0 e1 df bb da 9b dc bc 44 95 92 3c
       0.020697907 -0.0068323165 -0.026929785 0.017893441
0001a0 5a a6 da bc 42 4b e9 3c 28 58 af bc 72 61 80 bc
       -0.02669065 0.028478269 -0.02140434 -0.015671466
0001b0 00 d6 95 b8 e0 ed 5e bb 3a 53 d5 bc 34 54 8b 3c
       -7.144734e-05 -0.0034016296 -0.026040662 0.017007925
0001c0 fc b9 45 bc fc 72 ef bc 80 7f 04 ba d4 23 bc 3c
       -0.012068268 -0.029229634 -0.00050543994 0.022966303
0001d0 00 e5 7c b9 64 04 03 bc fc f8 ef 3c 00 76 6d 3c
       -0.00024117902 -0.007996652 0.02929353 0.014493465
0001e0 60 bf 3a 3b e0 2f 6a 3b 32 05 e1 bc e4 5b 33 3c
       0.0028495416 0.0035734102 -0.027468298 0.010947201
0001f0 30 e8 96 3b 26 83 90 3c ec c4 18 bc 36 75 b1 bc
       0.0046053156 0.017640661 -0.009324294 -0.021662336
000200 78 03 b0 bb e6 34 9e 3c d0 a7 96 3c ba 6c 8d bc
       -0.0053715073 0.019312333 0.018390566 -0.017263759
000210 00 08 40 3a e2 58 aa 3c 50 c5 5a 3b f0 e3 bb 3c
       0.0007325411 0.020794336 0.0033381768 0.022935838
000220 fc bd 87 3c 7c f6 ef bc 90 8b 7f bc e0 33 d6 bc
       0.016570084 -0.029292338 -0.015597239 -0.026147783
000230 28 57 ca 3c c4 68 a6 bc d0 e3 db bb 40 68 28 3a
       0.024699762 -0.020313628 -0.006710507 0.0006424226
000240 08 75 9f 3b 60 a9 80 3b b8 93 bc 3b 80 fc 87 3a
       0.004866246 0.003926441 0.005754914 0.0010374933
000250 48 8f 71 3c 7e e3 86 3c d2 27 f7 3c 20 fc 2f bc
       0.014743634 0.016465899 0.030170355 -0.010741264
000260 b0 3e 49 bc 74 f3 52 bc 38 59 b8 3b f8 eb bf bb
       -0.012283012 -0.012875427 0.00562587 -0.005856987
000270 ac ef 22 3c fa 2d a1 bc 58 10 ec 3b da 43 db 3c
       0.009944838 -0.019675244 0.0072040968 0.026765753
000280 5c 99 e0 3c b0 e4 da 3c 70 d9 94 bb fe e6 89 bc
       0.027416877 0.026720375 -0.004542522 -0.016833778
000290 56 a8 b4 3c 80 d0 a2 b9 08 e9 fe 3b ec d2 6c bc
       0.022052925 -0.00031054392 0.0077792443 -0.014454585
0002a0 d6 f2 db bc 20 1e e1 ba 60 41 00 3b f4 d5 9f 3c
       -0.026849192 -0.0017175116 0.0019570217 0.0195112
0002b0 a0 45 23 bc fe c9 fe 3c 24 c1 e6 3c b0 91 ac 3c
       -0.00996533 0.031102177 0.028168269 0.021065563
0002c0 00 34 01 38 cc 47 9d 3c 1e 23 e0 bc 48 a0 72 bc
       3.0804425e-05 0.019199274 -0.027360495 -0.014808722
0002d0 f0 15 27 bc aa 54 b6 bc 66 71 a2 3c 3c 3f 0b bc
       -0.010198101 -0.022257168 0.019829463 -0.008498963
0002e0 92 7b 99 3c 3c ad 49 3c 70 47 ff bc ca 24 fb 3c
       0.01873568 0.012309369 -0.031161994 0.03065719
0002f0 20 7c bd 3c 60 11 51 bc 88 c1 b3 bc c0 6e 11 bb
       0.023130476 -0.01276049 -0.021942869 -0.0022191256
000300 94 3f f7 bc 80 13 44 3c 90 02 74 3c 60 9f 9e 3b
       -0.030181684 0.01196754 0.014893189 0.0048407763
000310 10 e7 52 bb fa d8 95 3c 80 21 1b 3a 50 db e8 bc
       -0.003218118 0.018291939 0.00059177727 -0.028424889
000320 94 8a 77 bc a8 b3 93 3c ac 84 eb 3c 00 c7 8f b9
       -0.015108723 0.018030003 0.028749786 -0.00027423352
000330 a0 c9 ec 3a 84 ee 9e 3c e0 0e 5b 3c 80 7b f8 3c
       0.001806546 0.019400842 0.013370246 0.030332327
000340 38 6e 8e 3b e4 a7 bc bc 40 b4 f8 3a 28 de 31 3c
       0.004346635 -0.023029275 0.0018974617 0.010856189
000350 b4 f1 41 3c 8c 31 56 bc 6c fa 2d bc c8 fa 28 3c
       0.011837412 -0.013073336 -0.010618787 0.010313697
000360 40 6a 7f 3b 22 9e 96 3c cc 5e a6 3c 32 06 e1 bc
       0.0038973242 0.01838595 0.020308875 -0.027468774
000370 60 78 44 bb dc cb 3c 3c d8 cc 94 3c d0 ea af 3c
       -0.0029978976 0.011523213 0.018164083 0.021474272
000380 44 c1 49 3c 78 c8 f2 bb 2e 9d 8e 3c d8 4f 81 3c
       0.0123141445 -0.0074091516 0.017408933 0.015785143
000390 f8 c3 ca bc 94 48 43 bc 60 ac 62 3b 78 c6 bf bc
       -0.024751648 -0.011919159 0.0034587607 -0.023410067
0003a0 54 9a a2 bc 54 c3 20 3c d4 66 80 bc e0 0e e1 3c
       -0.01984898 0.009812195 -0.015674032 0.027472913
0003b0 08 6c 9f bc 68 5e 80 bb 50 ac 3a 3b 20 3c 1e bb
       -0.019460693 -0.003917504 0.0028484054 -0.0024144724
0003c0 40 10 9b bb ac 70 cd bc 66 54 b0 3c d6 38 c7 3c
       -0.0047321618 -0.02507814 0.02152462 0.024319094
0003d0 d0 46 84 3b 38 6a 84 3c 80 05 ce ba 70 20 9d bb
       0.004036762 0.01616393 -0.0015718192 -0.0047951266
0003e0 00 f5 a1 3c f4 3c 5a 3c b0 a5 8a 3c 1e 0d db 3c
       0.019770145 0.013320196 0.01692471 0.026739653
0003f0 76 e1 8b bc 4e 60 b6 bc f8 b4 8d bb 18 1c e3 bc
       -0.017075282 -0.022262719 -0.0043245517 -0.027723357

hyper_b1.bias f4 [32]
000000 44 d1 5c 3c 10 92 65 bb f0 48 18 bb 28 6f d3 bb
       0.013477627 -0.0035029687 -0.0023236834 -0.00645246
000010 00 79 1c 3b 7a de 9c bc 70 fd e8 bb 00 e4 a3 b8
       0.0023875833 -0.019149054 -0.00711029 -7.814914e-05
000020 5e 17 c5 3c 66 09 8f bc 0e 00 fc 3c 1e b7 8e bc
       0.024058994 -0.017460536 0.030761745 -0.017421301
000030 d4 a3 b7 bc 7a 72 c6 3c ea 74 88 bc 04 d1 63 3c
       -0.022416987 0.024224509 -0.016657311 0.013904814
000040 88 d8 92 3b e8 93 ec 3c 6a 3d 97 bc f2 70 e7 bc
       0.004481379 0.028879121 -0.018461902 -0.028252099
000050 20 b4 1b bc c0 71 7e 3b 1c 6a ea 3c 14 95 2f 3c
       -0.009503394 0.0038825125 0.02861505 0.010716695
000060 e8 3e fd bc f8 8d 4f bc 20 f5 ba 3c 80 74 f9 bb
       -0.030913785 -0.012668125 0.022821963 -0.007612765
000070 18 b2 7f 3c 3c 2d 31 bc 06 d8 b9 3c 52 10 f6 3c
       0.015606426 -0.010814007 0.022686016 0.030037079
