models/v4/target_agent_net.pth (torch, 85919 bytes, 4 tensors)

fc1.weight f4 [64, 324]
00000000: 8058 c1bc 7374 0e3b 87a0 9b3d 2995 583c
00000010: df05 1e3b 4cd6 9abd 2a1a 2abd 249f 3d3d
00000020: 7408 3d3b aca0 d9bc 3174 8bbd 9db1 953d
00000030: ac4f aa3d 554b 6e3d 2ec1 64bd d6e0 523b
00000040: 4b11 80bd 22be 8bbc 2865 70bd ec9d 2cbd
00000050: 5125 ccbb e7f9 3f3e b736 b33b b73e fc3b
00000060: c00e cd3c b8e2 52bd 7aec 76bd 398e 88bc
00000070: 695c b03d 3dd5 76bd f7b3 163b af34 1e3d
00000080: dffe 4d3d 0ee6 02be 62d3 d23c d408 743b
00000090: d152 8dbb f6fd b6bd a6fb ac3d ba94 c53d
000000a0: 94f5 f13c f19f 29bd 58ac 903c 06e3 06bc
000000b0: 9dcb 7fbc e75d 253d 5e23 803d d55e a23d
000000c0: 62b1 333c 9019 1cbc 3dbc a03d 00ae ba3b
000000d0: e4b2 bdbb f54c 19bd 6979 d3bd 99f3 9f3d
000000e0: a567 39bd 0c51 5e3c 9c32 6ebc 53c9 e43c
000000f0: 4dec acbd 9105 2d3d cc5d fabc 64a2 18bd
00000100: 19b2 2fbd 80ab b3bd 34aa 233c e6a9 003c
00000110: 63d9 e6ba c39f bebd 13a4 40bd 4f73 72bc
00000120: 01df e83c 6179 8fbd b9c7 d1bd 7f85 d2bd
00000130: 7fe5 aebd 2796 7bbd bc27 08bd 773f a8bc
00000140: a596 2e3d 0eda 7b3d dd9e f93a 60d1 a9bd
00000150: 4a90 13bd c53e ba3d 1dbf 8bbc 23f9 8abd
00000160: 7168 333d e952 3bbd be73 253d 62ac c9bc
00000170: 8920 6b3d 7e53 2d3d 9eae 8fbd 6f09 cebd
00000180: b7f4 8dbd 0296 d0bd 8e3b 58bd ad90 c23b
00000190: 5db6 9c3c 6f36 f0b9 00c3 0dbd 055b 55bd
000001a0: 1108 0cbd 564e f93d f160 76bd 5433 0cbc
000001b0: 9888 cabb f9ed 5c3d ae3b cabc 4e9c 77bd
000001c0: 26d3 02bd 378c aabd 9de9 233c 5d01 063d
000001d0: 9e4e 37bd d14c 133d 6d11 263d 3059 fbbc
000001e0: 9001 14bd a34e f83b b3b6 67bd 2ed6 d73c
000001f0: 86d0 563d 5df4 c8bc 3132 ba3d e79b b5bc
00000200: 37ec b43b 3779 cf3c 0286 403d 6e0e 7ebd
00000210: a470 f13b 628f 8bbd e265 45bd d642 96bd
00000220: ecf2 98bd cef9 b43d 1509 b9bd f876 a8bb
00000230: afa2 d9bc 1713 6e3c d479 063c 05c5 3f3c
00000240: 86d9 bfbc 7f06 3abd 5cf9 953d cf86 09bd
00000250: 9e9c ea3c f4c1 d23c 4a89 f03c a52a 013c
00000260: 6c7d c53d c624 4f3c 50f0 383e 330d fe3a
00000270: 7f13 61bd 6228 f8bb d2a8 88bc b1ef 403c
00000280: 6e89 adbd c868 b43d e309 4d3d d917 a43d
00000290: b6b3 0b3d 1e91 2abd c7c8 17be ffee 9dbd
000002a0: d56b 31bd 778f 073d 1473 89bc 1878 24bd
000002b0: 3eae b53d b41c febc 0943 adbd 6520 ffbc
000002c0: 7fc8 553d 1250 083b 8970 bdbd 95db 5a3d
000002d0: 6103 09bc b9ff 023e 674c 96bc 157d af3c
000002e0: f7d5 e53c ec0f 503d 11a5 25bd fa65 8c3c
000002f0: 1f05 4ebc 6aee c2bc 7b4d 1abd 1bd0 83bd
00000300: d783 fe3c 0fb4 823d 24c1 a9bd 3bbe a33d
00000310: c193 e9bd 10d9 353d 3161 b83c 699c 02bc
00000320: 8ca2 ab3b 8d2b 473d ddb7 c73d 49e0 2cbd
00000330: f1c1 d03c 7ad7 533d 1fac 97bd 9de5 b13d
00000340: b166 853d 751b e93d 1f7d f43c 6378 33bd
00000350: 5b88 b7bd 9d92 d03d 24f0 2c3d 89b5 cf3c
00000360: 7cb0 5dbb b163 44bd b971 3cbc e5a9 d6bd
00000370: 7205 72bd dd17 783d d752 6a3d 759c 893a
00000380: 4f09 013c cc11 ff3d 4d4a e9bc 7856 0bbd
00000390: 3ff3 b0bd 8e36 c3bb 1dd4 d73b e8bb 973d
000003a0: dd2d 293d 0af3 3d3d 23b7 8f3d b383 e43d
000003b0: 4d37 94bd bf03 d23b f553 35bc ba8b 963d
000003c0: cbe1 943c 3d1a 703d a428 723b 1616 b03b
000003d0: f4af 21bd 4482 6fbd 7569 e33c 46f7 f3bc
000003e0: bb0b b2bb d0aa 923c d022 473d 624e 0a3b
000003f0: 4de8 36bd 3e33 10bc 1fd7 9c3b 02e6 e13c
-0.02360177 0.002173689 0.075989775 0.013219156 0.0024112386 -0.07560405 -0.04152886 0.046294346
0.002884415 -0.026565872 -0.06809271 0.07309268 0.083159775 0.05817731 -0.055848293 0.003217747
-0.06253298 -0.017058436 -0.05869022 -0.042142794 -0.0062300344 0.18747674 0.005469169 0.007697906
0.025031447 -0.051485747 -0.060284115 -0.01666938 0.08611376 -0.060261954 0.002299545 0.03862446
0.050291892 -0.12783071 0.02573556 0.0037236707 -0.004312851 -0.08935158 0.08446436 0.09647508
0.029536046 -0.041412298 0.017660305 -0.008232838 -0.01561251 0.040372755 0.06256746 0.07928244
0.010967584 -0.009527579 0.078484036 0.005697012 -0.0057891477 -0.037426908 -0.103258915 0.078101344
-0.04526486 0.013569128 -0.014538433 0.02792803 -0.08443508 0.042241637 -0.030562304 -0.037264243
-0.042894457 -0.087729454 0.00998931 0.007853007 -0.0017612394 -0.09307816 -0.047031473 -0.0147979995
0.028426649 -0.07005573 -0.10243172 -0.102793686 -0.08539867 -0.061422493 -0.03324102 -0.020538075
0.042624135 0.06148725 0.0019044537 -0.08291888 -0.036026277 0.090940036 -0.017058903 -0.067858
0.043800775 -0.045733366 0.040393583 -0.024618331 0.057404075 0.042315952 -0.070157275 -0.10060393
-0.06931441 -0.10184862 -0.05279117 0.005937657 0.019129926 -0.00045816923 -0.034609795 -0.052088756
-0.03418738 0.121731445 -0.060151044 -0.008557159 -0.006180834 0.053937886 -0.02468666 -0.0604518
-0.031939648 -0.08327525 0.010004428 0.032716144 -0.04475271 0.03596193 0.040543962 -0.030682176
-0.036134303 0.0075777336 -0.05657072 0.026347246 0.052444957 -0.024530584 0.090916045 -0.022169067
0.005521323 0.025326354 0.0470028 -0.06202548 0.007368164 -0.068144575 -0.048192866 -0.07336967
-0.07468209 0.08836709 -0.090349354 -0.0051411353 -0.026566831 0.014530919 0.008207757 0.011704688
-0.023419153 -0.04541635 0.07322952 -0.03357583 0.028639134 0.02572725 0.02936234 0.007883702
0.09643063 0.012643045 0.18060422 0.0019382596 -0.054950234 -0.0075731734 -0.016682062 0.011775897
-0.08473478 0.08809048 0.050058257 0.08012361 0.034106933 -0.0416423 -0.14822684 -0.077116005
-0.043315727 0.033095803 -0.016778506 -0.040153593 0.08871125 -0.031019546 -0.084600516 -0.031143377
0.05219316 0.0020799679 -0.0924998 0.053432066 -0.008362622 0.12792863 -0.018346978 0.021421948
0.028056128 0.050796434 -0.040440623 0.01713847 -0.012574463 -0.023795325 -0.037671547 -0.06436177
0.031068726 0.06382 -0.08288792 0.07995268 -0.11405135 0.04439646 0.022507282 -0.007971861
0.005237883 0.048625518 0.09751866 -0.042206082 0.025483103 0.051719166 -0.07405876 0.086863734
0.065137275 0.1138219 0.029844819 -0.04381598 -0.089615546 0.10184214 0.042221203 0.025355117
-0.0033827117 -0.047946636 -0.011501723 -0.104816236 -0.059087224 0.060569633 0.05720791 0.0010498898
0.0078757545 0.12454566 -0.028477812 -0.03401801 -0.086401455 -0.005957431 0.006586565 0.07408887
0.041303504 0.04637436 0.070173524 0.11157932 -0.0723711 0.006409138 -0.01106738 0.073508695
0.018174073 0.058618773 0.0036950493 0.0053737266 -0.039474443 -0.05847384 0.027760247 -0.029780995
-0.0054335273 0.017903715 0.048617184 0.0021103849 -0.044655133 -0.00880128 0.0047863866 0.027575497

fc1.bias f4 [64]
00000000: 0000 0000 0000 0000 0000 0000 0000 0000
00000010: 0000 0000 0000 0000 0000 0000 0000 0000
00000020: 0000 0000 0000 0000 0000 0000 0000 0000
00000030: 0000 0000 0000 0000 0000 0000 0000 0000
00000040: 0000 0000 0000 0000 0000 0000 0000 0000
00000050: 0000 0000 0000 0000 0000 0000 0000 0000
00000060: 0000 0000 0000 0000 0000 0000 0000 0000
00000070: 0000 0000 0000 0000 0000 0000 0000 0000
00000080: 0000 0000 0000 0000 0000 0000 0000 0000
00000090: 0000 0000 0000 0000 0000 0000 0000 0000
000000a0: 0000 0000 0000 0000 0000 0000 0000 0000
000000b0: 0000 0000 0000 0000 0000 0000 0000 0000
000000c0: 0000 0000 0000 0000 0000 0000 0000 0000
000000d0: 0000 0000 0000 0000 0000 0000 0000 0000
000000e0: 0000 0000 0000 0000 0000 0000 0000 0000
000000f0: 0000 0000 0000 0000 0000 0000 0000 0000
0.0 0.0 0.0 0.0 0.0 0.0 0.0 0.0
0.0 0.0 0.0 0.0 0.0 0.0 0.0 0.0
0.0 0.0 0.0 0.0 0.0 0.0 0.0 0.0
0.0 0.0 0.0 0.0 0.0 0.0 0.0 0.0
0.0 0.0 0.0 0.0 0.0 0.0 0.0 0.0
0.0 0.0 0.0 0.0 0.0 0.0 0.0 0.0
0.0 0.0 0.0 0.0 0.0 0.0 0.0 0.0
0.0 0.0 0.0 0.0 0.0 0.0 0.0 0.0

fc2.weight f4 [5, 64]
00000000: c041 fcbc 31f9 d9bd 86e4 6ebd 66ce cbbc
00000010: 3131 ca3d 848a f4bd 3103 b43b 1775 dfbd
00000020: f506 abbc 95ec 773d 3d8a 23be e9d6 e83d
00000030: 5147 1dbd 0790 e1bd 9139 e13d 19fe f83a
00000040: 5513 ce3d 7f67 82bc f78b 363e 21ac 6f3d
00000050: c4b7 fb3d 88c3 20bc 1633 593e 3a2e 093c
00000060: 19aa 8bbd b72b ec3d 5114 0b3e 2545 173d
00000070: 9102 893d 6e3b efbd aef5 a3bd 2df7 3bbc
00000080: 516e 02be 743f 2bbe bf93 c8bc 6c34 5dbe
00000090: 5bcb 9dbe 5af4 ef3d 2250 ef3d 77e1 7b3d
000000a0: cc78 163d 8a42 2dbd b7f4 39bd 30eb 0a3d
000000b0: 7986 6abd 70d4 843e d9d2 0a3e 293d e7bc
000000c0: b202 e9bd b515 273c 5d9c d0bd fae9 263e
000000d0: 45d2 03be d4a9 c53d 88d9 a5bd 6d55 eb3e
000000e0: 046a e0bd 6924 b4bd 262e 6a3e 67ea 833c
000000f0: bcb4 a73d 091b fabd d9b3 1a3d 69cb bcbd
00000100: df75 42bd 4f26 85bd 0898 94bd bd31 24be
00000110: d9b4 873e d1ad b5bd 8cc7 393e 3e71 143c
00000120: bb2d 953d 6943 2f3e 7612 ab3d 83c9 dd3d
00000130: f555 c2ba 9c99 f0bb 60d7 4bbe d2b7 30bb
00000140: 5e71 8a3e f727 ac3d ad81 14be 8572 8e3d
00000150: 2709 b43d 2662 a3bd 0996 1cbd 9696 79bd
00000160: 463c b2bb 66af abba 1e3c 0fba 68fd a93d
00000170: 36eb 953d 4446 9c3d b025 583d e16a 153e
00000180: 793c 9b3d 924b 843d a59e e8bd e7b4 c4bd
00000190: 4eea f5bd 42a9 98bd 7a02 bbbd 295f 0cbd
000001a0: 1db9 6dbd aed7 0e3e 71d9 083c eb38 85be
000001b0: b54c 64be ae73 093e 10fd 8dbe bd58 87bd
000001c0: 4332 c53d 56da 87be 8328 763e 598f 483e
000001d0: 53df af3c b9ab f7bc 5245 89bd ade1 19bd
000001e0: bdef 083e ce3f 653d 4a56 4c3d bd4b ecbc
000001f0: 97bb 53be c1c2 c7bc b8e6 103e d11e 0d3e
00000200: 0c26 29be 15e4 023d 0a7c f03d 19c5 27bd
00000210: 8f28 aabd 39a2 87bd dde6 953d 7051 acbc
00000220: 62cf 693d 5f5a 96bd 5f12 22be 0d5b 2fbe
00000230: 1da7 153b f925 f8bd d60c b3bd 8767 acbd
00000240: 8717 b33b 941b 023e 23ea 7e3e 789b 073c
00000250: 5be1 b83d 64c9 db38 cc6e b7bd 8038 a5bc
00000260: 6de3 cd3d fbe0 063e 2d96 7f3d 9f51 c8be
00000270: 086f 90bc 6910 e8bd 27a1 943d 4dd5 f1bd
00000280: 484e 1c3e 3f3a 823d 1ed0 f5bd 91fb 183d
00000290: 07b9 b9bc ae50 bcbd 0a5a 1bbd ea7a 09be
000002a0: 087c abbe 8133 a3bd 8242 db3d 5a64 b43d
000002b0: 469a 60bd a026 d7bc c47e 913d ada5 c33b
000002c0: 4e38 5ebe c970 0dbd ff8a 2c3c e85a 613e
000002d0: 70b8 243d 27dc 9c3d f8d9 e4bd 07c1 10bc
000002e0: 2e08 0d3e 805c 09be d122 34be 85b5 69be
000002f0: 78cd 73be 6ef8 b03b ecfb 7fbd 990f 0fbe
00000300: 7cd4 963e 10fb 723e 0220 283e d497 173d
00000310: 26f5 41bd 46d4 643e 9658 a13e d35c 6cbe
00000320: 6c60 803c 21d4 e2bd 4eeb 07be e074 fd3b
00000330: d7ba 0a3c 48c7 9db9 02eb e5bc 8cb4 f13d
00000340: fe36 6a3e e9e1 1e3e f504 00bd cb9e 233c
00000350: 2d91 a03d 7d60 c03c 40d5 e6bd 54fd 683e
00000360: c636 0a3c dff8 25bb 8168 21bd 9771 abbd
00000370: e154 c7bd dc1d df3d 6546 0b3e f339 8a3b
00000380: 5c1a 463d 338a c3bd c415 9bbb 1fde 2fbe
00000390: 4516 37bd 33cd 593d 06f2 1e3d 74f6 0fbd
000003a0: b4ed 403d 6d0c 013e f235 5dbd 48bf 563e
000003b0: d289 0a3e a75f bcbd 5aca 0abe 230b 23be
000003c0: 395a a33c 511d 13be 5a9b 573d 1700 39be
000003d0: c4d0 80be ef58 f23d 5acd a4bd cfb2 9abc
000003e0: 7abe 44bd f6e6 9abd a0c1 8d3c 02c9 053e
000003f0: 6e65 94bc 1c9e 89bd 6dae 343d 6aa2 21be
-0.03079307 -0.106432326 -0.058323406 -0.024878692 0.09872664 -0.11940482 0.0054935445 -0.10911005
-0.02087734 0.060528357 -0.15970702 0.11369116 -0.03839809 -0.11013799 0.10997308 0.0018996625
0.10062281 -0.015918491 0.1782683 0.058513764 0.1229091 -0.009812243 0.21210894 0.008372838
-0.06819553 0.115317754 0.13581969 0.036931176 0.06689943 -0.11681257 -0.08005844 -0.0114725055
-0.12737395 -0.16723424 -0.024484513 -0.21602029 -0.3081921 0.11716528 0.11685206 0.061494317
0.036736295 -0.042299785 -0.045399394 0.0339157 -0.05725715 0.25943327 0.13556994 -0.028227406
-0.11377467 0.010198046 -0.10186074 0.16300192 -0.1287318 0.09651533 -0.080981314 0.45963612
-0.10957721 -0.08796007 0.22869167 0.016102983 0.08188769 -0.12212188 0.037769172 -0.09218485
-0.047475692 -0.065014474 -0.0725556 -0.16034599 0.26505163 -0.088710435 0.18142527 0.009060202
0.07284113 0.17115559 0.083531305 0.10829451 -0.0014826643 -0.0073425304 -0.19906378 -0.0026965034
0.27039617 0.0840606 -0.14502592 0.069554366 0.08790808 -0.07977705 -0.038229022 -0.060934626
-0.005439314 -0.0013098537 -0.0005463975 0.083002865 0.073202536 0.076305896 0.052770317 0.14591552
0.075798936 0.064597264 -0.11358384 -0.09604817 -0.12007581 -0.07454158 -0.09131332 -0.03427044
-0.058037866 0.13949463 0.008352623 -0.26019987 -0.22294886 0.13423035 -0.27732134 -0.06608722
0.09628727 -0.26533765 0.24038891 0.19585933 0.021468794 -0.03023325 -0.06702675 -0.037568737
0.13372703 0.055969052 0.04988698 -0.028844709 -0.20677029 -0.024384858 0.14150512 0.13781287
-0.1651842 0.031955797 0.117424086 -0.04095945 -0.08308517 -0.066227384 0.07319424 -0.021034926
0.05708254 -0.07341456 -0.1582732 -0.17124577 0.0022835203 -0.12116618 -0.08742683 -0.08418184
0.005465451 0.12705833 0.24894004 0.008276813 0.09027358 0.00010480246 -0.0895668 -0.020168543
0.10053144 0.1317176 0.06239908 -0.39124772 -0.017631069 -0.11331255 0.072573 -0.11808262
0.15264237 0.06358766 -0.12002586 0.037349287 -0.022671236 -0.09195076 -0.037927665 -0.13425794
-0.33493066 -0.07968808 0.10706045 0.08808203 -0.054834627 -0.026263535 0.07104257 0.005970678
-0.21701166 -0.03453139 0.010531186 0.22007334 0.040214956 0.07659178 -0.11174387 -0.008835084
0.13772652 -0.13414192 -0.17591406 -0.2282315 -0.23808849 0.005400709 -0.06249611 -0.13970794
0.29458988 0.23728585 0.1641846 0.03701003 -0.047352932 0.22346601 0.31512898 -0.23082285
0.015670978 -0.11075617 -0.13273355 0.00773488 0.008467398 -0.0003009385 -0.028066162 0.11802015
0.2287254 0.15515865 -0.031254727 0.00998659 0.0784019 0.02348351 -0.11271143 0.22752887
0.008435911 -0.002532534 -0.039406303 -0.08371275 -0.09732986 0.10894367 0.13601072 0.004218334
0.048364982 -0.09547844 -0.0047328193 -0.17174576 -0.044698972 0.05317421 0.03880503 -0.035147145
0.04710169 0.12602396 -0.054006524 0.20971406 0.13529137 -0.09197932 -0.13553753 -0.15922217
0.019940482 -0.14366652 0.05263839 -0.1806644 -0.25159276 0.11833369 -0.0804698 -0.01888409
-0.048033215 -0.075635836 0.017304242 0.1306496 -0.018114772 -0.0671961 0.044111658 -0.15784612

fc2.bias f4 [5]
00000000: 0000 0000 0000 0000 0000 0000 0000 0000
00000010: 0000 0000
0.0 0.0 0.0 0.0 0.0
