models/v4/target_qmix_net.pth (torch, 832955 bytes, 13 tensors)

hyper_w1.0.weight f4 [64, 1024]
000000 44 73 95 3c c8 36 44 bc 80 55 9d 3a d0 22 9b 3b
       0.01824344 -0.0119759515 0.001200363 0.0047343746
000010 08 a2 89 3c 9c 32 46 3c c2 86 ab 3c fc 88 53 3c
       0.016800895 0.012097027 0.020938281 0.012911078
000020 3c 42 bc 3c 3e 8f 97 3c a0 b4 05 3c 2c bb 21 3c
       0.022980802 0.01850092 0.00816074 0.009871285
000030 d8 9a cc 3b b6 ec c8 bc e4 a7 d2 3c 1c 69 6e 3c
       0.0062440448 -0.024526935 0.025714822 0.014551427
000040 02 b7 e2 3c 84 1c a4 bc 56 44 b7 3c 00 29 a3 3b
       0.027675156 -0.020033129 0.022371452 0.004979253
000050 a0 87 5a bb 40 1e 48 3b 40 b2 77 3c ba 80 9c bc
       -0.0033345 0.0030535609 0.015118182 -0.01910435
000060 f6 ec e8 bc 68 90 35 3c 38 ec cc 3b 90 da f5 3b
       -0.028433304 0.011081792 0.0062537454 0.0075028613
000070 60 d4 47 bc 40 94 7c bb 30 18 c8 3c f6 38 d3 bc
       -0.01219663 -0.0038540512 0.024425596 -0.025783997
000080 f0 37 e8 3b 90 cc 47 3c 76 a8 d4 bc 60 aa 91 3b
       0.0070867464 0.012194768 -0.025959235 0.004445359
000090 18 47 92 3b 52 cd c5 bc 00 4d 40 3c b8 0f a2 bc
       0.0044640414 -0.024145756 0.011737108 -0.019782886
0000a0 42 29 a1 bc 2c a6 6d bc a4 1e c2 3c a0 54 20 3c
       -0.019672994 -0.0145049505 0.023696251 0.009785801
0000b0 50 8e 74 bb 14 85 44 bc 90 fb 72 bc c0 c4 8b 3a
       -0.003731627 -0.011994619 -0.014830485 0.0010663494
0000c0 ae f9 b6 bc 80 8e 53 bc a8 6d 95 bc 28 e6 97 3b
       -0.022335853 -0.012912393 -0.018240765 0.004635591
0000d0 02 d7 ee bc d8 a3 b9 bb ea dc e1 3c 10 6c ac 3b
       -0.029155258 -0.0056652837 0.02757116 0.0052619055
0000e0 f0 10 fc bc da e8 f5 3c ac 9c f3 bc a2 a9 9f bc
       -0.030769795 0.030018259 -0.029737793 -0.019490067
0000f0 0c a5 2d bc c0 b1 24 3b c8 f2 94 bb b6 dc cb bc
       -0.010598432 0.0025130361 -0.0045455433 -0.024885517
000100 60 e5 8b 3b 32 e8 90 3c 2c b4 d4 3c 98 b3 a6 3c
       0.004269287 0.017688844 0.025964819 0.020349309
000110 80 57 ca 3c ce ca ac bc e0 29 fc ba f0 e3 a3 bc
       0.024699926 -0.021092799 -0.0019238554 -0.02000615
000120 ee b5 b2 bc aa 1b 9d bc 38 f4 3d 3c bc 43 cb 3c
       -0.021815266 -0.01917823 0.011593871 0.024812572
000130 60 e2 1f 3c 70 e6 0a bc 96 df ea bc 18 5f ca bc
       0.009758562 -0.008477792 -0.028671067 -0.024703547
000140 a2 27 95 3c d8 62 0d bc 0c aa e2 3c 46 46 b2 3c
       0.018207375 -0.008629523 0.027668975 0.021762025
000150 06 02 dc 3c 84 e4 a1 3c a8 43 68 bc c6 99 e1 bc
       0.026856434 0.019762285 -0.014176287 -0.027539145
000160 80 cd 8c 39 58 65 57 bc 48 df 90 bb ac 12 a5 bc
       0.0002685599 -0.013146721 -0.0044211484 -0.020150505
000170 78 5e a8 bc f2 ea bd 3c 28 0f dc bc 88 56 c9 3c
       -0.020552859 0.02318332 -0.026862696 0.024577394
000180 48 c2 a7 3c 5c 79 e4 3c b0 c2 be 3c 80 ec 85 bb
       0.020478383 0.0278899 0.023286194 -0.004087031
000190 a4 1f aa 3c 10 fc 39 bc 6e 26 ee 3c da a3 ac 3c
       0.02076704 -0.0113516 0.02907106 0.021074224
0001a0 90 8c 8b bb b2 5b be 3c 14 2a 00 bc 58 4b a4 bc
       -0.0042586997 0.023237083 -0.007822532 -0.020055458
0001b0 90 a8 8a 3b e4 fc 7c bc de 8f e1 bc c4 e3 0f 3c
       0.00423152 -0.015441153 -0.027534422 0.008782331
0001c0 40 36 04 3c c0 1a e6 bc 80 00 31 bb d0 b2 40 3c
       0.008069575 -0.028088927 -0.0027008355 0.011761382
0001d0 98 ca e6 bc cc fe 5a bc de 84 f1 bc fe 9f 8f bc
       -0.028172776 -0.013366412 -0.029482301 -0.017532345
0001e0 40 c7 a4 bb e0 a6 f3 3c c8 c2 cc bb 00 9c 82 ba
       -0.0050286353 0.029742658 -0.0062488057 -0.0009964705
0001f0 e8 84 aa 3c 84 e4 a1 bc 0a 81 dc 3c 8e f5 88 bc
       0.020815328 -0.019762285 0.026917 -0.016718652
000200 84 92 92 3c 22 ac 88 3c 00 57 25 3a 40 c7 bb bb
       0.01789213 0.016683642 0.00063072145 -0.0057305396
000210 84 1f 5f bc 9c 03 7d bc 6c a7 12 bc 5c c2 81 3c
       -0.013618354 -0.015442755 -0.008951049 0.015839748
000220 a4 a5 6f bc 34 7c b9 3c 40 b5 40 3a 18 79 8b bb
       -0.014626894 0.022642232 0.0007351227 -0.004256379
000230 dc 6c 10 3c c0 04 f5 ba f2 4b c9 bc 90 97 8d 3c
       0.008815017 -0.0018693432 -0.024572346 0.017284185
000240 28 20 9c 3b 20 59 c9 bc d0 15 1c bb 10 a5 f3 3c
       0.0047645755 -0.02457863 -0.0023816712 0.029741794
000250 6c db 30 bc c8 c6 07 3c 34 94 7d 3c 9a 72 f8 3c
       -0.010794502 0.008287139 0.015477229 0.030328084
000260 28 fc f1 bb d4 d6 7d bc d4 12 b8 3c 18 c1 b7 3b
       -0.0073847957 -0.015493114 0.022469915 0.0056077354
000270 9e af ff bc 1e 66 db 3c d2 9a f0 bc 98 47 42 bc
       -0.03121167 0.026782092 -0.0293707 -0.01185789
000280 70 86 eb bc 40 7b 3a bb 46 78 fc bc 4a 5f 88 bc
       -0.028750628 -0.002845481 -0.03081907 -0.016647
000290 54 e8 7e bc d0 ad ca 3b 82 c2 c4 3c ec 83 1d 3c
       -0.015558321 0.006185271 0.02401853 0.009613972
0002a0 aa 53 c7 3c 46 7f 88 bc 58 db be bc da 8a d9 bc
       0.024331886 -0.016662251 -0.02329795 -0.026555467
0002b0 94 73 c1 bc b8 a8 d3 3b 80 c5 77 3b 4a 6e 89 3c
       -0.023614682 0.006459322 0.0037806928 0.016776223
0002c0 80 36 7f ba 58 ab b6 bb b8 09 48 bc f4 41 df 3c
       -0.0009735599 -0.005574625 -0.012209348 0.027253129
0002d0 10 80 e8 bb 5e 68 8b 3c a4 00 aa bc 8c a7 f4 bc
       -0.0070953444 0.01701754 -0.020752259 -0.029865049
0002e0 ee e4 bd bc 58 4c ec 3b 1c 5a dd bc 80 a8 f4 3b
       -0.023180451 0.0072112493 -0.027020507 0.007466376
0002f0 a4 a5 1d bc 3c 1c 02 3c 5e 2d c4 bc 1a 7b fc bc
       -0.009622011 0.007941302 -0.023947414 -0.030820418
000300 96 b5 97 3c 12 44 dc 3c d6 85 8b 3c 44 05 eb bc
       0.018519204 0.026887927 0.017031591 -0.028689034
000310 e2 e7 b8 3c a0 3d d8 3a 96 88 87 3c 26 51 8b bc
       0.022571508 0.0016497858 0.016544621 -0.017006468
000320 30 cd 4d 3b de 80 c8 3c 50 55 d1 bc 28 65 d9 bc
       0.003140282 0.024475511 -0.025553375 -0.026537493
000330 7e 12 9f 3c 94 77 f3 bc 52 4b b3 3c 80 39 d8 ba
       0.019417997 -0.029720105 0.021886501 -0.0016496629
000340 0a 2e c3 bc d4 4a 82 3c 20 38 1c bb b0 90 07 bb
       -0.023825664 0.015904821 -0.0023837164 -0.0020685606
000350 28 bc f4 bc 44 db 47 bc ec a1 2e bc 78 b2 c1 3b
       -0.029874876 -0.012198273 -0.010658722 0.0059111677
000360 00 54 9b 38 24 3b bb bc 1c 94 c5 3c f2 3f c3 3c
       7.406622e-05 -0.022855349 0.024118476 0.023834202
000370 96 be f4 bc 30 67 5a 3b 60 92 2f 3c 04 47 bd bc
       -0.029876035 0.0033325665 0.010716051 -0.023105152
000380 44 4f 64 bc 08 d3 c7 3b c0 11 2b 3a 5e fb ba bc
       -0.013934914 0.006098155 0.0006525777 -0.02282494
000390 74 1d c1 bc 6c 0c 62 3c e8 55 70 3c 40 b8 a1 ba
       -0.023573615 0.013796907 0.014668919 -0.0012338236
0003a0 88 8d a0 3b 48 df c6 bb be 3d 92 3c 4c d7 5c 3c
       0.0048996843 -0.0060690977 0.017851707 0.013479065
0003b0 b6 92 f9 3c e8 94 31 3c c8 2c c9 3b 3e 35 cd 3c
       0.030465465 0.010838725 0.0061393715 0.025049802
0003c0 b4 a0 c1 3c 64 67 4f 3c 60 cc f6 3a 3a 0b f9 bc
       0.0236362 0.012658928 0.0018829219 -0.030400861
0003d0 6c f7 8a 3c 36 6d c6 3c d8 d0 1d 3c 4c 45 0a 3c
       0.016963683 0.024221998 0.009632312 0.008439373
0003e0 80 65 82 3b b8 59 73 bc 3a 04 b9 bc bc 58 64 bc
       0.003979385 -0.014852934 -0.022585023 -0.013937172
0003f0 f6 ef 83 3c e0 3a ee bb 30 00 06 3b be b7 b8 bc
       0.016105633 -0.007270202 0.002044689 -0.022548553

hyper_w1.0.bias f4 [64]
000000 58 44 d2 3c 70 cf 93 bb 00 56 39 3a d0 1c f8 3b
       0.025667354 -0.0045108125 0.0007070005 0.007571794
000010 e4 53 b0 3c a8 ee 80 bc 6a 6d 96 bc 00 c6 ea bc
       0.021524377 -0.0157388 -0.01836272 -0.028658867
000020 40 63 e4 3b 64 4b d3 bc 10 82 ad 3c 2a 9c ef 3c
       0.0069698393 -0.025792785 0.021180183 0.02924927
000030 12 e9 ad 3c a4 c5 4c bc 9c 68 f0 bc 20 22 b3 3a
       0.0212293 -0.012498293 -0.029346757 0.0013666786
000040 94 85 ce 3c b8 08 f2 bb 24 e4 3b bc c0 66 40 bc
       0.02521018 -0.0073862933 -0.011467967 -0.0117432475
000050 90 d6 5b 3b 8c c1 4f 3c 4c 8f 75 3c a4 39 5e 3c
       0.0033544637 0.0126804225 0.014987778 0.013563547
000060 a8 18 c2 3c f4 84 02 3c 68 7b d4 bb 00 89 8c 39
       0.023693398 0.007966269 -0.0064844377 0.00026804954
000070 36 31 b9 bc c0 e3 8f 3b 60 51 83 bb b0 d7 ef 3b
       -0.022606473 0.0043911636 -0.0040075034 0.007319413
000080 1c 57 6c 3c 44 90 e6 bc 98 0c 02 bc fe b7 ff 3c
       0.014425065 -0.028144963 -0.007937573 0.031215664
000090 d4 61 74 bc a0 ab 58 bb 32 e4 cf bc f0 65 99 3c
       -0.014915902 -0.003306128 -0.025377367 0.018725365
0000a0 28 94 9f 3b 58 49 3f bc be 5d ee 3c d0 df cd 3b
       0.0048699565 -0.011675201 0.029097434 0.006282784
0000b0 1c 39 82 bc c0 56 79 bc e0 95 db 3a 60 e4 d4 3a
       -0.015896372 -0.015218437 0.001675304 0.0016242377
0000c0 70 bf 3a bc 40 04 a7 ba 9e 2e 9e 3c 78 2e 25 bc
       -0.011398181 -0.0012742355 0.019309338 -0.01008188
0000d0 30 c9 90 3b 84 3b ad 3c ea 3d a3 bc 3a 47 b8 3c
       0.0044185147 0.021146543 -0.019926984 0.022494901
0000e0 c0 63 fa bb 94 6c 05 bc 60 ed 38 3c f6 ea c0 bc
       -0.0076412857 -0.008143563 0.011287063 -0.023549538
0000f0 9c d5 51 3c 94 8c a4 3c 44 d4 b7 bc f0 9d ea 3c
       0.012807276 0.020086564 -0.022440083 0.028639764

hyper_w1.2.weight f4 [128, 64]
000000 68 ca 9f 3d 44 40 4d bd f8 fa f2 bd 60 46 80 3b
       0.07802278 -0.050110117 -0.11864275 0.0039146394
000010 10 99 23 3c 6a 3f a0 bd e8 00 b1 bc d2 2d d2 3d
       0.009985223 -0.07824595 -0.021606877 0.10262646
000020 34 ad 69 3d 00 45 80 bd 78 5f 7e 3d 74 89 54 3d
       0.057049945 -0.06263161 0.062102765 0.051888898
000030 de 03 ce bd 30 08 14 3d 78 95 98 3d 2c 35 1c 3d
       -0.10059331 0.03614062 0.07450384 0.038136646
000040 ec 46 73 bd 78 63 a7 3d b8 c5 29 3d 30 6b c7 bc
       -0.05939381 0.08173269 0.041448325 -0.024343103
000050 44 ca c2 bd 9c 5e f4 3d c4 b8 c4 3d 22 6e a3 3d
       -0.09511235 0.11932108 0.09605554 0.079799905
000060 68 1e be 3c 40 1b 92 3b b2 c6 e6 bd 10 86 38 3d
       0.023207858 0.004458815 -0.11268367 0.045049727
000070 a2 31 cb bd cc d4 87 bd 20 6d 64 3d ac dc f6 bd
       -0.09921576 -0.06632385 0.055768132 -0.120538086
000080 dc 6d b5 3d 80 3a ea 3a 80 3d 65 bc 20 0a 4f bc
       0.08858845 0.0017870218 -0.0139917135 -0.012636691
000090 00 15 ae 3a 8c 46 8c bd 24 b1 0a 3d b8 14 74 bd
       0.0013281405 -0.06849393 0.03386034 -0.05959007
0000a0 8c d4 a8 3d c4 e8 0e bd b4 1b 36 bd 42 6e d0 3d
       0.08243665 -0.03488995 -0.044460014 0.1017728
0000b0 f8 1b 06 3d 86 ff ea bd ec 48 b7 3d f8 71 5c 3d
       0.032741517 -0.114745185 0.089494556 0.053819627
0000c0 ce 23 ee 3d 64 9d 34 3d 98 7c 8b 3c 14 62 8a bd
       0.11627923 0.044095412 0.017027184 -0.06756988
0000d0 80 ca 24 bd b0 97 0a bd f8 bf 1f bd c0 f2 4c bd
       -0.04023218 -0.033836067 -0.039001435 -0.050036192
0000e0 bc 90 77 3d ec ed ad bd da 70 88 3d ee 4d e3 bd
       0.060440764 -0.084926456 0.0666215 -0.11098848
0000f0 ea 3f f0 bd 40 b6 4d 3c ea e9 a5 bd c0 7e 6a 3c
       -0.11730941 0.012555659 -0.08101256 0.014312446
000100 54 b2 62 bd 28 76 a5 bd ac b8 65 3d 32 16 a3 3d
       -0.05534585 -0.08079177 0.05608432 0.07963218
000110 0c d9 a1 3d d8 a6 5e 3d c8 32 8e 3d 86 02 b6 bd
       0.079027265 0.054358333 0.069432795 -0.088872
000120 26 85 d4 bd 4c 86 80 3d 7c cd 47 bd d0 f4 b2 bc
       -0.103769585 0.06275615 -0.04877995 -0.021845251
000130 f8 55 79 bd 50 2f cf 3d da 2a e8 3d 00 97 8b 3a
       -0.060873 0.10116446 0.11336298 0.001064986
000140 56 ed 93 3d 92 d1 d5 bd d0 e2 54 3c e8 5f a1 bd
       0.072230026 -0.10440363 0.012993529 -0.07879621
000150 e0 b5 86 bc d0 a6 c6 3d f0 6a e5 3c 20 e5 c1 3d
       -0.016444147 0.09699786 0.028005093 0.0946753
000160 10 12 f3 bc 00 38 6f b9 2e 1d 97 3d f8 7f 81 3c
       -0.029671699 -0.00022813678 0.073786125 0.01580809
000170 30 36 03 bd 5c c7 9a bd 4e 3b f9 3d ec 18 3b bd
       -0.0320341 -0.07557556 0.121695146 -0.045678064
000180 50 43 2c bd dc e6 ca bd 90 83 d3 3d 2a 00 eb 3d
       -0.04205638 -0.09907314 0.10327828 0.11474641
000190 92 3d b2 bd 38 30 bb bd a0 ed d1 3c 00 a6 a5 ba
       -0.0870315 -0.09140056 0.025626004 -0.0012637973
0001a0 00 63 2c 3c 0c eb 88 3d 18 e7 9e bd c4 e9 08 bd
       0.01052165 0.06685457 -0.077589214 -0.03342606
0001b0 b6 ed f5 bd 00 29 fa bb d2 36 c5 bd d4 52 a8 3d
       -0.120082304 -0.007634282 -0.09629597 0.08218923
0001c0 9e 46 e5 bd 90 fc 36 3d 60 0a 6c bc c0 cf fd 3b
       -0.1119511 0.044674456 -0.0144067705 0.007745713
0001d0 20 ea bc bc c0 f6 e0 bd aa 60 ec 3d 8c fa 01 3d
       -0.023060858 -0.10984564 0.11541875 0.03173308
0001e0 20 e0 61 bd dc 9f 0c bd aa 3b eb 3d b0 0b 9b bc
       -0.055145383 -0.03433214 0.114859894 -0.018926471
0001f0 9c 24 43 bd aa ca ad 3d 48 1d f3 bd d0 cb 85 bc
       -0.047642335 0.08485921 -0.11870819 -0.016332537
000200 60 af 50 3d 58 c7 eb bd 60 43 55 3d 38 3f 13 bd
       0.0509485 -0.11512631 0.052066207 -0.035948962
000210 b8 e6 c8 bc a0 93 a7 3b a4 ce a3 3d b6 9e f7 bd
       -0.024524078 0.005114034 0.07998398 -0.120908186
000220 74 97 33 bd da 2f 85 3d b4 10 65 3d cc 53 d3 3d
       -0.04384561 0.065032676 0.055924132 0.10318717
000230 38 c3 e4 3d a4 9d 7d 3d 70 7e 6e 3c 12 6e 9e bd
       0.111700475 0.061917916 0.014556512 -0.07735838
000240 1e 97 ed bd f4 b8 57 bd 6a c5 8c 3d 34 ed b4 3d
       -0.11601089 -0.05266662 0.06873591 0.088343054
000250 68 0f 9f bc 88 51 9f 3d 58 74 b3 3c b0 b5 03 bd
       -0.019416526 0.07779223 0.021906063 -0.032155693
000260 a6 ca fc bd 34 12 a0 3d 1c a4 69 bd 1a 2a b9 3d
       -0.123433396 0.07815972 -0.057041273 0.09041233
000270 b8 a3 42 3d 34 f4 5c 3d 48 a3 1d bd a0 0d 45 bd
       0.047519416 0.053943828 -0.038485795 -0.048108697
000280 72 37 83 3d f8 4c 5b 3d 00 c1 d7 3d ae 7b dc 3d
       0.0640706 0.0535402 0.10534859 0.107657775
000290 aa 4c ce 3d 00 17 90 ba ea 20 8e 3d c0 ee 7f bb
       0.10073216 -0.0010993183 0.069398716 -0.0039052218
0002a0 20 e6 1f bd c8 7a 09 bd 26 73 fb 3d 00 54 ff 39
       -0.039037824 -0.03356436 0.12277822 0.00048699975
0002b0 a8 4b 2f 3d f4 6c 77 3d 9e 37 c0 3d 8c 55 ce bd
       0.04279676 0.06040664 0.09385608 -0.100749105
0002c0 ee 25 83 bd a0 4a 72 bc 7c 86 61 bd ac e9 b4 bd
       -0.06403719 -0.0147883 -0.055059895 -0.08833632
0002d0 b8 be 0f bd 80 da 35 3c 5c 66 97 bd 66 e5 84 3d
       -0.035093993 0.011099458 -0.073925704 0.06489067
0002e0 40 cf 79 bc ca 3d ec 3d ec b7 b8 3d a6 ad 85 bd
       -0.015247166 0.11535223 0.09019455 -0.065272614
0002f0 80 ce 1a 3d 50 1f e4 bc c0 b9 52 bd 50 71 08 3c
       0.03779459 -0.027846962 -0.051446676 0.008327797
000300 80 eb 82 ba 40 67 89 bb 7e e0 b9 3d 60 85 68 3d
       -0.0009988397 -0.0041932166 0.090760216 0.05676782
000310 42 76 da 3d fc 7d 73 3d d8 be 4d bd e8 48 f6 3c
       0.10667087 0.05944632 -0.05023083 0.030064061
000320 a8 0d 1e 3d 24 14 1c 3d 54 81 12 3d 56 4d b1 3d
       0.038587242 0.038105145 0.03576787 0.08657329
000330 70 59 65 bd c4 a9 c1 bd ae 9b b4 bd 98 5b 3b 3d
       -0.055993497 -0.09456208 -0.08818756 0.045741647
000340 96 46 bf bd 50 c9 0c bd d6 a4 c5 3d 5e 2f a3 3d
       -0.09339635 -0.034371674 0.096505806 0.07968019
000350 a0 2d 59 bc 42 f0 a2 3d c4 9b 80 3d d4 40 d0 3d
       -0.013255507 0.07955982 0.0627971 0.10168615
000360 a8 c0 f9 bc 98 22 0c bd 6c 6c b4 bd d4 37 e9 3d
       -0.030487373 -0.03421268 -0.08809742 0.113876015
000370 f0 7a 34 3c 58 6b 9b bc 40 cc e4 bc ce ef c0 3d
       0.011015639 -0.018972084 -0.027929425 0.09420739
000380 a8 bf 67 bd 7c fa a7 3d 62 b0 b9 3d 40 aa 26 3b
       -0.056579262 0.08202073 0.090668455 0.0025431067
000390 16 05 b3 bd 28 83 31 bd 80 1f f6 bb 60 1c 58 3d
       -0.087412044 -0.04333797 -0.0075110793 0.052761436
0003a0 76 ef c0 3d 4c 5f b3 bd e6 2d b0 3d be 34 fc 3d
       0.094206735 -0.08758411 0.086025044 0.12314747
0003b0 dc fb 0a 3d c8 92 a8 3d 14 9d fa 3d a2 85 9f 3d
       0.033931598 0.08231121 0.122369915 0.0778916
0003c0 00 1e 53 3c 20 1b d8 3c 74 36 81 3d 7a 77 cb 3d
       0.0128855705 0.026380122 0.06309214 0.09934898
0003d0 b6 6d cb 3d de ed bc 3d a0 e1 fd 3d 40 9b b9 bb
       0.09933035 0.09225057 0.1239655 -0.005664259
0003e0 00 b1 84 3a 40 d2 06 3c 70 7c f9 3c 44 07 e1 bd
       0.0010123551 0.008228838 0.030454844 -0.10987714
0003f0 fc 2b 09 bd f8 d1 16 3d 60 c7 85 bb 74 f7 ec bd
       -0.033489212 0.036821336 -0.0040826052 -0.115706354

hyper_w1.2.bias f4 [128]
000000 0c 80 af 3d 0c 0e 46 bd e8 f5 24 3d 4c 4b 66 bd
       0.08569345 -0.04835324 0.040273577 -0.056224152
000010 ee 00 90 3d 1a 0a e5 3d b0 91 15 bd fc 7b 01 3d
       0.07031427 0.11183567 -0.03651589 0.03161238
000020 50 8e 3f 3c 08 da d6 bd 46 6d a2 3d 80 67 65 3b
       0.011691645 -0.10490805 0.079309985 0.0035004318
000030 8e 57 c1 3d d8 bd f2 bd b0 7d 41 3c 50 7e cc bd
       0.09440528 -0.11852616 0.011809751 -0.0998503
000040 d0 b2 c0 3c 00 01 42 bc 7a e1 c5 3d c0 a0 2c bd
       0.023522764 -0.011841059 0.09662147 -0.04214549
000050 1e 64 e9 bd 30 83 6e 3c 70 e3 c3 bc 3c 7c b8 3d
       -0.11396049 0.014557645 -0.023912162 0.09008071
000060 e0 af 0b bd 58 fa b6 3d f6 4d ab bd fc 59 4c bd
       -0.034103274 0.08934468 -0.08364479 -0.049890503
000070 78 61 e7 3d 6e e6 e4 bd a0 d4 ff bc 9e 3e 8a bd
       0.112978876 -0.111767635 -0.031229317 -0.067502245
000080 1c 02 94 bd 84 c1 ab 3d 20 66 65 3c b2 b9 f2 bd
       -0.07226965 0.083865196 0.014001399 -0.11851825
000090 f8 08 a4 3c 90 f1 bc bc 70 4b 22 3d 9c 2f 47 bd
       0.020023808 -0.023064405 0.039622724 -0.04862939
0000a0 48 9c 81 3c 20 9a b2 3c ca be fc bd 4e 8e 93 bd
       0.015821591 0.021802008 -0.123410776 -0.07204877
0000b0 78 bd 51 3d 5a df 85 bd 50 1b 7c bc 4e 7a c9 3d
       0.051206082 -0.065367416 -0.015387371 0.09837781
0000c0 78 7c c8 3d c0 42 6b 3b e4 bb ac 3d 7c de 5c bd
       0.097893655 0.003589794 0.08434275 -0.053923115
0000d0 c8 7c 2c bd a0 18 bf 3c c0 05 fb 3b 34 34 31 3d
       -0.04211119 0.023327172 0.0076605976 0.043262675
0000e0 de b4 f9 3d 1c fc 2b bd 38 79 ca 3c c0 69 b7 3c
       0.12192701 -0.041988477 0.024716005 0.022389293
0000f0 24 f1 e6 3d e0 33 81 3b e8 82 71 3d 40 bb 9c bb
       0.11276463 0.0039429516 0.058962733 -0.004783064
000100 a2 1d a4 3d 4a 8c d3 3d 50 1c fb 3d 56 42 d0 3d
       0.080134645 0.103294924 0.122612596 0.101689026
000110 50 f5 2b bc 80 1c 49 bd 00 95 eb bd 08 be b9 3c
       -0.010495499 -0.049099445 -0.11503029 0.022673622
000120 7a 79 ef 3d 20 78 3b bc 32 61 82 3d a0 17 d9 3c
       0.11693092 -0.011442214 0.06366195 0.026500523
000130 02 76 9c bd 9a 35 84 3d 42 ef e1 bd 56 80 d6 3d
       -0.07639696 0.06455536 -0.11031963 0.10473697
000140 4c f1 c4 3d 9e f4 a1 3d b8 6e 2e bd 54 89 b9 3d
       0.09616336 0.07907985 -0.04258606 0.090593964
000150 1c f4 c4 bd 20 42 dc 3c 82 55 ac 3d 38 8f c7 3c
       -0.09616873 0.026887 0.08414747 0.024360284
000160 72 07 b0 bd bc 82 60 3d ec a2 74 3d dc 4e f1 bd
       -0.0859517 0.054812178 0.059725687 -0.11782619
000170 38 d1 96 3d ac 5d e0 3d b8 94 93 3d 16 3b aa 3d
       0.07364124 0.109553665 0.072061 0.08312051
000180 40 e7 38 bc ce f2 da bd f0 cc d0 3d ec de 74 bd
       -0.011285603 -0.106908426 0.10195339 -0.059782907
000190 a0 46 56 3d e2 64 a7 3d e0 42 df 3d d0 9b 1b bd
       0.052313447 0.08173539 0.10901427 -0.03799039
0001a0 a0 20 55 bc 48 f8 6f bd 20 ae 8b bc 70 c5 6e bd
       -0.013008267 -0.05858639 -0.017050803 -0.05829376
0001b0 64 36 a0 3d fe 70 9d 3d 5e c4 c8 bd b8 58 bb bc
       0.07822874 0.07687567 -0.09803079 -0.022869453
0001c0 1c be 0e 3d 90 28 2a bc 68 ca 30 3d c8 26 ef bd
       0.03484927 -0.010385647 0.04316178 -0.11677319
0001d0 18 5f 7b bd 1c 5d 17 3d f0 ad 27 3c 32 2b fc bd
       -0.061369985 0.03695403 0.010234341 -0.12312926
0001e0 c6 54 e9 3d 70 b3 34 bc 92 be bf 3d c4 2e 44 bd
       0.113931224 -0.011029109 0.0936252 -0.04789616
0001f0 40 cb c6 3c 20 9e f9 3b f0 65 1f bd 54 af 9f 3d
       0.024266839 0.007617727 -0.038915575 0.07797113

hyper_w2.0.weight f4 [64, 1024]
000000 d2 b1 b8 bc 80 12 26 3b 02 c7 a1 3c 34 90 60 bc
       -0.022545729 0.0025340617 0.019748215 -0.013706256
000010 08 fc ae 3b b6 32 91 bc c4 cb af 3c 30 2a a2 bc
       0.005340103 -0.017724376 0.021459468 -0.019795507
000020 dc 63 76 3c 70 88 da 3b 5a 90 86 bc a8 8b ee bb
       0.015038457 0.0066690966 -0.016426254 -0.007279832
000030 20 7f 8a 3b 9a 6b a5 bc 8a 06 84 bc b4 12 aa bc
       0.0042265803 -0.02019291 -0.0161164 -0.020760871
000040 9c 22 b2 3c ee 9b 9c bc e8 49 8f 3b 20 14 23 3b
       0.021745019 -0.019117322 0.004372824 0.0024883822
000050 64 f6 ce 3c ec a2 0b 3c ec 89 84 3c 08 e0 0d bc
       0.025263973 0.00852273 0.016179048 -0.00865937
000060 46 1b aa 3c 00 67 1c 3b 14 ba 8b bc 7a a6 d8 3c
       0.020764958 0.0023865104 -0.017056502 0.02644657
000070 50 25 94 bb 00 f9 e9 3a 90 3c 2d 3c 08 bc b9 3b
       -0.0045210496 0.0017850697 0.010573521 0.005668167
000080 14 d2 4c 3c cc 17 f9 3c 48 f7 89 bc 30 74 f2 3c
       0.012501258 0.030406855 -0.016841546 0.029596418
000090 98 a2 15 3c 9a 04 87 3c 4c e1 50 3c 24 e9 c2 bc
       0.009133004 0.016481686 0.012749027 -0.02379281
0000a0 58 75 ed 3b 14 da 97 3c 46 3a c4 bc b0 17 a0 3c
       0.0072466545 0.018536605 -0.023953568 0.019542545
0000b0 00 12 29 bc 60 a5 e4 bb 00 41 85 bc a0 a5 5e bc
       -0.010319233 -0.006977722 -0.016266346 -0.013589293
0000c0 de f5 bb 3c 66 12 88 3c 4c 53 22 bc 90 d6 dc 3c
       0.022944387 0.016610336 -0.009907555 0.02695778
0000d0 90 fe 90 3b 72 be 9d 3c fc da 4a 3c 48 e4 63 3c
       0.0044248775 0.01925585 0.0123813115 0.013909407
0000e0 60 e4 84 ba 5c 17 55 3c 2a e9 f2 3c 70 db c7 3c
       -0.0010138862 0.013006058 0.029652197 0.024396628
0000f0 02 c1 98 bc c0 30 de 3a 1c 7e d4 3c e4 4d cd bc
       -0.01864672 0.0016951784 0.02593904 -0.025061555
000100 c8 f4 fb 3b 42 d1 d0 bc 92 66 df 3c 90 1d fa bb
       0.0076890923 -0.025490407 0.027270589 -0.0076329187
000110 0a 96 cb bc 88 72 f3 bc 40 b4 a4 bc 88 ae 6a 3c
       -0.024851818 -0.029717699 -0.020105481 0.014323838
000120 60 6e 3c bb 1a 3e ad bc 00 aa 83 bb 2c 1f 01 bc
       -0.0028752312 -0.021147776 -0.0040180683 -0.007880967
000130 b6 3b de bc 20 bd dc 3a de ee f3 bc b0 3e 9e bc
       -0.027128082 0.0016841032 -0.029776987 -0.019317001
000140 48 d0 e9 bc 74 1a 3a bc fc bb e6 bc de e6 ea 3c
       -0.028541699 -0.011358846 -0.02816581 0.02867454
000150 ee b2 aa bc b8 d3 dc bb 50 34 b6 bb 9e 8e 85 bc
       -0.020837273 -0.006739106 -0.0055604354 -0.016303357
000160 5c 17 91 bc d4 f0 5d bc 80 b4 a9 b9 00 1f 3b bc
       -0.017711334 -0.013546187 -0.00032368675 -0.011420965
000170 34 4c b6 3c c0 91 fd ba 10 83 35 3c 62 9d 95 3c
       0.022253133 -0.0019345805 0.011078611 0.018263523
000180 40 55 a5 3b 78 a9 fe bc 4a 7b fb 3c ce 2a a4 bc
       0.005045563 -0.031086668 0.030698437 -0.020039942
000190 20 7c 2d bb 3e b8 98 bc 68 4a 09 bc 10 a0 5e bc
       -0.002647169 -0.018642541 -0.008379556 -0.013587967
0001a0 40 1d ca 3a 84 b9 b5 bc e0 50 75 3b 68 57 73 bc
       0.0015420094 -0.022183187 0.0037432238 -0.014852382
0001b0 46 c8 e4 bc a4 90 6f 3c 6c 32 35 bc 42 56 c6 3c
       -0.027927529 0.014621887 -0.011059385 0.024211053
0001c0 8c 32 3e 3c f0 29 dd bb 1c 4c dd bc 06 4f ce bc
       0.011608731 -0.006749384 -0.02701383 -0.025184166
0001d0 94 7c 90 bc 78 da cb 3b 7a 27 93 3c 2c 7e a2 bc
       -0.017637528 0.006221112 0.01796316 -0.019835554
0001e0 50 82 b2 bb dc 58 76 bc 78 43 ff 3c 50 15 cd bb
       -0.0054476634 -0.015035834 0.031160101 -0.006258644
0001f0 08 72 df bb f6 fa d9 3c 04 70 8d bc 14 4a 59 bc
       -0.0068190135 0.026608925 -0.017265327 -0.0132622905
000200 e8 89 73 3c ce d8 a3 3c f0 ad e4 3c c0 db 7d bc
       0.014864422 0.020000841 0.027914971 -0.015494287
000210 76 67 a7 bc 64 18 c4 3c aa 0f e9 bc 0c dc 20 bc
       -0.020435076 0.023937412 -0.028449852 -0.009818088
000220 38 1d ca bb d0 49 bc 3c 80 37 57 bc ae 7a cb 3c
       -0.006168034 0.022984415 -0.013135791 0.024838772
000230 56 0e f9 bc 00 a3 c4 3b 54 15 b5 3c 26 4f e1 3c
       -0.030402344 0.0060008764 0.022104897 0.027503561
000240 e2 47 ab 3c 74 7c 70 bc 74 3c 99 bc dc f0 cc 3c
       0.0209083 -0.014678109 -0.018705584 0.025017194
000250 54 97 3e 3c 40 a8 2f ba 64 d9 c5 3c 48 ab e5 3c
       0.011632759 -0.00067007914 0.024151511 0.028035775
000260 e2 ff a5 3c e0 41 cc 3a e0 6d f0 ba 3c a7 22 3c
       0.020263616 0.0015583597 -0.0018343292 0.009927567
000270 f8 d3 fe 3b 40 ab ef bc d0 69 58 bc 48 a8 21 3c
       0.0077767335 -0.029256463 -0.013208821 0.0098667815
000280 68 79 d9 bb e8 29 3e 3c 7a 9b af 3c 62 be 8a 3c
       -0.006636787 0.011606671 0.021436442 0.016936485
000290 20 3b 10 3c 32 cf 91 3c 60 6c 93 3a 90 de e2 3c
       0.008803159 0.017798994 0.0011247508 0.027694017
0002a0 40 17 92 3a ee 73 ca 3c b4 49 34 3c 00 c4 92 3c
       0.0011145845 0.024713483 0.0110039 0.017915726
0002b0 20 6c a4 3c f4 3f 42 bc 04 2a db 3c ae 3b be bc
       0.02007109 -0.011856068 0.026753433 -0.023221817
0002c0 44 5f 95 bc c8 f5 f2 3b ce 78 b6 bc e4 4f d1 3c
       -0.018233903 0.0074145533 -0.022274401 0.02555079
0002d0 e4 60 cc 3c a4 33 41 3c b2 10 a5 bc 52 d9 d4 bc
       0.024948545 0.011792097 -0.020149563 -0.025982533
0002e0 68 41 c3 bb cc 46 30 bc e8 12 b2 3c 4c 76 b8 3c
       -0.0059587248 -0.010759067 0.02173753 0.022517346
0002f0 36 bb e9 3c b0 b7 f8 3b 9c 15 6c bc 92 de bb 3c
       0.028531652 0.0075902566 -0.014409449 0.022933278
000300 5e d4 8d bc 08 a3 d1 bc 0c 0b 50 3c 28 32 52 bc
       -0.017313179 -0.025590435 0.012697946 -0.012829341
000310 f8 f9 ef 3c 94 46 5a 3c c4 8f 7d 3c 0c 70 55 3c
       0.029294 0.013322491 0.015476171 0.013027202
000320 18 fa df bc 5e 73 f5 bc 3c 90 b4 3c b4 15 e3 bc
       -0.027340934 -0.029962238 0.022041433 -0.02772031
000330 82 a8 99 3c 70 2a 34 bb 58 80 ff bb fa cb 98 3c
       0.018757109 -0.0027491115 -0.007797282 0.018651951
000340 f4 03 40 bc 0e e7 8c 3c ae ef e5 3c e4 51 39 bc
       -0.0117196925 0.01720002 0.02806839 -0.011311028
000350 8c 37 01 bc 48 63 cd bb 80 00 d9 bc 54 65 61 bc
       -0.007886779 -0.0062679388 -0.026489496 -0.013757069
000360 f8 90 a6 3b 70 29 6c bc 98 d2 f2 bb e8 99 81 3b
       0.0050831996 -0.014414176 -0.0074103586 0.0039551146
000370 60 c3 87 ba 0e bc f5 bc b8 77 cb 3b 98 76 99 3b
       -0.0010357909 -0.029996898 0.00620934 0.004683327
000380 98 52 c5 bb d6 b6 e0 bc 9e 67 eb 3c 00 68 91 ba
       -0.006021809 -0.027430933 0.028735932 -0.0011093616
000390 c6 92 ca 3c 8c f4 4f bc e4 11 3c bc 7c 7a 14 bc
       0.02472819 -0.012692582 -0.011478875 -0.009062406
0003a0 ac 77 b3 3c c0 cf a8 bc 68 8f a6 3c 18 dd ef 3c
       0.02190765 -0.020606875 0.020332053 0.02928023
0003b0 10 41 8d bb bc 10 83 bc 0e df a8 bc 98 e8 b8 3c
       -0.0043107346 -0.01599919 -0.020614173 0.022571847
0003c0 74 57 67 3c 94 2e 65 bc 20 73 8f bc 68 d6 c9 3c
       0.014119972 -0.013988156 -0.01751095 0.02463837
0003d0 c0 82 8e bb bc 16 9c 3c e0 3e ed ba 74 6a 2e 3c
       -0.0043490827 0.01905381 -0.0018100403 0.010645498
0003e0 a8 97 f4 bc 84 a5 98 3c 50 b5 bb 3c 8c 52 ba 3c
       -0.029857472 0.018633612 0.022913605 0.02274444
0003f0 b0 8b 77 3b 30 51 90 3c d0 6a c2 3c 9a 88 93 bc
       0.003777247 0.017616838 0.023732573 -0.018009473

hyper_w2.0.bias f4 [64]
000000 00 78 4e bc 6e 03 b0 bc 36 fb e2 bc 1c 36 c8 bc
       -0.012601852 -0.02148601 -0.027707677 -0.024439864
000010 ea 0f da 3c b4 ee 08 bc 48 66 6d 3c 00 6d b9 bc
       0.026618917 -0.0083576925 0.014489718 -0.022634983
000020 d0 cb 4d 3b d4 bb 32 3c 28 78 9e bb a0 e5 56 3b
       0.0031402 0.0109090395 -0.004836101 0.0032790676
000030 80 68 c6 b9 6e 7d d0 3c 4c 28 19 bc fe 56 ac bc
       -0.00037843361 0.025450435 -0.009347986 -0.021037575
000040 ec e7 b6 3c 30 06 df 3c 40 b7 77 3a 7c 29 a0 bc
       0.022327386 0.02722463 0.00094496086 -0.019551031
000050 38 2c 33 3c 20 ca f9 3a f8 c1 e0 3c f6 20 f4 3c
       0.010935836 0.001905743 0.027436242 0.029800873
000060 4c dc c2 bc 20 92 d4 ba a0 6c 84 bc 50 39 d2 3b
       -0.023786686 -0.0016217865 -0.016165078 0.0064155236
000070 00 f4 33 3b 60 f3 fa ba f8 73 0c bc c0 4d 76 3b
       0.0027458668 -0.0019146018 -0.008572571 0.0037582964
000080 40 8c 1d bc b0 22 9a 3b 70 95 81 3c fa 28 f1 3c
       -0.009615958 0.004703842 0.015818328 0.029438484
000090 e0 8b 16 bc 56 64 d3 bc 58 67 a2 3c 76 29 d7 bc
       -0.009188622 -0.02580468 0.019824669 -0.026264887
0000a0 e0 2f cc bc b0 fd 37 3b 08 5e 54 3c b8 41 ad 3c
       -0.024925172 0.0028074794 0.012961872 0.021149501
0000b0 00 fd a4 bb c0 4b 4f bc 9c d6 fc bc f2 31 df bc
       -0.0050350428 -0.012652338 -0.030864052 -0.027245495
0000c0 4c 53 78 3c f2 a6 c5 3c 40 ea cc 3a 80 48 39 bc
       0.015156578 0.024127457 0.0015633777 -0.011308789
0000d0 60 8e 06 bb a8 93 d4 bb 28 51 88 3c 3a db ab 3c
       -0.002053164 -0.0064873286 0.01664026 0.020978559
0000e0 40 71 ca bc 90 23 95 3c 00 a0 a5 b9 44 28 89 3c
       -0.024712205 0.018205434 -0.00031590462 0.016742833
0000f0 98 47 ac bb 6a e1 d3 bc d4 a2 2e bc d6 7c d1 bc
       -0.005257558 -0.025864322 -0.010658938 -0.025572222

hyper_w2.2.weight f4 [32, 64]
000000 9e df 94 bd f8 70 c9 3c a4 33 5b 3d 4c 4e e7 3d
       -0.07269214 0.02459 0.053516045 0.11294231
000010 b8 37 e5 3c 10 ad d4 3c 54 fb 88 3d d0 53 cd bd
       0.02798067 0.025961429 0.06688562 -0.100257516
000020 ba bd cc 3d 58 f5 8f 3d 54 e8 98 bd 08 38 27 bd
       0.09997125 0.070292175 -0.07466188 -0.04082492
000030 78 9e 97 3d e0 70 40 3d 4e 9e b2 bd 7a 12 b0 3d
       0.074032724 0.046982646 -0.087216005 0.08597274
000040 96 11 a7 bd 74 fe 60 bd 68 9b 9e bd 00 47 f2 3c
       -0.08157651 -0.054930165 -0.07744485 0.029574871
000050 68 66 b1 bc 48 c4 df 3c ec c7 54 bd 80 f0 f3 3c
       -0.021655276 0.027315274 -0.051948473 0.029777765
000060 10 07 c8 3d 04 b4 8d 3d 9c 36 83 bd d0 6c 79 3d
       0.09766972 0.06919101 -0.064069 0.060894787
000070 ac ac 69 3d 1c 8d 56 3d a6 42 e5 bd 80 d8 4a 3b
       0.05704944 0.052380666 -0.11194353 0.0030951798
000080 2e 56 b0 3d c0 07 40 3b 14 a3 ac bd 8e b1 8a bd
       0.086101875 0.0029301494 -0.08429542 -0.06772147
000090 2e ce 8d 3d c4 f5 52 bd f0 c4 38 bd 48 02 cc bc
       0.06924091 -0.05150391 -0.04510969 -0.024903432
0000a0 60 aa 60 3c 8c cd a2 bd 20 d4 07 bc a0 3a 9c bd
       0.013712496 -0.07949361 -0.008290321 -0.07628369
0000b0 fc ec 24 3d 80 f6 bd 3a d0 d6 93 bd 90 d2 63 3d
       0.04026507 0.0014493018 -0.072187066 0.05562073
0000c0 80 8c b5 bd b4 ae 87 3d 6c 31 25 3d f0 a9 f8 3d
       -0.08864689 0.06625119 0.040330335 0.12141788
0000d0 cc c5 b3 bd 40 a4 34 3b 20 03 61 3c d0 35 55 3c
       -0.08777961 0.002756372 0.013733655 0.013013318
0000e0 40 b8 5b 3c 28 d2 4c bd 30 16 bf 3d e8 b4 c8 3d
       0.013410628 -0.050005108 0.09330404 0.0980013
0000f0 d8 1e 5d bd 9e 77 dd 3d 00 cd c8 bb 8e fd 92 3d
       -0.053984493 0.10813831 -0.0061279535 0.07177268
000100 10 7d b5 bd 4c d3 0b 3d 10 7d 1e 3c e2 73 c3 3d
       -0.088617444 0.034137055 0.009673372 0.09543587
000110 38 80 bf 3d 02 36 8b bd 28 99 c6 bc a0 43 08 bd
       0.09350628 -0.067974105 -0.024242952 -0.033267617
000120 58 6e c3 bd 00 25 17 3b 9c d2 2a bd 20 2b 62 bd
       -0.09542531 0.0023062825 -0.04170476 -0.05521691
000130 58 4e a0 3d 4c 90 5b bd 54 49 e4 3d 48 97 6d 3d
       0.07827443 -0.05360441 0.11146799 0.0580056
000140 44 4a d3 bd 72 bf 90 bd 58 f9 1a bd a8 15 d1 3c
       -0.103168994 -0.07067765 -0.03783545 0.025523022
000150 48 b0 d5 3d 7e c5 dc bd 4a a7 e0 bd d4 63 51 bd
       0.104340136 -0.10779856 -0.10969408 -0.051120594
000160 06 18 ce 3d 1e e5 e2 bd b0 45 f6 3c 0c 92 d5 bd
       0.10063176 -0.11078857 0.030062526 -0.10428247
000170 56 ca bf bd 20 52 54 3d 94 3d 8e 3d 00 44 62 bb
       -0.093647644 0.051836133 0.06945339 -0.0034525394
000180 30 41 1b 3c 34 03 e5 bd 42 ba b7 3d 78 10 a4 bd
       0.009475991 -0.111822516 0.08971073 -0.08010954
000190 e0 46 cf bd 46 31 e1 3d e8 b1 f6 3c dc b7 ee 3d
       -0.1012094 0.10995726 0.03011413 0.11656162
0001a0 ce 57 92 bd a8 b9 40 bd 90 1f 12 3d 3e 3f db bd
       -0.07145654 -0.047052056 0.03567463 -0.10705422
0001b0 5e fb be bd ce 3d 96 3d 80 11 d1 bc b4 ff d7 3d
       -0.09325288 0.07336007 -0.02552104 0.105468184
0001c0 68 0e 6f 3d e2 f2 84 3d 84 5c a5 bd 70 44 c6 3d
       0.05836335 0.06491639 -0.080742866 0.09681022
0001d0 7e f2 d9 bd be f8 f0 3d 1c fb 25 3d ee ae a5 3d
       -0.10641955 0.11766194 0.04052268 0.08090006
0001e0 d0 10 d0 3c 10 60 22 bd a4 ef 4c 3d 40 23 24 3d
       0.025398642 -0.039642394 0.050033227 0.04007268
0001f0 80 c3 14 3d 5a fa d7 bd d4 f7 54 3d 78 f7 88 bc
       0.036319256 -0.10545798 0.05199416 -0.016719565
000200 26 e0 9b bd e0 90 e0 bb 40 72 be bd 0c aa df 3d
       -0.07611112 -0.006853208 -0.09299135 0.10921106
000210 8a e8 80 3d 80 95 04 bb 14 25 6d 3d 58 8a b9 3d
       0.06294353 -0.002023071 0.05789669 0.0905959
000220 08 57 6f 3d 40 41 c9 bb 06 42 ee bd f0 9e 5f bd
       0.05843261 -0.0061418116 -0.11633687 -0.054594934
000230 68 85 4e 3d 20 97 50 bd 82 cc d1 3d 62 6c d1 bd
       0.050420195 -0.050925374 0.10244085 -0.102257505
000240 f0 a6 7a bc 3e 27 a0 bd 30 cc 52 bd c0 a6 68 3b
       -0.01529859 -0.07819985 -0.05146426 0.0035499781
000250 4c 1c 07 bd c0 a5 8a 3c b4 24 74 3d 98 df dd 3d
       -0.03298597 0.016924739 0.059605315 0.10833663
000260 96 84 f6 3d e8 07 c8 3c 08 85 0c bd 58 37 be bc
       0.120370075 0.024417832 -0.034306556 -0.02321975
000270 1e 0a f0 bd 9c 7a b6 bd ca c9 ea bd 20 e9 37 bd
       -0.1172068 -0.08910105 -0.114642695 -0.04490006
000280 b0 05 07 bd f6 f9 eb 3d 8c a5 32 bd 14 74 b1 3d
       -0.03296441 0.11522286 -0.04361491 0.08664718
000290 a2 de 9c bd 00 80 a9 ba 68 7f 7e 3d 44 88 bf bd
       -0.07659651 -0.0012931824 0.062133223 -0.093521625
0002a0 80 85 c1 3a 0a 4a c0 bd 12 48 ba 3d 18 e6 02 bd
       0.0014764518 -0.09389122 0.090957776 -0.031957716
0002b0 80 79 87 bd 74 d9 7e 3d 68 75 35 3d 1c 8f 2f bd
       -0.06614971 0.0622191 0.04430142 -0.04286109
0002c0 60 30 b3 bb e4 9f 37 bd c8 59 9f 3c 40 a2 28 3c
       -0.0054684132 -0.044830218 0.01945199 0.01029259
0002d0 e8 a7 b7 3c 4a 33 c1 bd a0 31 65 3c 00 6d bc 3d
       0.022418931 -0.09433611 0.013988882 0.092004776
0002e0 34 fc 70 bd 60 cb 38 3c 2c c8 cd bd 20 d0 6d 3d
       -0.05883427 0.011278957 -0.100479454 0.05805981
0002f0 64 1d 4d 3d c0 84 d3 3d e0 96 a2 3b d8 08 d4 bd
       0.050076857 0.103280544 0.0049618334 -0.10353249
000300 20 d7 d0 bb f8 34 41 3d 64 80 7c bd 40 48 3a 3b
       -0.006373301 0.047169656 -0.06164588 0.0028424412
000310 ea 58 d8 3d c8 20 69 3d d8 f6 d4 bc e4 17 36 bd
       0.10563834 0.05691603 -0.02599661 -0.044456378
000320 aa 8b f2 3d 0c 33 ab bd f4 af 87 bd 74 5d 58 bd
       0.11843045 -0.08359346 -0.06625357 -0.0528235
000330 7e 55 b8 3d ce 96 dd 3d 78 b4 e8 3c 70 8e 70 3c
       0.09000681 0.10819779 0.028406367 0.014682397
000340 e8 2e 6a 3d 92 a9 a3 3d 36 35 87 3d c8 77 69 3d
       0.05717364 0.07991327 0.06601946 0.056998998
000350 ee d5 b2 bd 7c fa df bd 48 ad d2 3c 80 c2 fa 3d
       -0.0873221 -0.10936448 0.025717393 0.12244129
000360 30 28 00 3d 76 e7 cb bd 08 31 d9 bd 50 67 ff 3d
       0.031288326 -0.09956257 -0.10605055 0.12470877
000370 b4 4b 84 3d 9a 78 a4 3d 00 19 17 3c 90 3a b8 bc
       0.06459752 0.080308154 0.009222269 -0.022488862
000380 40 99 22 3c fc a0 8a bd 00 ec 9b b9 12 d3 cf 3d
       0.009924233 -0.067689866 -0.00029739738 0.1014768
000390 2e a2 f3 bd 70 ee c8 3c ee ac e7 bd 00 38 8e bd
       -0.11896168 0.024527758 -0.113122806 -0.06944275
0003a0 a8 94 ae bd 2c 59 a5 3d 04 7e 9d 3d e0 b3 90 bd
       -0.08524448 0.08073649 0.07690051 -0.070655584
0003b0 a0 73 6c bd 60 e1 9a bc 80 03 fa bb a8 36 fe 3d
       -0.057727456 -0.018906295 -0.0076298118 0.124127686
0003c0 94 c4 d5 3d 04 fc ac 3d 26 2f d8 bd 96 81 d7 3d
       0.10437885 0.08446506 -0.10555868 0.105227634
0003d0 a4 7a 59 bd fc 2a 5c 3d 80 43 45 3b ee b5 92 3d
       -0.053095475 0.05375193 0.0030100048 0.071636066
0003e0 e8 29 f2 bc 1c fe 24 bd e4 e8 f5 3d 32 e2 e5 3d
       -0.029560998 -0.0402814 0.12007311 0.11224784
0003f0 24 c6 10 bd 44 c8 d6 bd 1a e8 82 bd f0 e1 5d bd
       -0.03534521 -0.104874164 -0.06391926 -0.05417055

hyper_w2.2.bias f4 [32]
000000 ee c6 8c bd 18 19 8d bd f2 f7 f9 3d 60 bc f3 bd
       -0.0687388 -0.06889552 0.12205495 -0.11901164
000010 f2 50 d4 bd be 9e fe 3d 20 55 5c bc b0 45 be 3d
       -0.103670016 0.124326214 -0.01344803 0.092906356
000020 d4 c6 be bd 02 a2 c2 bd a6 07 8e bd 04 a2 6c bd
       -0.09315267 -0.09503557 -0.069350526 -0.057771698
000030 1e 05 d4 3d 18 06 03 bd c4 23 28 3d 74 04 ce bd
       0.103525385 -0.031988233 0.041049734 -0.10059443
000040 74 36 2f bd a0 b2 86 bb 20 08 cb bd 88 9e fa 3c
       -0.04277654 -0.004110649 -0.09913659 0.030593172
000050 90 fc 7b bd 38 c2 fa bc c2 87 e8 bd 6c a1 25 bd
       -0.06152016 -0.030610189 -0.11354019 -0.040437147
000060 c2 16 d0 bd 08 72 65 3d 80 55 94 bd 90 69 59 3d
       -0.10160591 0.05601695 -0.0724287 0.053079188
000070 2c ba a9 bd e4 90 35 3d e8 ef 1d 3d 54 2f 6d bd
       -0.082874626 0.04432763 0.03855887 -0.057906464

hyper_b1.weight f4 [32, 1024]
000000 4c be 28 bc 90 4d f5 3b 90 82 bd 3c 54 5d fe bc
       -0.010299277 0.007486053 0.023133546 -0.031050362
000010 92 84 e3 bc b4 b6 44 3c 40 d0 38 3a a8 98 15 bc
       -0.027773175 0.01200645 0.00070500746 -0.009130634
000020 ac 9a 54 bc 40 84 1c 3c 48 2d 71 bc 04 86 23 3c
       -0.01297633 0.009553015 -0.014720269 0.009980682
000030 4a 41 f7 bc 08 02 a2 bb 16 06 b2 bc e0 68 ea bc
       -0.0301825 -0.00494409 -0.021731418 -0.028614461
000040 f8 c8 56 3c 42 63 bb bc e0 f7 28 3c 40 52 3f 3a
       0.013109438 -0.022874478 0.010313004 0.0007298328
000050 88 cd 90 bc 10 64 ff bb 8c 74 46 bc e4 1f f5 bc
       -0.01767613 -0.007793911 -0.012112748 -0.029922433
000060 ea 3a 8e bc e2 57 85 bc b2 60 cf bc 04 48 cc bc
       -0.017362077 -0.016277257 -0.025314663 -0.024936683
000070 36 a8 a2 bc d0 6a 29 3c a4 54 96 3c 98 53 bc 3c
       -0.0198556 0.0103404075 0.018350907 0.02298908
000080 e6 00 fb bc f0 49 09 3c 28 b2 dc 3c a0 21 7d 3c
       -0.030640077 0.0083794445 0.02694042 0.015449911
000090 c8 56 e6 3b 80 f3 ff bb 80 9b f2 ba b0 6b 01 3b
       0.007029388 -0.00781101 -0.0018509477 0.0019748025
0000a0 1c c7 81 bc 48 65 85 bb ac 57 42 bc a0 60 b7 bb
       -0.015842013 -0.0040709116 -0.011861723 -0.0055962354
0000b0 ac 1d 4b 3c 02 2e c1 bc fa 15 e0 bc c0 cd eb ba
       0.012397211 -0.023581509 -0.02735423 -0.0017990395
0000c0 b0 2a a6 3c c0 11 2b ba c6 3d b5 3c c6 f0 cd bc
       0.020284027 -0.0006525777 0.022124182 -0.025139224
0000d0 f0 ed 99 3b cc 60 b3 bc 90 3a 9b 3b 00 c7 ee bb
       0.004697554 -0.021896742 0.004737206 -0.0072869062
0000e0 14 08 04 3c 60 76 20 bb be d7 b8 bc ae ae d7 3c
       0.008058567 -0.002448462 -0.022563811 0.026328411
0000f0 54 bf 08 3c e2 ed 89 bc 4c 6c 4f bc 40 e8 7d bb
       0.008346397 -0.016837064 -0.012660097 -0.0038743168
000100 fa 16 8e bc a8 57 e8 3c b0 a2 61 3b a6 d3 ae 3c
       -0.01734494 0.02836211 0.0034429245 0.021341156
000110 00 e2 60 3b e8 b1 c4 3b 00 6c 51 3a 6e f9 c5 3c
       0.0034314394 0.0060026534 0.00079888105 0.024166789
000120 cc 0b 66 bc 1e 53 81 3c 10 58 de 3c fc 8c 39 3c
       -0.0140408985 0.015786704 0.0271416 0.011325117
000130 d6 ad ad 3c 18 d7 71 bc 68 68 76 3c f8 b1 d8 3c
       0.021201055 -0.014760755 0.015039541 0.02645205
000140 10 c7 59 3c b0 53 7d bc e0 ea 90 3a 28 e6 57 3c
       0.013292089 -0.015461847 0.0011056326 0.013177432
000150 68 37 70 bc 20 b7 51 3b 72 45 ef bc 78 cc e6 bb
       -0.014661647 0.003200002 -0.029207919 -0.0070434175
000160 68 5b 4b 3c 00 ec f2 38 7c a7 c4 bc 3a c1 ee 3c
       0.01241193 0.00011583418 -0.024005644 0.029144872
000170 c0 7b b3 bb dc 8a 42 3c 64 bb be 3c c4 83 d4 bc
       -0.0054773986 0.011873927 0.023282714 -0.025941737
000180 70 55 43 bc 00 ce 91 38 66 2d c4 bc a6 67 b2 bc
       -0.011922225 6.952509e-05 -0.023947429 -0.021777939
000190 d4 38 8a 3c 6e 36 90 3c 90 bf 82 bb 14 4b b5 bc
       0.0168728 0.01760408 -0.003990121 -0.022130527
0001a0 00 ab 8a ba 1c c9 b8 bc ca a6 95 3c f4 46 7c bc
       -0.0010579526 -0.022556834 0.018268008 -0.015397776
0001b0 d6 df 9b 3c 5c 1a 23 3c 20 49 68 bc ce 22 91 3c
       0.019027632 0.009955015 -0.014177591 0.017716791
0001c0 76 a9 9d bc da 6b 81 3c 40 77 10 3b 82 fd f7 bc
       -0.019245844 0.015798498 0.0022043735 -0.03027225
0001d0 be 8a ff 3c d2 ec d8 3c 10 75 0c 3c c2 53 a6 3c
       0.031194087 0.026480112 0.008572832 0.02030361
0001e0 4e d3 e8 bc 90 77 60 3c 00 b7 7b b9 e4 43 41 3c
       -0.02842107 0.013700381 -0.00024005398 0.011795972
0001f0 86 f8 89 3c 58 db 53 3c e8 8b a1 3c c2 ce d0 bc
       0.016842138 0.012930714 0.019720033 -0.025489215
000200 a0 41 6d 3b 80 e2 7d 3c 94 ae 4d 3c 84 68 7c 3c
       0.0036202446 0.015495896 0.01255383 0.015405778
000210 08 0d 00 bc f2 89 c0 bc 14 56 f2 3c e8 a2 6f bc
       -0.007815607 -0.023503277 0.02958206 -0.014626242
000220 22 c1 ce bc 4c a4 e0 bc 58 f8 e9 3c 40 59 79 bb
       -0.025238577 -0.027422093 0.028560802 -0.0038047582
000230 da 18 a8 3c be dd ee 3c 98 a4 22 3c 10 45 9e 3b
       0.020519663 0.02915847 0.0099269375 0.0048300102
000240 ae de 93 3c 58 f5 b0 3c 54 4f ad bc bc a9 5f 3c
       0.018050518 0.021601364 -0.02115599 0.013651308
000250 80 ba e1 3a 7e 4b c7 3c 0a 48 fb 3c 78 09 b0 3c
       0.0017221719 0.02432799 0.030674 0.02148889
000260 b0 5d 97 3b 28 be ec bb c0 85 1f bb 54 bf eb 3c
       0.0046193227 -0.007224817 -0.0024341196 0.028777756
000270 10 ce b8 3b ba 4d b7 3c 2c c2 96 bc a4 82 05 bc
       0.005639799 0.02237593 -0.018403135 -0.008148823
000280 96 8d b3 bc 00 51 fa bb f2 8a b9 3c 50 5d eb bb
       -0.0219181 -0.0076390505 0.022649262 -0.0071827546
000290 c4 8e ad bc c0 84 04 ba 60 37 89 3c 9e ff ad 3c
       -0.02118624 -0.00050551817 0.016750038 0.021240052
0002a0 08 6d fd bb 14 fd 10 3c 48 da 93 3c a6 a9 cb 3c
       -0.007733945 0.008849401 0.01804842 0.024861168
0002b0 60 f8 d5 3a 80 5b eb 3a 5a 33 a9 bc a0 c3 81 3a
       0.0016324632 0.0017956346 -0.02065437 0.000990022
0002c0 6c 2e cf bc 80 ec f0 3a c0 9c 8a bc bc ae 18 bc
       -0.02529069 0.0018381029 -0.016920447 -0.009319004
0002d0 98 c4 e9 3b 98 e5 a4 bb 74 a1 83 bc 32 bc 9f 3c
       0.0071340315 -0.0050322525 -0.016068198 0.019498918
0002e0 68 47 99 bb 44 1d 7e bc 10 79 cb 3c f4 ad ae 3c
       -0.0046777017 -0.015509907 0.024838 0.021323182
0002f0 9c 85 37 3c f4 ca 10 bc c0 ff f7 ba b0 9e db bb
       0.011201289 -0.00883745 -0.0018920824 -0.0067022666
000300 b4 6c 95 3c 94 c3 46 3c 82 f4 aa 3c c4 1d 23 3c
       0.01824031 0.01213159 0.020868544 0.009955827
000310 e2 a1 e7 bc 26 86 c2 3c 24 da b5 bc a4 68 45 3c
       -0.028275434 0.023745608 -0.022198744 0.012048874
000320 20 e9 10 3b bc a9 8d bc c8 a4 d5 3c c2 61 92 3c
       0.002211161 -0.01729285 0.02607955 0.01786888
000330 8a 7d c2 3c 10 e6 a1 bc a8 44 14 bc 80 49 de ba
       0.023741502 -0.019763023 -0.009049572 -0.001695916
000340 38 b1 20 3c 04 77 1f bc 0e af f0 3c 44 61 ad 3c
       0.009807877 -0.009732965 0.029380348 0.021164544
000350 7c 3b 6a 3c be 72 f2 bc 7e 0c bf bc 00 e6 11 3b
       0.014296409 -0.029595729 -0.023321386 0.0022262335
000360 30 2f 4f bc 48 93 9f 3b 2c 72 fa 3c 82 48 f1 3c
       -0.012645528 0.004869852 0.03057202 0.02945352
000370 96 a3 b7 3c 98 7f ef 3c a8 67 a1 3c 22 76 a3 bc
       0.022416871 0.029235646 0.019702747 -0.019953791
000380 2c 06 e0 bc 00 2d 4c 39 06 d1 b5 bc 14 f6 21 bc
       -0.027346693 0.0001947172 -0.022194397 -0.00988533
000390 d4 05 eb bc a8 05 e0 bc 60 8a 94 bc 7c 30 e5 bc
       -0.028689303 -0.027346447 -0.018132389 -0.02797722
0003a0 d8 76 ba bb 0a 05 c0 bc ca 5a a0 3c 80 5c f5 39
       -0.005690437 -0.023439903 0.019574542 0.0004679896
0003b0 2c 5d ed bc 10 9c 9e 3c 14 ac 0a 3c 4a db f9 3c
       -0.028975092 0.019361526 0.008463878 0.030500073
0003c0 78 e8 dd bc dc 17 f6 bc 22 21 ee bc aa ae 8e bc
       -0.027088389 -0.030040674 -0.029068533 -0.01741727
0003d0 de 3d e6 bc 80 2a 62 3c b0 19 dd 3c 16 6d 82 bc
       -0.028105672 0.013804078 0.026989788 -0.015921157
0003e0 18 1d 5d bc 04 fa d1 bc 74 f7 72 3c 0e d2 db bc
       -0.013495706 -0.025631912 0.014829505 -0.02683356
0003f0 f8 c5 86 3b 10 e0 2f bb 00 c0 e6 36 90 b6 18 3b
       0.004112955 -0.0026836433 6.876886e-06 0.0023302175

hyper_b1.bias f4 [32]
000000 d2 57 d8 3c a4 40 49 3c ec 0d bb 3c 8e e9 e4 3c
       0.026409063 0.012283478 0.022833787 0.027943399
000010 30 e6 5e 3b f8 65 e8 3c 22 20 d1 bc 34 23 fb 3c
       0.0034011714 0.028368935 -0.025528017 0.030656435
000020 34 23 ba 3c 28 09 aa bb 3c 48 a6 3c d6 b6 86 3c
       0.022721864 -0.00518908 0.020298116 0.016444605
000030 02 cf 98 3c 08 dc 9d bb d8 8f a9 3b dc 8e cb 3c
       0.018653397 -0.0048174895 0.005174618 0.024848394
000040 06 e4 f6 3c 28 8b b3 3c 86 db 88 3c d0 5b e4 bb
       0.030138027 0.02191694 0.01670624 -0.0069689527
000050 92 ae c6 3c a0 f0 35 bc 08 8a d7 bc a4 9e cc 3c
       0.024253163 -0.011104733 -0.026310936 0.02497799
000060 04 5b 42 3c a4 97 60 bc 5a 47 8c 3c ec 34 31 bc
       0.01186252 -0.013708029 0.017123867 -0.01081584
000070 7e 17 96 bc f4 a0 01 bc 92 04 ff 3c e0 1a a1 3a
       -0.018321749 -0.007911909 0.031130109 0.0012291335
