models/v1/target_qmix_net.pth (torch, 490172 bytes, 13 tensors)

hyper_w1.0.weight f4 [64, 576]
00000000: fa5e f2bc 817c cbba fc37 2d3c fd53 8b3c
00000010: 2c19 bebc e297 043d 7bd5 8a3c a588 913c
00000020: f8df 233d 720b f43c e37c 47bb 6819 2d3d
00000030: baa3 fd3c 6310 133c 4816 05bc 9deb 0d3d
00000040: 3d96 bc3c 040f 073d 4c1e 98bc 113c 993b
00000050: 5d2f ffbc e29f 073d ab99 ffbc 4f3e 94bc
00000060: 467f 023d ee06 f13c b0c8 063d cb9d 443b
00000070: 965e c43c db67 903c 7da3 243a 42ce 4cbb
00000080: 107d c4bc 74ef 323d f935 58bc 6c83 2f3c
00000090: 4192 3d3a 2539 013d 0bc9 ba3c 8a07 b23c
000000a0: db59 f0bc 3dad b93c c516 093d 8eb7 253d
000000b0: d604 f53c 73cd 6cbc 757c f7bc 6ed1 1f3d
000000c0: 6210 343d 008a 163d 2047 d83b 36ce 57bc
000000d0: 70a7 19bb 24e9 eabb 20a9 1dbc 478e 18bd
000000e0: 4b80 8dbc 7e97 ffbc 80a1 eaba 03c3 d7bc
000000f0: 4c64 bfbc 502d 933c ac30 1cbc 2a6c d63c
00000100: 3eae 953c 178e 02bd 8289 16bc 1ce8 153c
00000110: 7b47 84bc 2899 27bd fe81 e53c bb80 0fbd
00000120: 341f 3ebb 20bd cdbc d0fa 13bb a6e3 4ebc
00000130: 9ff8 3dbd ae93 c03c 336f 1abd 0222 a5bb
00000140: 92f7 883c 201c afba 0c67 773c a756 ee3c
00000150: 17e7 1a3d e6b1 eabc 6003 f23b e9b9 1d3d
00000160: ae53 07bd 12ef 253c 4a04 cb3c e088 983b
00000170: 22ff 8b3c c3c2 c1bc 0a23 f6bc ae9b 213d
00000180: a1a7 d7bb a5af 823c 08a4 2abd 0c6c 76bc
00000190: 4070 a93c d0cd cfbc 105b 963c 0c23 5b3c
000001a0: 803c e33a 00c7 eeba 3a65 893c 40e3 dcbc
000001b0: b4cb 12bd 064f f83c 0146 1a3d f090 93bc
000001c0: 9e9a 02bd cc5e 1ebc 568b c73c ce94 c63c
000001d0: baa7 16bd d408 253c ca8b 313d 70d1 2a3c
000001e0: 621e 363d 4cc5 ddbc ab4d 073d 8c3f 3d3c
000001f0: 48d2 ddbb 9654 7cbc eb6f 7d3c d2e6 eb3c
00000200: 6c48 11bc a1c4 073d aa6f ca3c f485 033c
00000210: 7e02 26bd 7c16 113c 5e7d 973c 60d0 aa3a
00000220: 3b52 0ebd 60fe 16bd d6c3 99bc e382 22bd
00000230: 157d 013d b154 853b c22f c23c fc66 1b3b
00000240: 4109 9a3b 0db4 7abc 7366 ddbc 84ce 063c
00000250: 2e88 523c d24b 7cbc 0cd8 08bd 63f0 84bc
00000260: 0cd7 393c c8b3 d3bc bee4 0bbd 924e f93c
00000270: 3c7b 043c 4a3d a33c 8013 01bd 3cc3 0ebc
00000280: 8c78 24bd ca16 1bbd 9cf9 3c3c 4645 a8bc
00000290: 7b48 2fbd 3ac2 d03c 5e29 ee3c 30eb c6bc
000002a0: 6aaa c5bc d7e0 0abd bae6 ef3c 00ec 423a
000002b0: c803 bbbb 7ea3 bc3c 381c f8bb 109b 27bd
000002c0: ccc3 05bd 89a9 0c3d b01a 71bc 8005 d239
000002d0: f4d8 24bd 283a e93b d8e7 07bd 3cfe 2fbc
000002e0: 933a bcbc 30fe 1cbb dc4f c8bc 164e b73c
000002f0: acdd 4cbc cac8 f13c 0e18 073b da29 ea3c
00000300: 820c dcbb 766e 393d 3084 173b 23e7 fe3c
00000310: c95f 0d3d 7fb4 213d 180e a43b 8a59 eb3c
00000320: eb86 86bc b228 8e3c 4764 04bd be0e ce3c
00000330: aa29 dd3c 731b b7bc da55 5c3b f08e 8cbc
00000340: c8bf c53b 5024 3abc 4639 acbc 982b e43b
00000350: c22b bd3c 0faf 1e3d 2681 ad3c 0bbd f9bc
00000360: ded4 273d a396 6b3c a25d db3c f08a 04bd
00000370: 73a8 ccbc 26a0 57bc c061 8a3c f250 ec3c
00000380: e3b4 0fbd ccc0 0b3c 5074 33bb 9ba3 1c3d
00000390: ecd9 483c 72d7 783c 4852 c7bb e8ae f6bb
000003a0: 90dd 76bc 0067 31bc 78c6 bc3b 26dd 8cbc
000003b0: 6163 133d 13cc eebc 9a5d 183d fd35 043c
000003c0: 4a0a e73c 6948 50bc d0c1 f8bc 5aef 813c
000003d0: 1de8 233d 8695 9fbc e9f2 0c3d 3214 2abd
000003e0: 9503 293d b216 e53c e0c2 b9ba 503d d8bc
000003f0: 2003 083c 344e 07bc a8c4 be3b 3b8f 98bc
-0.029586304 -0.0015524776 0.01057243 0.017007822 -0.023205362 0.03237141 0.016947499 0.017765353
0.040008515 0.029790614 -0.0030439429 0.042260557 0.03096186 0.008976075 -0.008122988 0.034648526
0.023020858 0.032973304 -0.018569134 0.00467635 -0.031150514 0.03311146 -0.031201204 -0.018096117
0.03185966 0.02942225 0.032906234 0.0030001279 0.023970883 0.017627647 0.0006280465 -0.003125087
-0.023985416 0.04368539 -0.013196462 0.010712486 0.00072315714 0.031548638 0.022800943 0.02173211
-0.029339721 0.022665614 0.03346898 0.040458255 0.029909533 -0.01445328 -0.030210713 0.039018087
0.043960936 0.0367527 0.0066002756 -0.013171723 -0.0023445748 -0.007168906 -0.009622842 -0.03724506
-0.017273089 -0.031200167 -0.0017900914 -0.026338106 -0.023363255 0.017965943 -0.009533089 0.026174624
0.018271562 -0.03187379 -0.009188058 0.0091495775 -0.016147366 -0.040917546 0.028016087 -0.035034876
-0.0029010298 -0.025114596 -0.0022579916 -0.012627518 -0.04637968 0.02350792 -0.037703704 -0.0050394544
0.016719613 -0.0013359822 0.015100252 0.029094053 0.03781804 -0.028649282 0.0073856562 0.038507376
-0.033038788 0.0101278 0.024782319 0.0046549886 0.01708943 -0.02365244 -0.030046005 0.03945511
-0.006581262 0.015952894 -0.04166034 -0.015040409 0.020683408 -0.025366694 0.018353969 0.013375055
0.0017336756 -0.0018217266 0.016771901 -0.02696383 -0.035838798 0.030311119 0.037664417 -0.018013448
-0.031885736 -0.009666156 0.024358433 0.024240877 -0.03678105 0.010072906 0.043346204 0.01042591
0.04446257 -0.027071618 0.033033054 0.011550795 -0.0067694522 -0.015401026 0.015468578 0.028796587
-0.008867364 0.033146504 0.024711449 0.008027542 -0.04052972 0.008855458 0.018492397 0.0013032071
-0.03474639 -0.036863685 -0.01877014 -0.039675605 0.03161343 0.004068934 0.023704413 0.0023712507
0.00470081 -0.0153017165 -0.02702639 0.008227948 0.012849851 -0.015398936 -0.033409163 -0.016227907
0.011342775 -0.025842562 -0.034153692 0.030432973 0.008086022 0.019926686 -0.031512737 -0.00871354
-0.040154025 -0.03786353 0.011534121 -0.020540845 -0.042793732 0.02548324 0.02907246 -0.024282068
-0.024129111 -0.03390583 0.029284824 0.00074356794 -0.005707238 0.023027178 -0.0075717233 -0.040919363
-0.03265743 0.03434137 -0.014715835 0.0004005842 -0.040245965 0.0071175285 -0.033180088 -0.010741767
-0.02297715 -0.0023955218 -0.024452142 0.022376101 -0.012504023 0.029514689 0.0020613703 0.02858441
-0.0067153582 0.04527136 0.0023119561 0.031116074 0.034515176 0.039478775 0.005006563 0.028729219
-0.016421756 0.01735339 -0.032322194 0.025153514 0.026997406 -0.022351956 0.0033620507 -0.017158002
0.006034825 -0.011361197 -0.021023404 0.0069632046 0.023092154 0.038741168 0.021179747 -0.03048565
0.04097449 0.014379176 0.026778046 -0.032359064 -0.024982667 -0.013160741 0.016892314 0.028847191
-0.035084616 0.008529853 -0.002738256 0.038241964 0.012258988 0.015188085 -0.0060828067 -0.0075281747
-0.015067473 -0.01082778 0.005760964 -0.017195296 0.035983447 -0.029150045 0.03719864 0.008069512
0.028203148 -0.012712576 -0.030365855 0.015861202 0.040016282 -0.019480478 0.034411345 -0.041523166
0.04126318 0.027964924 -0.0014172457 -0.026396424 0.008301526 -0.008258391 0.005821783 -0.018622985

hyper_w1.0.bias f4 [64]
00000000: 9610 e8bb 4a4d 823c 0621 1dbd aac3 c13c
00000010: d672 963c 88e4 80bb f000 dfbc 4624 5dbc
00000020: a6b4 3dbd 0861 c13b 2788 03bc 4c4c 2cbc
00000030: 5857 063d a6a8 7fbc 64c3 e13c 91b2 ae3c
00000040: 560d d4bc 63e0 f9bc f70b 553c 2d58 d93c
00000050: 84ba 0abc ba76 d73c 693d 11bc 1b4d aa3c
00000060: 40ef 9abc 99a2 06bc b111 223d 2dfd 7ebc
00000070: 16fc 9b3c 00b7 28bd c7e8 2bbc ba9f 08bd
00000080: 27c0 953c e253 b03c 9323 113d 83dc 503c
00000090: 667b f0bc 76d2 2fbd 11be 0a3d 409c a4bb
000000a0: 7fa4 63bc c2d5 9d3c 9676 d2bc 9e97 e2bc
000000b0: cd4c 0a3d ecc9 543c 2dbf 5abb 86bd 15bd
000000c0: b016 3f3c 9654 38bd 827d 27bd ee37 0fbb
000000d0: 7811 9b3c b2eb 12bd 103d fc3c bd61 023d
000000e0: 00a4 29bd f64b 79bc 4a35 90bc fc51 3bbd
000000f0: 1eb2 e8bc 7a07 113d 0826 60bc 2792 033d
-0.0070820553 0.015905995 -0.03836157 0.02365287 0.018365305 -0.003933493 -0.027222127 -0.013497418
-0.046314858 0.0059014596 -0.008028067 -0.0105162375 0.03279814 -0.015604174 0.02755899 0.021325381
-0.025885265 -0.030502504 0.013003341 0.026531303 -0.00846732 0.02630173 -0.008864739 0.02078872
-0.018912911 -0.008217477 0.039567653 -0.0155632915 0.019041102 -0.041190147 -0.01049251 -0.033355452
0.018280102 0.021524373 0.035434317 0.012747887 -0.029355716 -0.04292532 0.033872668 -0.0050235093
-0.013894199 0.019266967 -0.025691312 -0.027660187 0.03376465 0.012987595 -0.003337811 -0.036557697
0.011663124 -0.045002542 -0.040891178 -0.0021853405 0.018929228 -0.035869308 0.030790836 0.03183149
-0.04141617 -0.015215864 -0.017603535 -0.045732483 -0.028405245 0.03540752 -0.013680942 0.032121804

hyper_w1.2.weight f4 [128, 64]
00000000: f37a bcbd d811 9abc ce22 87bd 2824 8dbd
00000010: 63b8 0d3c 369c da3d c252 fbbd cc20 d83d
00000020: 7c36 b23d 002d 3bba 1bc0 9fbc 2a31 e5bd
00000030: b628 143d fdf5 6c3d c430 a0bd b472 923d
00000040: 90b1 f73d be03 ffbd 9051 033d a91f 9abd
00000050: 163e 86bd 7e4d c0bd 4068 1a3d 85c2 95bd
00000060: cc2a 9a3d 053f 01bd d811 df3c c6ad edbc
00000070: 202d 9abd b879 4bbd 212c 74bd 2d5b e53c
00000080: 15bd 97bd bcb9 2a3d 642d 923d 65e4 6bbd
00000090: 7508 acbd 5738 c63c 3fd2 3fbd e678 c0bd
000000a0: b75f 4a3d 66b0 d33d 9064 983d c075 5c3b
000000b0: 60f5 21bc 9063 41bd db77 b5bd 47b6 5a3d
000000c0: 1e77 e8bd 653e bf3d 52ad 9a3d 8892 f5bd
000000d0: de94 e4bd 4085 1e3b d7b3 81bd 4c25 82bd
000000e0: d6e2 823d 1282 923d 6afe 7abc d154 9f3d
000000f0: 3ce6 0e3d 46c1 733c 6503 afbd 7cb6 483d
00000100: 2dde c0bd 2a01 9fbd 7290 c03d a0ca 7ebc
00000110: 5646 0cbd fac2 ad3d e090 9ebb 805a a83d
00000120: 0048 9abd 8c68 7fbd f54c fe3d 00e2 34bd
00000130: ad0b 7e3d 125f f23d 2b59 e8bb 652b a13d
00000140: f00d de3c 667e dcbd f10c 9dbd 627c 263d
00000150: 5c09 5dbd 7cda cfbd 1280 813d 1dd8 9fbd
00000160: f269 f7bd 6358 37bd 30e2 d0bc dbb6 75bd
00000170: e297 e83d 609c 9cbd ec81 dbbd 729b 4fbd
00000180: 52df 9cbb dca2 083d b8b6 f6bc 1dc0 c1bd
00000190: 6b39 ab3c 4cea bb3a a716 cdbd 0075 573b
000001a0: e5fb babd b607 9f3d 649b c83d f091 6a3c
000001b0: 867a 993d e6e0 ab3d 91d8 9fbd 5067 bf39
000001c0: 3787 d63d 9188 12bc 08df be3d edea 2bbd
000001d0: 62bf dabd 3078 8dbc 5338 f53d b266 c8bd
000001e0: fa68 ae3d 0052 6f3b 66e1 a53d d9f9 1b3d
000001f0: 3c96 acbd 71f6 64bd 30c5 a13d 9496 84bd
00000200: c796 053e 6889 4ebd 923c b0bd c80f 63bd
00000210: 0644 6f3d 4840 82bc f4a1 4fbd 0471 b3bd
00000220: 5c9b eabd 7c37 423d 9570 bdbd ac02 ab3d
00000230: b418 ebba 0a9a bfbd 9d66 d3bc 27be acbd
00000240: 40b6 5a3c 6843 533d ce89 25bc b248 2bbd
00000250: a8d1 d03c 40b6 903b 71eb 9fbd 93de b8bc
00000260: 4678 adbd 66fd 5dbd 16b8 ed3d 224f ba3d
00000270: aac6 c63d b01a d6bd c8e5 d53d ed51 bfbd
00000280: db5f d53d 6409 f7bd f0ee c5bd 7e17 69bd
00000290: ee95 b3bc 1a40 573d 6990 b83d 7af3 ce3d
000002a0: 2b61 20bd 4041 3fbb a0dc d93c 5298 ccbd
000002b0: dcf7 973d 8c3d 673d a406 9e3c 1180 a43d
000002c0: 03b0 2a3d 39a3 bcbd a66c e43d d2b4 eebd
000002d0: 58c7 25bd 20e4 813b 26f5 80bd 9877 ca3d
000002e0: 88cc 70bd 540c a13d 7113 033d 0442 503c
000002f0: 14ce 5bbd 272e 1a3d 05a5 c03d d0b4 12bb
00000300: 2d8b 493d acbc d9bd 8c67 e0bd deee b3bd
00000310: 2c62 aabd d0dc dabc e0fb 233d 62b7 92bd
00000320: b5b5 053d 0e80 d13d 8442 0db9 865c e3bd
00000330: d9f2 65bd ba55 b33c 8609 a43b 3fcc eb3d
00000340: daea ab3d 5c72 e43b 7f60 923b 2fe1 edbd
00000350: 0ad7 cf3d f0fa 9e3d f4a5 d03d 85cf eebd
00000360: 60cc 523c cbc0 2bbd d058 0d3c 4d73 51bd
00000370: f052 6ebd 6714 593d 5fa1 35bd bec9 2d3d
00000380: e827 48bd 8e15 c93d 5a6d b13d 00a1 80bc
00000390: f30c 95bd 96e1 a73d 0d6d 923d 007d 283d
000003a0: f11d 883d 14b7 fe3d 90f6 d6bd 50e6 743c
000003b0: 00e9 053a 00aa 673d ee1a 463d bb3a d13c
000003c0: 289f 06bc 45cc e1bc 0437 ab3d 2392 583d
000003d0: 4c8c 46bd 8094 7dbc 217e cb3d 40aa 6a3c
000003e0: aac7 dcbd d878 b5bc 5fe9 903c 3bb8 7f3d
000003f0: 80de f03c e69f cf3c d031 593d daf1 04be
-0.09203138 -0.018807337 -0.06598435 -0.06891662 0.008649918 0.10674326 -0.12271644 0.105531305
0.08701798 -0.00071401894 -0.019500783 -0.11191018 0.036171637 0.05785178 -0.07821801 0.07150784
0.12094414 -0.12451886 0.032060206 -0.0752557 -0.06554811 -0.093897805 0.037697077 -0.07312492
0.07527694 -0.03155424 0.027230188 -0.029013526 -0.07528138 -0.049676627 -0.059612397 0.027997578
-0.074091114 0.041681036 0.07137564 -0.05759086 -0.084000506 0.024196787 -0.046831366 -0.093980595
0.049407687 0.1033638 0.07441056 0.003363952 -0.009885162 -0.04721409 -0.08860751 0.05339649
-0.11350845 0.09338073 0.075525895 -0.11990839 -0.11161207 0.002418831 -0.0633313 -0.0635477
0.06390922 0.07153715 -0.015319446 0.07779849 0.034887537 0.014877623 -0.08545569 0.049002156
-0.09417377 -0.07763894 0.09402551 -0.015551239 -0.034246765 0.084844545 -0.004839048 0.082203865
-0.07533264 -0.062355563 0.12417022 -0.044160843 0.062022854 0.118345395 -0.007090708 0.07869605
0.027106255 -0.10766296 -0.07668484 0.040645964 -0.053964004 -0.101490945 0.063232556 -0.07804892
-0.12080754 -0.044762027 -0.02549848 -0.059988838 0.11357094 -0.07647014 -0.1071814 -0.050685354
-0.004787364 0.03335844 -0.030116424 -0.09460471 0.020901402 0.0014336794 -0.10014086 0.0032876134
-0.09130076 0.077651426 0.097952634 0.014317021 0.074940726 0.08392505 -0.07804979 0.00036507333
0.10475009 -0.008943693 0.093198836 -0.04197209 -0.106810346 -0.017269224 0.119736336 -0.097852126
0.085161164 0.0036517382 0.08099632 0.03808007 -0.084270924 -0.055899087 0.07898939 -0.06474033
0.13045798 -0.05042401 -0.08605303 -0.055434972 0.05841448 -0.015899792 -0.05069156 -0.087617904
-0.11455414 0.047416195 -0.09249989 0.08350119 -0.0017936439 -0.093555525 -0.025805766 -0.08434706
0.013349116 0.051577955 -0.010103656 -0.041817375 0.025490597 0.004416257 -0.07808579 -0.02256707
-0.08470206 -0.054196738 0.11607377 0.09097125 0.09705861 -0.10454309 0.10444218 -0.09341798
0.104186736 -0.12062338 -0.09664714 -0.05690717 -0.021922078 0.052551366 0.09011919 0.10105033
-0.039155167 -0.002918318 0.02659446 -0.0998999 0.07420322 0.05645518 0.019290276 0.08032239
0.041671764 -0.0921082 0.111535355 -0.116555825 -0.040473312 0.003963962 -0.06296758 0.09886092
-0.058788806 0.078636795 0.032000963 0.012711052 -0.05366333 0.03764167 0.09406475 -0.0022385605
0.049204994 -0.106316894 -0.1095725 -0.08785795 -0.08319506 -0.02671662 0.04003513 -0.07163884
0.032643992 0.102295026 -0.00013471587 -0.11101632 -0.0561398 0.021891464 0.005006018 0.11513566
0.08394404 0.0069716405 0.0044670696 -0.11615216 0.10148437 0.07762706 0.10187903 -0.11660675
0.01286611 -0.04193191 0.008627132 -0.05113535 -0.058184564 0.052997973 -0.04434335 0.042428724
-0.048866183 0.09818564 0.08663435 -0.01570177 -0.072778605 0.08197324 0.07149706 0.041134834
0.06646336 0.12437263 -0.10496247 0.014947489 0.0005108267 0.05655861 0.048365526 0.0255407
-0.008216657 -0.027563224 0.08360103 0.05287374 -0.04847364 -0.0154773 0.099361666 0.014322817
-0.107802704 -0.02215235 0.017689405 0.062431555 0.029402971 0.0253448 0.05302602 -0.12982884

hyper_w1.2.bias f4 [128]
00000000: 9547 843d fbbf d33d 304c 84bd 0c2e ebbd
00000010: d26a 203c 88af 8e3b 091e bb39 6686 b83c
00000020: b4f3 123c 78d3 f03d 6b0b 58bd 0e1a b03c
00000030: 7433 17be f683 8ebd 0beb fd3d 2fa5 893d
00000040: 5a04 b0bd 8f10 62b8 9462 adbd e7d5 fe3c
00000050: 050b 193d d622 693d 94d8 183d e318 8c3d
00000060: c16c f43d b218 14bd 2d8d 90bd afa3 b2bc
00000070: 07f6 c1bb b56a 83ba 9244 8b3d cccb e5bd
00000080: 0c95 86bc 07e0 37bd 33e8 8d3c 2259 56be
00000090: 4033 cbbd 42e9 c13d 8910 ebbd 0d3c 01be
000000a0: 2826 57bc 0c95 083e 9cfe 12be 31a0 3bbd
000000b0: d760 363e 1ef2 52be a42e 3cbd cd05 973b
000000c0: 5f19 263e d982 27bd ad1c 143d a221 d33d
000000d0: 68ac 4cbd 48b0 b7bb 2ee3 553c b80b ea3d
000000e0: 17ef fcbc ee51 f53d fef4 983c 3cd4 0c3c
000000f0: 714f 8abd 208d 413d 69aa 523d 6ef0 bd3d
00000100: 49cb b0bb 126a 42bd e557 9dbd f70c 20bd
00000110: 889f c3bd 8173 57bd e8a5 4c39 2452 22bb
00000120: 1174 3ebc d0d5 be3c de51 b43d 5e29 e7bc
00000130: 2f9d ac3d 1dce 6d3c 73f9 efbd a0ff 423d
00000140: 0a8b 9dbd ee2b 01be fd1f 80bd d7da 50bc
00000150: 0978 08bb e582 0abe 90e4 d0bb 9f4c 4dbc
00000160: dd46 28be f8cf aebd 6321 87bc 448d 0a3c
00000170: 591f e63c 6654 d93d 029f 9137 7804 e53c
00000180: 16e3 2cbd 8346 c4bc e5fb 3ebd 78b4 39be
00000190: 2ae5 64bd d4c1 debb 360c 513b 8995 1abd
000001a0: 4e49 d63c eff5 863d ba2e f7bc 8111 d6bc
000001b0: 3125 33be b4ce 723b 3b0a 343d 5e9a 1c3d
000001c0: 8a8f dbbd 31b2 afbd 6119 5e3c a3fc 6bbd
000001d0: 4406 0e3e c92c c3bd f012 9cbc 7860 873c
000001e0: a35c c03d ef8c 87bd e781 a33c a1da 853d
000001f0: b120 5ebd 635e 5f3d ba36 9dbd c61d cbbd
0.06458966 0.10339352 -0.06459844 -0.11483392 0.009791093 0.004354421 0.00035689797 0.022525024
0.008969236 0.117590845 -0.052745264 0.021496799 -0.14765722 -0.06958763 0.123983465 0.067209594
-0.0859458 -5.389802e-05 -0.08466068 0.031107856 0.037364025 0.056917988 0.03731592 0.06840684
0.11934806 -0.036156364 -0.07058177 -0.021806566 -0.0059192213 -0.0010026308 0.06800188 -0.11220512
-0.016428493 -0.044891383 0.017322635 -0.20932439 -0.099218845 0.094683185 -0.11477763 -0.12620564
-0.013131656 0.13338107 -0.14354938 -0.045807067 0.17810379 -0.20600173 -0.045942917 0.004608846
0.16220616 -0.04089627 0.03616016 0.10309149 -0.049969107 -0.005605731 0.013054652 0.114280164
-0.030875726 0.119785175 0.018671509 0.0085955225 -0.067534335 0.047253728 0.051432047 0.09274374
-0.005395327 -0.047464438 -0.0768278 -0.039074864 -0.095519125 -0.052600387 0.00019516761 -0.0024768198
-0.011624352 0.023295313 0.088046774 -0.028217968 0.08428418 0.014514473 -0.117175005 0.047607064
-0.07692535 -0.12614414 -0.06256101 -0.012747488 -0.00208235 -0.13526495 -0.006374903 -0.012530475
-0.16433282 -0.08535761 -0.016495412 0.008456532 0.02809112 0.10611801 1.735939e-05 0.027956232
-0.042208754 -0.023959404 -0.046626944 -0.1813525 -0.05588261 -0.0067980085 0.0031898147 -0.037740264
0.026158001 0.06589877 -0.030173648 -0.026131393 -0.17494656 0.0037049474 0.04395507 0.038233154
-0.10720737 -0.08578909 0.0135558555 -0.05761398 0.13869578 -0.095300265 -0.019051999 0.016525492
0.09392669 -0.06618678 0.019959403 0.06535841 -0.054230396 0.054533374 -0.07676454 -0.09917788

hyper_w2.0.weight f4 [64, 576]
00000000: 87cb d2bc a97a 2ebd 872e 69bd cce1 62bd
00000010: fb5d 24bd 49c6 86bd 0412 58bc 7275 81bd
00000020: ff95 8fbd 76c4 c5bc 6747 91bd 2713 27bd
00000030: 99a0 9dbb b0db 87bd 6495 36bc 0caa 0dbd
00000040: 613f f2bc c4ac 9dbd dff2 8bbd 6371 f5bc
00000050: 5959 a0bc 65d5 94bd 6cd5 96bd d9e1 70bd
00000060: bf73 a1bd cdd2 f8bc 45ee 98bd dc67 99bd
00000070: 8a78 65bb 4d1a a0bd a7d9 43bb 133c e5bc
00000080: 2988 a3bd 114a 84bd 14f7 9bbd 2448 68bd
00000090: 10e9 28bd 166a a5bc fc9f cdbc e40b babb
000000a0: 21f4 90bd cbf8 9dbd 5dbf 93bd 2e25 63bd
000000b0: 5e75 7abd 85ac 95bd 70dc 00bd b063 a6bc
000000c0: e5e5 04bc 03ca 92bd 8029 9fba 7edd f0bc
000000d0: 963a 823c 6342 5c3d 927b fd3c 491d 1f3d
000000e0: 68e9 e23b 645d 763c d01c 9e3c 6667 873c
000000f0: 27d1 4c3c 281a 03bd 80c2 8a39 7eb7 853c
00000100: f75d 1fbd 8622 40bc a56f 923d b0ae 4cbc
00000110: 33e2 27bd e068 b9bb 74c5 18bd d3fc 6bbd
00000120: 6994 88bd ac22 41bd f212 fe3c a83f ac3b
00000130: b0cb 223d f352 1d3d fd9f a13a 0077 713d
00000140: e0f3 d2bb 68c9 c0bb 4466 093c c072 a2bd
00000150: 7a50 eb3c 8087 d7ba 70d4 003b 18f7 87bb
00000160: 5459 373c 26d1 393d fc92 76bc 883f 12bd
00000170: 1829 9c3d 20b6 ea3b 7550 a2bd 03ea 60bc
00000180: ad2a 8bbd a5d1 3ebd 2ee9 f7bc a4a0 183c
00000190: 7d8c 293d 5f4e 013d eff5 06bd c361 0c3d
000001a0: 7f1b 25bd 269e 23bd a44e 153c 282e 9bbb
000001b0: f270 9c3c 3356 a13d 8607 20bd 0418 02bd
000001c0: 7e41 c43c 00b8 343b a35e 8b3c ccc1 5abc
000001d0: 4034 19bd 0642 b5bc c975 aebc 04df fabc
000001e0: 4e56 ebbc 186d 94bd 30bf 0d3b a8cd c0bb
000001f0: 0efb d63c 77de 173d 8061 833d 8e81 df3c
00000200: f809 12bd 7043 e6bc 40ad 59ba 4304 16bd
00000210: 50a2 a63c f88c a73c d5c0 c7bc 68fa b3bc
00000220: 06ff 67bc 3eb7 bb3c b6c0 cabc b43d 9c3d
00000230: 00bc 0b3a 3a7f 823d 26fa 3abd 7153 7ebd
00000240: ae95 a1bd 7937 9bbd e022 97bc 4574 153d
00000250: 59dc e53c 9633 193d d61c 88bc fe93 853c
00000260: c40d 1abc 1299 b93c f033 23bc 20d1 8b3c
00000270: 6621 fa3c 1ed0 e13c bdf9 113d ee79 bf3c
00000280: 9e60 87bd 588a b5bb c0b0 17bb 4068 ebbb
00000290: 9334 d33c 4074 00bd 9b29 f4bc 72ed 6ebc
000002a0: f9fe 2dbd c494 53bd 5a8f b73c 3c43 493c
000002b0: ee26 9ebc 4003 03ba 57eb 20bd 8464 673c
000002c0: a096 b3bb bc94 48bc 27a3 123d b3d2 f5bc
000002d0: 12a7 983c 3893 a5bc 5eb4 933c 000c 47b9
000002e0: 03cc cbbc 784d c73b 7f7d 8fbb f02a 11bb
000002f0: 830c cebc 106e 94bc e859 68bd 5ca2 9abd
00000300: f4f5 66bc b2ef 84bd 2099 d73b b186 a0be
00000310: 2286 e93c 822a b03c 2eaa 0abd 787d 9e3b
00000320: c019 b6bc 90b9 23bb 1279 983c 931b 9bbc
00000330: 10fc 423c 6e7a f0bc 96dd 313d 50af f7bc
00000340: a8f2 f8bc c090 f53b bb2a 20bd 224e a53c
00000350: 7a7b 9b3c b7ae 0c3d 9f84 efbc 13f4 e2bc
00000360: 7a45 38bd 2f84 3abc 1074 2d3c 7e8e e7bc
00000370: 94fc 7c3c 8854 963c 18e6 0abd 4b70 283d
00000380: 6a03 02bd 735d dcbc 38a3 14bd 28f4 acbe
00000390: 8cbd 74bc ce90 9abe b3dc c0bc 807e f0ba
000003a0: 8bf9 90bc 4b84 fbbc 0029 b0bb 98f9 0dbd
000003b0: fded 1a3d d23c c43c 2df5 76bd c981 6fbd
000003c0: 4c7b 11bc 608c a4bd 5849 883c dea4 eb3c
000003d0: 4a05 12bd d6d3 6cbc 985f e6bc a8da ecbc
000003e0: 136b d3bc 8357 223d c072 023a dc16 0fbc
000003f0: 964d ec3c dcb9 05bc 664d 5dbc 1ca7 57bc
-0.025731815 -0.042597447 -0.056929138 -0.055391118 -0.04012869 -0.06580789 -0.013187889 -0.06321229
-0.07011031 -0.024141531 -0.07093697 -0.04078975 -0.0048104045 -0.06633699 -0.011144016 -0.034585997
-0.029571237 -0.07698968 -0.06833433 -0.029961294 -0.019573854 -0.07267264 -0.07364926 -0.058809135
-0.07883405 -0.030373955 -0.07467321 -0.07490513 -0.0035014474 -0.078175165 -0.002988437 -0.027982747
-0.07984955 -0.064594395 -0.07615486 -0.056709424 -0.04123789 -0.020192187 -0.0251007 -0.005677687
-0.07077814 -0.07713469 -0.07214234 -0.05545538 -0.061147086 -0.07308296 -0.031460226 -0.020311207
-0.008111452 -0.07167437 -0.0012143105 -0.02940249 0.015897077 0.05377425 0.030942712 0.038846288
0.006924797 0.0150369145 0.019300848 0.016528796 0.012501038 -0.032007366 0.00026466325 0.016322847
-0.03890797 -0.011726981 0.07150201 -0.012492821 -0.040987205 -0.005658254 -0.03729768 -0.05761416
-0.06668932 -0.047152206 0.031014893 0.005256612 0.039745033 0.038409185 0.0012331005 0.058951378
-0.0064377636 -0.0058833845 0.008386198 -0.07932043 0.028724898 -0.001644358 0.0019657873 -0.004149329
0.011190731 0.045365475 -0.015049692 -0.03570512 0.076250255 0.0071628243 -0.07925502 -0.013727668
-0.06795249 -0.04658665 -0.030262556 0.009315643 0.041393746 0.03156888 -0.032949384 0.03427292
-0.040309425 -0.039945744 0.009112988 -0.004735727 0.019096825 0.07877769 -0.039069675 -0.031761184
0.02395701 0.0027575493 0.0170129 -0.013351869 -0.037403345 -0.022126209 -0.021296399 -0.03062392
-0.028727677 -0.072473705 0.002162885 -0.005883891 0.02624276 0.037077393 0.06415081 0.027283456
-0.03565404 -0.028108329 -0.00083037093 -0.036625158 0.020341069 0.020452961 -0.024383942 -0.021969989
-0.014159923 0.022914525 -0.024750095 0.076289564 0.00053304434 0.06371923 -0.045648716 -0.062091295
-0.07889877 -0.0757894 -0.018449247 0.036487836 0.028059172 0.03740271 -0.016615313 0.01630592
-0.009402696 0.022655997 -0.009961113 0.017067492 0.030533504 0.027565058 0.03563856 0.02337357
-0.06610225 -0.0055401735 -0.0023146123 -0.0071840584 0.025781905 -0.031360865 -0.029804995 -0.014582979
-0.04247949 -0.051655546 0.022407223 0.012284096 -0.019305672 -0.00049977377 -0.039286938 0.014123086
-0.0054806024 -0.012242492 0.035800125 -0.030007696 0.018634353 -0.020211801 0.018030342 -0.00018982589
-0.024877554 0.006082233 -0.004378974 -0.0022150837 -0.02515245 -0.018118888 -0.056726366 -0.07550499
-0.014096726 -0.06491031 0.006579533 -0.3135276 0.028506342 0.021504644 -0.033853702 0.0048367344
-0.022229075 -0.002498243 0.018612418 -0.018934047 0.011900917 -0.029355254 0.04342421 -0.030234963
-0.030389145 0.007494062 -0.03910325 0.020178858 0.018979777 0.03434631 -0.029238043 -0.027704274
-0.044988133 -0.011384054 0.0105867535 -0.028266188 0.015441079 0.018350855 -0.03391084 0.041122716
-0.031741537 -0.026900029 -0.03628847 -0.33780026 -0.01493777 -0.30188602 -0.023542738 -0.0018348247
-0.017697116 -0.03070273 -0.0053759813 -0.03466186 0.03782462 0.023954783 -0.06029241 -0.058473382
-0.008879494 -0.08034587 0.016636536 0.028765138 -0.035649575 -0.0144548025 -0.028121755 -0.028912857
-0.025807893 0.03963424 0.00049762055 -0.008733477 0.02884559 -0.008161988 -0.013507223 -0.013162401

hyper_w2.0.bias f4 [64]
00000000: f34b 2b3d df1b 07bc ac3c 2c39 35c7 113d
00000010: d305 1b3d 314b 33bc a1cd a43c e3a3 fbbc
00000020: be64 a6bc a924 233d 402a 3cbb 7be7 80bc
00000030: e789 f83c 82d8 a4b7 0099 36b9 3a53 1fbd
00000040: 0098 06bc 7537 133d 22dd b6bc 7c52 79bc
00000050: b517 33bd 7ca2 e83c 96db 893c 3388 93bc
00000060: ddf6 d43c f8cf 8bbb 1fc2 793b c12e 3bba
00000070: 4047 3cbd ec9f 233c fea7 0abb 0837 d4bc
00000080: 3893 c0bb 0a7d 1abd 2d72 113d f636 66bc
00000090: 7e92 be3c 4828 e6bc e87b 943b b7b2 0fbd
000000a0: d931 0f3d 39a1 1c3d fd9a 6d3c 70b9 993c
000000b0: afcd 12bd 5bdc 013d e1be 1cbd 123d 12bd
000000c0: 578d 5b3c 7b4c 96ba c8c0 8b3c 5d08 1f3d
000000d0: 6c5f 623c 5c43 1cbd 912f 903c 5766 983c
000000e0: c1e7 123d 5af4 e43c fce1 2ebb 80d5 77bb
000000f0: 7095 5c3b 269f dd3c ec9b fabb 5c96 c7ba
0.041820478 -0.008246391 0.000164258 0.03559037 0.03784735 -0.01094322 0.020117583 -0.030717796
-0.02031171 0.039829884 -0.0028711706 -0.015735378 0.030339194 -1.9651143e-05 -0.0001741387 -0.03889773
-0.008214951 0.03594156 -0.022322241 -0.01521742 -0.04372378 0.028397791 0.01682834 -0.01800928
0.02599662 -0.004266735 0.003811009 -0.0007140451 -0.045966387 0.009986859 -0.002115726 -0.025905147
-0.005876925 -0.037716903 0.035509277 -0.01405119 0.023263212 -0.02809538 0.0045313723 -0.035082545
0.034959648 0.03823969 0.014502284 0.018765181 -0.035840686 0.031704288 -0.038267974 -0.035702772
0.013400397 -0.0011466885 0.017059699 0.038826335 0.013816696 -0.038150176 0.017600806 0.018603487
0.03586555 0.027948547 -0.002668499 -0.0037816465 0.0033658408 0.027053427 -0.007647982 -0.0015227306

hyper_w2.2.weight f4 [32, 64]
00000000: bc8d 8d3c 1051 bf3c c7e6 d13d 2070 a5bd
00000010: 14f1 e9bd bbd2 a03d 62d9 85bd fcaa ff3d
00000020: 060d df3d 2643 d5bd 4467 bd3d 60a8 edbc
00000030: 2b70 743d 0e76 373d 70ea 77bc 5c16 5b3d
00000040: 00a8 583d b80f 0b3d 431a e4bd d8df ac3d
00000050: b577 a4bd 4a1a 8d3d 5c19 c03c a0d0 b3bb
00000060: 6005 5bbd 287b d13d ca1e 103c cd4e 103d
00000070: d1e9 ba3c 0c5a 133d 49b4 b63d e0c7 723c
00000080: a8ee 233d de00 253d 2ac3 d9bd 501c 3fbd
00000090: 70f7 523c 5126 debd ec00 163d e378 d23d
000000a0: 0964 c83d b62f 813d 0d02 c8bd c4f2 3fbd
000000b0: f01f 0fbd 9881 c2bd 8695 b5bb 58d3 00bd
000000c0: 606f fd3d 3557 c0bd bc51 f43d b828 d03c
000000d0: 9c3f c93d aa7d ce3d a704 b33d fd30 ee3d
000000e0: 5903 99bd daba 87bd 568a b8bd b0ba 853d
000000f0: 20f0 ffbb a3e5 a4bd 8a87 6dbd b585 b4bc
00000100: 3fc8 8a3d bfbd bc3d 0b04 27bb b8e5 7ebd
00000110: b01d 6d3d 49e4 d83d 339b c93d 1857 263d
00000120: 90fb dc3c 00ec bbbc c001 b23c 80b1 c13b
00000130: 46f3 e6bd dab7 d1bb 0ef6 88bd 649a 55bd
00000140: 606a cc3c a489 993d 1d23 f03c 5a61 843d
00000150: 074b c63d 459d bdbd f66b 57bd a08f d33b
00000160: 9138 663d d8a1 a7bd 8512 0c3d 4b40 36bc
00000170: 1ef9 ccbc 860d 9ebd fe24 513d 08ba 9cbc
00000180: ac2c 76bd 77b4 4cbc b424 23bd 78d0 e4bc
00000190: f089 90bd e20a 05be 0cfb 01bd 812b f7bd
000001a0: 7a16 06bb 60f5 5ebd b3fe 87bc b68e 963d
000001b0: 7e15 b43d c016 5d3d bc0c e1bc beb6 edbd
000001c0: ed5f 4cbb b543 a1bd 0609 b23d 606a 973b
000001d0: d43c 4cbd 88ca d6bd 59d7 61bc 6385 9abc
000001e0: 473a a2bd c0e8 a63d 9b44 083d 40b6 4dbd
000001f0: 40e6 363d 898e 80bd ed8f 873d 1432 e43d
00000200: d76b 23bc b8d1 d53d 1df3 e73c 44e7 b33d
00000210: b4c5 fbbd 86ca 5d3d ef1f ea3c fce5 a73d
00000220: 0000 2d3c 52c3 9c3d 6aac 93bd 48ac 823d
00000230: 09d2 da3c 9893 3dbc a07a fa3c 3840 653d
00000240: b43a 083d 2ce0 323d 4e47 8f3d 48db fbbc
00000250: d4b9 27bb bab1 54bd e822 e73d 2031 eabb
00000260: 95f2 483d 4a17 fcbd 038d ae3d 847f f1bd
00000270: 7fff a3bd a213 d33d 2f60 a8bd 9467 a3bd
00000280: 908f a3bd 5a06 723d e821 983c c079 2dbc
00000290: 4092 51bb ff9e bbba 0089 783d a5d3 df3d
000002a0: b5ca 6dbd b6c5 cb3d b2f4 a1bc 4a18 ccbd
000002b0: 043b 9ebd 2020 9bbb 7aad ab3d 7439 473d
000002c0: fcd3 703c 2d06 f2bd 1201 aa3d 3089 4bbd
000002d0: 8406 a8bd 608a 16bc d8ae bc3d ef9c 10bb
000002e0: 7e6a d13d 660d e83d 4269 5ebc c21d a5bd
000002f0: f2a0 a4bd c5d0 88bc 660a 1cbd 3f4b 693c
00000300: f2ea 823b 402e 9cbd d525 813d cfd6 953d
00000310: 40d7 903b e233 e0bc 7240 9ebd 408a 153c
00000320: 4010 c4bc 2ece af3d 1c05 adbd d0be 9ebc
00000330: 2932 71bd 3b04 c33d e04e f13c 98ff bf3c
00000340: 0065 423b 28d5 e33d 6208 483d c8b8 bbbd
00000350: d686 5dbd d069 20bd e44a c9bd 7456 a73d
00000360: f602 87bd beeb e0bd 5f38 6fbd b81c 9dbd
00000370: 0891 2b3c baa0 c43d 51e9 c4bd 7ab0 a1bd
00000380: 52d8 8fbd d930 d0bb 2c20 843d 5c08 76bd
00000390: bea3 c0bd 2ea1 da3c 5c2c 6bbd 09cd cd3c
000003a0: 317a fe3d 0a86 81bd 325d 55bd 11a0 87b9
000003b0: 705f 0f3c 9851 e43d 0279 e9bd 3ed7 f6bd
000003c0: cc70 ed3c 3f32 d93d c8ee 35bd 583f cabc
000003d0: 90ab 76bc 6c4f af3d 21e3 febd d5a8 01bd
000003e0: 3ea0 3abb 2a74 f83d cc8c ebbd 7cd7 143d
000003f0: 7017 adbc aa35 2fbd f3e4 a2bd 1b11 01be
0.017279498 0.023354083 0.102490954 -0.08078027 -0.11422935 0.07852694 -0.06535603 0.124837846
0.10891156 -0.10413198 0.09248212 -0.029010952 0.059677284 0.04479032 -0.015131578 0.05348812
0.052894592 0.033950537 -0.111378215 0.08441132 -0.08030645 0.0688978 0.023449592 -0.0054875165
-0.053471923 0.10228568 0.008796403 0.0352314 0.02281657 0.035974547 0.089211054 0.014818162
0.040022522 0.04028403 -0.10632928 -0.04665786 0.0128763765 -0.10847152 0.036621973 0.102769636
0.09784705 0.06307928 -0.09766016 -0.04686238 -0.034942567 -0.09497374 -0.005541506 -0.031451553
0.12374759 -0.093916334 0.11929652 0.025410041 0.09826586 0.10082562 0.08741122 0.116304375
-0.07471342 -0.06627436 -0.090107605 0.065297484 -0.0078106076 -0.08051612 -0.05799059 -0.022036413
0.06776475 0.09215879 -0.0025484588 -0.062230796 0.05788964 0.10590417 0.09844055 0.040610403
0.026975423 -0.022939682 0.02172935 0.005911052 -0.112768695 -0.0064000906 -0.06687556 -0.05214919
0.024953067 0.07496956 0.029313618 0.06463881 0.09682279 -0.092585124 -0.052593194 0.0064563304
0.05620629 -0.08185166 0.03419735 -0.011123727 -0.025021132 -0.07717423 0.05106067 -0.019131675
-0.060101196 -0.012494198 -0.039829925 -0.027931437 -0.070575595 -0.12992433 -0.031733558 -0.120688446
-0.0020460174 -0.054433227 -0.016600942 0.07351439 0.08793162 0.053976774 -0.027471893 -0.11607121
-0.0031185106 -0.07874242 0.08693127 0.004620835 -0.049862698 -0.104878485 -0.013784253 -0.018862432
-0.07921272 0.08149862 0.033268552 -0.050222635 0.044653177 -0.062771864 0.066192485 0.11142364
-0.0099744415 0.10440391 0.028314168 0.08784345 -0.12293568 0.05414822 0.02857968 0.08198163
0.010559082 0.07654442 -0.0721062 0.06380516 0.02671148 -0.011570834 0.03057605 0.055969447
0.03325911 0.04367082 0.06996022 -0.03074421 -0.002559294 -0.051927306 0.11285955 -0.0071469694
0.04905947 -0.123091295 0.085229896 -0.117919 -0.080077164 0.10306479 -0.082214706 -0.0797874
-0.07986367 0.05908809 0.018570855 -0.0105881095 -0.003197804 -0.0014314352 0.06067753 0.1092904
-0.058054645 0.0994982 -0.01977 -0.0996557 -0.077261 -0.004734054 0.083826974 0.048638776
0.0146989785 -0.11817584 0.083009854 -0.04969138 -0.08204368 -0.009188265 0.09213036 -0.0022066196
0.1022539 0.113306805 -0.0135749 -0.080623165 -0.080385104 -0.016701112 -0.038095854 0.0142391315
0.003995293 -0.07626009 0.06306044 0.07316362 0.004420191 -0.02736849 -0.07727136 0.0091272
-0.02393353 0.085842475 -0.0844824 -0.019378096 -0.058885727 0.09522291 0.029456556 0.023437306
0.0029662251 0.11124641 0.04883612 -0.091661036 -0.054083668 -0.03916341 -0.098287374 0.081707865
-0.06592362 -0.10982464 -0.05840337 -0.07671493 0.01047159 0.09600969 -0.09614814 -0.07894988
-0.07023682 -0.0063534793 0.06451449 -0.060066566 -0.09406231 0.026688185 -0.05741535 0.025122182
0.1242565 -0.06324394 -0.05209083 -0.00025868465 0.008750781 0.11148375 -0.114000335 -0.12052773
0.02898445 0.10605287 -0.044417173 -0.024688408 -0.015055552 0.085600704 -0.12445665 -0.03165515
-0.002847686 0.121315315 -0.11501464 0.036338314 -0.02112934 -0.042775787 -0.07953825 -0.12604181

hyper_w2.2.bias f4 [32]
00000000: c31a 70be 25dd 083e 18db ef3d 5e0d 533c
00000010: 1bf0 5b3c 210a 46be 021f fe3d 1d63 5fbe
00000020: 32db e33d 5d17 60be 8e71 e739 4694 6abd
00000030: b35b 55be 7d03 31bd 394a 1f3e 5f02 c53d
00000040: 7271 6ebe 0acb 113e 902b 753d d748 b43d
00000050: 7df6 f03d f247 073d 7621 3b3e 6ccd fc3d
00000060: 3186 803d d9d5 233e 42d8 4e3e 9a05 bdbd
00000070: 7892 8a3e f938 f63d 4ab8 3d3e d775 353d
-0.23447709 0.1336561 0.11711711 0.012881605 0.013423945 -0.19339801 0.12408258 -0.21815152
0.111257926 -0.21883912 0.00044144358 -0.05727031 -0.20835762 -0.043216217 0.15555657 0.09619593
-0.23285463 0.1423761 0.059855998 0.088029556 0.11765764 0.033027597 0.18274483 0.123438686
0.06275595 0.15999545 0.20199683 -0.09229584 0.27064872 0.120225854 0.18527332 0.044301834

hyper_b1.weight f4 [32, 576]
00000000: c71c 533d 1a6d 363d 442f 333d c259 873c
00000010: c7fe 343d 5723 f53c a562 833d c414 c53c
00000020: aaa5 d93b 3d55 0e3d 3f5a 893c c983 3e3c
00000030: d757 3e3d 0324 4f3d 776a 373d d8e2 963d
00000040: 4faf 483c 8518 133d 1abd f03c a8c1 903d
00000050: 9f5f 533d f22c 923d e547 aa3c 99e5 883d
00000060: e912 0f3d caec 833d b007 d3bb 4687 0a3c
00000070: a273 5f3c 80dc 323d 60da 3b3d 8b52 8abb
00000080: 9511 be3c b5fc c73b e387 563d 5b97 6d3d
00000090: 383e 953c 52bd 5f3d 28ab 8c3d d157 063d
000000a0: 8cdf 5e3d 222b 993d ff8e fb3c 92a4 773d
000000b0: dfe8 883d 6bed 633d 4e97 903d c8f3 923d
000000c0: 6607 e33c 20fc ee3b 10e8 34bc b081 323c
000000d0: 2f29 063d 8b05 98bd 48b9 ca3b 3e04 f1bc
000000e0: f0d6 0fbb f327 17bd f8af ecbb 05dc 1e3d
000000f0: 980a 8abd f196 223d 5081 663b aae4 e53c
00000100: 3dd3 143d a805 a6bc ab6b 87bd f6e7 803c
00000110: 38b7 a43c ff09 0b3d f43e 1c3d 74c7 e13c
00000120: 7ad4 803c 5fc7 8e3d 3149 1d3d 00e3 87bc
00000130: 08cc 3fbd d205 7ebd c00d 98bd 36bd 0cbd
00000140: 00c8 b7b8 f42a 0cbd e0d0 c5bc 46f9 7cbd
00000150: 1581 133d a5dc 293d 181d a4bb e2ca a43c
00000160: e896 cc3b 5409 12bd b6e6 f93c a63e b9bc
00000170: 868a 8bbd 5c0f 253c 2c42 693d 8e79 933d
00000180: ba23 683d 9ec0 933d 8149 063d 52f4 973c
00000190: 508c fbbc 7b84 203d a63a 9c3c cc5a 6cbc
000001a0: 40b1 bfbc 028d a83c d286 af3c 869c f03c
000001b0: 80da 1ebd e345 8abd 3ac8 933c 7ae3 d03c
000001c0: 3a47 953c 3004 14bd 8197 81bd 7725 14bd
000001d0: 006e 203b 80b5 98b9 4b86 473d 66ef 8b3d
000001e0: 95fc 7c3d fbe2 e53c f833 abbc d0ea 1fbb
000001f0: 48e2 e2bc 68d1 f5bc c290 0cbd a0cf af3b
00000200: eaa6 24bd 687f fa3b 20b6 c5bb e57e 273d
00000210: ae91 09bd 04c0 313c 3463 35bd 5055 17bb
00000220: 8a32 843c 9e5b 903c 9602 babc e8f8 d1ba
00000230: e07c 5cbc ab53 60bd bbf9 87bb d857 2a3c
00000240: e40e 753d fec3 8a3d c06e 4b3a 9a40 923c
00000250: 97dd 14bb 941c 06bd 3835 863b 4575 1e3d
00000260: b49f 4f3c 4e04 903c f6b8 ad3c 2c5d 25bd
00000270: 9027 503b a018 08bc 9035 17bb 1bab 94bc
00000280: ce0e debb 2841 8c3c 9356 013d a589 123d
00000290: 6dd5 d539 8d45 123d 95d0 e43c cbe2 513d
000002a0: 2481 9b3b efc7 b23b 20d2 ad3a f336 15bd
000002b0: 12ce 873c 087e 893b 248a 183c bcf6 3fbc
000002c0: ecaf 66bc 74c3 20bc 4005 693b 269e 83bc
000002d0: 70f3 343b 285a ecbb a96a 053d e0bf 8b3c
000002e0: 34e3 1cbd 6a64 963c cb14 e5bc ef98 06bd
000002f0: 4b11 22bd 8674 20bd 8d00 603c 3805 5f3d
00000300: 7578 4a3d e3c5 633d 14bb 7e3c 8d5e 013d
00000310: 006a 683b 8cf3 7bbc 5c34 593c 90ee 113b
00000320: d0e6 663b 0b14 fabc c32e 85bc fa31 913c
00000330: d89f f03b 20eb 2f3c e09a dcbc 83af 21bd
00000340: 1bf1 0b3d 2c90 18bd b195 1e3d 6367 b5bc
00000350: 99d3 88bd 38f4 ef3b 3439 353d 8150 8b3d
00000360: af17 6d3d e7a4 dabb cd70 223d 31d7 063d
00000370: 806f cfb9 b030 a03c 4462 5e3c 6bef 8cbc
00000380: 8cb5 403c 0e18 c73c 4ff5 28bd 02db 473d
00000390: 365c a7bc a91c b63d 4030 e2bb 3bd2 253d
000003a0: 5c69 0bbd a360 d2bc c400 12bc 34fc 433c
000003b0: 56ce 78bc 56e3 6bbc db0a 703d 19d8 5a3b
000003c0: 2883 3c3c 90a4 cfbb 1080 54bb a439 413c
000003d0: 141d 583c 08d2 d5bc 106e 72bb 275f 223d
000003e0: e0dd adbc e01b 7fbc d48f 1cbd f488 7f3c
000003f0: d057 473b 378d 29bd 48d7 b0bb 26a2 02bd
0.051541116 0.04453764 0.043746248 0.016522292 0.044188287 0.029924078 0.06415299 0.024057753
0.006642063 0.03474926 0.016766666 0.0116281 0.04647049 0.050571453 0.044779267 0.07367486
0.012248828 0.035912056 0.029387046 0.07068187 0.051604863 0.07137479 0.020786235 0.06684417
0.034930144 0.06441648 -0.0064401254 0.008455103 0.013638409 0.043667316 0.045862556 -0.0042212657
0.023201743 0.006103123 0.052375685 0.058005672 0.018218145 0.05462391 0.06868583 0.032798592
0.05441241 0.0747893 0.030707834 0.06045968 0.06685042 0.05564634 0.07060109 0.07175404
0.027713489 0.0072932392 -0.011041656 0.010895178 0.03275412 -0.07422932 0.006186638 -0.029420968
-0.002194818 -0.036903333 -0.0072231255 0.038784046 -0.06740302 0.03969473 0.003517229 0.028063137
0.036334265 -0.020266369 -0.06612333 0.015735608 0.020106897 0.03394508 0.038145974 0.027560927
0.015726317 0.06971621 0.03839988 -0.016587734 -0.04682544 -0.06201727 -0.074244976 -0.034360133
-8.763373e-05 -0.03422065 -0.02414745 -0.061761163 0.036011774 0.04147019 -0.005008351 0.020116273
0.0062435754 -0.035653427 0.03050552 -0.02261288 -0.068135306 0.010074463 0.056947872 0.07200919
0.056674697 0.07214473 0.032784943 0.018549118 -0.030706555 0.039188843 0.019070935 -0.014425945
-0.02339995 0.02057505 0.021426592 0.029371511 -0.038782597 -0.06751611 0.018039811 0.025499094
0.01822244 -0.036136806 -0.06327725 -0.03616854 0.0024479628 -0.00029126927 0.048712056 0.06832771
0.06176432 0.028062334 -0.020898804 -0.0024401434 -0.02769579 -0.03000708 -0.03431774 0.005365327
-0.040198244 0.0076445825 -0.006033674 0.0408925 -0.033586197 0.010849003 -0.04428406 -0.0023091622
0.01613738 0.017621811 -0.022706311 -0.0016019614 -0.013457507 -0.054767292 -0.0041496432 0.01039692
0.059828654 0.06775664 0.00077603385 0.01785307 -0.0022715086 -0.032742098 0.0040956996 0.038686056
0.012672354 0.017580178 0.02120636 -0.04037206 0.0031761862 -0.008306652 -0.0023072697 -0.018147996
-0.006776667 0.017120913 0.031576704 0.0357758 0.0004078554 0.03571086 0.02793149 0.051241677
0.0047456194 0.005455963 0.0013261475 -0.036429357 0.016577754 0.0041959323 0.009310279 -0.011716541
-0.014080029 -0.009812225 0.0035556108 -0.016066622 0.002761092 -0.007212896 0.032572422 0.017059267
-0.038302615 0.018358428 -0.027964016 -0.032860693 -0.039567273 -0.039173625 0.013672006 0.054448336
0.049431283 0.05560864 0.015547533 0.03158431 0.0035463572 -0.01537789 0.013257112 0.0022267438
0.003523279 -0.030527135 -0.01625765 0.017724026 0.0073432736 0.0107372105 -0.026929319 -0.03947402
0.034165483 -0.037246868 0.038716976 -0.022144025 -0.06680984 0.0073228143 0.044244006 0.06802464
0.057883915 -0.00667249 0.039658356 0.032920066 -0.0003956519 0.019554466 0.013573233 -0.017204007
0.011762034 0.024303462 -0.04124957 0.048792847 -0.020429712 0.08892185 -0.0069027245 0.040483695
-0.034036025 -0.025680846 -0.008911315 0.011961985 -0.015185913 -0.014397463 0.058604103 0.0033392964
0.011505879 -0.006336756 -0.0032424964 0.011793528 0.0131905265 -0.026101127 -0.0036991872 0.039641526
-0.021223962 -0.015570611 -0.038223103 0.015596617 0.003041733 -0.04139444 -0.0053967573 -0.031892918

hyper_b1.bias f4 [32]
00000000: 4198 94bd c2a5 45bd a073 d3ba 92b7 88bd
00000010: b216 dcbc 72f8 5abd 5819 e1bc 8ee0 a3bc
00000020: 82e5 2fbd 401c 63bd a8d5 f7bc ca02 9abd
00000030: 037b 7abd 3df4 1fbd 1136 31bd 1490 e0bc
00000040: d6b6 02bd 904d 51bc cff2 71bd 543f 09bd
00000050: 805f 1abd d853 4bbd 32c1 ebbc 8349 27bd
00000060: 08ef 9ebd be8e 15bd 9407 73bd cc67 82bd
00000070: c104 0ebd 0761 a13b 85eb 24bd 7ca8 d939
-0.07255603 -0.048253782 -0.0016132481 -0.06675638 -0.02686629 -0.053459592 -0.027477905 -0.020004537
-0.042943485 -0.055446863 -0.030253246 -0.07520063 -0.06115247 -0.039051283 -0.043264452 -0.027412452
-0.031912647 -0.01277484 -0.05906945 -0.03350766 -0.037688732 -0.049640507 -0.028778646 -0.04084159
-0.07760435 -0.036513083 -0.0593334 -0.06367454 -0.034672502 0.0049248966 -0.04026367 0.00041514996

hyper_b2.0.weight f4 [32, 576]
00000000: c253 13bd 4505 39bd ee30 2dbd 38e3 66bd
00000010: ce62 cabd b67b dfbd d3b7 60bd 2fc8 6ebd
00000020: 8b8d e8bd 05f8 31bd 279f 45bd eae8 18bd
00000030: 403c 22bd f48f a1bd 7755 46bd f3dd 45bd
00000040: 8f49 d6bd 3d85 44bd fcd1 66bd 93e3 72bd
00000050: 99d5 16bd 03f8 efbd a979 cfbd 379e 90bd
00000060: 2f3e b2bd 87d3 40bd e1d1 bfbd bc9f 2abd
00000070: 7364 f0bd 3fef efbd c839 ebbd 4e20 49bd
00000080: 4814 80bd f816 8bbd 5a98 86bd 7996 d9bd
00000090: 18f3 b2bd cce6 cdbd 1a29 c5bd 992f c1bd
000000a0: b24e 23bd e387 e4bd f108 9fbd 139e 1abd
000000b0: 161a b5bd b02a e3bd e0f4 54bd b4b6 7fbd
000000c0: eb11 90bd 5819 abbd 61b7 143d 7466 09bc
000000d0: 302f f0bc b5c9 d13d 78bf 973b 16d1 d7bc
000000e0: 6e79 dabc ac4e 0f3c 9ed7 1ebd 2e75 b03c
000000f0: 3640 7f3d b69a ddbc 0080 3e38 a0e6 b73a
00000100: 28a2 88bc 2311 02bd f143 863d 7d5f 1a3d
00000110: 98db d9bc af43 1a3d 542c 2fbd 0e81 ebbd
00000120: 4445 66bd 1bd8 e4bd 8a29 ac3c 20e0 14bd
00000130: c6e8 aa3d dd2c 413d 7b59 d03d 2fbf ce3d
00000140: c0e5 a5bb f6d4 74bc 91b0 0a3d 72ba 30bd
00000150: 510f 173d 30da 8e3c 462c 6cbc a884 b0bb
00000160: 8c75 01bc 4b83 b03d 8630 cc3c 807c 9e3c
00000170: a590 be3d 0772 203d 9538 99bd c5a5 70bd
00000180: c2b3 2ebd 87c9 27bd aa8a ea3c 9a86 cf3c
00000190: 6315 afbc 2812 873c 1df3 013d e9e3 093d
000001a0: 80df 593c f374 133d daea 9a3c be14 c33c
000001b0: b99c 253d b0f5 ab3d 3357 213d 5bbf 13bd
000001c0: 8d4d 253d e0c9 d83a 959b 333d eef2 8abc
000001d0: 9786 1d3d d26d d43c 2106 b7bd c5dd 6cbd
000001e0: c819 4bbd 9e19 65bd 8c83 21bc d40d 05bc
000001f0: 32da ea3c 70cc 9fbc ec93 113d 0da0 123d
00000200: a6e0 a53c ea37 ec3c eade ef3c 0143 183d
00000210: 4edb b7bc 0014 11bb 0989 3c3c 82d0 d43c
00000220: 2f4f 263d 0379 09bd 3421 3b3c d9f5 923d
00000230: d6aa b8bc ac11 c73d 7a9f 67bd 649c 41bd
00000240: 1ca1 b7bd 7b50 b7bd e04b bd3b 7e1e d03c
00000250: 4963 c63d 3a3e a53c 702c afbc bb09 89bc
00000260: a8ae d53b 6194 1b3d c008 633c a689 fdbc
00000270: 6ee3 853c b64d c63c f62d 59bc 7520 1d3d
00000280: 81f9 60bc e231 0ebd 3885 e8bc 7acf 24bd
00000290: 820b 4e3d ced5 993c cf12 9cbd 0652 98bd
000002a0: 763e 1bbd 206e a9bd 477e 05bd 2069 df3a
000002b0: 1bc8 81bc f04e 5d3b 6ab6 d43c f21c ef3c
000002c0: c019 4d3a a0c1 c3ba 6669 08bd d879 e5bb
000002d0: e0b4 973c c35e f1bc 4806 8bbc 5054 5abc
000002e0: 9e6d b3bc fcf5 2b3c b057 b43d 8229 e33c
000002f0: 40c1 8c3c 15cc 133d eccd 2cbd 8752 bebd
00000300: d6a8 debd c540 40bd b3a9 1ebd 9eda 4bbe
00000310: 3b93 e9bc 30eb 563c 9ec7 eabc c8b3 bebb
00000320: 40d7 c9bb 3d91 1a3d a63d 8bbc 37bd 17bd
00000330: 2631 823c ac16 07bd d0bc 653d 065c 94bc
00000340: 382d cdbb d24f ed3c 16d2 ff3c ecfb 0a3c
00000350: 5bdd 6f3d d0eb d8bc ada2 b2bd 6043 80bd
00000360: 1dd1 d1bd 617d 6fbd 45d8 1e3d 4295 d93c
00000370: 488a 0cbd 3082 e7bc 60e7 bd3a 1986 193d
00000380: ae20 dcbc de75 f0bc 068e 9d3c e119 38be
00000390: cf24 0d3d 50fa 34be f62a 0cbd 1a01 813c
000003a0: 565b c0bc 2885 d7bc f1e4 1f3d 5a35 943c
000003b0: 7ac8 07bd 804a 0ebd dba0 c8bd a426 a5bd
000003c0: 2038 2bbd 08ca e9bd dfcc 25bd c021 1b3c
000003d0: eee5 bbbc 8ada b33c 16d7 60bc 7a26 f23c
000003e0: adf9 1b3d 0b90 c1bc 2820 d9bb c81a 86bb
000003f0: a00a e2bb 40f7 a6bc 6244 f93c 0c8e 45bc
-0.03596855 -0.04517104 -0.04228299 -0.056369036 -0.09882127 -0.10912268 -0.05486281 -0.05829638
-0.11355122 -0.04344942 -0.048247483 -0.0373315 -0.03960824 -0.07888785 -0.04842135 -0.04830737
-0.10463249 -0.04797863 -0.0563526 -0.059299063 -0.036824796 -0.11717226 -0.10130627 -0.07061427
-0.08703267 -0.04707673 -0.09366203 -0.04165624 -0.11737909 -0.117155544 -0.1148563 -0.049103074
-0.06253868 -0.0679149 -0.065720275 -0.106244035 -0.08737773 -0.10053787 -0.0962698 -0.09432907
-0.03986997 -0.11158731 -0.07765377 -0.037748408 -0.08842866 -0.11092126 -0.051991343 -0.0624301
-0.070346676 -0.08354443 0.036307696 -0.008386243 -0.029319376 0.10243551 0.004630979 -0.026344817
-0.02666923 0.008746784 -0.038779847 0.02154025 0.062317096 -0.027051311 4.541874e-05 0.0014030524
-0.016678885 -0.031754624 0.065559275 0.03768872 -0.026593968 0.037662204 -0.042766884 -0.114992246
-0.0562184 -0.11174031 0.021015901 -0.036346555 0.08345179 0.047161926 0.10173317 0.10095059
-0.0050627887 -0.014943352 0.033859793 -0.043146558 0.03687984 0.017438024 -0.0144148525 -0.0053869076
-0.0079015605 0.08618792 0.024925482 0.019346476 0.093049325 0.039171245 -0.07481495 -0.05875184
-0.0426519 -0.040963676 0.028630573 0.025332738 -0.021372503 0.01648815 0.03172599 0.033664618
0.013297915 0.036000203 0.018910814 0.023813602 0.040432665 0.083964705 0.0393898 -0.036071163
0.04035716 0.0016539656 0.043849546 -0.016961541 0.038458433 0.025931273 -0.08936716 -0.057828683
-0.049585134 -0.055932634 -0.009858023 -0.008120973 0.028668497 -0.019506663 0.03554146 0.035797168
0.020248722 0.028835256 0.029281098 0.037173275 -0.02244344 -0.0022137165 0.011507281 0.02597833
0.04060286 -0.03356267 0.01142149 0.07175798 -0.022542398 0.097201675 -0.056548573 -0.047268286
-0.08966276 -0.08950897 0.0057768673 0.025405165 0.09686906 0.020171273 -0.021383494 -0.016728273
0.006521065 0.037983302 0.013857067 -0.030949425 0.016343798 0.024206977 -0.013255587 0.03836103
-0.013731361 -0.03471554 -0.028383836 -0.040236928 0.050303943 0.018778708 -0.07620775 -0.0743752
-0.037901364 -0.08272958 -0.03259113 0.001704488 -0.015842488 0.0033768974 0.025965888 0.029188607
0.00078239664 -0.0014935024 -0.03330364 -0.0070030503 0.018518865 -0.029464131 -0.016970769 -0.013325766
-0.021902855 0.010495659 0.088057876 0.027729753 0.017181993 0.0360833 -0.04218857 -0.092930846
-0.10872047 -0.04693677 -0.038736057 -0.19907615 -0.028512588 0.0131175965 -0.028659638 -0.0058197714
-0.006159693 0.037736166 -0.01699717 -0.037045684 0.015892576 -0.032980606 0.05608827 -0.018110286
-0.006261494 0.028968725 0.031228106 0.008482914 0.05856071 -0.026479632 -0.08722434 -0.06262851
-0.10244963 -0.05846918 0.03878047 0.02656043 -0.034311563 -0.02826032 0.0014488511 0.0374814
-0.026871052 -0.029353078 0.019232761 -0.17978622 0.03445893 -0.17673612 -0.03422066 0.015747596
-0.023481052 -0.026308611 0.039036695 0.018091846 -0.033150174 -0.034739017 -0.09796306 -0.08064011
-0.04180157 -0.114154875 -0.040478583 0.009468496 -0.022936787 0.021954793 -0.0137231555 0.029559363
0.038079906 -0.023628255 -0.006626148 -0.004092548 -0.0068982393 -0.02038157 0.030428115 -0.012057792

hyper_b2.0.bias f4 [32]
00000000: 1ee6 873d 9750 d03c b532 0d3d 2d92 8c3c
00000010: d452 72bc ed2d b43c c4a8 3f3c 99fa d9bb
00000020: 4afd e23c b7d1 7a3d f8f0 40bc bcb3 09bd
00000030: f140 c43d 47a3 19bd 64b7 133c 22f1 9b3d
00000040: cafe 8db9 2861 723d f0c9 7e3b 02fe e23d
00000050: bc33 9a3d dc71 d8bc fa03 f63c 466b dfbc
00000060: e03d 42bd 3f38 e23c 9cef c33c 8597 b6bc
00000070: 83d4 c33d 1773 0c3d 4398 f9bc 9580 babc
0.06635688 0.025429053 0.034472186 0.017159546 -0.014790256 0.021994555 0.011697952 -0.006652188
0.027708668 0.061235156 -0.011776201 -0.033618674 0.09582699 -0.03750923 0.009015892 0.07614352
-0.00027083448 0.059174687 0.0038877688 0.110836044 0.07529399 -0.02642148 0.030031193 -0.027272832
-0.04742229 0.02761471 0.023917966 -0.022289047 0.09562018 0.034289446 -0.030468112 -0.02276639

hyper_b2.2.weight f4 [1, 32]
00000000: a5fc ffbd fa1e a6bd e06c f23b ff30 b73d
00000010: cbdb 9b3d 3d26 023e 7a87 f03d 6dbc e93d
00000020: 1cd7 7d3d cc4b 15bd a8db 883d 0874 1d3d
00000030: 5fc3 debd f6f7 e33d 98a1 95bc 2b40 41be
00000040: ce22 4dbc 2fb8 05be c27c 19be b49d 08be
00000050: 4d61 bfbd ee8d 483d d03c df3c 0572 023e
00000060: 8679 75bb dbe2 213e 3fa0 d93d e8eb d73d
00000070: aa52 1fbe 67f1 1dbe 7679 943d d3a9 a93d
-0.1249936 -0.08111377 0.007398233 0.08944892 0.076102816 0.12709899 0.1174459 0.114128925
0.061972722 -0.03644924 0.06682521 0.038440734 -0.10877108 0.11131279 -0.01826553 -0.18872134
-0.012520505 -0.13058542 -0.14988998 -0.13341409 -0.093447305 0.04896348 0.027250677 0.12738807
-0.0037456467 0.15809195 0.10626268 0.105430424 -0.15558878 -0.15424119 0.07249729 0.082843445
