models/v1/target_qmix_net.pth (torch, 918972 bytes, 13 tensors)

hyper_w1.0.weight f4 [64, 1156]
-0.01772714 0.028799543 -0.022086466 0.003928395 0.0064780135 0.019649366 0.01393416 -0.022618115
-0.00042096712 -0.016978327 -0.028423592 0.013084693 -0.0046621524 -0.024415437 0.007522436 0.009072075
-0.00047824718 -0.008801576 0.027062936 -0.0121118 0.014141472 0.02315574 0.028383238 0.020432746
0.017931832 0.0039444435 0.022998752 0.0072749387 -0.022056151 -0.008131238 -0.022191536 0.0010096952
-0.020840205 -0.0005284939 -0.016186938 0.028615324 -0.009296536 -0.009087069 -0.0014469624 -0.014846619
-0.015660735 -0.026706692 0.0077933837 -0.0015529394 0.011151006 0.022189742 -0.027506625 0.015852222
-0.0019262824 -0.021065839 0.0035977345 -0.017049767 0.021310175 -0.015438683 -0.0033795126 -0.027477426
-0.0025758818 -0.005474463 0.014577495 0.0010066517 -0.0035508107 -0.00519561 -0.016126808 0.011793228
-0.013007125 -0.015862942 0.026846802 -0.01296184 -0.001207089 0.013772549 -0.028756272 -0.021972576
0.0060328264 0.017142596 0.021324253 -0.0026245713 0.021175114 -0.002292132 0.019238641 0.006495228
-0.024639372 -0.02872573 -0.0100937 0.027851468 0.012044208 -0.012897054 0.0084750075 -0.02341185
0.012416584 0.016659932 -0.006488558 0.023210613 0.01806266 0.011341693 0.022726102 0.004963966
-0.011041757 -0.014157281 -0.01819154 0.02355344 0.018038666 -0.0053457227 -0.026176175 0.0026121382
-0.022223372 -0.027824005 -0.0045556426 -0.014800906 -0.027137034 -0.021935126 0.0113079455 -0.024239155
-0.010947494 0.008634677 0.014250984 0.013315318 -0.014094903 0.029150905 -0.012257699 0.016439905
-0.003152581 -0.00798 0.01509572 -0.020901226 0.015893238 0.016531004 -0.009474397 -0.013584351
0.013916945 -0.013823565 0.020485995 -0.0061123725 -0.009504648 0.026940612 0.019709947 0.014358023
0.017377904 0.0075214487 0.0026908014 -0.024970416 0.011604061 0.00061974116 0.0058375914 0.00027148426
0.020875225 0.017931817 -0.013221741 -0.015559337 0.0087190885 0.02582852 -0.017884914 0.009142535
-0.0014507379 0.0068741087 -0.023207331 0.0233911 0.008115748 -0.025264818 0.01760129 -0.008628165
-0.008746371 0.0024029259 -0.014625514 -0.0043055303 -0.011331484 -0.007260613 0.023629548 -0.0095132515
0.02763653 -0.012336552 0.0020525847 -0.007738903 0.0012372136 0.010314139 -0.007135462 -0.025193175
-0.023733858 0.0028862972 0.007214794 0.02186597 0.011487139 -0.0021404102 0.01129237 -0.022675622
-0.0023999885 0.0031383093 -0.019914897 0.0055618305 -0.024469467 0.010031851 0.0045542996 -0.029384308
0.017206272 -0.02132324 -0.0075771064 -0.0036039073 0.0049497467 0.021142108 0.008343881 0.0046642404
-0.025504537 -0.0150510175 -0.0029117186 0.007950524 -0.0067690853 0.013137 -0.013586465 -0.016843032
-0.018719457 -0.028238486 -0.00083529204 0.01533209 -0.0035480224 -0.01549807 0.001995029 0.019034503
0.024615584 -0.009442052 -0.006924363 -0.024437744 -0.006928129 -0.014284078 0.007389145 -0.0021060146
-0.028366148 -0.027207216 -0.0001672022 0.00739176 -0.018204939 0.010279262 -0.0075895954 0.017412165
-0.013318619 -0.01863468 0.0072603393 0.015595065 -0.025103254 0.01551692 0.020323684 -0.004835209
0.023260443 0.008594243 0.015839448 -0.0070450027 -0.0026301257 -0.012573933 0.0076715406 0.022501828
0.0011271164 0.0083072875 -0.028344238 -0.01647703 0.02032349 -0.02116846 -0.02569633 0.028946085
00000000: 8238 91bc 05ed eb3c adee b4bc c4b9 803b
00000010: 8445 d43b b5f7 a03c 1a4c 643c a049 b9bc
00000020: 40b5 dcb9 2216 8bbc 98d8 e8bc 2e61 563c
00000030: f8c4 98bb e202 c8bc c47e f63b 0aa3 143c
00000040: 40bd fab9 7c34 10bc 17b3 dd3c 9270 46bc
00000050: a2b1 673c 1bb1 bd3c f783 e83c 9362 a73c
00000060: c7e5 923c 6440 813b e167 bc3c 9c62 ee3b
00000070: 1aaf b4bc e238 05bc 06cb b5bc c057 843a
00000080: 14b9 aabc a08a 0aba 789a 84bc af6a ea3c
00000090: 8050 18bc eee1 14bc 00a8 bdba 3c3f 73bc
000000a0: f14a 80bc fec7 dabc a45f ff3b 008c cbba
000000b0: b6b2 363c 43c7 b53c 9355 e1bc 85dc 813c
000000c0: 507b fcba 4492 acbc f8c7 6b3b f4ab 8bbc
000000d0: ad92 ae3c 88f2 7cbc d07a 5dbb 5718 e1bc
000000e0: 20d0 28bb 2063 b3bb 72d6 6e3c a0f1 833a
000000f0: b8b4 68bb f03f aabb 5e1c 84bc 6238 413c
00000100: d61b 55bc 00f3 81bc d3ed db3c e65d 54bc
00000110: 3037 9eba 42a6 613c 4692 ebbc d5ff b3bc
00000120: 04af c53b a16e 8c3c 33b0 ae3c 0001 2cbb
00000130: 6f77 ad3c 9837 16bb 5b9a 9d3c ecd5 d43b
00000140: 82d8 c9bc 3952 ebbc 0c60 25bc c328 e43c
00000150: 1255 453c 2a4e 53bc c2da 0a3c 35ca bfbc
00000160: ee6e 4b3c 697a 883c f89d d4bb 2f24 be3c
00000170: 25f8 933c 82d2 393c 172c ba3c c4a8 a23b
00000180: 7ce8 34bc f1f3 67bc 6d06 95bc 25f3 c03c
00000190: d3c5 933c 2c2b afbb 6b6f d6bc 6830 2b3b
000001a0: ca0d b6bc 2bef e3bc 8047 95bb 807f 72bc
000001b0: 7c4e debc 4bb1 b3bc f644 393c 3191 c6bc
000001c0: 1e5d 33bc 7678 0d3c f67c 693c 7e28 5a3c
000001d0: 4fee 66bc e1cd ee3c 84d4 48bc fbac 863c
000001e0: 889b 4ebb 8cbe 02bc 0a54 773c 0c39 abbc
000001f0: 8932 823c 076c 873c 803a 1bbc e690 5ebc
00000200: e603 643c 3c7c 62bc 3fd2 a73c 4c4a c8bb
00000210: 62b9 1bbc 8fb2 dc3c c176 a13c ea3d 6b3c
00000220: 1b5c 8e3c 7c76 f63b 2858 303b c28e ccbc
00000230: f61e 3e3c 2076 223a 4449 bf3b 0056 8e39
00000240: 8502 ab3c bfe5 923c 00a0 58bc 97ec 7ebc
00000250: 82da 0e3c 5596 d33c 6283 92bc 92ca 153c
00000260: b026 beba 3440 e13b 4d1d bebc b19e bf3c
00000270: eaf7 043c 2af8 cebc 9530 903c 265d 0dbc
00000280: f04c 0fbc 687a 1d3b da9f 6fbc 6815 8dbb
00000290: b0a7 39bc 70ea edbb c192 c13c 78dd 1bbc
000002a0: 0166 e23c 401f 4abc a884 063b a096 fdbb
000002b0: 002a a23a a2fc 283c 98d0 e9bb eb61 cebc
000002c0: 826d c2bc 0828 3d3b 146a ec3b 4320 b33c
000002d0: 8e34 3c3c 2046 0cbb a203 393c 3ac2 b9bc
000002e0: 2049 1dbb 18ac 4d3b 9124 a3bc 0440 b63b
000002f0: 3174 c8bc a25c 243c 3c3c 953b 5cb7 f0bc
00000300: 2bf4 8c3c 13ae aebc 6049 f8bb 882f 6cbb
00000310: 7c31 a23b 3732 ad3c c6b4 083c 7cd6 983b
00000320: e4ee d0bc 8b98 76bc 88d2 3ebb ea42 023c
00000330: 34cf ddbb 923c 573c c499 5ebc 66fa 89bc
00000340: 8c59 99bc 6654 e7bc 80f7 5aba 7233 7b3c
00000350: f085 68bb 9eeb 7dbc 08bf 023b 3fee 9b3c
00000360: 9fa6 c93c d6b2 1abc c4e5 e2bb aa31 c8bc
00000370: 5c05 e3bb c407 6abc a420 f23b 1005 0abb
00000380: 2060 e8bc abe1 debc 0053 2fb9 9436 f23b
00000390: 8622 95bc 5a6a 283c 24b2 f8bb f5a3 8e3c
000003a0: 5636 5abc c2a7 98bc 24e8 ed3b 7282 7f3c
000003b0: 57a5 cdbc ae3a 7e3c db7d a63c ac70 9ebb
000003c0: af8c be3c dece 0c3c bbc1 813c c4d9 e6bb
000003d0: 305e 2cbb e602 4ebc 8c61 fb3b c155 b83c
000003e0: c0bb 933a 4a1b 083c 2d32 e8bc d6fa 86bc
000003f0: 737d a63c 7a69 adbc 1c81 d2bc 5720 ed3c

hyper_w1.0.bias f4 [64]
-0.023403617 -0.003369797 0.020285202 -0.018605411 -0.0071789697 -0.021641886 -0.024989054 -0.002480058
0.011376718 0.0016824212 0.021980597 -0.018140174 -0.02267104 -0.0026497487 0.0059032496 -0.01043853
0.0041347425 0.010232499 -0.008808045 -0.02097439 0.012143014 -0.011367423 -0.0018327385 0.009232359
-0.010398552 -0.019738086 -0.008835431 -0.007918254 0.01429054 -0.0036836192 -0.0005369112 -0.0145063335
0.027501399 0.0108342 0.020460004 0.026428984 -0.009904819 0.021976268 0.008334914 0.02121635
0.01597224 -0.011149922 -0.0095169265 -0.010881774 -0.00041162223 0.015586587 -0.026716208 0.026595524
0.016864685 -0.002136929 0.004247153 -0.028567065 0.018126084 -0.001977181 -0.0050823297 0.017885236
-0.017931804 0.021606257 -0.013455622 -0.0070818663 0.0098489355 0.023367384 -0.0076096896 -0.023788914
00000000: f1b8 bfbc d0d7 5cbb 272d a63c 606a 98bc
00000010: 903d ebbb 534a b1bc d8b5 ccbc 7888 22bb
00000020: 6a65 3a3c b084 dc3a a710 b43c b49a 94bc
00000030: 9eb8 b9bc 68a7 2dbb 0c70 c13b 5e06 2bbc
00000040: bc7c 873b 36a6 273c 9e4f 10bc 7cd2 abbc
00000050: 7ef3 463c 6e3e 3abc 8038 f0ba 5243 173c
00000060: b05e 2abc c4b1 a1bc 7cc2 10bc 90bb 01bc
00000070: de22 6a3c e068 71bb 80bf 0cba f9ab 6dbc
00000080: 9d4a e13c ee81 313c bd9b a73c 9981 d83c
00000090: d247 22bc 9307 b43c 2a8f 083c e9cd ad3c
000000a0: 37d8 823c 2aae 36bc e2ec 1bbc 7849 32bc
000000b0: 00cf d7b9 e25e 7f3c f3db dabc dbde d93c
000000c0: cf27 8a3c b80b 0cbb b42b 8b3b 7a05 eabc
000000d0: 277d 943c 9893 01bb ac89 a6bb 0f84 923c
000000e0: b8e5 92bc 9bff b03c f874 5cbc 000f e8bb
000000f0: 6e5d 213c f56c bf3c b45a f9bb f8e0 c2bc

hyper_w1.2.weight f4 [64, 64]
0.025866508 0.11379206 0.0812079 0.07088253 0.058411464 0.03906384 0.100052744 0.002608627
0.071113154 -0.09363113 -0.0850369 0.07486713 -0.11738555 0.0056725144 -0.10390124 -0.12081845
-0.100767404 0.090103135 0.01655978 0.0024847388 -0.08552334 0.024261162 -0.059185937 0.070075005
0.077088326 0.10137536 0.1028973 0.027594969 -0.063723594 0.056141213 0.06328136 -0.06602976
0.09909749 0.01075007 0.11037327 -0.08652741 -0.1059909 0.03050445 0.061411247 0.043656632
-0.07055253 -0.09387998 0.047182277 -0.108085096 0.0049384832 -0.06499067 0.099894345 -0.06960222
0.012673393 0.020496532 -0.07145311 -0.05621712 0.032471344 -0.07701735 0.052132502 0.01718226
0.07602584 0.057322696 -0.015840858 -0.067127466 -0.073666155 -0.050668135 -0.040457487 -0.06657964
-0.07795109 -0.102984875 -0.093353644 0.045249313 0.103449374 0.036872312 0.06211932 -0.013782278
0.090903684 0.052297592 0.080929995 0.11249633 -0.090599984 -0.088776395 0.053747192 0.029755026
-0.01640144 -0.055139482 0.11544442 0.11796887 -0.11546329 0.004079655 -0.023753956 0.09558439
-0.10930996 0.08612116 0.015079886 -0.039354563 0.012261853 -0.06202373 0.012065366 0.10856724
0.058282226 0.060846806 0.10576883 -0.01629746 -0.11590719 0.06262873 -0.0005889833 -0.00072200596
0.03636338 0.017497048 0.024716243 0.07732172 0.02705568 0.123674184 0.104977205 0.049487665
0.047366038 0.061724886 -0.06964758 0.042458445 0.063917324 -0.08260952 0.08163573 -0.12474257
0.06957163 0.016226113 -0.081523776 -0.05533202 0.01018855 -0.060400814 -0.080880925 0.09315792
0.124888316 -0.032205164 0.016583532 -0.044111297 -0.116129965 0.046328112 0.072952956 0.05310461
-0.0500478 -0.026769608 -0.10624729 0.039119497 -0.04102339 0.08673756 -0.061184585 -0.12033884
-0.08267297 -0.0669283 0.021252006 -0.0087132305 0.07544115 0.10886647 0.039637566 0.048173606
-0.0073648393 0.09217572 0.082157105 -0.052089944 -0.09074569 -0.11126071 0.045582533 -0.039049238
-0.025142685 0.028869689 0.09952086 0.046238273 -0.045262277 -0.1039833 -0.09195624 0.12218091
-0.09345549 -0.037118614 0.10572836 -0.08645959 0.09410052 0.042326525 -0.10392444 -0.04287176
0.113353625 -0.0504608 0.07404813 -0.055097416 -0.070243046 0.069610134 0.015970409 0.09057291
0.03622438 -0.06915301 -0.07276335 -0.04858555 0.11681911 0.08992027 -0.076477036 -0.11656386
-0.11298266 0.080226436 -0.045613825 -0.12228456 0.0023597926 0.027502194 0.051190153 0.015426442
0.05309689 -0.00880833 -0.104990155 0.09041792 0.11314826 -0.0076126307 -0.1007258 0.04557173
0.05084446 0.013136491 0.036189184 -0.0074086785 0.0007965416 -0.018104658 -0.021552682 -0.078939736
0.021385416 -0.11577377 0.005050853 0.0405972 0.03322582 0.06241907 -0.08134022 -0.0719285
0.046929315 -0.053028807 0.07553661 0.102361485 -0.096342504 -0.105229124 -0.008465052 0.045507014
0.11930968 -0.027410671 0.0666637 0.10808255 -0.091735676 0.004000649 -0.01814428 -0.082103714
0.06665419 -0.022399515 0.116713375 0.053098425 0.108491585 0.039452374 -0.057058334 0.076989084
0.0027315617 -0.07288955 0.013543993 0.025486842 0.079050556 -0.050866082 0.08063711 0.016165078
00000000: 00e6 d33c d00b e93d 5450 a63d dc2a 913d
00000010: dc40 6f3d 6801 203d 74e8 cc3d 80f5 2a3b
00000020: c6a3 913d aec1 bfbd d427 aebd f053 993d
00000030: d667 f0bd 80e0 b93b 2cca d4bd aa6f f7bd
00000040: 245f cebd fe87 b83d 60a8 873c 00d7 223b
00000050: dc26 afbd 58bf c63c f46c 72bd 7c83 8f3d
00000060: 7ce0 9d3d e29d cf3d d2bb d23d d80e e23c
00000070: 8481 82bd 54f4 653d a899 813d 9c3a 87bd
00000080: a0f3 ca3d 1021 303c 620b e23d 4835 b1bd
00000090: c211 d9bd 78e4 f93c 5c8a 7b3d 4cd1 323d
000000a0: d87d 90bd 2644 c0bd 3442 413d b85b ddbd
000000b0: 00d3 a13b d419 85bd 6895 cc3d 9c8b 8ebd
000000c0: 10a4 4f3c 58e8 a73c 0256 92bd ec43 66bd
000000d0: ac00 053d 46bb 9dbd e488 553d d0c1 8c3c
000000e0: 70b3 9b3d 34cb 6a3d b0c4 81bc 207a 89bd
000000f0: 48de 96bd 6489 4fbd c0b6 25bd e85a 88bd
00000100: d2a4 9fbd bce9 d2bd 3230 bfbd 5857 393d
00000110: 44dd d33d 6c07 173d d470 7e3d 10cf 61bc
00000120: b62b ba3d 0036 563d a0be a53d 7a64 e63d
00000130: 7c8c b9bd 66d0 b5bd 0426 5c3d d0c0 f33c
00000140: 505c 86bc f0d9 61bd 206e ec3d aa99 f13d
00000150: 0478 ecbd a0ae 853b a897 c2bc c0c1 c33d
00000160: e6dd dfbd 4a60 b03d a011 773c 4032 21bd
00000170: f0e5 483c 980c 7ebd d0ad 453c 8058 de3d
00000180: 58b9 6e3d 803a 793d 549d d83d 4082 85bc
00000190: c060 edbd 7e43 803d 0066 1aba 0045 3dba
000001a0: c4f1 143d f855 8f3c b879 ca3c da5a 9e3d
000001b0: e0a3 dd3c e448 fd3d 4afe d63d 94b3 4a3d
000001c0: e402 423d 3cd3 7c3d 64a3 8ebd e8e8 2d3d
000001d0: 16e7 823d 2e2f a9bd a230 a73d 0879 ffbd
000001e0: 927b 8e3d a0ec 843c f0f5 a6bd d4a3 62bd
000001f0: e0ed 263c d866 77bd e6a4 a5bd 94c9 be3d
00000200: 72c5 ff3d 90e9 03bd 30da 873c 0cae 34bd
00000210: 8cd5 edbd 8cc2 3d3d 5c68 953d 3884 593d
00000220: ecfe 4cbd f04b dbbc 2e98 d9bd c43b 203d
00000230: 2408 28bd 76a3 b13d b09c 7abd 3674 f6bd
00000240: 7250 a9bd b411 89bd b018 ae3c f0c1 0ebc
00000250: e480 9a3d 62f5 de3d 005b 223d b051 453d
00000260: c054 f1bb a0c6 bc3d fc41 a83d 445c 55bd
00000270: e0d8 b9bd a8dc e3bd c0b4 3a3d 18f2 1fbd
00000280: 08f8 cdbc 2080 ec3c 98d1 cb3d 5864 3d3d
00000290: f064 39bd 32f5 d4bd 8e53 bcbd fc39 fa3d
000002a0: 9865 bfbd b009 18bd 1c88 d83d ba11 b1bd
000002b0: c6b7 c03d 945e 2d3d 56d6 d4bd 4c9a 2fbd
000002c0: f225 e83d fcaf 4ebd 8ca6 973d d4ad 61bd
000002d0: 96db 8fbd c28f 8e3d 60d4 823c 4a7e b93d
000002e0: 0460 143d 18a0 8dbd f404 95bd a401 47bd
000002f0: dc3e ef3d 1e28 b83d fe9f 9cbd 08b9 eebd
00000300: 7463 e7bd c24d a43d 90d5 3abd 5470 fabd
00000310: c0a6 1a3b 484c e13c c4ac 513d 30bf 7c3c
00000320: 207c 593d d050 10bc 1405 d7bd 082d b93d
00000330: 46ba e73d 6073 f9bb 5449 cebd 6ca9 3a3d
00000340: 4842 503d 703a 573c 1c3b 143d 80c4 f2bb
00000350: 00cf 503a 3850 94bc 408f b0bc 28ab a1bd
00000360: 7830 af3c cc1a edbd a081 a53b 4049 263d
00000370: cc17 083d 24ab 7f3d b495 a6bd 404f 93bd
00000380: f438 403d bc34 59bd f0b2 9a3d e6a2 d13d
00000390: 384f c5bd 5e82 d7bd 00b1 0abc 9065 3a3d
000003a0: a258 f43d 588c e0bc fa86 883d 625a dd3d
000003b0: eadf bbbd e017 833b 50a3 94bc fe25 a8bd
000003c0: fe81 883d 307f b7bc 6c07 ef3d bc7d 593d
000003d0: d630 de3d d098 213d 00b6 69bd 74ac 9d3d
000003e0: 0004 333b 1e47 95bd a0e7 5d3c c8c9 d03c
000003f0: 42e5 a13d f458 50bd 1225 a53d a06c 843c

hyper_w1.2.bias f4 [64]
0.112056464 0.06733343 0.06879152 0.0586458 -0.0930361 0.0052183717 0.042067558 0.11349934
0.027729347 -0.021509945 0.087273404 0.004028246 0.032977253 -0.0035921335 0.09127113 0.01959306
0.111168265 -0.046606243 0.041117415 -0.11788179 0.11449233 -0.014271706 -0.0990563 0.0658571
-0.03850417 0.032481417 -0.023978457 -0.080342576 0.008268759 0.008206785 0.107663706 -0.07038517
0.05772212 -0.003497079 0.022140667 0.100149274 0.022191599 0.09738825 0.012274265 -0.0583079
0.0954846 0.102416635 0.029194355 0.07482059 -0.080432564 -0.033223227 -0.08223373 0.05798322
-0.06279874 0.018090561 -0.04432866 0.06280245 -0.051573172 0.057509974 0.08172168 0.029122502
0.09756835 -0.08798073 -0.040256947 -0.08714813 0.022968993 -0.038270116 0.004470676 0.070597425
00000000: dc7d e53d 1ce6 893d 92e2 8c3d 9436 703d
00000010: b689 bebd e0fe aa3b 084f 2c3d 5872 e83d
00000020: a828 e33c a035 b0bc 66bc b23d 60ff 833b
00000030: 2813 073d 006a 6bbb 5cec ba3d a081 a03c
00000040: 30ac e33d 30e6 3ebd bc6a 283d 026c f1bd
00000050: f47a ea3d e0d3 69bc 08de cabd 16e0 863d
00000060: 8cb6 1dbd 3c0b 053d 786e c4bc a68a a4bd
00000070: b079 073c c075 063c ca7e dc3d 1a26 90bd
00000080: 086e 6c3d 402f 65bb 5860 b53c 101b cd3d
00000090: 28cb b53c 7e73 c73d 001a 493c 44d4 6ebd
000000a0: 6e8d c33d d0bf d13d 0029 ef3c 8a3b 993d
000000b0: d4b9 a4bd 1415 08bd 286a a8bd d07f 6d3d
000000c0: a09c 80bd a832 943c f891 35bd 929e 803d
000000d0: 643e 53bd 948f 6b3d b25d a73d 5092 ee3c
000000e0: ead1 c73d 3e2f b4bd 78e4 24bd b87a b2bd
000000f0: 7829 bc3c 20c1 1cbd c07e 923b 6295 903d

hyper_w2.0.weight f4 [64, 1156]
0.009547485 -0.012072114 0.020465733 0.028071081 0.014619233 -0.00043931417 0.0034624133 -0.02816385
-0.0054484997 -0.02653594 0.0014421511 -0.013076989 -0.026308091 -0.0017757453 0.026942546 0.0021500308
-0.006833056 0.013432926 -0.002854498 -0.021401405 -0.024887303 -0.028814498 0.015627926 0.010721115
-0.013772897 0.014314571 -0.012525812 0.010205502 -0.00824192 -0.010752365 -0.004283691 -0.024709543
-0.016699769 -0.0127407275 0.005028067 -0.0069784317 0.0021215398 -0.011232393 -0.023006033 -0.012940688
0.028320568 -0.0019174926 0.0013189036 0.010088148 0.009264385 -0.0031939037 0.02846731 0.006982928
-0.014806078 -0.0218684 -0.012716563 -0.0070936363 -0.02108392 -0.010597955 0.0001611039 0.018970327
0.013171738 -0.016478177 0.028897287 -0.0294076 -0.014991581 -0.009208409 0.009914303 0.0061099064
-0.017982936 -0.025305772 0.0013678875 0.027454028 0.009144509 -0.0062794257 0.022789711 -0.00017103739
-0.0026549976 -0.008834625 0.013680251 0.017600967 -0.0022964329 -0.015987854 0.025256766 -0.013168756
-0.00038236752 -0.026095796 0.0018639248 0.0054432284 0.005776508 -0.011755351 0.0076717567 -0.019857809
0.007032251 -0.0031087156 0.013952402 0.012546742 -0.024716321 -0.026253358 0.015624369 -0.005219754
0.023630159 0.0021786895 0.028762268 0.008596098 -0.021629516 0.02766555 -0.022844836 -0.007793287
-0.009963866 -0.019130662 -0.014346743 -0.015213847 0.021577774 -0.019675516 0.020683473 0.020119814
0.017207513 -0.010596279 0.0013643354 0.010448871 -0.006176276 0.011792427 0.00970214 -0.026713753
-0.01621613 0.006905714 -0.027358254 -0.013583768 0.011184102 -0.018282793 -0.0013847034 0.009348484
0.021795036 0.0198061 0.016643869 -0.011931939 0.019839926 -0.024590166 0.0022030193 -0.00675755
0.0027413797 0.026325585 0.011931153 -0.007216379 -0.0124512 -0.009514585 0.012626311 -0.012304787
0.020420073 -0.024771638 -0.0015030149 -0.0011399593 -0.019033099 0.02129859 -0.024741694 -0.0051074736
0.023366256 -0.005122697 0.0074612293 -0.00898147 0.0030987803 -0.0014528465 0.006913962 0.001451619
-0.015739623 -0.018547907 -0.0024672393 -0.022207351 0.0022501554 0.017338997 -0.025543168 0.0030571278
-0.018730963 -0.021408375 0.0033169743 -0.027831225 -0.017933358 0.027642323 -0.010350263 -0.0029752776
-0.016362559 -0.016815837 -0.008084193 -0.0047541577 -0.004151782 -0.017723672 -0.002988262 -0.011708487
0.02808587 0.001456961 0.019834502 -0.015209854 -0.01024824 -0.028287653 0.020053985 -0.01093125
-0.028980227 0.008475231 -0.006999092 -0.025895258 -0.013571631 0.007901015 -0.012471247 0.027431315
0.018024879 -0.016655203 0.027144605 -0.029321447 0.014647918 0.015792446 0.024039252 -0.026387604
-0.010368662 -0.0036811382 0.012916984 0.0037121158 0.026803346 0.00039144792 0.020845665 -0.023652192
-0.008579215 -0.0017683953 0.002715582 -0.010836093 0.01816366 -0.016396161 -0.028995363 0.026605057
0.018816499 -0.020368882 -0.014279664 0.026146138 0.007892432 0.028911145 -0.019148603 -0.012024473
0.024461737 -0.029027108 -0.028904645 0.010156525 -0.025622841 -0.023988409 0.027569158 -0.01815762
0.013412366 0.020191064 0.016043609 0.0153057445 0.013797464 -0.0056256168 0.011011759 0.028831502
-0.019642767 0.005754398 -0.011952348 -0.012758883 -0.013728205 0.003461877 0.02099858 -0.0014049057
00000000: 0e6d 1c3c 1eca 45bc c1a7 a73c 53f5 e53c
00000010: 8285 6f3c c053 e6b9 a8e9 623b e0b7 e6bc
00000020: 5489 b2bb e661 d9bc 9006 bd3a de40 56bc
00000030: 1184 d7bc 20c0 e8ba 9db6 dc3c 88e7 0c3b
00000040: d4e7 dfbb c615 5c3c 8812 3bbb 0052 afbc
00000050: 75e0 cbbc 620c ecbc 2306 803c 9ea7 2f3c
00000060: b8a7 61bc aa87 6a3c 1039 4dbc fa34 273c
00000070: 1e09 07bc b02a 30bc 345e 8cbb ab6b cabc
00000080: f4cd 88bc 7cbe 50bc 7cc2 a43b 54ab e4bb
00000090: 8809 0b3b 1208 38bc 2677 bcbc 2e05 54bc
000000a0: 8900 e83c 6054 fbba 10df ac3a c248 253c
000000b0: a6c9 173c d050 51bb 4734 e93c 0cd1 e43b
000000c0: 3195 72bc 5c25 b3bc 2259 50bc bc71 e8bb
000000d0: 2fb8 acbc 0ca3 2dbc 00ee 2839 a967 9b3c
000000e0: 46ce 573c 3efd 86bc 01ba ec3c 35e8 f0bc
000000f0: 409f 75bc dede 16bc 9a6f 223c 9c35 c83b
00000100: f350 93bc 0d4e cfbc b04a b33a 45e7 e03c
00000110: dad2 153c a4c3 cdbb 7db1 ba3c 8058 33b9
00000120: 78ff 2dbb 1abf 10bc 2223 603c e72f 903c
00000130: c07f 16bb f6f8 82bc 47e7 ce3c c4c1 57bc
00000140: 8078 c8b9 dac6 d5bc f04e f43a 1c5d b23b
00000150: dc48 bd3b 8499 40bc 5c63 fb3b d8ac a2bc
00000160: cc6e e63b 98bb 4bbb 9e98 643c da90 4d3c
00000170: e279 cabc 4811 d7bc 5afd 7f3c 780a abbb
00000180: 0994 c13c 58c8 0e3b d99e eb3c a6d6 0c3c
00000190: 6230 b1bc dda2 e23c 1825 bbbc d45e ffbb
000001a0: 7c3f 23bc e8b7 9cbc 9a0e 6bbc 8043 79bc
000001b0: dfc3 b03c 8c2e a1bc 6370 a93c 4fd2 a43c
000001c0: c5f6 8c3c 049c 2dbc 80d3 b23a be31 2b3c
000001d0: 5c62 cabb 0635 413c baf5 1e3c cdd6 dabc
000001e0: b1d7 84bc 5449 e23b 6b1e e0bc 748e 5ebc
000001f0: 863d 373c ccc5 95bc f07e b5ba 622a 193c
00000200: 818b b23c 6740 a23c b958 883c 2e7e 43bc
00000210: 5787 a23c 5171 c9bc 8860 103b 706e ddbb
00000220: b8a8 333b c1a8 d73c e27a 433c 6077 ecbb
00000230: 1e00 4cbc 10e3 1bbc 96de 4e3c 049a 49bc
00000240: ff47 a73c e4ed cabc d000 c5ba b06a 95ba
00000250: 4deb 9bbc 617a ae3c 18af cabc 985c a7bb
00000260: 976a bf3c 4cdc a7bb 547d f43b 0427 13bc
00000270: e814 4b3b 706d beba 848e e23b 4044 be3a
00000280: 62f0 80bc c8f1 97bc 68b1 21bb 31ec b5bc
00000290: 5877 133b 830a 8e3c e83f d1bc 185a 483b
000002a0: ad71 99bc 9e60 afbc 9861 593b 4ffe e3bc
000002b0: fae8 92bc 2772 e23c 2694 29bc e0fc 42bb
000002c0: c60a 86bc 5ec1 89bc 9073 04bc c4c8 9bbb
000002d0: ac0b 88bb 3c31 91bc b8d6 43bb f4d4 3fbc
000002e0: 5714 e63c 80f7 be3a f77b a23c c032 79bc
000002f0: 3ce8 27bc 82bb e7bc 4148 a43c fc18 33bc
00000300: f167 edbc b2db 0a3c a458 e5bb 4b22 d4bc
00000310: 8c5b 5ebc 4273 013c 3454 4cbc a3b7 e03c
00000320: e9a8 933c 7e70 88bc 5d5e de3c 8833 f0bc
00000330: d2fd 6f3c 295f 813c f7ed c43c d12a d8bc
00000340: 52e1 29bc 403f 71bb c2a1 533c f846 733b
00000350: b192 db3c 403b cd39 87c4 aa3c 3ec2 c1bc
00000360: d68f 0cbc 80c9 e7ba e8f7 313b de89 31bc
00000370: f5cb 943c 3e51 86bc af87 edbc d9f2 d93c
00000380: 0f25 9a3c a4dc a6bc 40f5 69bc 6d30 d63c
00000390: 424f 013c 11d7 ec3c 88dd 9cbc 4c02 45bc
000003a0: fb63 c83c 42ca edbc 6fc9 ecbc 8e67 263c
000003b0: fee6 d1bc 5783 c4bc b7d8 e13c 4abf 94bc
000003c0: 8abf 5b3c bb67 a53c e36d 833c f2c4 7a3c
000003d0: c20e 623c 1857 b8bb aa6a 343c 0b30 ec3c
000003e0: dee9 a0bc 648f bc3b c8d3 43bc a20a 51bc
000003f0: 44ec 60bc a8e0 623b 3705 ac3c d024 b8ba

hyper_w2.0.bias f4 [64]
-0.012820654 0.004263079 0.0040143374 -0.021784341 0.0037305485 -0.027938314 -0.00531685 -0.009632075
0.020726947 -0.007210899 0.01669903 -0.0008182768 -0.0033984184 0.026724344 -0.0124263335 -0.017587304
0.026003158 0.018644078 0.020617241 0.01536602 -0.0034139398 -0.0118124485 -0.016247228 -0.0064092483
0.0006037988 -0.01628476 0.01997147 0.00053825416 0.011422386 -0.023918752 0.028073335 0.019272568
-0.013674932 -0.019892097 -0.023217186 -0.009338032 0.01159283 0.015514435 0.01463539 -0.01658076
-0.015729383 0.024717147 0.00830804 0.0015800837 0.0040518995 -0.022098236 0.0068803225 -0.0041203145
0.0046096873 0.02632623 -0.012056263 -0.02693487 -0.0077402424 -0.004963899 -0.0057035685 -0.011069819
0.000999976 0.020158483 -0.019151088 -0.007153349 0.007611854 -0.015408969 0.024041703 -0.020801842
00000000: b80d 52bc 4cb1 8b3b b48a 833b 1375 b2bc
00000010: 387c 743b e4de e4bc f838 aebb dacf 1dbc
00000020: 8fcb a93c 6849 ecbb 67cc 883c a081 56ba
00000030: 00b8 5ebb 03ed da3c d297 4bbc 4013 90bc
00000040: 9304 d53c 77bb 983c 7de5 a83c c2c1 7b3c
00000050: 68bc 5fbb 0089 41bc e818 85bc ac04 d2bb
00000060: 4048 1e3a 9e67 85bc 359b a33c a019 0d3a
00000070: f624 3b3c 42f1 c3bc 0dfa e53c 81e1 9d3c
00000080: d20c 60bc c0f4 a2bc f831 bebc 8cfe 18bc
00000090: daef 3d3c 4230 7e3c 46c9 6f3c 60d4 87bc
000000a0: e8da 80bc 9d7b ca3c 721e 083c d01a cf3a
000000b0: ccc5 843b 5c07 b5bc 5474 e13b b403 87bb
000000c0: dc0c 973b 1baa d73c a287 45bc 84a6 dcbc
000000d0: dca1 fdbb 34a8 a2bb 00e5 babb 305e 35bc
000000e0: a011 833a 6723 a53c bee2 9cbc a466 eabb
000000f0: dc6c f93b e675 7cbc 1bf3 c43c a068 aabc

hyper_w2.2.weight f4 [32, 64]
-0.09184778 0.026767403 0.031812742 -0.00563626 -0.052774534 0.007676527 0.10743609 -0.0056072623
0.028269604 0.08002001 -0.0072112978 0.018256605 -0.00806053 -0.11676392 0.0027553588 0.09842697
-0.013292104 -0.006362438 -0.060370564 -0.12271854 -0.016479656 0.031016871 -0.028958514 -0.10984741
0.103728 0.11967248 0.04645957 -0.11880857 0.0056445748 -0.087916955 -0.10581657 -0.03620477
0.05161445 -0.08693202 0.1151658 -0.032129645 0.037461877 -0.055356666 0.02496314 0.03333482
0.07559952 0.018040314 0.11894618 0.061885104 -0.07546109 -0.057612225 -0.07658608 -0.024067909
-0.078984216 -0.09979476 0.073360085 0.10290326 0.09387086 0.11874169 0.038447097 0.034844443
0.046532482 0.1050459 0.11928016 0.090498134 0.023570433 0.12491687 -0.038894415 0.0955037
0.031766444 0.112516925 -0.10271385 -0.044574037 -0.08050062 -0.07177451 0.11078487 0.034751266
0.012166098 -0.047532544 -0.1045941 0.09784117 -0.051588416 0.03867306 -0.04250306 0.10107985
-0.113824874 -0.022645563 -0.058524415 -0.092652634 0.08891924 0.092600405 0.08601037 0.08893059
-0.110070795 0.10375804 0.032753393 -0.0857735 -0.08344936 -0.09526314 -0.050321266 -0.047670618
-0.03046836 0.08410628 -0.054084197 0.07360205 -0.050429747 -0.030956998 0.034523726 -0.022117645
0.04959549 -0.054451406 0.04482338 -0.03193775 0.097856715 0.0417998 0.034912184 0.098586574
-0.096349776 0.081725225 0.11193833 -0.056863442 0.11155668 0.031780228 -0.012527153 -0.078926325
0.088199675 0.036251113 0.074003085 -0.093579486 -0.0033410937 -0.03949842 0.040647104 0.09431492
-0.094632 0.07997936 0.10358547 -0.069514096 -0.038715273 0.01033704 0.064635426 0.08106564
0.062523186 -0.07812412 -0.048959523 0.026727721 -0.04761678 0.085430995 0.037791282 0.024346605
0.008374572 -0.11739662 0.11789097 -0.09036131 -0.0031241626 -0.08967596 0.039805263 0.06769298
-0.020847201 -0.105185166 0.024688095 0.117565334 -0.101654574 0.070199534 0.07154396 0.011054367
0.09954217 -0.03803049 -0.07139005 -0.064420626 -0.06759542 0.091345385 -0.0054000765 0.07453878
0.06995712 -0.09561165 0.07935919 -0.115303144 0.09461306 0.09430684 -0.115796804 0.1056754
-0.10002591 -0.068781674 0.07048337 0.03786008 -0.044344172 -0.034023747 -0.0651056 -0.04710658
-0.07806373 0.04398556 0.046963006 -0.08694267 -0.10993199 0.063245505 -0.016547665 -0.05933322
0.092655286 0.088643596 -0.113275275 0.08560583 0.040750593 0.031754375 -0.046570644 0.047261134
0.071114674 -0.12105355 0.048362926 0.0975963 -0.0425542 -0.07221201 0.061273947 0.008740276
-0.11175889 0.11731309 -0.0841289 0.027138218 -0.01037848 -0.02213931 -0.10808572 -0.01601176
-0.072656095 -0.09154336 -0.024134934 0.07990518 -0.08968139 0.026988536 0.036555693 -0.030995399
-0.115144074 -0.003091067 0.026643202 -0.08666426 -0.055146113 0.008139953 -0.003801927 -0.017849177
0.08212721 -0.011654258 -0.044820026 0.12256378 -0.09362815 0.07377876 0.10935554 0.015011579
0.047389522 0.046919435 -0.08586696 0.07290414 -0.06088315 -0.08380906 0.11225495 -0.09847526
-0.006160438 0.07316466 -0.10006693 0.11813827 0.121193394 -0.02341725 0.07776412 -0.10370132
00000000: b01a bcbd 5047 db3c 144e 023d 60b0 b8bb
00000010: 1c2a 58bd 608b fb3b 7407 dc3d 20bd b7bb
00000020: a895 e73c 88e1 a33d c04c ecbb e08e 953c
00000030: 5010 04bc ec21 efbd 4093 343b 1494 c93d
00000040: 20c7 59bc 007c d0bb 2047 77bd dc53 fbbd
00000050: 5800 87bc 1817 fe3c 683a edbc aef7 e0bd
00000060: 586f d43d d816 f53d 644c 3e3d e851 f3bd
00000070: 20f6 b83b ce0d b4bd 5cb6 d8bd 744b 14bd
00000080: ac69 533d 6a09 b2bd 0cdc eb3d 609a 03bd
00000090: a071 193d acbd 62bd 807f cc3c 188a 083d
000000a0: ecd3 9a3d 48c9 933c 0e9a f33d 3c7b 7d3d
000000b0: 588b 9abd ccfa 6bbd 2ad9 9cbd 102a c5bc
000000c0: 7ac2 a1bd 3261 ccbd d03d 963d f2be d23d
000000d0: 5e3f c03d d82e f33d b47a 1d3d 0cb9 0e3d
000000e0: d898 3e3d 4e22 d73d 2849 f43d 1657 b93d
000000f0: c816 c13c 6ad4 ff3d c04f 1fbd 7297 c33d
00000100: 881d 023d 466f e63d a45b d2bd 4493 36bd
00000110: 82dd a4bd 84fe 92bd 2ee3 e23d 5857 0e3d
00000120: 5054 473c 7cb1 42bd 6e35 d6bd f460 c83d
00000130: 604e 53bd a467 1e3d b017 2ebd f402 cf3d
00000140: 041d e9bd 3083 b9bc 4cb7 6fbd aac0 bdbd
00000150: 4a1b b63d 48a5 bd3d 3426 b03d 3e21 b63d
00000160: cc6c e1bd 187f d43d 6c28 063d 04aa afbd
00000170: 80e7 aabd 5219 c3bd ac1d 4ebd 4442 43bd
00000180: c898 f9bc ea3f ac3d 6487 5dbd acbc 963d
00000190: 6c8f 4ebd 8899 fdbc c068 0d3d 1030 b5bc
000001a0: a424 4b3d 7008 5fbd b898 373d 28d1 02bd
000001b0: 1a69 c83d 4436 2b3d 1400 0f3d c2e7 c93d
000001c0: 0853 c5bd 8e5f a73d ec3f e53d a4e9 68bd
000001d0: d477 e43d fc2b 023d b03e 4dbc 20a4 a1bd
000001e0: 08a2 b43d 0c7c 143d ee8e 973d 9aa6 bfbd
000001f0: 40f6 5abb 18c9 21bd 947d 263d 2e28 c13d
00000200: 6cce c1bd 38cc a33d 9e24 d43d 685d 8ebd
00000210: e893 1ebd b05c 293c 945f 843d be05 a63d
00000220: 280c 803d 8aff 9fbd c889 48bd 18f4 da3c
00000230: d009 43bd 72f6 ae3d 08cb 1a3d 8872 c73c
00000240: 8035 093c a46d f0bd d270 f13d 5a0f b9bd
00000250: c0be 4cbb 08a8 b7bd d80a 233d 9ea2 8a3d
00000260: c0c7 aabc 526b d7bd b03e ca3c 18c6 f03d
00000270: 4630 d0bd c6c4 8f3d a485 923d 601d 353c
00000280: c4dc cb3d dcc5 1bbd f234 92bd f6ee 83bd
00000290: 786f 8abd 4a13 bb3d 20f3 b0bb caa7 983d
000002a0: ae45 8f3d 0ad0 c3bd 1287 a23d 0e24 ecbd
000002b0: 7ec4 c13d f223 c13d e026 edbd 586c d83d
000002c0: 62da ccbd 68dd 8cbd 9659 903d 2c13 1b3d
000002d0: 3ca2 35bd 7c5c 0bbd 1656 85bd d4f2 40bd
000002e0: e0df 9fbd 342a 343d 485c 403d 000f b2bd
000002f0: 0624 e1bd dc86 813d f88e 87bc 6407 73bd
00000300: 0ec2 bd3d c68a b53d defc e7bd 1c52 af3d
00000310: 18ea 263d e010 023d dcc0 3ebd e494 413d
00000320: 92a4 913d ecea f7bd 3418 463d 92e0 c73d
00000330: 504d 2ebd e4e3 93bd 64fa 7a3d 6033 0f3c
00000340: d8e1 e4bd d841 f03d c64b acbd f850 de3c
00000350: 800a 2abc 805d b5bc 0c5c ddbd 182b 83bc
00000360: b8cc 94bd 167b bbbd a0b6 c5bc 54a5 a33d
00000370: e0aa b7bd 1017 dd3c 6cbb 153d 10ea fdbc
00000380: a8d0 ebbd 8093 4abb d842 da3c 087d b1bd
00000390: e4e0 61bd 705d 053c c029 79bb 7038 92bc
000003a0: 5032 a83d 80f1 3ebc 3495 37bd b802 fb3d
000003b0: 1ec0 bfbd 5219 973d ccf5 df3d 20f3 753c
000003c0: 841b 423d 982e 403d 04db afbd c44e 953d
000003d0: 9c60 79bd 16a4 abbd ece5 e53d 66ad c9bd
000003e0: 80dd c9bb 5ad7 953d e4ef ccbd 7af2 f13d
000003f0: 3e34 f83d 88d5 bfbc cc42 9f3d 5c61 d4bd

hyper_w2.2.bias f4 [32]
0.10274398 -0.01974237 0.036159247 0.0047210455 -0.12102738 -0.088235006 -0.119010076 -0.06966086
0.06813225 -0.12400572 -0.0016142726 -0.09412055 -0.0006517321 -0.08424027 -0.08687809 -0.0058829933
0.029655114 0.09731476 0.10915205 -0.08126129 0.044660166 0.077999964 0.09963146 0.12490176
0.07677463 -0.013794929 0.043320313 -0.112162575 -0.042772457 -0.109501794 0.0933861 0.036656573
00000000: 706b d23d c0ba a1bc b81b 143d 00b3 9a3b
00000010: 34dd f7bd 8eb4 b4bd 8ebb f3bd 5aaa 8ebd
00000020: ec88 8b3d b6f6 fdbd 0096 d3ba 46c2 c0bd
00000030: 00d9 2aba 2a86 acbd 24ed b1bd 20c6 c0bb
00000040: 48ef f23c f64c c73d 1c8b df3d 526c a6bd
00000050: 94ed 363d 72be 9f3d 940b cc3d 7ecc ff3d
00000060: 043c 9d3d 2004 62bc a470 313d 7eb5 e5bd
00000070: 2c32 2fbd 7a42 e0bd 3641 bf3d 3425 163d

hyper_b1.weight f4 [32, 1156]
0.014941888 -0.0082029775 0.005056938 0.018892856 0.0050672125 0.005951939 -0.0042030066 0.0028052088
-0.005548291 0.008058535 -0.026492877 0.02559925 0.021287909 -0.011519544 -0.014243662 -0.024199823
-0.016262325 -0.012377063 -0.004670223 0.026484994 -0.015038189 0.00909668 -0.02048451 0.012574164
0.01568319 -0.022966549 -0.0028622188 0.018354142 -0.010159748 0.017953208 0.016933514 -0.012631858
0.005314214 -0.025807906 -0.011757378 -0.004352415 0.01153758 -0.00785201 -0.00046427175 -0.007629562
-0.025487164 -0.011207771 -0.016577996 -0.028669167 -0.017384168 -0.0066627264 -0.004354926 0.0068262573
0.0265379 0.013081903 -0.021235812 -0.021961415 -0.007535303 -0.026140027 -0.024913963 -0.016531285
-0.018059313 -0.0020197183 0.0023873914 -0.02317451 0.00050888024 -0.012238208 0.006081851 -0.006223973
-0.010976346 -0.01741504 0.0013740417 0.00130051 -0.014057034 -0.028630951 0.0065390486 -0.01695969
-0.026979348 -0.024181738 -0.026651863 0.006257998 -0.017809942 0.02573842 -0.001193691 -0.023345724
0.005334271 0.015288776 0.00069499016 -0.01586933 7.5504184e-05 0.006178664 -0.009541385 0.028853035
0.021223927 0.0031245332 0.008998958 0.019093355 -0.028212547 0.0058255848 0.014197828 -0.014277661
-0.0043055173 0.0152300615 -0.01381656 0.008808302 0.021493083 -0.01994756 0.0087585915 -0.008767001
0.027412618 -0.0107082445 -0.018845845 -0.028693167 -0.022356475 0.004887333 -0.004438415 -0.0047704745
0.024167133 -0.0067386627 -0.005486142 -0.028117755 -0.013168976 -0.016230011 0.023904862 0.02233581
-0.013800404 -0.01575267 0.008611994 -0.018209118 -0.0012171939 0.016311022 -0.010077249 0.026826033
0.02344527 -0.0075201597 0.020163113 -0.025128365 -0.012029605 0.023642002 0.00878408 0.008340636
-0.020030972 -0.021869376 0.019965438 -0.02100921 0.005202165 -0.006027233 -0.01237032 -0.0033045728
-0.0019541774 -0.0017257724 0.006246479 0.026687006 0.004081534 0.0095941145 -0.01320558 -0.018769026
-0.028778179 -0.025241066 -0.0113444645 -0.026067317 -0.012874477 0.026993228 0.016325297 -0.015278774
0.0153825935 -0.0062202048 0.006293541 0.014661031 0.0028453935 0.027643824 0.00911271 0.017336575
0.008733446 0.0067928564 -0.021329276 0.025126772 -0.012971111 -0.0042040516 -0.02773029 0.006224515
-0.028512359 0.00728683 -0.022196364 -0.02208126 0.025627526 0.017206507 0.007818611 0.02270907
0.0061844345 -0.0021956284 0.020790936 0.023620492 0.0061436314 0.008976275 -0.014997858 0.02314082
0.00035950728 -0.024801128 0.027205667 0.017519617 -0.013525112 -0.0073261615 -0.014769393 0.015936458
0.017201336 0.008951446 -0.0027964115 -0.00997285 -0.0049330145 -0.017048705 -0.022901956 0.02393475
-0.02774336 0.016376393 -0.024614131 -0.0032408386 -0.013514772 -0.026998091 0.027708268 -0.014421852
0.022308817 -0.0032871254 -0.02716631 0.020053757 0.009101303 -0.0024940223 -0.017026182 0.0016688462
0.007239582 -0.027348634 -0.0042664967 0.020740187 -0.0055852085 0.017174503 -0.021244932 0.0069018435
-0.006462006 -0.0015765671 0.02498387 -0.0027119834 0.02128605 -0.014073046 0.005836362 -0.029236006
-0.009063566 0.026945947 -0.022010908 -0.008329375 0.012116561 -0.029167505 0.028829852 0.029185118
-0.017506607 -0.01481288 0.01716763 -0.0243497 -0.0038833544 -0.012384642 -0.0034899954 0.019684413
00000000: d2ce 743c c865 06bc acb4 a53b 31c5 9a3c
00000010: dc0a a63b 7c08 c33b 60b9 89bb 98d7 373b
00000020: 70ce b5bb f207 043c 9707 d9bc 85b5 d13c
00000030: fb63 ae3c 78bc 3cbc 405e 69bc b53e c6bc
00000040: 9138 85bc 2ac9 4abc ac08 99bb 0ff7 d83c
00000050: bc62 76bc 3e0a 153c 22cf a7bc de03 4e3c
00000060: 097a 803c 5824 bcbc 1094 3bbb 6d5b 963c
00000070: 1275 26bc 9b12 933c 27b8 8a3c daf5 4ebc
00000080: dc22 ae3b 1a6b d3bc 04a2 40bc b49e 8ebb
00000090: 1e08 3d3c b8a5 00bc 8069 f3b9 6801 fabb
000000a0: 75ca d0bc cca0 37bc 94ce 87bc 9adb eabc
000000b0: 3e69 8ebc 0053 dabb c4b3 8ebb ccae df3b
000000c0: 0366 d93c 7a55 563c baf6 adbc 6de8 b3bc
000000d0: b4ea f6bb 9c23 d6bc 5e18 ccbc 9e6c 87bc
000000e0: 20f1 93bc 405d 04bb c875 1c3b 78d8 bdbc
000000f0: 6066 053a c482 48bc 444a c73b 78f2 cbbb
00000100: 22d6 33bc fca9 8ebc 3019 b43a e075 aa3a
00000110: 794f 66bc 758b eabc 8445 d63b 0cef 8abc
00000120: cb03 ddbc c818 c6bc 0255 dabc e40f cd3b
00000130: 28e6 91bc 61d9 d23c a075 9cba 883f bfbc
00000140: 1ccb ae3b c67d 7a3c 0030 363a 6600 82bc
00000150: 0058 9e38 6476 ca3b 7853 1cbc 335d ec3c
00000160: cddd ad3c f8c4 4c3b 5e70 133c ab69 9c3c
00000170: 001e e7bc 8ce4 be3b 029e 683c daec 69bc
00000180: 4c15 8dbb 8287 793c da5e 62bc b250 103c
00000190: 4312 b03c 1169 a3bc 3280 0f3c 78a3 0fbc
000001a0: 6d90 e03c a271 2fbc 9a62 9abc ef0d ebbc
000001b0: ed24 b7bc ec25 a03b 2070 91bb a451 9cbb
000001c0: 27fa c53c 00d0 dcbb 18c5 b3bb 3557 e6bc
000001d0: b0c2 57bc cdf4 84bc 21d4 c33c 97f9 b63c
000001e0: 171b 62bc be0b 81bc 5219 0d3c 4a2b 95bc
000001f0: 408a 9fba b19e 853c 0c1b 25bc 45c2 db3c
00000200: 4b10 c03c ac6b f6bb 1d2d a53c 00da cdbc
00000210: d217 45bc dfac c13c 1aeb 0f3c 2aa7 083c
00000220: fe17 a4bc 6827 b3bc 8f8e a33c 821b acbc
00000230: ec76 aa3b 1880 c5bb e2ac 4abc 8891 58bb
00000240: a811 00bb 5033 e2ba 44af cc3b b59e da3c
00000250: 64be 853b a230 1d3c 385c 58bc 80c1 99bc
00000260: 37c0 ebbc 5ac6 cebc 22de 39bc 208b d5bc
00000270: 78ef 52bc e720 dd3c a1bc 853c d353 7abc
00000280: 4607 7c3c dcd2 cbbb 0c3a ce3b d234 703c
00000290: c879 3a3b 4d75 e23c 7a4d 153c 6f05 8e3c
000002a0: ba16 0f3c 9c96 de3b bcba aebc a9d6 cd3c
000002b0: c884 54bc 24c2 89bb a22a e3bc 04f7 cb3b
000002c0: c092 e9bc 5cc6 ee3b 26d5 b5bc c2e3 b4bc
000002d0: d1f0 d13c a9f4 8c3c a219 003c 5f08 ba3c
000002e0: cca6 ca3b 88e4 0fbb c151 aa3c c37f c13c
000002f0: 8450 c93b 3a11 133c 93b9 75bc d191 bd3c
00000300: 407c bc39 bc2b cbbc 6bde de3c 4d85 8f3c
00000310: 6e98 5dbc 4c10 f0bb 53fb 71bc 2d8d 823c
00000320: d1e9 8c3c 16a9 123c 0044 37bb 2a65 23bc
00000330: 20a5 a1bb baa9 8bbc e29c bbbc cf12 c43c
00000340: 0b46 e3bc c927 863c 93a3 c9bc 4064 54bb
00000350: 106d 5dbc 1a2b ddbc 73fc e23c a249 6cbc
00000360: fbc0 b63c d06c 57bb e28b debc c747 a43c
00000370: a21d 153c c072 23bb 7e7a 8bbc 30bd da3a
00000380: 043a ed3b 3e0a e0bc f8cd 8bbb 53e7 a93c
00000390: 2004 b7bb 8bb1 8c3c da09 aebc dc28 e23b
000003a0: 3cbf d3bb d0a4 ceba f9aa cc3c 88bb 31bb
000003b0: 1560 ae3c a292 66bc f43e bf3b 5980 efbc
000003c0: 5a7f 14bc bfbd dc3c 3850 b4bc ee77 08bc
000003d0: 8a84 463c b1f0 eebc 952c ec3c a115 ef3c
000003e0: 046a 8fbc b9b1 72bc 21a3 8c3c 0679 c7bc
000003f0: e07f 7ebb f4e8 4abc 68b8 64bb 3541 a13c

hyper_b1.bias f4 [32]
-0.00018858165 -0.0056145303 0.020782879 -0.013652293 0.021755578 -0.007126387 0.020896746 0.0009874348
-0.026547976 0.020583844 0.015157549 0.005644588 0.014408646 -0.00037899055 0.028223077 -0.021552658
-0.020324785 -0.027551385 -0.024639174 -0.012027161 -0.006967632 0.01564849 0.00080660544 0.029396953
0.02732077 -0.017487787 0.01263083 -0.028532442 -0.020534322 -0.01770949 0.004228929 -0.020193223
00000000: 00be 45b9 18fa b7bb db40 aa3c dead 5fbc
00000010: c138 b23c 7884 e9bb a72f ab3c d06c 813a
00000020: 247b d9bc 739f a83c 5e57 783c 3cf6 b83b
00000030: 3e12 6c3c 40b3 c6b9 1534 e73c 338f b0bc
00000040: 2a80 a6bc 71b3 e1bc 18d8 c9bc 920d 45bc
00000050: bc50 e4bb 4331 803c 6072 533a e1d1 f03c
00000060: cfcf df3c 8c42 8fbc 8af1 4e3c debc e9bc
00000070: 9837 a8bc 7e13 91bc d492 8a3b 426c a5bc

hyper_b2.0.weight f4 [32, 1156]
0.015241647 0.008308841 0.026215455 0.026569104 0.025480462 -0.021596916 -0.0052251928 0.02307987
-0.007626625 0.000568036 -0.0037010387 0.007156307 0.012329536 0.020975055 0.0041311253 0.028473796
-0.0024714079 -0.024434969 0.00871799 0.009816242 0.023699535 -0.027844405 -0.009584352 0.016399449
-0.014364495 0.01714704 -0.0139834955 -0.018038595 -0.027424911 0.014080288 0.0061499085 0.0152777415
0.007591812 0.017752523 -0.0064292196 0.0061269496 -0.02435368 -0.00959071 -0.0028119404 0.005648667
-0.02176728 -0.02869342 0.020872956 -0.014410454 0.02102446 -0.022337345 -0.0036717616 0.013258504
-0.005917115 0.0073028784 -0.009056222 -0.0273748 0.013947288 -0.025564987 0.0056864787 0.0070833545
0.01865313 -0.01207521 0.016363153 0.00017691776 -0.022092 0.023785988 0.019654056 -0.0012602657
0.023166956 -0.00837237 -0.0011129826 0.025115525 0.020056417 -0.023980225 -0.02241155 0.0025475044
-0.001611976 -0.023967434 -0.00517492 -0.004683446 0.021993184 -0.0027926806 -0.0014489964 0.029179053
0.016155882 -0.02914805 -0.022146534 -0.016322203 -0.0046789125 -0.0001198221 0.029356433 0.00018084422
-0.018420503 -0.015816435 -0.005844256 0.0066239852 -0.014244493 0.015638972 0.010860467 -0.028499246
0.00040348805 -0.000105762854 0.008495083 -0.017801896 0.0224522 0.014472013 0.0009799674 -0.02653052
-0.024402197 0.028172752 -0.006154256 -0.019915497 0.0136245545 -0.006942725 0.0046752077 0.01112158
0.004056813 -0.004427748 -0.007283466 -0.01657658 -0.013127089 0.012778068 0.02431742 0.016377104
-0.0072765984 -0.012757901 -0.0046539064 -0.0070939735 -0.01932494 0.006423285 0.023258893 -0.026805604
-0.0020573586 0.01861213 -0.02768865 0.013080491 -0.012542395 -0.009535179 0.012434417 -0.026401365
0.02636603 0.023818182 0.027959267 -0.016021375 -0.0036098193 0.0131339785 -0.012687571 -0.026503658
0.025351757 0.007713044 0.017134199 -0.0153662665 -0.003956875 -0.015175809 -0.011668419 -0.012321837
0.009538652 -0.028990459 0.020375816 0.0018566232 0.011646064 -0.027472373 0.017268794 0.018555464
-0.020628985 0.009631338 -0.006533731 0.008016663 -0.025830273 0.014733007 0.027214942 -0.010430841
0.016899647 -0.0051795803 -0.017081253 -0.019735731 -0.017690666 -0.015989633 0.010595301 0.015432367
-0.020546531 -0.021965543 -0.020601181 0.021110265 0.00294544 -0.029240707 0.010873558 -0.026401397
-0.021903045 0.02188235 -0.021875763 0.00642314 0.012785232 0.022101885 0.021696104 0.00765674
0.0075935405 -0.0071349386 -0.02368306 0.0017158985 5.795248e-05 0.0221824 0.014639275 0.011361649
0.0036235396 -0.010674624 -0.025077336 -0.027166318 0.024506772 0.007803561 0.027091192 0.023653736
0.013461718 -0.010500956 -0.016642172 -0.01575795 -0.00618021 -0.0009147972 0.02725823 0.00030036457
-0.0030280426 -0.017178027 -0.021365862 -0.0076538604 0.028501725 0.0053960513 -0.0046508033 -0.019827776
-0.014092614 0.007416511 -0.022362422 -0.020256786 0.029293967 0.0046266597 -0.017701697 -0.001443807
0.025882935 0.024676105 0.010105683 -0.018080413 0.0067841616 0.01078918 -0.029141307 0.029094467
-0.020567011 -0.019488405 0.025923362 -0.011286525 -0.011088833 -0.014026232 0.01879889 -0.018972695
0.013251977 0.00031600706 -0.021762263 -0.009592807 -0.0050376616 -0.02266683 0.026924679 -0.013366742
00000000: 1ab8 793c ce21 083c cbc1 d63c 73a7 d93c
00000010: 67bc d03c 04ec b0bc 1838 abbb ff11 bd3c
00000020: c4e8 f9bb 40e8 143a 208d 72bb 747f ea3b
00000030: d201 4a3c e1d3 ab3c 645e 873b e141 e93c
00000040: 58f7 21bb d82b c8bc e6d5 0e3c 4ed4 203c
00000050: 8725 c23c f319 e4bc b007 1dbc 2358 863c
00000060: 0f59 6bbc f377 8c3c 081b 65bc adc5 93bc
00000070: 35aa e0bc 02b1 663c 2c85 c93b 7e4f 7a3c
00000080: bcc4 f83b bd6d 913c 34ac d2bb 94c4 c83b
00000090: 5e81 c7bc 5a22 1dbc 8848 38bb 7418 b93b
000000a0: 4b51 b2bc 770e ebbc c3fd aa3c d319 6cbc
000000b0: 7d3b ac3c cffc b6bc f0a1 70bb 323a 593c
000000c0: 5ce4 c1bb fc4c ef3b 8c60 14bc 1e41 e0bc
000000d0: 2a83 643c aa6d d1bc a455 ba3b 7c1b e83b
000000e0: 73ce 983c 1ad7 45bc 050c 863c 0083 3939
000000f0: 48fa b4bc d5da c23c 8b01 a13c 802f a5ba
00000100: a1c8 bd3c 442c 09bc 80e1 91ba 13bf cd3c
00000110: 5b4d a43c 2d72 c4bc 6d98 b7bc 08f4 263b
00000120: f048 d3ba 5a57 c4bc 6092 a9bb 9877 99bb
00000130: 0d2b b43c 6805 37bb 40ec bdba e908 ef3c
00000140: 5759 843c e4c7 eebc a66c b5bc 24b6 85bc
00000150: 9051 99bb 0049 fbb8 e77c f03c 00a1 3d39
00000160: 98e6 96bc 7891 81bc 2c81 bfbb 040e d93b
00000170: bc61 69bc 4d1d 803c 1af0 313c 4077 e9bc
00000180: 408b d339 00cd ddb8 f62e 0b3c 48d5 91bc
00000190: aded b73c 061c 6d3c 4072 803a 8856 d9bc
000001a0: 1ee7 c7bc 8bca e63c a4a9 c9bb d325 a3bc
000001b0: 8639 5f3c cc7f e3bb 7c32 993b 4a37 363c
000001c0: 04ef 843b a416 91bb 24aa eebb 9ccb 87bc
000001d0: 0013 57bc 1a5b 513c 5335 c73c 4729 863c
000001e0: 8870 eebb 8406 51bc cc7f 98bb 9074 e8bb
000001f0: 564f 9ebc 6c7a d23b 6f89 be3c 6d97 dbbc
00000200: c0d4 06bb 7778 983c 4fd3 e2bc 8e4f 563c
00000210: 9e7e 4dbc 7039 1cbc bab9 4b3c ad47 d8bc
00000220: 93fd d73c 591e c33c d50a e53c 423f 83bc
00000230: b892 6cbb e62f 573c 88df 4fbc 331e d9bc
00000240: 7dae cf3c b4bd fc3b 055d 8c3c cbc2 7bbc
00000250: aca8 81bb f5a3 78bc e62c 3fbc 88e1 49bc
00000260: 0248 1c3c 667d edbc 2feb a63c f059 f33a
00000270: 22cf 3e3c be0d e1bc 4977 8d3c a101 983c
00000280: 1efe a8bc c2cc 1d3c e818 d6bb 5258 033c
00000290: 029a d3bc b662 713c dff1 de3c 1ee6 2abc
000002a0: 2171 8a3c 78b9 a9bb fced 8bbc d4ac a1bc
000002b0: 04ec 90bc b1fc 82bc ea97 2d3c 0ad8 7c3c
000002c0: 3351 a8bc 15f1 b3bc cfc3 a8bc 6fef ac3c
000002d0: 4808 413b 358a efbc 0227 323c be47 d8bc
000002e0: 046e b3bc 9d42 b33c cd34 b3bc 3479 d23b
000002f0: 2679 513c 030f b53c 07bc b13c 64e5 fa3b
00000300: 3cd3 f83b 34cc e9bb fa02 c2bc 00e8 e03a
00000310: 0012 7338 ddb7 b53c 92d9 6f3c 3626 3a3c
00000320: e878 6d3b 9ee4 2ebc fc6e cdbc e68b debc
00000330: 6dc2 c83c 04b5 ff3b 59ee dd3c 7bc5 c13c
00000340: 8a8e 5c3c 340c 2cbc 2a55 88bc d116 81bc
00000350: 5c83 cabb 00cf 6fba a74c df3c 407a 9d39
00000360: 2072 46bb efb8 8cbc 7607 afbc 3ccd fabb
00000370: 737c e93c 5cd1 b03b c465 98bb dc6d a2bc
00000380: b5e4 66bc 3406 f33b 6631 b7bc 8ff1 a5bc
00000390: e7f9 ef3c 3c9b 973b 2603 91bc 203e bdba
000003a0: 7308 d43c 8b25 ca3c 4e92 253c 601d 94bc
000003b0: ac4d de3b 1ac5 303c c0b9 eebc 8557 ee3c
000003c0: 267c a8bc 26a6 9fbc 3b5d d43c 1eeb 38bc
000003d0: f0ad 35bc 48ce 65bc 2100 9a3c a06c 9bbc
000003e0: d21e 593c c0ad a539 c646 b2bc 262b 1dbc
000003f0: f812 a5bb caaf b9bc 2591 dc3c 2e00 5bbc

hyper_b2.0.bias f4 [32]
0.005612178 0.02518125 0.002269389 0.017059522 0.01773685 0.008747222 -0.024914749 -0.004447356
0.028681906 0.008813733 0.029224606 -0.013162715 -0.012558706 -0.017962493 -0.008625396 0.0140142385
0.0120516885 0.018777823 -0.0021986682 0.011251437 -0.018688034 0.027765067 -0.010737022 -0.020921689
-0.01625998 -0.007884299 0.0161135 -0.023949834 0.013408897 0.012042349 -0.02678467 -0.02191113
00000000: 5ce6 b73b e948 ce3c 08ba 143b 69c0 8b3c
00000010: df4c 913c 8250 0f3c 041a ccbc 20bb 91bb
00000020: 51f6 ea3c 7a67 103c 7168 ef3c 6ea8 57bc
00000030: 08c3 4dbc 1426 93bc 8851 0dbc fa9b 653c
00000040: 7274 453c f3d3 993c 8817 10bb f257 383c
00000050: a617 99bc 9173 e33c 56ea 2fbc f663 abbc
00000060: a633 85bc 262d 01bc 7500 843c 7132 c4bc
00000070: feb0 5b3c 464d 453c 866b dbbc f87e b3bc

hyper_b2.2.weight f4 [1, 32]
-0.099494144 -0.042624146 -0.14420669 -0.025430083 0.004635021 -0.13448186 0.00258331 -0.06886496
-0.05636403 -0.1337196 0.0100336075 -0.1042763 0.13818075 -0.05610346 -0.08294706 -0.12001595
-0.05618588 -0.010078177 -0.017796397 0.03679359 0.11758809 -0.00041927397 0.14329718 0.014309019
0.15441965 0.0029578656 0.13888682 0.06595136 0.041978 -0.13235404 0.046794713 0.035679862
00000000: 96c3 cbbd a896 2ebd ebaa 13be c052 d0bc
00000010: 60e1 973b 9db5 09be c04c 293b 1209 8dbd
00000020: f8dd 66bd caed 08be 0064 243c d08e d5bd
00000030: 417f 0d3e becc 65bd 26e0 a9bd ecca f5bd
00000040: 2a23 66bd f01e 25bc c0c9 91bc e0b4 163d
00000050: 06d2 f03d 00d2 dbb9 7fbc 123e 6070 6a3c
00000060: 2f20 1e3e c0d8 413b 5938 0e3e 8211 873d
00000070: 20f1 2b3d d187 07be d0ab 3f3d 0c25 123d
