models/v1/target_agent_net.pth (torch, 34456 bytes, 4 tensors)

fc1.weight f4 [64, 121]
0	0x3cde9800	0.027172089
1	0xbda50353	-0.08057275
2	0xbde6f593	-0.11277308
3	0x3e34a0ee	0.17639515
4	0xbd32d3d0	-0.04365903
5	0xbcf323d2	-0.029680166
6	0xbdd9449d	-0.1060879
7	0xbdfde6ff	-0.12397575
8	0xbd9b7f8b	-0.07592686
9	0xbcbd4f56	-0.02310912
10	0xb9bf85d1	-0.0003653006
11	0x3ddfb387	0.10922914
12	0xbd9fd1d6	-0.07803695
13	0xbcffa8f8	-0.0312085
14	0x3bc4de23	0.006007926
15	0xbcaba53d	-0.020952815
16	0x3dca9049	0.098908015
17	0xbd60c460	-0.054874778
18	0xbc9d9f9a	-0.019241143
19	0x3cc1812d	0.023621166
20	0xbdd6389e	-0.104600176
21	0x3d510eb2	0.051039405
22	0x3d2bed0b	0.04197411
23	0xbcbbf882	-0.022945646
24	0x3d5df0d2	0.054184742
25	0x3df95275	0.121739306
26	0x3c617605	0.013761048
27	0xbd63995a	-0.05556617
28	0xbe04d133	-0.12970428
29	0xbe67f6b4	-0.22652704
30	0x3ce31211	0.027718576
31	0xbd223900	-0.03960514
32	0xbdab2f1f	-0.08358597
33	0xbe2f94f2	-0.17146662
34	0xbcd865a5	-0.026415655
35	0xbc8d2116	-0.01722769
36	0xbcb71f2b	-0.02235373
37	0xbe4197e8	-0.18905604
38	0x3dd40df7	0.10354226
39	0xbd3577fa	-0.04430387
40	0xbdb7aee1	-0.089689024
41	0xbcfeb65d	-0.031092817
42	0xbc7a756c	-0.015286785
43	0x3dbda247	0.092594676
44	0x3d930a94	0.07179752
45	0x3de85e63	0.11346128
46	0xbd703717	-0.058646288
47	0xbd4dfc58	-0.050289482
48	0xbc1a5dbc	-0.009421762
49	0xbd4defaf	-0.05027741
50	0xbe9d63c9	-0.30740193
51	0xbe265106	-0.16241845
52	0x3d630bff	0.055431362
53	0xb8a4f4bc	-7.865715e-05
54	0xbcd322e9	-0.025773482
55	0xbcc898f0	-0.024486989
56	0xbc41adf6	-0.011821261
57	0x3e1dcf38	0.15411079
58	0x3caa874f	0.020816473
59	0x3d6967ad	0.05698364
60	0xbca0b459	-0.019617246
61	0x3c1db545	0.009625738
62	0xbe395a21	-0.18100788
63	0xbdbcb44b	-0.09214076
64	0x3d975318	0.07388896
65	0x3d103891	0.035210196
66	0x3e2c0963	0.16800456
67	0x3d90d7a2	0.07072379
68	0x3e232931	0.15933682
69	0x3d3d709c	0.04624997
70	0xbd219b33	-0.03945465
71	0x3db7e802	0.08979799
72	0x3c81fed7	0.015868587
73	0xbd2a6714	-0.04160221
74	0x3919a807	0.00014653812
75	0x3da2031a	0.07910748
76	0xbca568fb	-0.02019166
77	0x3c86d6bc	0.016459815
78	0xbc112e29	-0.008861103
79	0x3e108be5	0.14115866
80	0xbcb8809d	-0.022522265
81	0x3dbc98de	0.092088446
82	0x3dbfcb12	0.093649045
83	0x3dfff305	0.12497524
84	0xbd393254	-0.045214012
85	0x3e2ddcaf	0.16978715
86	0x3d9cceb0	0.0765661
87	0xbd72ee07	-0.05930903
88	0xbca81a29	-0.020520287
89	0xbd8f5ed1	-0.07000507
90	0x3d48bea6	0.04900994
91	0xbd92991e	-0.07158111
92	0x3d9ff02a	0.078094795
93	0xbc1201cf	-0.008911564
94	0x3d8b70e2	0.0680864
95	0x3d51e9ab	0.051248234
96	0x3bc4dcb3	0.0060077547
97	0xbe12c634	-0.14333421
98	0x3e268251	0.1626065
99	0xbd6508e9	-0.0559167
100	0x3d6bf916	0.057610594
101	0xbc1bab0f	-0.009501233
102	0x3d9fa4a2	0.07795073
103	0x3ddef17e	0.10885905
104	0xbe82970f	-0.25505874
105	0xbdb41488	-0.087929785
106	0x3c10fa5a	0.008848751
107	0xbd62d154	-0.055375412
108	0x3cbbc542	0.022921208
109	0x3dc0d0f9	0.09414858
110	0x3ce919da	0.02845471
111	0xbe185b29	-0.14878525
112	0x3dbd6a50	0.09248793
113	0xbd5ff32d	-0.05467527
114	0x3d587a37	0.05285093
115	0x3dd91510	0.105997205
116	0xbde25725	-0.11051778
117	0x3c0a3a2e	0.008436723
118	0xbb3ef526	-0.002913782
119	0x3dafd9bc	0.085864514
120	0x3e03ab93	0.12858419
121	0x3e02ed50	0.1278584
122	0x3cefac00	0.02925682
123	0x3c35d136	0.011097243
124	0xbe4c0598	-0.19924009
125	0xbcc72e40	-0.024314046
126	0xbe56a79e	-0.20962378
127	0x3de9579d	0.11393664
128	0x3e12e661	0.14345695
129	0xbc9328f0	-0.017963856
130	0x3dbf9d04	0.0935612
131	0xbde1b236	-0.11020319
132	0xbde6606d	-0.112488605
133	0xbd4ef4a9	-0.050526295
134	0x3dabecff	0.08394813
135	0x3dd51329	0.10404045
136	0x3d453a15	0.048151094
137	0x3b37277d	0.002794712
138	0x3c4eef33	0.012630272
139	0xbde9cdfc	-0.114162415
140	0x3e1bb377	0.15205179
141	0x3cceb229	0.025231438
142	0x3df17285	0.11789421
143	0xbdbb2188	-0.09137255
144	0x3df3ea79	0.119099565
145	0xbdb95cd6	-0.0905091
146	0x3e513656	0.20430884
147	0xbc0f1a07	-0.008734233
148	0x3dc7182b	0.097214065
149	0xbd223629	-0.039602432
150	0x3d9967b8	0.07490486
151	0x3e0dd9f2	0.13852671
152	0xbd99bc7d	-0.075066544
153	0xbd7fd315	-0.062457163
154	0x3db67979	0.08909888
155	0x3e00f688	0.12594044
156	0x3b2471de	0.0025092284
157	0x3d6f8614	0.058477476
158	0xbd892e84	-0.06698325
159	0x3d7ae8b1	0.061257068
160	0x3d847433	0.06467476
161	0xbd911228	-0.07083541
162	0x3c8ab25d	0.016930753
163	0xbb3484b2	-0.0027544913
164	0x3de5861f	0.11207222
165	0x3db65b67	0.08904152
166	0x3e1a6fea	0.15081754
167	0xbe14032f	-0.1445434
168	0xbd9bf601	-0.07615281
169	0x3d6dc6f5	0.05805107
170	0xbddc167c	-0.10746476
171	0x3bba6caa	0.0056892233
172	0xbc9ae47e	-0.018907782
173	0x3cf0968d	0.029368663
174	0x3d016bd1	0.031596962
175	0x3d38046f	0.044926103
176	0xbc794765	-0.015214776
177	0xbcd1c8f9	-0.025608527
178	0x3e003d1e	0.12523314
179	0xbdede199	-0.11615295
180	0x3e120d79	0.14262952
181	0xbdec3f69	-0.11535532
182	0x3d1ccf19	0.03828344
183	0xbc951d1b	-0.018202355
184	0x3d3fddb5	0.046842296
185	0x3e35d0f3	0.17755489
186	0xbc2b99bf	-0.010473668
187	0xbca2e066	-0.019882392
188	0x3d1b1daf	0.037870105
189	0xbd8ae0c5	-0.06781153
190	0x3e16bf64	0.14721447
191	0xbce95258	-0.028481647
192	0xbc40e65d	-0.011773673
193	0x3d751c3c	0.05984138
194	0xbbedb0bd	-0.007253735
195	0x3d6814e8	0.056660563
196	0xbd80d85a	-0.06291266
197	0x3defdbb4	0.11711827
198	0x3e753e4d	0.23949547
199	0xbd43c8ea	-0.04779903
200	0xbd59148c	-0.05299811
201	0x3d0f4bd5	0.03498443
202	0xbb0ff90d	-0.0021968514
203	0xbcf8304e	-0.030296471
204	0xbdbcba2e	-0.092151985
205	0xbab0870f	-0.0013467985
206	0x3c39cc60	0.011340231
207	0x3e0bbcf8	0.13646305
208	0xbcc5425e	-0.024079498
209	0x3d179f53	0.037017178
210	0x3d2c742c	0.042102978
211	0x3c2c00d7	0.010498247
212	0x3cbc5a89	0.02299239
213	0xbdbc72f2	-0.092016116
214	0x3e13b91d	0.14426084
215	0x3d8c157f	0.068400376
216	0xbd985a8c	-0.074391454
217	0xbd1efb0e	-0.038813643
218	0xbe036bf0	-0.12834144
219	0xbe18e02a	-0.14929262
220	0x3de771bd	0.11300991
221	0x3d8bbb6a	0.06822856
222	0x3e04d5b7	0.1297215
223	0xbd2b8b58	-0.041880935
224	0xbe0baf22	-0.13641027
225	0xbd940612	-0.0722772
226	0x3d441ad3	0.047877144
227	0x3d42b34f	0.047534283
228	0x3e03c6e7	0.12868844
229	0xbdc472e4	-0.09592226
230	0x3cbdf9a7	0.023190333
231	0x3def71cb	0.11691626
232	0xbc1b2955	-0.009470304
233	0xbd3e087d	-0.046394814
234	0x3cda1ab1	0.026624056
235	0xbcc298a9	-0.023754435
236	0xbcaa353b	-0.020777335
237	0xbe39a923	-0.18130927
238	0x3df2b4c2	0.11850883
239	0xbdf9be52	-0.12194504
240	0xbb659b8a	-0.0035035335
241	0xbda496a1	-0.08036543
242	0xbe3d9b7b	-0.18516342
243	0x3d64828e	0.05578857
244	0x3dac8720	0.084242105
245	0xbb05bae7	-0.0020405592
246	0x3d928084	0.07153419
247	0x3e1fe07d	0.15612979
248	0x3da51389	0.08060367
249	0xbcf7a88a	-0.030231733
250	0xbdbad982	-0.091235176
251	0x3c9e17d7	0.019298477
252	0x3d854ff4	0.065093905
253	0xbcd8be76	-0.026458006
254	0xbc9ef4d8	-0.01940386
255	0xbd8f1ff2	-0.06988515

fc1.bias f4 [64]
0	0x00000000	0.0
1	0x00000000	0.0
2	0x00000000	0.0
3	0x00000000	0.0
4	0x00000000	0.0
5	0x00000000	0.0
6	0x00000000	0.0
7	0x00000000	0.0
8	0x00000000	0.0
9	0x00000000	0.0
10	0x00000000	0.0
11	0x00000000	0.0
12	0x00000000	0.0
13	0x00000000	0.0
14	0x00000000	0.0
15	0x00000000	0.0
16	0x00000000	0.0
17	0x00000000	0.0
18	0x00000000	0.0
19	0x00000000	0.0
20	0x00000000	0.0
21	0x00000000	0.0
22	0x00000000	0.0
23	0x00000000	0.0
24	0x00000000	0.0
25	0x00000000	0.0
26	0x00000000	0.0
27	0x00000000	0.0
28	0x00000000	0.0
29	0x00000000	0.0
30	0x00000000	0.0
31	0x00000000	0.0
32	0x00000000	0.0
33	0x00000000	0.0
34	0x00000000	0.0
35	0x00000000	0.0
36	0x00000000	0.0
37	0x00000000	0.0
38	0x00000000	0.0
39	0x00000000	0.0
40	0x00000000	0.0
41	0x00000000	0.0
42	0x00000000	0.0
43	0x00000000	0.0
44	0x00000000	0.0
45	0x00000000	0.0
46	0x00000000	0.0
47	0x00000000	0.0
48	0x00000000	0.0
49	0x00000000	0.0
50	0x00000000	0.0
51	0x00000000	0.0
52	0x00000000	0.0
53	0x00000000	0.0
54	0x00000000	0.0
55	0x00000000	0.0
56	0x00000000	0.0
57	0x00000000	0.0
58	0x00000000	0.0
59	0x00000000	0.0
60	0x00000000	0.0
61	0x00000000	0.0
62	0x00000000	0.0
63	0x00000000	0.0

fc2.weight f4 [4, 64]
0	0x3de89730	0.11356962
1	0xbc77e513	-0.015130299
2	0xbdbd3b7c	-0.09239861
3	0xbd908d1a	-0.07058163
4	0x3df5f5c6	0.12009768
5	0xbca7b477	-0.020471795
6	0xbdcca84c	-0.099930376
7	0xbdf2d3f1	-0.11856831
8	0xbb2f061e	-0.0026706527
9	0x3d10e994	0.035379007
10	0xbcd70675	-0.026248196
11	0xbc48325b	-0.012219037
12	0x3e1f138d	0.15534802
13	0x3e3407c3	0.17581086
14	0xbaf6b490	-0.0018822122
15	0x3de6f298	0.1127674
16	0xbe131741	-0.1436434
17	0xbea214de	-0.31656545
18	0xbd4dfafa	-0.050288178
19	0x3d5a7bf5	0.05334087
20	0x3dd2ed7a	0.10299201
21	0x3c112290	0.008858338
22	0x3d93d85a	0.07219
23	0xbd905112	-0.07046713
24	0x3df25761	0.118330725
25	0xbd9abe38	-0.075558126
26	0x3dd7a945	0.105303325
27	0x3e1e243a	0.15443507
28	0x3e2f51e1	0.17121078
29	0xbd17fd2e	-0.037106685
30	0xbd812108	-0.06305128
31	0xbcd20601	-0.025637629
32	0x3d9b7aad	0.07591758
33	0x3d73954b	0.05946855
34	0xbdfbdf51	-0.122984536
35	0xbd03f953	-0.032220196
36	0x3d9fd714	0.07804695
37	0xbeb7ed15	-0.35923067
38	0xbd2fc65b	-0.042913776
39	0x3e093c58	0.13401926
40	0xbd081c16	-0.03322991
41	0xbd42b994	-0.047540262
42	0xbe63557c	-0.22200578
43	0x3d82bf43	0.063841365
44	0x3df14288	0.11780268
45	0x3d16de9e	0.036833398
46	0xbe58b3a4	-0.21162277
47	0xbce696ab	-0.028148016
48	0x3c1cf046	0.00957877
49	0xbe1cab89	-0.1529981
50	0x3e25838e	0.16163465
51	0xbdf411d5	-0.11917464
52	0x3e6abafe	0.22922894
53	0xbe0e1847	-0.13876449
54	0x3dc45aae	0.09587608
55	0x3dc1e424	0.094673425
56	0xbcb48bac	-0.022039257
57	0xb9b8c0a7	-0.00035238752
58	0xbea2a664	-0.3176757
59	0xbe19a476	-0.15004143
60	0xbd96a9fd	-0.073566414
61	0x3e2b20d3	0.1671174
62	0x3d94e6c2	0.07270576
63	0xbdec048f	-0.11524307
64	0x3cd67b13	0.026181733
65	0x3c4f966f	0.0126701435
66	0x3e5f19db	0.21787207
67	0x3e457023	0.19281058
68	0xbdfda5f6	-0.1238517
69	0xbe416276	-0.18885216
70	0x3d59ee77	0.053205933
71	0x3c87e69e	0.016589459
72	0xbdc08428	-0.09400207
73	0x3d287cad	0.041134525
74	0x3e1ad7e7	0.15121423
75	0xbb197199	-0.0023413657
76	0x3e0226ae	0.12710068
77	0x3e940739	0.2891176
78	0xbd7bfbbc	-0.06151937
79	0x3e337b79	0.1752757
80	0x3d3c92c5	0.046038408
81	0xbd04f0e9	-0.032456312
82	0xbdebb29a	-0.11508675
83	0x3e2edc60	0.17076254
84	0xbce37574	-0.027765967
85	0xbdc904b1	-0.09815348
86	0x3e6feb5d	0.23429628
87	0xbd1d73f2	-0.038440652
88	0x3e2a37be	0.16622826
89	0x3d4afee4	0.04955949
90	0x3e5f4471	0.21803452
91	0xbe123c45	-0.14280804
92	0xbd183ac2	-0.03716541
93	0x3e053670	0.13009048
94	0xbdb96113	-0.090517186
95	0x3e296720	0.16543245
96	0xbbdb80e1	-0.006698713
97	0xbda49f8b	-0.08038243
98	0xbdfe4438	-0.124153554
99	0x3e0ab476	0.13545403
100	0x3e30d3be	0.17268273
101	0xbc11d6d9	-0.008901321
102	0x3c5b9dde	0.013404338
103	0x3e1eacbf	0.15495585
104	0x3e8e0419	0.277375
105	0xbd25d5de	-0.040487163
106	0x3d5ed8d0	0.054405987
107	0xbd95788d	-0.07298384
108	0xbdabcf8c	-0.08389196
109	0x3ce626d8	0.028094694
110	0xbd1c3f68	-0.038146406
111	0xbdcaa52d	-0.09894786
112	0xbb31b472	-0.002711561
113	0xbd070dac	-0.032972023
114	0xbd6beafb	-0.05759714
115	0x3dd68bf2	0.10475911
116	0x3e3198e8	0.17343485
117	0x3d9519c5	0.07280306
118	0xbc552ac4	-0.013010684
119	0xbe7a17bb	-0.24423115
120	0xbdc9aabe	-0.098470196
121	0xbd41a8c4	-0.047280088
122	0x3e8f24c3	0.27957734
123	0x3cbe25d8	0.023211405
124	0x3db1db29	0.086843796
125	0x3d9d6a06	0.07686238
126	0xbdea46b9	-0.114392705
127	0xbcafb44c	-0.021448277
128	0xbe2f7555	-0.17134602
129	0xbea3e9ac	-0.32014215
130	0x3dd7f614	0.105449826
131	0x3d552b29	0.052043114
132	0x3e94987a	0.2902258
133	0x3d8c73c1	0.06858016
134	0xbcb38ddb	-0.021918228
135	0x3dcd8d76	0.10036747
136	0x3e88cf0f	0.26720473
137	0xbd9d5241	-0.07681704
138	0xbe0d6430	-0.1380775
139	0x3c904eec	0.017615758
140	0x3e592cde	0.21208522
141	0xbd0f6d4e	-0.03501635
142	0xbdb44ebb	-0.08804079
143	0xbd48d207	-0.049028423
144	0xbe010d9c	-0.12602848
145	0x3e61cca1	0.22050716
146	0xbe16d1ba	-0.14728442
147	0xbce89021	-0.028389039
148	0xbcaab346	-0.020837437
149	0xbe27dd2a	-0.16392961
150	0xbca7ec68	-0.02049847
151	0x3e05b162	0.13055947
152	0x3e1a6354	0.15076953
153	0x3e63c92d	0.22244711
154	0xbe1c1d02	-0.1524544
155	0x3e3929ba	0.18082324
156	0xbd034176	-0.03204485
157	0x3dd4b7e4	0.10386637
158	0xbe74d1bc	-0.23908132
159	0xbda76746	-0.08173995
160	0x3caa2299	0.02076845
161	0xbcec2e61	-0.028830709
162	0xbdba7138	-0.09103626
163	0x3d0b380a	0.03398899
164	0xbd86354c	-0.06553134
165	0xba0030e2	-0.00048900966
166	0x3d8a69df	0.067584746
167	0x3cd3b9e1	0.02584547
168	0x3e1048f6	0.14090332
169	0x3b9aa26a	0.0047190683
170	0x3c0ba565	0.00852332
171	0xbdcdd0de	-0.10049604
172	0x387444d5	5.8238238e-05
173	0xbe71a5b1	-0.23598363
174	0xbdddfda0	-0.10839391
175	0xbd21259d	-0.03934251
176	0xbc131b3d	-0.008978662
177	0xbe4b328e	-0.19843504
178	0xbd31ee8a	-0.04344038
179	0xbb8c0922	-0.0042735497
180	0x3ceff007	0.029289259
181	0x3d347417	0.044056024
182	0xbe2f90d6	-0.17145094
183	0xbd269174	-0.04066606
184	0xbd6b4ce0	-0.05744636
185	0xbdd9a55d	-0.10627244
186	0xbe18d90a	-0.14926544
187	0x3e0cc50e	0.13747045
188	0xbd2da875	-0.04239698
189	0xbd283ea4	-0.041075364
190	0xbc85bf38	-0.016326532
191	0x3de24249	0.11047799
192	0xbe1fb906	-0.15597925
193	0xbd9f5a2e	-0.07780872
194	0xbe9994b9	-0.2999628
195	0xbd80b3f9	-0.06284327
196	0xbd1f202b	-0.038849037
197	0xbe7f7448	-0.24946702
198	0xbe23f588	-0.16011631
199	0xbdc6b3ff	-0.097023
200	0xbc08e28d	-0.008354795
201	0xbe06cec9	-0.1316482
202	0x3e3c74c1	0.18403913
203	0x3de234d9	0.11045236
204	0x3eaf79d2	0.3427263
205	0xbca10058	-0.019653484
206	0xbb65e5cc	-0.0035079597
207	0xbd925eaa	-0.07146962
208	0x3d0723b1	0.032993022
209	0x3df947c5	0.12171892
210	0xbd341230	-0.043962657
211	0xbe389282	-0.18024638
212	0x3ded56e0	0.11588836
213	0x3c83bc9c	0.016081147
214	0x3c825f3e	0.015914556
215	0x3d49537c	0.049151883
216	0xbe4e42a9	-0.20142616
217	0xbd7589d9	-0.059945915
218	0x3d92b9fa	0.071643785
219	0x3e8ce151	0.27515653
220	0x3d4a09cf	0.04932576
221	0xbc1f7181	-0.009731651
222	0x3e28ca36	0.16483387
223	0xbdfeb6c7	-0.12437206
224	0xbe026b57	-0.1273626
225	0x3ac8b17f	0.0015311687
226	0x3e1138e1	0.14181854
227	0x3de327e9	0.11091597
228	0x3c2201d3	0.00988813
229	0x3c79e5b8	0.015252523
230	0xbd849918	-0.06474513
231	0x3d979f64	0.07403448
232	0x3c8c6919	0.017139958
233	0xbd4115be	-0.047139876
234	0x3e2b912f	0.16754602
235	0x3d7abb62	0.06121386
236	0xbd0ff9c0	-0.03515029
237	0x3d75cc55	0.06000932
238	0xbe6576ef	-0.22408651
239	0x3dc4555f	0.09586596
240	0xbc9d7fcb	-0.019225975
241	0xbdbdca25	-0.09267072
242	0xbdd7727b	-0.10519882
243	0xbd00de52	-0.03146202
244	0xbdb9e50d	-0.09076891
245	0xbd336e8b	-0.043806594
246	0x3d0c0c21	0.034191255
247	0xbe37a96a	-0.1793572
248	0xbd43b38b	-0.047778647
249	0x3e649e16	0.2232593
250	0x3e18876c	0.1489541
251	0xbcc6a4ce	-0.024248507
252	0xbca41c10	-0.020032912
253	0x3e1a7cd4	0.1508668
254	0xbe3af264	-0.18256527
255	0xbcb23409	-0.021753328

fc2.bias f4 [4]
0	0x00000000	0.0
1	0x00000000	0.0
2	0x00000000	0.0
3	0x00000000	0.0
