models/v1/target_qmix_net.pth (torch, 917691 bytes, 13 tensors)

hyper_w1.0.weight f4 [64, 1156]
0	0xbcdb3b24	-0.026761599
1	0x3cd7c8d1	0.026340874
2	0xbc937e44	-0.018004544
3	0xbb4e96b8	-0.003152294
4	0x3c95d2cb	0.01828899
5	0x3cd47093	0.025932586
6	0xba1e0700	-0.0006028265
7	0xbcca7251	-0.024712713
8	0xbb46b230	-0.003031861
9	0x3cc46131	0.023972126
10	0x3c30c5c2	0.010789337
11	0xbca10b58	-0.01965873
12	0xbc4a6df8	-0.01235532
13	0xbc804bfc	-0.015661232
14	0xbc588c66	-0.013217067
15	0xb9bbdf00	-0.00035833567
16	0x3cc99061	0.024604978
17	0xbc0d6d6a	-0.008632043
18	0xbc3a7144	-0.011379544
19	0xbc156e62	-0.009120556
20	0xbcc6a0af	-0.024246542
21	0xbc88456c	-0.016634665
22	0xbc129590	-0.008946791
23	0x3c635742	0.013875784
24	0x3cbc4f65	0.022987077
25	0xbbfb2934	-0.007664824
26	0x3c4ead82	0.01261461
27	0xbc65f748	-0.014036007
28	0xbc338140	-0.010956109
29	0x3cf0b115	0.029381314
30	0x3c057cce	0.008147432
31	0x3ce3766f	0.027766434
32	0x3cf093b9	0.029367315
33	0x3c2266aa	0.009912172
34	0xbcd2a533	-0.025713539
35	0x3ccc2b35	0.024922946
36	0x3ca6e6c5	0.020373711
37	0x3c12ab52	0.008951979
38	0xbc57c2c8	-0.013168998
39	0x3aa5b240	0.0012641624
40	0x3c162ba6	0.00916568
41	0x3c7d601a	0.015464807
42	0x3c58c512	0.013230579
43	0xbca7f4cc	-0.02050247
44	0xbba83618	-0.0051334016
45	0x3c2a9682	0.01041186
46	0x3cb14a21	0.021641793
47	0xbc7dc89e	-0.015489725
48	0xbc21a904	-0.009866957
49	0x3b842dec	0.0040337946
50	0x3c60fd62	0.013732286
51	0x3ce85731	0.028361889
52	0xba1543c0	-0.00056939945
53	0x3b7aba18	0.0038257893
54	0x3cba998f	0.0227783
55	0x3cc889f9	0.024479853
56	0xbb262168	-0.0025349502
57	0xbca000ca	-0.019531626
58	0x3bc1d884	0.0059157033
59	0xbbd301a4	-0.0064394046
60	0xbc2653d0	-0.010151818
61	0x3b146ba8	0.0022647176
62	0xbc6c210f	-0.014412179
63	0xbc9c16b8	-0.019053802
64	0xbc1c706e	-0.00954829
65	0x3c458282	0.012055041
66	0x3c243d96	0.010024449
67	0xbcc0a08a	-0.023514051
68	0xbc466456	-0.012108883
69	0xbcaf5096	-0.021400731
70	0xbcb6e68d	-0.022326732
71	0x3c1d3852	0.009595947
72	0x3cd85c1b	0.026411107
73	0xbbfcfb10	-0.0077203587
74	0x3ced2cb1	0.028951975
75	0x3b6d18b8	0.0036178064
76	0xbcc8ff17	-0.024535699
77	0x3c020de2	0.00793788
78	0x3c2a0b32	0.010378646
79	0x3c2bb34a	0.010479758
80	0x3cabd6c3	0.02097643
81	0xbbf51500	-0.00747931
82	0xbcb722ef	-0.022355525
83	0xbb126f30	-0.0022344105
84	0x3c1f1a2e	0.009710832
85	0x3cb084c7	0.021547688
86	0xbcde0940	-0.02710402
87	0xbcbb9a6d	-0.022900784
88	0xbcb38e62	-0.02191848
89	0xbcb61dd5	-0.022231022
90	0x3cc2e155	0.023789087
91	0x3c74370a	0.0149057
92	0xb95f1f00	-0.00021278486
93	0xbc9ffb84	-0.019529112
94	0xbc1c864c	-0.009553503
95	0x3cc572a5	0.024102518
96	0x3ce740e7	0.02822919
97	0xbc0c2b5e	-0.008555261
98	0x3c07fc12	0.008299844
99	0x3c988ba9	0.018621283
100	0x3c804043	0.015655642
101	0x3ba7e5ac	0.0051238146
102	0xbceeb9a2	-0.029141251
103	0xbc675857	-0.014120183
104	0x3b1af758	0.0023645964
105	0x3ca43147	0.020043029
106	0x3c3f73fa	0.011685366
107	0x3c28ec4e	0.010310246
108	0xb9ec2d40	-0.00045047142
109	0x3cb9d40d	0.022684122
110	0x3c95e7af	0.018298952
111	0x3cb78993	0.022404468
112	0xbc387ee6	-0.011260724
113	0xbadfcb70	-0.0017074179
114	0xbb88a770	-0.0041703507
115	0xbbad69f0	-0.0052921697
116	0x3c00e41e	0.007866887
117	0x3ca49b4b	0.02009358
118	0xbc334970	-0.010942802
119	0xbbf76300	-0.0075496435
120	0xbc04bfcc	-0.008102369
121	0x3b4f37c8	0.0031618942
122	0x3cb0d187	0.021584285
123	0xba3aaae0	-0.0007120799
124	0xbc0449aa	-0.0080742035
125	0xbcd9a598	-0.026568219
126	0x3c79495e	0.015215246
127	0x3c91d181	0.017800095
128	0xbcc5cbab	-0.024144968
129	0x3bba275c	0.0056809615
130	0x3ccc0b33	0.024907684
131	0x3c91cfa1	0.0177992
132	0xbcd94b1e	-0.026525076
133	0xbba4a670	-0.0050247237
134	0x3c620536	0.013795188
135	0xbc982b1e	-0.018575247
136	0xbca330a8	-0.019920662
137	0xbcc5026a	-0.024049003
138	0xbbde4d54	-0.0067841206
139	0xbc877502	-0.016535286
140	0x3c0dae82	0.008647563
141	0xbce7d437	-0.028299434
142	0x3b925354	0.0044655
143	0x3caa9fb9	0.020828115
144	0xbc43c488	-0.011948712
145	0xbc6ebe9a	-0.01457181
146	0xbb95ad88	-0.0045678057
147	0xbcbbc115	-0.022919217
148	0x3b6ac1c8	0.003582107
149	0x3cd6739d	0.026178176
150	0x3c9650bb	0.018349042
151	0xbcc72a48	-0.024312153
152	0xbc4b03da	-0.012391055
153	0xbac38a80	-0.0014918596
154	0xbbcb7bdc	-0.0062098335
155	0xbc9f2eb1	-0.019431444
156	0xbc7e3b75	-0.015517105
157	0x3cb44feb	0.022010764
158	0xbc3bc18c	-0.011459719
159	0xbabacda0	-0.0014251955
160	0x3c0f7226	0.008755242
161	0x3aaf1cf0	0.0013360064
162	0xbce76224	-0.02824504
163	0x3b00e958	0.0019670334
164	0x3ce34361	0.02774209
165	0xbc311d38	-0.010810189
166	0x3b85dddc	0.0040852856
167	0x3ac0ffe0	0.0014724694
168	0xbc743de9	-0.014907339
169	0x3be936b4	0.007117117
170	0xbb447020	-0.0029974058
171	0xbc603c48	-0.013686247
172	0x3bf7c1d4	0.007560948
173	0xba5f19a0	-0.00085105933
174	0xbc81ddfc	-0.01585292
175	0x3cb17721	0.02166325
176	0x3ab9ca80	0.001417473
177	0x3bb3514c	0.005472338
178	0x3ccd427b	0.025056114
179	0x3cee0f2d	0.02905997
180	0x3c79ffca	0.015258739
181	0x3bfc8d14	0.0077072475
182	0xbcb2c671	-0.02182314
183	0xbc6ab7e2	-0.014326068
184	0x3c7bc2c6	0.015366262
185	0x3c02f14a	0.007992098
186	0x3c3f67ee	0.011682494
187	0x3c8361ef	0.01603791
188	0x3c86f6e9	0.016475158
189	0xbc982bf1	-0.01857564
190	0xb9895600	-0.0002619475
191	0xbc950a26	-0.018193316
192	0xbcd90931	-0.02649364
193	0x3bac07e4	0.005249964
194	0x3cdb86df	0.02679771
195	0xbcd57608	-0.026057258
196	0x3c202492	0.009774344
197	0x3c5d26fa	0.013498062
198	0xb9ffdc40	-0.0004880149
199	0x3bad14ac	0.0052820053
200	0xbc5f7304	-0.013638262
201	0x3ab40970	0.0013735723
202	0xbce1bfa2	-0.027557198
203	0x3ce23441	0.027612807
204	0xbcde5511	-0.027140172
205	0x3cdf61d7	0.027268333
206	0x3c602f0e	0.013683094
207	0x3cb3f661	0.021968069
208	0xba203e20	-0.0006112773
209	0x3c1ebe2a	0.009688893
210	0x3c68103a	0.014164025
211	0x3a5073c0	0.00079518184
212	0x3c8e112b	0.01734217
213	0xbcef33e4	-0.029199548
214	0x3c86e011	0.016464265
215	0x3c47754e	0.012173964
216	0xbce9a402	-0.028520588
217	0x3ce84ab9	0.028355943
218	0xbc3086f0	-0.010774359
219	0xbb962be8	-0.0045828708
220	0xbc2f74ae	-0.010708971
221	0x3c11e9fa	0.008905882
222	0x3b2f61d8	0.00267612
223	0xbcd44518	-0.025911853
224	0xbca7ce7c	-0.020484202
225	0xbcd95bad	-0.026532972
226	0xbce9cf5a	-0.028541256
227	0xbcb1beb3	-0.021697378
228	0x3c070c06	0.008242613
229	0x3ad73860	0.0016419999
230	0x3cc66663	0.024218744
231	0x3c34aa6a	0.011026958
232	0xbc00ab08	-0.007853277
233	0x3cbe27ad	0.023212278
234	0xbb270478	-0.0025484841
235	0xbcb2509c	-0.021766953
236	0xbbf7a568	-0.0075575598
237	0xbc3e6c3c	-0.011622485
238	0x3cb83bf7	0.022489531
239	0xbc57f084	-0.013179902
240	0x3cec9c73	0.028883195
241	0xbbe440e8	-0.0069657452
242	0x3bb8bee4	0.0056379903
243	0xbc8a87cd	-0.016910458
244	0x3c9bc001	0.019012453
245	0x3b72ed98	0.0037067886
246	0x3cc86a1b	0.024464658
247	0xbc6a5cf1	-0.0143043855
248	0x3c65b686	0.014020568
249	0x3ceb31e9	0.028710322
250	0xbba01870	-0.0048857257
251	0xbce55717	-0.02799563
252	0xbba3c180	-0.004997432
253	0x3be970b4	0.007124031
254	0x3ca3323d	0.019921416
255	0x3af5f130	0.0018763896

hyper_w1.0.bias f4 [64]
0	0x3cb376b9	0.021907197
1	0x3bbad844	0.0057020504
2	0x3cb678b1	0.022274347
3	0xbc3a1508	-0.011357553
4	0xbccf18f7	-0.025280459
5	0x3cb17d8f	0.021666316
6	0xbcb78fa8	-0.022407368
7	0x3cc2196f	0.023693768
8	0x3c587d72	0.013213502
9	0x3c97222b	0.01844891
10	0xbcb23e80	-0.021758318
11	0xbbe79820	-0.0070676953
12	0x3aa790d0	0.0012784246
13	0xbc15f8b8	-0.009153537
14	0xbc5ec99e	-0.013597874
15	0xbc859cb8	-0.01631008
16	0xbce3332f	-0.027734367
17	0xbcc0e2f8	-0.023545727
18	0x3cabbd87	0.020964397
19	0x3c745e26	0.014915025
20	0x3c1dae66	0.009624099
21	0x3c859bdf	0.016309677
22	0xba929440	-0.0011183098
23	0x3ca4bde5	0.02011008
24	0xbc8295cc	-0.01594057
25	0x3c93dc8d	0.018049503
26	0x3c771b0a	0.01508213
27	0x3bf90d84	0.007600488
28	0x39f33680	0.00046389177
29	0xbba88ef0	-0.0051439926
30	0x3ce1761f	0.027522145
31	0x3cd0dec1	0.025496842
32	0x3bf578ec	0.0074912217
33	0x3cd82e75	0.02638934
34	0xbcd8c3dc	-0.02646058
35	0xbb512a30	-0.0031916015
36	0x3c8f06b7	0.017459257
37	0xbc84307e	-0.016136404
38	0x3c1d7c26	0.009612119
39	0x3cdc808d	0.026916767
40	0x3cccf71d	0.025020177
41	0xbcb4071a	-0.021976043
42	0xbc40690c	-0.011743795
43	0xbbd26500	-0.0064207315
44	0xbc27ddea	-0.0102457795
45	0x3b6d2c08	0.0036189575
46	0xbce641dc	-0.028107576
47	0x3cee6013	0.029098546
48	0xbc2bbda6	-0.010482227
49	0x3a0ccaa0	0.00053707696
50	0xbc3450cc	-0.011005592
51	0xbcd443ea	-0.02591129
52	0x3c18515e	0.009296743
53	0xbccfd3f1	-0.025369616
54	0x3c58d196	0.013233563
55	0xbccd541a	-0.025064517
56	0xbc6948fc	-0.014238592
57	0x3c40d8b6	0.011770418
58	0xbc32d8de	-0.010915963
59	0xbca8731e	-0.020562705
60	0x3c1fffee	0.009765608
61	0xbce89fe8	-0.028396562
62	0xbc4cf516	-0.012509605
63	0x3c34b88e	0.011030329

hyper_w1.2.weight f4 [64, 64]
0	0x3ae13980	0.0017183274
1	0x3dadb48e	0.08481704
2	0xbde64742	-0.1124406
3	0xbd7b02f4	-0.061282113
4	0x3d518a78	0.051157445
5	0xbda3742e	-0.07981144
6	0x3d184740	0.037177324
7	0x3d08c3b0	0.033389747
8	0xbbb34c20	-0.0054717213
9	0xbd18ae00	-0.037275314
10	0x3db82dc6	0.089931056
11	0xbdc70580	-0.09717846
12	0x3da16c62	0.078820005
13	0xbd1eb79c	-0.038749322
14	0x3dc102ca	0.0942436
15	0xbdd1bba0	-0.10240865
16	0xbd6a82f8	-0.057253808
17	0xbd8cd11a	-0.068758205
18	0x3ddbef40	0.10738993
19	0x3da77c16	0.081779644
20	0x3df4890a	0.119402006
21	0x3ddf0fdc	0.10891697
22	0x3cd12ee0	0.025535047
23	0x3d3d8394	0.04626806
24	0xba206500	-0.0006118566
25	0xbddfaf0a	-0.10922058
26	0x3b7e1b40	0.0038773566
27	0x3d88b920	0.06675935
28	0xbd88b866	-0.06675796
29	0x3d61cb44	0.05512549
30	0xbdbdbf28	-0.09264976
31	0x3d9e8aec	0.07741341
32	0xbce50e28	-0.027960852
33	0xbde5426c	-0.111943096
34	0x3db59bfc	0.08867642
35	0xbc033950	-0.00800927
36	0xbdf12914	-0.11775413
37	0xbd4497a8	-0.047996193
38	0x3c6f8ab0	0.014620468
39	0x3db28088	0.08715922
40	0xbda5064a	-0.0805784
41	0x3de54daa	0.11196454
42	0x3d70be9c	0.05877553
43	0xbd6e9f1c	-0.058257207
44	0x3cb58660	0.022158802
45	0xbdfe6312	-0.1242124
46	0x3d52fa48	0.051508218
47	0xbdc7af1a	-0.09750195
48	0xbddb4a82	-0.107075706
49	0xbd3bd128	-0.045853764
50	0x3c8123b0	0.015764087
51	0x3de292d0	0.110631585
52	0xbd448b54	-0.047984436
53	0x3d7139cc	0.05889301
54	0xbcea78a8	-0.028621987
55	0xbd5c4c1c	-0.05378352
56	0x3c940460	0.018068492
57	0xbcf89e20	-0.030348837
58	0xbc90fd38	-0.01769887
59	0xbcef5cc0	-0.029219031
60	0xbd21c304	-0.039492622
61	0x3c83aa78	0.016072497
62	0xbd2437c4	-0.040092245
63	0xbd05b404	-0.03264238
64	0xbb7144c0	-0.003681466
65	0xbcd31060	-0.025764644
66	0xbdb5ffd2	-0.088866845
67	0xbda806d2	-0.08204426
68	0x3cd32bf8	0.025777802
69	0xbdfcce14	-0.12343994
70	0x3d089de4	0.0333537
71	0x3d4c5b6c	0.049891874
72	0x3da8f0be	0.08249043
73	0xbdc5d884	-0.09660438
74	0x3b0e6a80	0.002173096
75	0x3c9a7f08	0.018859401
76	0x3dc54264	0.09631804
77	0xbd813f36	-0.06310885
78	0xbdeef2b6	-0.11667387
79	0x3d8cac00	0.06868744
80	0x3d90e49c	0.07074854
81	0xb9f0e200	-0.0004594475
82	0xbdf4bd0c	-0.1195012
83	0xbc939e18	-0.01801972
84	0x3c293b90	0.010329142
85	0x3cc331b8	0.023827419
86	0xbda5c74e	-0.08094655
87	0xbd8a53da	-0.06754275
88	0x3d4dd61c	0.05025302
89	0x3bb5dba0	0.005549863
90	0x3d95881a	0.0730135
91	0xbddc0c2c	-0.10744509
92	0xbd6ab288	-0.057299167
93	0xbca85468	-0.02054806
94	0xbddd769c	-0.108136386
95	0xbdb89d86	-0.0901442
96	0x3cd19cc0	0.02558744
97	0x3db73898	0.08946341
98	0xbbdc2260	-0.006717965
99	0xbc6ff430	-0.014645621
100	0x3ce674b0	0.028131813
101	0xbd7868e8	-0.06064692
102	0xbddb30cc	-0.10702667
103	0x3daa2d9c	0.083094805
104	0xbd660bc4	-0.056163564
105	0xbdd8026e	-0.105473384
106	0x3d572f9c	0.05253564
107	0x3da305a4	0.0796006
108	0x3da0b1b4	0.07846394
109	0xbdb32770	-0.087477565
110	0x3d150780	0.036384106
111	0xbdc6e5ea	-0.097118214
112	0x3aaf8300	0.0013390481
113	0x3def121c	0.11673376
114	0x3de20238	0.110355794
115	0x3cffe7a8	0.031238392
116	0xbdcc7a78	-0.099842966
117	0xbdc4a314	-0.09601417
118	0xbd84f7c0	-0.06492567
119	0xbc8f2058	-0.017471477
120	0x3d5cee6c	0.053938314
121	0x3de0246a	0.109444454
122	0x3d7b3778	0.061332196
123	0x3c09a8d0	0.008402064
124	0x3dbdfcde	0.09276746
125	0x3da0c44c	0.07849941
126	0xbd2010c0	-0.039078474
127	0xbd67deb0	-0.056608856
128	0xbd156154	-0.036469772
129	0x3db66120	0.08905244
130	0xbd3b1940	-0.045678377
131	0xbb31f440	-0.002715364
132	0x3c457d20	0.012053758
133	0xbdaab1fe	-0.083347306
134	0x3d89e312	0.06732763
135	0xbc0f8a40	-0.008760989
136	0xbd3dc014	-0.046325758
137	0x3cda61f8	0.026658043
138	0x3ba5b760	0.0050572604
139	0x3d3790a8	0.04481569
140	0xbcfa07b0	-0.030521244
141	0xbde29c9a	-0.11065026
142	0x3de7b23c	0.113132924
143	0x3d83498a	0.06410511
144	0x3def3fb6	0.11682074
145	0xbc9f04f8	-0.019411549
146	0xbd0b4644	-0.034002557
147	0x3d7f58c0	0.062340498
148	0xbdf4945c	-0.1194236
149	0xbcaed8b8	-0.021343574
150	0xbd0d1150	-0.03444034
151	0x3d28e544	0.04123427
152	0xbdca9056	-0.09890811
153	0xbd0ad234	-0.03389187
154	0x3d999272	0.07498635
155	0x3d0f63e0	0.035007358
156	0x3d7f5578	0.06233737
157	0x3d2f006c	0.04272501
158	0x3da95a76	0.08269207
159	0x3d302af4	0.043009713
160	0x3bebf8e0	0.007201299
161	0x3d4213f4	0.04738231
162	0x3d6c7538	0.057728976
163	0xbdc6a98c	-0.09700307
164	0x3c94c800	0.018161774
165	0x3de37baa	0.111075714
166	0x3d974e20	0.07387948
167	0xbc76f1b0	-0.015072271
168	0x3d0f50cc	0.034989163
169	0xbdd01124	-0.10159519
170	0xbdfbc4ec	-0.12293419
171	0x3dce84e6	0.10083942
172	0xbdff256a	-0.12458308
173	0xbdd36ef8	-0.103239
174	0x3d6cd740	0.057822466
175	0xbdf4ed9a	-0.119593814
176	0xbd31cae4	-0.043406382
177	0x3d37bc90	0.04485756
178	0x3d021220	0.031755567
179	0x3d9846fa	0.07435413
180	0xbdba5f24	-0.09100178
181	0xbca785b8	-0.020449504
182	0x3dadaf96	0.08480756
183	0x3df1ba42	0.11803104
184	0x3d1548ac	0.03644626
185	0x3dad0c38	0.08449596
186	0x3d7a31f0	0.06108278
187	0xbd925cf2	-0.07146634
188	0xbdbbed88	-0.09176165
189	0x3d32f81c	0.043693647
190	0x3d086c04	0.033306137
191	0xbdd7347a	-0.10508056
192	0x3d537b84	0.051631466
193	0xbdd6a51c	-0.10480711
194	0x3d4a7018	0.049423307
195	0xbc0aec70	-0.008479223
196	0xbd73c8a4	-0.059517518
197	0x3dbc5802	0.09196474
198	0xbd31e414	-0.043430403
199	0x3bad6340	0.0052913725
200	0xbd6c42c8	-0.057680875
201	0xbc8a44a0	-0.016878426
202	0xbd01b20c	-0.03166394
203	0xbc847628	-0.016169623
204	0x3df70c36	0.12062876
205	0xbaafa880	-0.0013401657
206	0xbd4a7a40	-0.049432993
207	0xbd4533ec	-0.04814522
208	0xbd932cda	-0.07186289
209	0xbc496d70	-0.012294158
210	0xbdc98c08	-0.09841162
211	0xbced4dd8	-0.028967783
212	0x3d068580	0.03284216
213	0xbdb20718	-0.08692759
214	0xbdeb3852	-0.114853516
215	0xbcb41ac0	-0.021985412
216	0xbd3143b0	-0.043277442
217	0x3d8d5c88	0.069024146
218	0xbbb04040	-0.005378753
219	0xbd22ea50	-0.03977424
220	0xbd07d494	-0.033161715
221	0xbda558e0	-0.08073592
222	0x3d6e87d8	0.05823502
223	0x3d85e91e	0.06538604
224	0xbddcf892	-0.107895985
225	0x3def356a	0.1168011
226	0xbac1c780	-0.0014784187
227	0x3d941014	0.07229629
228	0x3da04648	0.07825905
229	0x3d3cde34	0.046110347
230	0xbb8e4d80	-0.004342735
231	0xbdbdbf4a	-0.09265001
232	0xbd86b6ba	-0.06577821
233	0xba4bbe00	-0.00077721477
234	0x3d071d84	0.032987133
235	0xbdd2ba10	-0.10289395
236	0x3d75f65c	0.0600494
237	0x3d96b3ce	0.07358514
238	0xbdb66a88	-0.08907038
239	0xbd95d776	-0.073164865
240	0x3d48c5c8	0.049016744
241	0x3d479e60	0.048735023
242	0x3d01c858	0.031685203
243	0xbd16f440	-0.03685403
244	0x3dc80b0a	0.097677305
245	0xbd350b98	-0.04420051
246	0x3c986460	0.01860255
247	0x3c00fa00	0.007872105
248	0xbda59b8a	-0.08086307
249	0x3c091000	0.008365631
250	0xbddbc6a6	-0.107312486
251	0x3dfbbf28	0.122923195
252	0xbdef6a96	-0.116902515
253	0xbd68e298	-0.05685672
254	0x3dd751f8	0.10513681
255	0xbdef30e4	-0.11679247

hyper_w1.2.bias f4 [64]
0	0xbd329600	-0.043600082
1	0x3dc58418	0.096443355
2	0xbdb0d6b2	-0.086347
3	0x3a79f500	0.0009535104
4	0x3df3a122	0.11895968
5	0xbcb3fd80	-0.021971464
6	0x3d773404	0.06035234
7	0x3d4ef9bc	0.050531134
8	0xbd79e55c	-0.06100975
9	0x3d1ed454	0.03877671
10	0x3dc5bcba	0.09655137
11	0xbd640c64	-0.05567588
12	0x3cfbf420	0.030756056
13	0x3d261df0	0.040555894
14	0x3d4ff110	0.050767004
15	0x3d783098	0.060593218
16	0x3d7111a0	0.0588547
17	0xbdb37c50	-0.08763945
18	0x3dee60c6	0.11639552
19	0xbd481830	-0.048851192
20	0xb9d15000	-0.0003992319
21	0x3de39884	0.111130744
22	0x3caac070	0.020843714
23	0xbd1c7fcc	-0.038207814
24	0xbdb7a80c	-0.08967599
25	0x3d4a3994	0.049371317
26	0xbde08578	-0.10962957
27	0x3db86af2	0.09004773
28	0xbdd9f700	-0.10642815
29	0xbcbee388	-0.023301855
30	0x3d36baec	0.044611856
31	0x3df3a1a0	0.11896062
32	0x3ce29cb8	0.02766262
33	0xbd92f14c	-0.0717493
34	0xbd333b20	-0.043757558
35	0xbd93298c	-0.07185659
36	0xbc1bd240	-0.009510577
37	0xbd634b98	-0.055492014
38	0x3c8fd330	0.017556757
39	0xbd666ac0	-0.05625415
40	0xbde3eaf2	-0.11128797
41	0x3d74a80c	0.059730574
42	0x3d870fce	0.065948114
43	0xbdf8b376	-0.121436045
44	0xbd062bd0	-0.032756627
45	0xbd9eca4c	-0.07753429
46	0x3cd57258	0.0260555
47	0xbdd38f08	-0.103300154
48	0x3ae1d080	0.0017228276
49	0xbdc386ea	-0.09547217
50	0x3dbcceb2	0.092191115
51	0x3d5315c4	0.05153443
52	0x3dca4844	0.09877065
53	0xbc87f648	-0.016596928
54	0x3dd35a0e	0.10319911
55	0xbc7ae5d0	-0.015313581
56	0x3dcd8e18	0.10036868
57	0xbdc8b47c	-0.0980005
58	0xbd61baf4	-0.055109933
59	0x3b694940	0.003559664
60	0xbd8c09ee	-0.068378314
61	0xbdf03218	-0.117283046
62	0x3cc4a0c8	0.024002448
63	0xbcfa5670	-0.030558795

hyper_w2.0.weight f4 [64, 1156]
0	0xbc93386d	-0.017971242
1	0x3c9d691f	0.019215165
2	0x3c2e2562	0.01062903
3	0xbbeafc80	-0.0071712136
4	0xbc473fd6	-0.012161216
5	0xbc215f48	-0.009849377
6	0x3c852e87	0.016257538
7	0xbad7d7c0	-0.0016467497
8	0xbcd283e8	-0.025697663
9	0x3903a100	0.0001255311
10	0xbcdb6ba8	-0.026784733
11	0xbbd7c424	-0.006584661
12	0x3c9634ab	0.01833566
13	0xbcca33b8	-0.024682865
14	0xbcc99a2f	-0.024609653
15	0xbcf01829	-0.029308395
16	0xbbf2a5f0	-0.007405035
17	0xbc9c102d	-0.019050682
18	0xbc8eae0c	-0.017416976
19	0xbcaef5d4	-0.021357454
20	0xbcadbdb4	-0.021208622
21	0x3ce31d0d	0.027723813
22	0xbc69abfc	-0.014262196
23	0xbca5a760	-0.020221412
24	0x3c25cb52	0.010119276
25	0x3b6df168	0.003630722
26	0x3c5c666e	0.0134521555
27	0xbc35e644	-0.011102263
28	0xbc60b29e	-0.013714461
29	0x3bfedd7c	0.007777868
30	0x3c1a9e76	0.009437194
31	0x3b1d3bf8	0.0023992043
32	0xbcc9511c	-0.024574809
33	0xbca02e7e	-0.01955342
34	0x3b44e578	0.0030044
35	0xbc0180da	-0.007904256
36	0x3bc0d064	0.005884217
37	0xbbc34534	-0.0059591774
38	0xbb8a8680	-0.0042274594
39	0x3c3ce44e	0.011529041
40	0x3c559cd2	0.013037877
41	0x3b8b844c	0.0042577144
42	0xbc94731a	-0.018121291
43	0xbbc3fe88	-0.00598127
44	0xb9f4d600	-0.0004669875
45	0x3a989780	0.001164183
46	0x3b97b12c	0.004629275
47	0x3c3731fa	0.011181349
48	0xbb9861a4	-0.0046503115
49	0x3974e200	0.00023353845
50	0x3cee67df	0.029102264
51	0x3bba27bc	0.0056810062
52	0xbce98340	-0.028504968
53	0x3c5e2832	0.013559388
54	0x3c95ca9b	0.018285086
55	0xbc1e6fbc	-0.009670194
56	0xbc94398d	-0.018093849
57	0x3c1a38aa	0.009412924
58	0x3cd27cb7	0.025694234
59	0xbc86273c	-0.01637613
60	0xbc9bcbc6	-0.019018065
61	0xbc1b358c	-0.009473216
62	0xbc864a1a	-0.016392756
63	0x3bd15914	0.006388793
64	0x3bdb391c	0.0066901576
65	0x3c3a5456	0.011372646
66	0x3ceb9fc7	0.028762711
67	0x3ab04330	0.0013447758
68	0xbbe8e9ac	-0.007107934
69	0xbcbad1a2	-0.022805039
70	0x3cb9bdf3	0.022673583
71	0x3c3d0a5e	0.011538116
72	0xbaae7080	-0.0013308674
73	0x3c07e582	0.008294465
74	0x3cc8fc99	0.02453451
75	0x3caed2d5	0.021340767
76	0xbcbbc6f3	-0.022922015
77	0xbc58e9cc	-0.013239335
78	0xbcbd9cf3	-0.023146128
79	0x3cd9c0e1	0.02658123
80	0xbb43b0c0	-0.002985999
81	0xbc9fee93	-0.01952294
82	0x3ca641f5	0.020295123
83	0xbc6d0d93	-0.014468568
84	0x3c12f712	0.008970039
85	0x3cd3c7e1	0.025852146
86	0xba7aeea0	-0.0009572301
87	0xbbe4b408	-0.006979469
88	0x3cb5e3d7	0.022203369
89	0xbc7c1de6	-0.015387988
90	0x3c69b6ba	0.014264757
91	0xbc607b00	-0.0137012005
92	0xbc2e9a90	-0.010656968
93	0x3ca8b065	0.020591924
94	0x3b9d7f44	0.004806431
95	0xbcbfa1cf	-0.023392586
96	0x3bf113cc	0.0073570963
97	0x3c1501e2	0.009094687
98	0xbca30ccc	-0.019903563
99	0x3cc70301	0.024293425
100	0xbc930248	-0.017945424
101	0xbcb92900	-0.022602558
102	0x3b9a5184	0.0047094245
103	0x3ccca07b	0.024978867
104	0x3c9a28cd	0.018818283
105	0xbb6724d0	-0.0035269745
106	0x3c888d2f	0.016668884
107	0xbca11368	-0.019662574
108	0x3b7aa718	0.0038246568
109	0xbc8c6594	-0.01713828
110	0xbce60d66	-0.02808256
111	0xbbab6120	-0.005230084
112	0xbc619ac0	-0.013769805
113	0xbba8d500	-0.0051523447
114	0xbc97cc6f	-0.018530099
115	0xbb69b240	-0.0035659224
116	0x3cabc06f	0.020965783
117	0xbafa6880	-0.001910463
118	0xbceb7c09	-0.028745668
119	0x3bf43b5c	0.0074533653
120	0x3cdce247	0.026963366
121	0x3c0eb3ae	0.008709831
122	0x3cba6041	0.022750976
123	0x3a97a3c0	0.0011569187
124	0xbc225812	-0.009908693
125	0xbc9502c4	-0.018189795
126	0xbbed9ef0	-0.007251613
127	0xbc9b851e	-0.018984374
128	0xbc514412	-0.012772577
129	0x3c4c9f92	0.012489216
130	0x3c83c8b5	0.016086916
131	0xbc29c3f4	-0.01036166
132	0xbb45dfa8	-0.0030193124
133	0x3ce18d4d	0.027533198
134	0xbcaeb542	-0.021326665
135	0x3a671400	0.0008814931
136	0x3bf4a46c	0.0074658897
137	0x3bf5ca74	0.007500941
138	0x3c83d001	0.016090395
139	0xbcd27aad	-0.025693262
140	0xbb9197b4	-0.0044431332
141	0x3babe34c	0.0052456018
142	0x3b4774a8	0.0030434523
143	0xbcbd32ea	-0.023095567
144	0xbcdee213	-0.02720741
145	0xbc2526f0	-0.010080084
146	0xbcd0eea8	-0.025504425
147	0xbbdaabe8	-0.006673325
148	0x3c951749	0.01819958
149	0x3ce1a499	0.027544307
150	0xbb4019c0	-0.0029312223
151	0xbc52908c	-0.0128518455
152	0xbc59a756	-0.013284525
153	0x3b32e6d8	0.0027298238
154	0x3c507a0e	0.012724413
155	0x3cb308d3	0.021854794
156	0x3b5b0bd8	0.0033423807
157	0x3c626eee	0.013820393
158	0xbc0d0250	-0.008606508
159	0x3ce97f81	0.028503181
160	0xbcb8330a	-0.022485275
161	0xbbc6afe0	-0.0060634464
162	0xbbe35720	-0.0069378763
163	0xbc403bde	-0.011733023
164	0xbc85948c	-0.016306184
165	0xbb986720	-0.0046509653
166	0x3cb11501	0.02161646
167	0xbc10b200	-0.008831501
168	0xbbe09fa0	-0.0068549663
169	0xbc61712e	-0.013759894
170	0x3c828fad	0.01593765
171	0x3c6d3fea	0.01448057
172	0x3bc1fa0c	0.0059197005
173	0xbc48630c	-0.012230646
174	0x3cc36931	0.02385387
175	0x3c2d6502	0.010583164
176	0x3cc6a09b	0.024246505
177	0xbc7cd4c4	-0.015431587
178	0x3b80a4dc	0.003925903
179	0x3c1786c2	0.009248437
180	0xbbd9ef2c	-0.006650826
181	0x3cc1b95b	0.023647955
182	0x3b86fbc4	0.0041193683
183	0xbc45c426	-0.012070691
184	0x3c2431e6	0.010021662
185	0xbc97fc7a	-0.018553007
186	0x3c9a997b	0.018872013
187	0xbc3b8792	-0.011445897
188	0xbc9eff6c	-0.019408904
189	0xbc13d750	-0.0090235025
190	0x3a295cc0	0.0006460659
191	0x3cec719b	0.028862765
192	0x3c0aea46	0.008478707
193	0xbc4e0850	-0.012575224
194	0x3cab8a21	0.020939888
195	0x3ce806c3	0.028323537
196	0x38940d00	7.0596114e-05
197	0xbca4bb2c	-0.020108782
198	0xba996ab0	-0.0011704769
199	0xbc3e8562	-0.011628481
200	0xbb45a120	-0.0030155852
201	0x3cbf1f45	0.02333034
202	0x3b9bb3fc	0.0047516804
203	0xbce4da1c	-0.027936034
204	0x3c8a0b57	0.01685111
205	0xbae64350	-0.0017567668
206	0xbc3131cc	-0.010815095
207	0xbcbd414b	-0.023102423
208	0x3be5ab84	0.0070089716
209	0xbcdf1108	-0.0272298
210	0xbc387ed6	-0.011260709
211	0xbbfee668	-0.0077789314
212	0xbc9000a2	-0.017578427
213	0x3c2a9d9e	0.010413555
214	0x3ce6e0f1	0.028183432
215	0x3b8e5554	0.004343668
216	0xbcd7d4ed	-0.026346648
217	0xbb5ca898	-0.0033669826
218	0xbbdfe65c	-0.006832881
219	0xbccee428	-0.025255278
220	0x3ce3facf	0.027829556
221	0x3c7e976a	0.01553903
222	0xbc0fa852	-0.008768158
223	0xbcea040d	-0.028566385
224	0x39912a40	0.00027688034
225	0xbbd081ac	-0.0063631143
226	0x3c3bfb8a	0.011473546
227	0x3c89d9a5	0.016827414
228	0xbbb0c1dc	-0.0053942036
229	0xbc6212a9	-0.013798394
230	0xbc004b84	-0.007830504
231	0x3ba1684c	0.0049257632
232	0xb9a9bc40	-0.0003237445
233	0xbc66372d	-0.014051241
234	0xbc3e3a9a	-0.011610651
235	0xb9ce3440	-0.0003933031
236	0xbcf0666d	-0.029345715
237	0xbcabb118	-0.020958468
238	0x3c9f4383	0.019441372
239	0x3aec56f0	0.001803128
240	0xbcb436ed	-0.021998847
241	0xbcd436da	-0.025905062
242	0x3cb2026f	0.021729676
243	0x3bb9dc0c	0.0056719836
244	0xbc2d8f9e	-0.010593323
245	0x3b2cc2f8	0.0026361328
246	0x3c8f5bb9	0.017499791
247	0xbca0e7b3	-0.019641733
248	0xbbb3ec2c	-0.0054908004
249	0xb95cc880	-0.00021055527
250	0xbccfb2b8	-0.025353774
251	0x3cb3c5c1	0.021944882
252	0x3ce32d3d	0.027731532
253	0x3c756116	0.01497676
254	0x3ce2dba3	0.027692622
255	0xbbe40320	-0.0069583803

hyper_w2.0.bias f4 [64]
0	0xbc4528a2	-0.012033613
1	0x3be0894c	0.0068523046
2	0xbbfbc2e8	-0.0076831467
3	0x3c541b42	0.012945952
4	0x3cda49d1	0.026646527
5	0xbb19f358	-0.0023490991
6	0x3b5bc868	0.00335362
7	0x3bbd2a14	0.0057728384
8	0x3c315c0a	0.0108251665
9	0xbcd9effc	-0.026603691
10	0xbabb5020	-0.0014290847
11	0xbce640ed	-0.02810713
12	0xbae36f70	-0.0017351937
13	0x3bda47ac	0.006661376
14	0x3b98028c	0.0046389755
15	0xbcd7ad8f	-0.026327876
16	0x3cd877a9	0.026424246
17	0x387a5000	5.967915e-05
18	0x3c5d08e6	0.013490891
19	0xbc7ab70f	-0.015302434
20	0x39109680	0.00013788976
21	0xbc8ee1b1	-0.017441602
22	0xbc44af50	-0.012004688
23	0x3bf9c414	0.0076222513
24	0xbcbfec44	-0.02342809
25	0x3ca9b9b9	0.020718442
26	0x3c39ad76	0.01133286
27	0x3ceeaa35	0.029133895
28	0x3c9f3133	0.01943264
29	0xbb14a678	-0.002268223
30	0x3cc180bb	0.023620954
31	0xbbc04a88	-0.00586826
32	0xbcd5187a	-0.026012648
33	0x3cce876d	0.02521106
34	0xbbf12c34	-0.0073600058
35	0x3c92df7d	0.017928833
36	0xbca2111e	-0.019783553
37	0xbc63c3ed	-0.013901693
38	0x3c581312	0.0131881405
39	0xbc971d0f	-0.018446473
40	0x3bfe3434	0.007757688
41	0x3cd4d879	0.025982128
42	0x3c189d0e	0.0093147885
43	0x3a787b80	0.0009478852
44	0xbc8c1de0	-0.01710409
45	0xbcb4ff44	-0.022094376
46	0x3c39b5fe	0.011334894
47	0xbb87f1dc	-0.004148705
48	0xbcd9cdf7	-0.02658747
49	0xb936b200	-0.00017423183
50	0xbbe1bc2c	-0.006888887
51	0xbcf003de	-0.029298719
52	0xbc1e19aa	-0.0096496735
53	0xb7dc9800	-2.6296824e-05
54	0xbcef6048	-0.029220715
55	0xbccbf02d	-0.024894798
56	0x3be1744c	0.0068803187
57	0xbccbff9c	-0.024902157
58	0xbbd40010	-0.006469734
59	0xbcb90da2	-0.022589508
60	0xbcd46737	-0.025928123
61	0xbccee7f3	-0.025257086
62	0x3c902245	0.017594466
63	0xbc3ae8e6	-0.011408066

hyper_w2.2.weight f4 [32, 64]
0	0xbd954898	-0.07289237
1	0xbdac547a	-0.0841455
2	0x3c8bb340	0.017053246
3	0x3d3e2924	0.046425954
4	0xbcb24970	-0.021763533
5	0x3de0aba6	0.10970239
6	0x3c354180	0.01106298
7	0x3d7e0304	0.062014595
8	0xbb7b8cc0	-0.0038383454
9	0xbdc0a276	-0.09405987
10	0xbd94dc76	-0.07268612
11	0xbd478d08	-0.048718482
12	0x3de0329e	0.109471545
13	0x3dda8f02	0.10671808
14	0xbde0b9e8	-0.10972959
15	0x3d2b0684	0.04175426
16	0x3bb34b40	0.005471617
17	0xbd39b23c	-0.045335993
18	0xbc085c40	-0.008322775
19	0x3dc732aa	0.0972646
20	0x3dfc25b8	0.12311882
21	0x3dbb9ab6	0.09160368
22	0x3d671864	0.056419745
23	0x3cf9d4d8	0.030497
24	0x3dae8c02	0.08522798
25	0xbd9a1e58	-0.07525319
26	0x3de0f92c	0.10985026
27	0xbcde1a38	-0.027112111
28	0xbca85a70	-0.020550936
29	0x3d1ad320	0.037799
30	0xbc96bc70	-0.0184004
31	0xbd71ec80	-0.059063435
32	0xbdd5516a	-0.10415919
33	0x3cd0f608	0.025507942
34	0xbdf686a4	-0.120373994
35	0x3deb7866	0.114975736
36	0x3d2b20e4	0.041779414
37	0x3d8b597e	0.06804179
38	0xbdde95ca	-0.10868414
39	0xbdc0d2d2	-0.09415211
40	0xbd65c8e0	-0.056099772
41	0xbd7a62d8	-0.06112942
42	0x3c89e560	0.016833007
43	0x3d7ce220	0.061739087
44	0x3cbe6920	0.023243487
45	0xbd449270	-0.047991216
46	0x3d20e3d4	0.039279774
47	0xbdd44db6	-0.10366385
48	0xbbbce680	-0.0057647824
49	0xbdcd695c	-0.10029861
50	0x3d85b09e	0.06527828
51	0xbdeeaa6a	-0.11653598
52	0xbda047aa	-0.07826169
53	0x3c249500	0.01004529
54	0xbd842092	-0.06451525
55	0x3dc81b74	0.09770861
56	0xbd3664ec	-0.04452984
57	0xbcb00880	-0.021488428
58	0x3dc68f16	0.0969526
59	0xbdf7d94e	-0.121019945
60	0xbdd4e94a	-0.10396059
61	0x3d96e9b4	0.07368794
62	0xbdc96f96	-0.098357365
63	0x3cdbacf8	0.026815876
64	0x3d4edf74	0.05050607
65	0x3d654310	0.05597216
66	0x3c9dd618	0.019267127
67	0x3c901cd8	0.017591879
68	0x3d03c69c	0.03217183
69	0xbd235f28	-0.03988567
70	0x3dd8c2f2	0.10584058
71	0x3cd40ba8	0.025884464
72	0xbce84cf0	-0.028357
73	0xbcf49278	-0.029854998
74	0xbc8644c8	-0.01639022
75	0xbc94a988	-0.018147245
76	0xbde2cca2	-0.11074187
77	0xbc47f100	-0.012203455
78	0x3dd8dcb4	0.10588971
79	0xbdee6e78	-0.11642164
80	0xbd853582	-0.065043464
81	0x3d13c570	0.036076963
82	0x3dac2c4a	0.08406885
83	0xbdf222cc	-0.11823043
84	0xbdfa7cf6	-0.12230866
85	0x3d90ee2c	0.07076678
86	0xbdcd9f3c	-0.10040137
87	0xbd9d87be	-0.076919064
88	0x3da5e5ae	0.081004485
89	0xbc3580b0	-0.011078045
90	0x3d1d1cb4	0.03835745
91	0xbd4ab3c4	-0.049487844
92	0xbcd192a8	-0.025582626
93	0x3d745300	0.059649467
94	0xbcf41888	-0.029796854
95	0xbd7fc0c0	-0.06243968
96	0x3d3b4d78	0.045728177
97	0xbdf1a798	-0.11799544
98	0x3d8cc4e8	0.068734944
99	0xbd2205f4	-0.03955646
100	0x3d8cc320	0.06873155
101	0x3d123db0	0.03570336
102	0x3deb0698	0.11475867
103	0xbb6f8780	-0.003654927
104	0xbddc9494	-0.107705265
105	0xbd66a368	-0.05630818
106	0x3d2c7cb8	0.04211113
107	0xbdcbe95a	-0.09956618
108	0xbdeb9192	-0.11502375
109	0xbca2cfe0	-0.019874513
110	0x3de064a4	0.10956696
111	0x3d9bcfd4	0.076079994
112	0xbdeef0cc	-0.11667022
113	0xbdf75786	-0.12077241
114	0xbd03bc08	-0.032161742
115	0x3d0e5cb8	0.034756392
116	0x3dbee35a	0.093207076
117	0x3b84a340	0.004047781
118	0x3d843f84	0.06457427
119	0x3d922a5e	0.07136987
120	0x3d2750d0	0.040848553
121	0x3dee026c	0.11621556
122	0xbcea3be0	-0.028593004
123	0x3da46f7e	0.08029078
124	0xbdc78998	-0.09743041
125	0xbdeb671e	-0.114942774
126	0xbdf23c8e	-0.11827956
127	0x3d69bfdc	0.057067737
128	0x3d4d5cd8	0.05013737
129	0x3dca4710	0.09876835
130	0x3d4fa60c	0.050695464
131	0x3d3de8f4	0.04636474
132	0xbd2d33dc	-0.042285785
133	0x3dada994	0.0847961
134	0x3df09ee6	0.117490575
135	0xb9201000	-0.0001526475
136	0xbdad4dbc	-0.08462092
137	0x3d931cd0	0.0718323
138	0x3cc9d980	0.024639845
139	0x3d4c4698	0.04987201
140	0xbd8bf806	-0.06834416
141	0x3cca5a20	0.024701178
142	0xbdd6518c	-0.104647726
143	0xbd3464e4	-0.04404153
144	0xbc0f44e0	-0.008744448
145	0xbd9b8630	-0.075939536
146	0xbd3b2abc	-0.04569505
147	0x3d92514a	0.07144411
148	0x3d5bd6e0	0.053671718
149	0x3bb7ffe0	0.0056152195
150	0xbdea18b4	-0.11430493
151	0x3ce2d190	0.027687818
152	0xbc597ad0	-0.01327391
153	0x3cff8520	0.031191409
154	0x3dafd94c	0.08586368
155	0xbdbcc96c	-0.09218106
156	0x3c8377e8	0.016048387
157	0x3da96560	0.08271289
158	0xbd997e76	-0.07494824
159	0xbd8d4d76	-0.0689954
160	0xbcdc7618	-0.02691178
161	0x3cc7f4d8	0.024408743
162	0xbd8d6f3c	-0.06905982
163	0xbdf0a852	-0.117508546
164	0x3df7c854	0.120987564
165	0xbda92d54	-0.08260599
166	0xbdd51bb6	-0.10405676
167	0xbdd0bce6	-0.101922795
168	0x3dba89cc	0.09108314
169	0xbd6f87d4	-0.058479145
170	0x3beac340	0.007164389
171	0xbd91ce74	-0.07119456
172	0xbdbbf102	-0.09176828
173	0x3db88d52	0.0901133
174	0x3ca49d28	0.02009447
175	0xbd7c4c7c	-0.06159638
176	0xbb824b20	-0.0039762408
177	0x3dffb6f6	0.12486069
178	0x3d117b64	0.035518065
179	0x3d91516e	0.070956096
180	0xbd632c64	-0.055462256
181	0xbc377be0	-0.011198968
182	0xbc3eed00	-0.011653185
183	0xbdb5b4f4	-0.08872405
184	0x3d048034	0.032348827
185	0xbdb5d132	-0.088777915
186	0xbd82ddfa	-0.06389995
187	0x3b5b58c0	0.0033469647
188	0x3d7ccb8c	0.061717555
189	0x3dfcca7c	0.12343308
190	0x3cac2a80	0.02101636
191	0x3c35e300	0.011101484
192	0x3d24ed98	0.04026565
193	0xbde07ce6	-0.109613225
194	0xbcbbfd78	-0.022948012
195	0xbab4a600	-0.0013782382
196	0x3d84117c	0.064486474
197	0x3dfc770c	0.12327394
198	0xbdc25f0a	-0.094907835
199	0x3c09aac0	0.008402526
200	0xbd841086	-0.06448464
201	0xbd88af90	-0.06674111
202	0x3d72f450	0.059315026
203	0x39dfec00	0.00042709708
204	0xbb75f480	-0.0037529767
205	0x3dd3ddb0	0.10345018
206	0x3d827ce8	0.0637148
207	0x3d9ab9f6	0.075550005
208	0xbca77be0	-0.02044481
209	0xbca78ab0	-0.020451874
210	0x3c791a40	0.015204012
211	0x3d60b444	0.054859415
212	0xbdcc3b6e	-0.09972273
213	0x3d1d30cc	0.038376614
214	0xbde6ba82	-0.11266042
215	0xbdabce70	-0.08388984
216	0x3c130ad0	0.008974746
217	0xbd90f902	-0.070787445
218	0xbdb55160	-0.08853412
219	0x3d2790f8	0.040909737
220	0x3c8203b0	0.015870899
221	0x3cd8dc60	0.02647227
222	0xbc4b7f70	-0.01242052
223	0x3cd01c68	0.02540417
224	0xbdc2f274	-0.095189005
225	0x3d069f84	0.03286697
226	0xbdaec5f2	-0.08533849
227	0xbdffda3c	-0.12492797
228	0x3d1fc220	0.03900349
229	0x3dfcaa2c	0.12337145
230	0x3dd5184e	0.104050264
231	0x3df1f916	0.118150875
232	0x3d90d01a	0.07070942
233	0x3cabed20	0.020987093
234	0x3d1bcd64	0.038037673
235	0x3cbc1220	0.022957861
236	0xbd5f81c8	-0.05456713
237	0xbdeacbcc	-0.114646524
238	0x3cedbc50	0.029020458
239	0x3df00d18	0.117212474
240	0xbdb23aa4	-0.08702591
241	0xbdf84996	-0.121234104
242	0xbcb45d80	-0.02201724
243	0x3cf5b488	0.02999331
244	0x3d746640	0.059667826
245	0xbdbd693e	-0.09248589
246	0x3d8c0bca	0.06838186
247	0x3d6d7064	0.057968512
248	0xbde0f4ca	-0.1098419
249	0xbd185dbc	-0.037198767
250	0x3dcce3b0	0.100043654
251	0x3c056a20	0.008142978
252	0x3d15f368	0.036609083
253	0x3da9848e	0.08277236
254	0x3d203dd4	0.039121464
255	0xbd918b5a	-0.07106657

hyper_w2.2.bias f4 [32]
0	0x3ca17628	0.019709662
1	0x3d791a7c	0.060816273
2	0x3bad9c60	0.0052981824
3	0xbd4abd2c	-0.049496815
4	0x3dfec45e	0.12439798
5	0x3d81876c	0.06324658
6	0x3d5d1f64	0.053985015
7	0x3dc12ebe	0.094327435
8	0xbd81ed20	-0.06344056
9	0x3d0ef59c	0.0349022
10	0xbdd63824	-0.10459927
11	0xbde954a0	-0.11393094
12	0xbddd256e	-0.10798155
13	0x3cb355a8	0.02189143
14	0xbd5bf678	-0.053701848
15	0x3d9a445c	0.0753257
16	0xbd763198	-0.06010589
17	0x3d876896	0.06611745
18	0xbcdf3460	-0.027246654
19	0xbdc2b3a8	-0.09506923
20	0x3df44d8a	0.11928852
21	0x3dc0c1e0	0.09411979
22	0x3dd65cb8	0.104669034
23	0x3db19930	0.08671796
24	0x3cb74e30	0.02237615
25	0xbcef8990	-0.0292404
26	0x3dd879ac	0.10570082
27	0x3cef88d8	0.029240057
28	0x3c7f2410	0.015572563
29	0x3d9d13be	0.07669781
30	0xbd6530d0	-0.055954754
31	0xbd8abbba	-0.06774087

hyper_b1.weight f4 [32, 1156]
0	0xbc0b968c	-0.00851978
1	0x3ce7250b	0.028215906
2	0x3c8268c9	0.015919106
3	0xbc208bde	-0.009798972
4	0xbc910444	-0.01770223
5	0x3a66c440	0.0008803047
6	0x3bcb5ba4	0.006205993
7	0x3ce654d7	0.028116627
8	0x3c53dc4e	0.012930943
9	0x3cc066ad	0.02348646
10	0x3cad8a81	0.021184208
11	0xbce2f520	-0.027704775
12	0xbbfb2aac	-0.007664999
13	0x3ca68631	0.02032766
14	0x3b550ed8	0.0032510068
15	0x3c4fd3f6	0.012684813
16	0x3ca5ab61	0.020223321
17	0x3a540100	0.0008087307
18	0xbc6870fc	-0.014187094
19	0x3c60a2ce	0.013710691
20	0xbc65b229	-0.0140195275
21	0x3b9231e4	0.004461514
22	0x3b98e534	0.004665995
23	0x3b6059e8	0.0034233276
24	0xbbd9453c	-0.006630568
25	0xba23d960	-0.0006250348
26	0x3c28f5ea	0.010312537
27	0xbcbb5b4f	-0.022870688
28	0x3c947e9f	0.018126784
29	0x3c6ada9a	0.014334345
30	0xbc93292f	-0.017963974
31	0xbcd11420	-0.025522292
32	0x3ce65d05	0.028120527
33	0x3c4d0db2	0.012515472
34	0xbced0fc9	-0.028938191
35	0x3a3476a0	0.00068841316
36	0xbc8c6c86	-0.017141592
37	0xbc180bc4	-0.009280149
38	0x3c41a612	0.011819379
39	0x3c3d3ed2	0.011550622
40	0x3c4fecbe	0.012690721
41	0xbc2f5f22	-0.010703834
42	0xbca9e380	-0.020738363
43	0x3cda4799	0.026645469
44	0xbc44f0e2	-0.012020322
45	0xbc9633c6	-0.018335234
46	0x3c36284e	0.011118008
47	0xbcb43d3c	-0.022001855
48	0xbcaa1a31	-0.020764442
49	0x3c42b132	0.011883067
50	0xbced1f53	-0.0289456
51	0xbc3bd2c4	-0.011463825
52	0xbccd308d	-0.025047565
53	0x3c435d42	0.01192409
54	0x3cd299c9	0.025708096
55	0x3733c000	1.0713935e-05
56	0x3c9a42c5	0.018830666
57	0x3cdaed2d	0.026724422
58	0x3b956e74	0.004560286
59	0x3bba43ec	0.0056843664
60	0xbce47c84	-0.027891405
61	0xbccc3680	-0.024928331
62	0xbbe42120	-0.0069619566
63	0xb88bfa00	-6.6746026e-05
64	0x3cec09ff	0.02881336
65	0x3c6ca20a	0.01444293
66	0x3be674a4	0.0070329476
67	0xbca0649c	-0.019579224
68	0xbcc11898	-0.023571298
69	0xb9a7f5c0	-0.0003203582
70	0x3bb217bc	0.0054349583
71	0xbc599d80	-0.01328218
72	0xbc904dca	-0.017615218
73	0xbc997ee4	-0.018737264
74	0x3c998b81	0.018743278
75	0x3bc56304	0.0060237665
76	0x3c722b96	0.0147808995
77	0x3c8a19dd	0.016858036
78	0xbce91d71	-0.028456422
79	0x3c9cfe3f	0.019164203
80	0xbc962d4c	-0.018332146
81	0x3a664e20	0.0008785445
82	0xbc747631	-0.014920757
83	0x3bc2951c	0.0059381854
84	0xbccc0175	-0.024903039
85	0x3cd1d713	0.02561525
86	0xbcc7a8e0	-0.024372518
87	0xbc96f4da	-0.018427301
88	0x3cd072f3	0.025445437
89	0xbcee79d7	-0.029110832
90	0x3cb7d3f1	0.022439929
91	0x3c210f82	0.0098303575
92	0xbc61d85a	-0.013784492
93	0xba8cd280	-0.0010743886
94	0x3cdab25f	0.026696382
95	0xbbfe18d4	-0.0077544246
96	0x3c541046	0.012943333
97	0x3cd79491	0.02631596
98	0x3b961c34	0.004580999
99	0x3ccd854f	0.02508798
100	0xbc079f8c	-0.008277785
101	0x3b1e6af8	0.0024172645
102	0x3c0ccba6	0.008593475
103	0xbc01b7a2	-0.007917317
104	0xbbfca7f0	-0.0077104494
105	0xbca465fe	-0.020068165
106	0x3c3a211a	0.011360431
107	0xbc7b6c00	-0.015345573
108	0xbcb204cd	-0.021730805
109	0xbc83b594	-0.016077794
110	0xbc68c78b	-0.014207731
111	0xbcc5a5a2	-0.024126831
112	0x3c1457fe	0.009054182
113	0xbb1b1b48	-0.0023667384
114	0x3abb0110	0.0014267284
115	0xbcec47e2	-0.02884287
116	0x3bc15c24	0.0059008766
117	0xbc8f186f	-0.017467706
118	0xbcadd80d	-0.021221185
119	0x3c732502	0.014840366
120	0x3ce94b69	0.028478341
121	0x3ce44501	0.027864935
122	0xbc825ec6	-0.015914332
123	0x3c90fb81	0.017698051
124	0x3c13e942	0.009027781
125	0xbc6387a9	-0.013887324
126	0x3b91d54c	0.004450476
127	0x3c82baa1	0.015958132
128	0x3c8e79ff	0.017392157
129	0xbc19b58c	-0.009381663
130	0xbb874820	-0.004128471
131	0xbb6a30d0	-0.003573466
132	0xbbd3b870	-0.0064611956
133	0x3c6e2166	0.01453433
134	0xbb3f8668	-0.00292244
135	0xbbcfb410	-0.006338604
136	0x3bd3480c	0.0064477976
137	0x3cc945cd	0.024569416
138	0x3a054920	0.0005084444
139	0xbb1b2058	-0.0023670401
140	0xbce464f5	-0.027880171
141	0x3c4c41be	0.012466846
142	0x3b460d08	0.003022017
143	0xbc69d829	-0.014272728
144	0xbcc5b37e	-0.02413344
145	0xbbb805bc	-0.005615918
146	0xbcdf9dc4	-0.027296908
147	0xbcd476ca	-0.02593555
148	0xbb2caca8	-0.0026348028
149	0x3cb78115	0.022400418
150	0x3c19cb1e	0.009386806
151	0xbcc47028	-0.023979262
152	0xbb99b610	-0.004690893
153	0x3b67b398	0.003535485
154	0x3c6bd99a	0.014395142
155	0xbb8a74ac	-0.004225334
156	0x3c7bb33a	0.015362555
157	0xbc80a074	-0.01570151
158	0xbc9a540f	-0.01883891
159	0xb7420000	-1.1563301e-05
160	0x3cd33c5d	0.02578562
161	0x3ccb082b	0.024784168
162	0xbcd9368b	-0.026515266
163	0xbc4eeea2	-0.012630137
164	0x3b3c7c78	0.0028760713
165	0x39eefbc0	0.00045582466
166	0x3ccd9aa3	0.02509815
167	0xbcd74a82	-0.026280645
168	0xbc2987d6	-0.010347327
169	0xbc340cee	-0.010989411
170	0xbce65ba6	-0.028119873
171	0xbc8c2838	-0.017109022
172	0x3c464492	0.012101309
173	0x3cc4a12b	0.024002632
174	0xbc8f18da	-0.017467905
175	0x3b0148f8	0.001972733
176	0x3c0df2b2	0.00866382
177	0x3cbf227b	0.023331871
178	0xbc26fbda	-0.010191882
179	0x3cb50863	0.022098726
180	0xbbe4b2f8	-0.0069793426
181	0x3b8ccfbc	0.004297225
182	0x3c2c285a	0.010507667
183	0xbc63309a	-0.013866568
184	0x3cac1dff	0.021010397
185	0x3c9d4d27	0.019201828
186	0x3c9c31c9	0.019066708
187	0x3c490166	0.0122684
188	0xbc77ea0b	-0.015131484
189	0x3cde0a7d	0.02710461
190	0xbc45861e	-0.012055902
191	0xbbba5900	-0.005686879
192	0xbbba9b88	-0.0056948103
193	0x3cebf43b	0.028802982
194	0x3c9cfbd7	0.019163055
195	0xbcac7673	-0.021052575
196	0xbb20bd30	-0.0024526827
197	0x3c8f7895	0.017513553
198	0x3c8f1167	0.017464353
199	0x3c6dafde	0.014507262
200	0x3cb5b247	0.022179736
201	0xbbe80798	-0.0070809834
202	0x38dfc200	0.00010669604
203	0x3b88fd84	0.004180612
204	0xbceb9002	-0.028755192
205	0xbc6d54a6	-0.014485514
206	0xbcbb8c4d	-0.022894049
207	0x3c58ac9e	0.013224749
208	0x3aee89e0	0.0018199049
209	0x3c08e2e6	0.008354878
210	0xbcc5b051	-0.024131926
211	0x3ced99d1	0.02900401
212	0x3bbbf26c	0.005735686
213	0x3ab09280	0.0013471395
214	0x3c9e6de3	0.019339507
215	0x3cb0cb91	0.021581443
216	0x3c07ddce	0.008292628
217	0xbccfc10a	-0.025360603
218	0x3bd9e324	0.0066493917
219	0xbc038db0	-0.008029386
220	0x3c9ed9e7	0.019391013
221	0xbcbe9093	-0.023262298
222	0xbca048bc	-0.019565932
223	0x3b15fac8	0.0022885073
224	0xbcd10f6d	-0.02552005
225	0x3c64f54e	0.013974501
226	0x3b694aa8	0.0035597477
227	0xbc530692	-0.012879984
228	0xbcddb555	-0.027064005
229	0x3c0ac0b2	0.008468794
230	0xb67aa000	-3.7346035e-06
231	0x3c2c9c42	0.010535302
232	0xbc984284	-0.018586405
233	0x3b3a0498	0.0028384086
234	0x3c691492	0.014226096
235	0x3bcc7d4c	0.0062405225
236	0xbc55f22a	-0.013058225
237	0xbc8bfd8a	-0.01708867
238	0xbc370c10	-0.0111723095
239	0xbc99f544	-0.01879371
240	0x3cc9ba0f	0.024624852
241	0x3ca06dbf	0.019583581
242	0xbcb7e1d1	-0.022446545
243	0x3ba88c04	0.0051436443
244	0xb976ae00	-0.00023525208
245	0xbccfb3ea	-0.025354344
246	0xbcb18684	-0.021670587
247	0x3a4b6b40	0.0007759817
248	0x3c0a8c2e	0.008456273
249	0x3ce2f3b3	0.027704095
250	0xbc469da6	-0.012122547
251	0x3c5b4622	0.01338342
252	0xbcd63f1c	-0.02615314
253	0x3cde93db	0.027170112
254	0xbcedaaf1	-0.029012175
255	0xbcecbbe2	-0.028898183

hyper_b1.bias f4 [32]
0	0xbc124cf4	-0.00892948
1	0x3cddc34b	0.027070662
2	0xbc61b088	-0.0137749985
3	0x3cbd2c55	0.023092428
4	0x3cb7f64b	0.022456309
5	0x3c5bedce	0.013423396
6	0xbc56865e	-0.013093559
7	0xbc8a3533	-0.01687107
8	0xbc09a448	-0.008400984
9	0x3bc249c4	0.0059292037
10	0xbcde20ed	-0.02711531
11	0x39e422c0	0.0004351344
12	0xbacc4090	-0.0015583206
13	0xbbdabf24	-0.006675618
14	0x3c4bd5aa	0.012441078
15	0x3ba96764	0.005169796
16	0x3c02e7aa	0.007989803
17	0x3c835493	0.016031539
18	0xbc0130d0	-0.007885173
19	0xbc8f5b73	-0.017499661
20	0x3ac372d0	0.0014911536
21	0xbc6d4b26	-0.014483249
22	0x3c7f6ee6	0.015590405
23	0x3cb59a71	0.02216837
24	0xba20ac80	-0.000612922
25	0x3a7396a0	0.0009292159
26	0x39df9180	0.0004264228
27	0xbcbad035	-0.022804359
28	0xbc8aac08	-0.016927734
29	0xbca3af20	-0.019980967
30	0x3c96fe83	0.018431908
31	0xbcdca59c	-0.026934437

hyper_b2.0.weight f4 [32, 1156]
0	0xbcc51be6	-0.024061155
1	0x3cee2bbd	0.02907359
2	0x3b35abe8	0.0027720872
3	0xbc95bb0d	-0.01827767
4	0x3cbc11a5	0.022957632
5	0x3ce04219	0.027375268
6	0x3c54413a	0.012955004
7	0xbca1424a	-0.01968493
8	0xbc717c39	-0.01473909
9	0xbc49c874	-0.012315858
10	0xbcee7c55	-0.02911202
11	0xbcee2f99	-0.02907543
12	0x3cb2b619	0.021815347
13	0xbc0436c4	-0.008069698
14	0xbc2a0d92	-0.010379212
15	0x3c81fe73	0.015868401
16	0xbcba35de	-0.022730764
17	0xbca69f5a	-0.020339657
18	0xbcc6e6da	-0.02428
19	0x3c98ab15	0.018636266
20	0x3bff6964	0.007794546
21	0xbc1d58d6	-0.0096037
22	0x3b661a48	0.003511088
23	0xbc162e56	-0.009166321
24	0x3c88f0c3	0.016716367
25	0xbaa59c80	-0.0012635142
26	0x3ba4d00c	0.005029684
27	0xbc6e3279	-0.014538401
28	0xbc99ca8a	-0.018773336
29	0x3c39b53e	0.011334715
30	0xbceadfd3	-0.02867118
31	0x3ccf0fdf	0.025276123
32	0x3c93ab91	0.018026145
33	0x3cdd5ed5	0.027022758
34	0x3cc82ff7	0.024436934
35	0x3ba2e27c	0.0049708467
36	0xbc8caf8a	-0.017173547
37	0xbcbab448	-0.022791043
38	0x3c84cb93	0.016210353
39	0x3cc430b9	0.023949014
40	0x3c1bcd6a	0.009509424
41	0x3ca62d35	0.020285228
42	0xba37f260	-0.00070170127
43	0x38e91800	0.00011114776
44	0xbc3721da	-0.011177504
45	0x3ca01717	0.01954226
46	0x3c5070a6	0.01272217
47	0x3c5e541e	0.01356986
48	0xbc249c34	-0.010047007
49	0x3c9968e1	0.018726768
50	0x3cee7175	0.029106835
51	0x3b08d488	0.0020878632
52	0xba7e69a0	-0.00097050704
53	0xbc8cec76	-0.017202597
54	0x3bbc32e4	0.0057433713
55	0x3cc7b229	0.024376946
56	0x3cecc9ed	0.02890488
57	0x3c930075	0.017944554
58	0x3c470fca	0.0121497605
59	0xbc735d48	-0.014853783
60	0x3cebb993	0.028775012
61	0xbb84a2cc	-0.004047727
62	0xbc9c1736	-0.019054037
63	0x3c8d1245	0.017220626
64	0x3c195072	0.009357559
65	0xbcda15e6	-0.02662177
66	0x3cad00d5	0.02111856
67	0x3ce5ba8d	0.028043056
68	0xbcaffa93	-0.021481788
69	0xbb68c758	-0.0035519209
70	0xbb97b33c	-0.0046295207
71	0x3a94bf80	0.0011348575
72	0x3c8ce9c9	0.017201321
73	0x3c2d3512	0.010571735
74	0xbbd78aa0	-0.0065778047
75	0xbc5ebdc4	-0.013595048
76	0x3cdb95ad	0.02680477
77	0xbbe73fac	-0.007057151
78	0x3b6dbab8	0.0036274623
79	0x3c2b3b4a	0.010451147
80	0xbc28742a	-0.010281602
81	0xbc391552	-0.011296587
82	0x3c5761c6	0.01314587
83	0xbac67220	-0.0015140213
84	0x3ce6b5b5	0.028162817
85	0xbbc9bbf0	-0.006156437
86	0x3c98a0f3	0.018631434
87	0xbc47dd2e	-0.012198729
88	0xbc019400	-0.007908821
89	0x3c851fa5	0.01625044
90	0xbb410d98	-0.0029457565
91	0xbccf75c6	-0.025324713
92	0xbb18a910	-0.0023294128
93	0xba092fc0	-0.00052332506
94	0xbcdf6ce6	-0.027273607
95	0x3a498d20	0.0007688571
96	0xbc2a8e62	-0.010409923
97	0x3cb9eaf5	0.022695044
98	0x3c8530bf	0.016258596
99	0x3cdb5d5f	0.026777921
100	0x3c297c36	0.010344556
101	0xbcaa3d51	-0.020781191
102	0xbc9df9dc	-0.019284181
103	0x3cbd742b	0.023126682
104	0x3ac6ba00	0.0015161633
105	0xbc4fcff0	-0.0126838535
106	0x3cb0bbd9	0.021573948
107	0x3ceeebc5	0.029165158
108	0xbcd637c2	-0.026149634
109	0xbbfde734	-0.007748509
110	0xbc060278	-0.0081792995
111	0x3c6d9302	0.014500381
112	0x3cbe21a7	0.023209406
113	0xbcd33f98	-0.02578716
114	0xbcce255e	-0.025164302
115	0x3c6fb1c6	0.014629787
116	0x3c68f15e	0.014217703
117	0xbc0042c0	-0.007828414
118	0x3c862135	0.016373256
119	0x3c5dffa2	0.013549717
120	0xbce5bc58	-0.02804391
121	0xbceb2815	-0.028705636
122	0x3cedd3f1	0.029031726
123	0xbca1fb86	-0.019773256
124	0xbad69c40	-0.001637347
125	0x3bb389cc	0.005479073
126	0x3c986b6b	0.018605908
127	0xbcd38702	-0.025821213
128	0x3c354642	0.011064114
129	0x3c8f1537	0.01746617
130	0x3c7b2aea	0.015330056
131	0xbce321a0	-0.027725995
132	0xbab74f80	-0.0013985485
133	0x3b52add8	0.0032147076
134	0xbc543c8c	-0.012953889
135	0x3ce36e59	0.027762579
136	0x3c72cf56	0.014819941
137	0x3c99d1e1	0.018776836
138	0x3bfea684	0.007771315
139	0x3ca46001	0.02006531
140	0x3b8889ac	0.0041668024
141	0xbc9f624c	-0.019456051
142	0x3bb95344	0.005655678
143	0xbb29b8e0	-0.0025897548
144	0xbc3d7f00	-0.011565924
145	0x3adca5e0	0.0016834103
146	0x3c889d0b	0.016676446
147	0xbc412492	-0.011788504
148	0xbcecd1f1	-0.028908702
149	0xbc7978b9	-0.015226536
150	0xbc2fddaa	-0.010734001
151	0xbca7fd9c	-0.020506673
152	0xbc1cdba6	-0.009573853
153	0x3cec4ca9	0.028845148
154	0x3cd7957d	0.026316399
155	0x3cd01d35	0.025404552
156	0x3c8ebd53	0.017424261
157	0x38976f00	7.2209165e-05
158	0xbca12bd8	-0.019674227
159	0x3ca1e635	0.019763092
160	0x3abc9c60	0.0014389865
161	0x3aa00a00	0.0012210011
162	0x3c5489e2	0.012972327
163	0x3cb7b585	0.022425422
164	0x3c11624a	0.008873532
165	0x3c2e002a	0.010620156
166	0x3c918c0f	0.01776698
167	0x3cdb845b	0.02679651
168	0x3ba7d12c	0.005121371
169	0x3cdba899	0.026813792
170	0xbc8bbeb1	-0.017058702
171	0x3c556502	0.01302457
172	0x3c8a9629	0.016917305
173	0xbb31c1f0	-0.0027123652
174	0x3bb125c4	0.0054061133
175	0xbcc20411	-0.02368358
176	0x3cc5659f	0.024096308
177	0xbc6cb3f1	-0.014447198
178	0x3c7c02ce	0.015381528
179	0xbcdf4ead	-0.027259195
180	0xbcc15ff3	-0.023605322
181	0x3aeb4a20	0.0017951168
182	0xbc1af712	-0.00945832
183	0xbc8075ef	-0.015681235
184	0x3c5a5512	0.013325946
185	0xbc06e250	-0.008232668
186	0x3b4209f8	0.0029607993
187	0x3bd05a3c	0.006358413
188	0x3cb55973	0.02213738
189	0xbbfb8570	-0.007675819
190	0xbc4cb6b8	-0.012494735
191	0x3cc8c951	0.024510058
192	0xbcc0ce51	-0.02353588
193	0xbc3df2b4	-0.011593509
194	0xbc91c6f6	-0.017795067
195	0xbc9addca	-0.018904585
196	0xbb8de208	-0.0043299235
197	0x3c36052e	0.011109633
198	0xbc8bfa78	-0.017087206
199	0x3ccf220b	0.025284788
200	0x3cd507e9	0.026004748
201	0x3aefaa00	0.0018284917
202	0x3c854391	0.01626757
203	0xbce86fbc	-0.028373592
204	0x3ab6c600	0.0013944507
205	0x3c8d361d	0.017237717
206	0xbca04ec0	-0.0195688
207	0x3c5fded6	0.013663968
208	0xbcea33a0	-0.02858907
209	0x3ae70ed0	0.0017628316
210	0xbaaab8d0	-0.0013025049
211	0x3ca0b91b	0.019619515
212	0x3c3fb536	0.011700919
213	0x3c835f4d	0.016036654
214	0xbcc6bf9c	-0.024261288
215	0xbc9c403c	-0.019073598
216	0x3c6ba092	0.014381545
217	0xbcd182f8	-0.025575146
218	0x3ccf8543	0.025332099
219	0xbc84f44a	-0.016229767
220	0x3b65f848	0.0035090614
221	0x3c9586f5	0.01825283
222	0xbc513e3c	-0.0127711855
223	0xbc330b4c	-0.010927986
224	0x3cd7a07f	0.026321648
225	0xbc4d0e6a	-0.012515644
226	0x3c6e54ca	0.0145465825
227	0x3ce34acb	0.027745625
228	0x3b20a568	0.0024512652
229	0x3bf2522c	0.0073950496
230	0xbc750b3c	-0.014956292
231	0xbc5d82ea	-0.013519982
232	0x3c07b8ba	0.008283788
233	0x3cde3e87	0.027129425
234	0xbcb38c40	-0.021917462
235	0x3c5a609e	0.013328699
236	0x3b90f464	0.004423665
237	0xbcbf5ba6	-0.023359131
238	0x3b6c8608	0.003609063
239	0xbcc651ca	-0.024208922
240	0xbb458cc0	-0.0030143708
241	0xbc0fa82a	-0.008768121
242	0xbcd7586f	-0.026287286
243	0xbc91d9de	-0.017804082
244	0x3b130508	0.0022433419
245	0x3cb36539	0.021898853
246	0x3caa73ad	0.020807112
247	0x3c83d253	0.016091501
248	0xbc759780	-0.014989734
249	0x3c916997	0.017750544
250	0x3ce8cde1	0.028418483
251	0x3c89bc8d	0.01681354
252	0x3c9a6b49	0.018849986
253	0x3cc040b7	0.023468358
254	0x3c9a9c49	0.01887335
255	0x3ca4ffe1	0.020141544

hyper_b2.0.bias f4 [32]
0	0x3c012e86	0.007884627
1	0xbcaad4bc	-0.020853393
2	0x3c789442	0.015172066
3	0xbccfa9d1	-0.02534953
4	0x3bd9f6bc	0.0066517275
5	0xbcd75ae2	-0.026288453
6	0xbadf2200	-0.0017023683
7	0x3cc4dca5	0.024030993
8	0xbab53600	-0.0013825297
9	0xbbf8e9e0	-0.0075962394
10	0x3bdf9e34	0.006824279
11	0x3b729818	0.0037016924
12	0xbcb0933e	-0.021554586
13	0xbc340026	-0.0109863635
14	0x3c434676	0.011918655
15	0x3cd3a34f	0.025834708
16	0xbc54c640	-0.01298672
17	0x3adc09c0	0.0016787574
18	0x3950f100	0.00019926205
19	0xbc3057f8	-0.010763161
20	0xbca4dbda	-0.020124365
21	0xbced77d9	-0.028987812
22	0x3ca5acef	0.020224063
23	0xbc1c6722	-0.009546073
24	0xbc9975c2	-0.01873291
25	0x3b3af168	0.0028525237
26	0x3ce7eeb9	0.028312074
27	0x3afb8850	0.0019190405
28	0xbc2441e2	-0.010025473
29	0x3c9b3e49	0.018950598
30	0x3c22ff16	0.009948513
31	0xbc915c1a	-0.017744113

hyper_b2.2.weight f4 [1, 32]
0	0x3bf07560	0.007338211
1	0xbd955133	-0.07290878
2	0xbde5a6ec	-0.112134784
3	0xbd918953	-0.07106271
4	0x3d19a0e8	0.037506968
5	0xbdf58636	-0.11988489
6	0xbbe76b60	-0.0070623606
7	0xbddf9db2	-0.1091875
8	0x3b207cc0	0.002448842
9	0xbd6106a4	-0.054937974
10	0x3dd72116	0.105043575
11	0x3dd60462	0.10450055
12	0x3e044df9	0.12920369
13	0xbe057bde	-0.13035533
14	0x3dc9a14e	0.098452196
15	0xbc4e29a0	-0.012583166
16	0x3d8a9904	0.06767467
17	0xbdc6bf86	-0.09704499
18	0x3df44c46	0.119286105
19	0xbd97564b	-0.07389506
20	0x3d940b6e	0.072287425
21	0x3df058f2	0.11735715
22	0x3df9f126	0.122041985
23	0x3dddea02	0.10835649
24	0xbc2d7d20	-0.010588914
25	0x3d43c140	0.04779172
26	0xbde07938	-0.10960621
27	0xbd9d3791	-0.07676614
28	0xbd97ffc4	-0.0742183
29	0xbde3260d	-0.11091242
30	0x3d5018f0	0.050805032
31	0x3e23a789	0.15981878
