models/v1/target_agent_net.pth (torch, 85919 bytes, 4 tensors)

fc1.weight f4 [64, 324]
000000 00 1a db 3b 3d 16 cd 3c 11 41 fb bc 42 a6 7a bc
       0.006686449 0.025035018 -0.030670675 -0.015298428
000010 f1 b6 d2 3d 13 4a 6d bd 3c 3c 0a 3d df 02 8c bc
       0.102887996 -0.05793197 0.03374885 -0.017091213
000020 f6 07 b9 3b 42 72 0d bc ac d1 57 bd 3f 7d 12 bc
       0.005646701 -0.008633198 -0.052690193 -0.008940994
000030 ea d6 07 bd 0f cf b3 bd 3e 1f 55 bc cd ef 80 3d
       -0.033163942 -0.08779728 -0.013007937 0.06295738
000040 ba 6d 03 3e df 07 6e bd 60 2c b3 3d 92 b6 04 bd
       0.12834826 -0.058112975 0.08748698 -0.032400675
000050 00 1b a1 3c 1c a9 91 3d ab 05 09 bd 0d 79 f0 bc
       0.019666195 0.07112333 -0.03345267 -0.029354597
000060 25 7a 3a 3c d0 95 1c bd 23 b1 88 ba d1 6c 97 3c
       0.011381661 -0.03822881 -0.0010428767 0.018484505
000070 b9 dd 93 bd 13 7c 6f bc 72 43 47 3d 19 60 9d 3d
       -0.072200246 -0.014616984 0.048648305 0.07684345
000080 25 16 07 3d 15 60 a5 3d ac 5d 00 3a 0c e5 5e bd
       0.032980103 0.08074967 0.00048967707 -0.054417655
000090 12 d9 17 3d 4d 46 fa bc 6a 2c 0e bd bb 9b cb 3d
       0.03707225 -0.0305511 -0.034710325 0.099418126
0000a0 6a ec 53 bd e7 b0 99 bb d3 14 a5 3d 4c aa 4c bd
       -0.051739134 -0.004690278 0.080606125 -0.049967095
0000b0 ff 25 29 bd 06 14 97 3c a7 9a a3 3c 99 48 24 3c
       -0.041296 0.018442165 0.019971205 0.010027074
0000c0 af 0c 83 3d f7 86 9b bd 77 5b 17 bd 7b 57 bb bd
       0.063989036 -0.07594102 -0.036952462 -0.09147545
0000d0 35 16 1c 3d 61 96 00 3d 78 9e 93 bd 63 46 b5 bd
       0.038107116 0.031393413 -0.0720796 -0.08851316
0000e0 65 0c 2e bd 14 0e 15 3c 19 02 cd bd 1c 82 ac 3d
       -0.04249229 0.009097595 -0.10010166 0.08423254
0000f0 7a e6 3a bc 9f e3 13 bc a5 ed c5 3b e3 f1 ee bc
       -0.011407489 -0.009026437 0.0060402923 -0.029168075
000100 98 d1 e3 bd a3 0b 5c bd c8 51 8b 3d d8 f0 a9 3b
       -0.11123961 -0.053722035 0.06802708 0.0051861815
000110 34 5c 2f bc c7 3a 27 bc 46 09 67 bd 78 51 0b 3d
       -0.010703135 -0.010206885 -0.05640533 0.03401324
000120 ca ed 4a bc 4c 52 0e 3c ce a6 2a 3b ec dc bf 3d
       -0.012385795 0.008686613 0.0026039365 0.093683094
000130 59 af b1 3d ab 02 4a 3d 3f e2 9d ba 16 51 11 3d
       0.08676023 0.04931895 -0.0012045576 0.03547772
000140 4c aa ca 3d ef 8a c5 bb d9 6b b7 bd ef 2a 4e 3d
       0.09895763 -0.006028525 -0.08956117 0.050333913
000150 56 da 97 bd 15 ac 31 bd 4f 28 3c 3d fc 64 a6 bd
       -0.07414691 -0.043377 0.04593688 -0.0812473
000160 dd d8 94 bc de 25 05 bc bf c8 90 3d 4b 68 dd 3b
       -0.018169815 -0.008126704 0.07069539 0.0067568175
000170 28 c2 b6 bd b5 86 77 bb 88 10 a4 3d c4 57 8b bd
       -0.08923751 -0.00377695 0.080109656 -0.06803849
000180 9f 7f f6 3c 56 e3 50 3d dd b2 49 bd 91 e7 9f 3d
       0.030090151 0.050998054 -0.049242843 0.0780784
000190 45 e7 3c bd 7a 27 67 3d 56 fe 4c bd b4 81 79 bc
       -0.046118993 0.056434132 -0.05004724 -0.015228678
0001a0 6a e5 f4 3c 35 34 e0 bd 31 fe 46 bb f3 3f 7b 3d
       0.02989455 -0.10947458 -0.0030363912 0.061340284
0001b0 3c 88 4a bd 4b 60 b9 bd b4 62 f5 3d 4e d5 80 3d
       -0.04944633 -0.090515696 0.11981717 0.06290685
0001c0 42 a6 96 3c 62 85 ce bb 7c d7 bd bd 52 30 78 bd
       0.018389825 -0.0063025216 -0.09269616 -0.060592957
0001d0 30 67 c5 3c 4e 45 de 3c 9c 80 d3 3d 2b 8c af 3d
       0.024097055 0.027132656 0.10327265 0.08571657
0001e0 c6 7f 67 bd 6f 6a e6 bc 51 a9 93 3b 50 8b b0 39
       -0.05651834 -0.028126923 0.004506268 0.00033673132
0001f0 4d ce e7 bc a2 26 77 3d f0 43 08 3d c3 f1 92 bd
       -0.028296614 0.060339577 0.033267915 -0.07175019
000200 c5 05 5d bc db 0d fd bc 4a 02 b3 3c ae b3 9d 3d
       -0.013490145 -0.030890396 0.021851677 0.07700287
000210 54 ae 86 3c c7 27 fb 3a 2d 6d d6 3c 8d 94 8f bc
       0.016440548 0.0019161635 0.026175106 -0.01752689
000220 1c de d8 bd c0 26 6e 3c 1c 06 1a 3d 59 c1 75 bb
       -0.10589239 0.014535606 0.037603483 -0.0037499277
000230 b6 84 06 bd 72 88 22 3d f9 b9 50 3d 07 3a 7f bd
       -0.032841407 0.039680906 0.050958607 -0.0623112
000240 09 88 01 3d 7b c1 79 bd 38 be 14 3d 86 5e 14 bc
       0.031623874 -0.060975533 0.03631422 -0.009055739
000250 26 be fa 3c 8c cb c5 3d 98 d8 a3 bc 7a 8c ad 3c
       0.030608248 0.09657964 -0.02000074 0.021185149
000260 0c d1 3d 3c 28 fe 71 3d 4a 67 c2 3d e9 92 d6 bc
       0.011585485 0.059080273 0.09492357 -0.0261931
000270 e0 0f e0 bc b8 68 51 bd d0 68 cc bb 6c 1d b0 3c
       -0.02735132 -0.05112526 -0.0062380806 0.021498404
000280 53 e3 10 bd 54 e1 52 bd 02 dd 87 3c f6 26 2c bc
       -0.035373043 -0.05148442 0.016584877 -0.010507336
000290 bf 7b aa 3d 31 27 72 3d 4b c4 41 3b 25 59 3c 3d
       0.08324384 0.059119407 0.0029566463 0.045983452
0002a0 3e 4b 0a be 86 8b 65 37 73 33 84 3d 18 57 ea bd
       -0.13505265 1.3681949e-05 0.06455126 -0.11442393
0002b0 7c 02 d9 bc 51 99 5e bc 44 83 8d 3d 95 59 19 bb
       -0.026490442 -0.013586358 0.069098026 -0.0023399342
0002c0 2d 50 94 3d be 77 d8 bd 41 9e 78 3d cf ba ae 3c
       0.07241855 -0.10569714 0.060697798 0.021329312
0002d0 71 b1 49 3c 35 93 c4 3c e9 45 fc 3c c9 c8 86 3a
       0.012310372 0.023995975 0.030795055 0.0010283227
0002e0 14 c4 09 3d d0 ae 86 3d c8 32 b0 3d e4 74 c4 3d
       0.03363426 0.065763116 0.08603436 0.095926076
0002f0 cb 39 97 bd bf 2d 73 3d be 44 ca 3b 0c 42 d9 bb
       -0.0738407 0.0593698 0.0061727455 -0.006630188
000300 7f bd 08 be 26 38 9b 3d 07 03 78 3d 3a 80 8e 3d
       -0.13353537 0.07579069 0.060549762 0.06958051
000310 85 f5 72 3d 54 90 19 bd 7a 2e 8c bd c2 46 c9 bd
       0.059316177 -0.037491158 -0.06844802 -0.09827949
000320 43 81 62 3b 50 d6 92 bd 77 57 af 3c 39 5d 96 bc
       0.003456191 -0.07169783 0.021404011 -0.018354999
000330 26 d2 5e bd 73 af 27 3d a6 9e e8 3b af 4b 08 3d
       -0.054399632 0.040938806 0.0070989905 0.033275302
000340 51 34 59 3d e1 ea a9 3b ff 8f 9c bc 6a 29 a9 bb
       0.05302841 0.0051854705 -0.019111631 -0.0051624076
000350 17 ef 32 bc fa 7a 65 bc 3b a0 84 3d f9 05 57 3d
       -0.010921261 -0.014006371 0.06475874 0.05249593
000360 36 5a 36 bd 86 6e 37 bd 93 ba 50 3d 36 08 77 3c
       -0.044519626 -0.044783138 0.05095918 0.015077641
000370 a4 1f ca 3d e9 df 34 bd e7 61 92 bc 14 a3 8f 39
       0.09869316 -0.04415885 -0.01786895 0.00027396588
000380 73 96 94 3d 4e 18 07 be 09 1f ce 3d 5a a7 87 bd
       0.072552584 -0.13192865 0.10064513 -0.06623717
000390 21 3a 64 bd ba 38 89 bd c0 c2 83 bd e1 f7 21 3d
       -0.0557195 -0.06700273 -0.0643363 0.039543036
0003a0 31 6a 59 bd fa b5 f3 bc c4 62 82 3d 6b 35 32 bd
       -0.053079788 -0.02974986 0.06366494 -0.043507975
0003b0 fc 4e 92 bc 22 fb b8 bd 27 04 9c 3d 3a ea 04 3e
       -0.017859928 -0.09032275 0.076179795 0.12979975
0003c0 48 81 08 bd 40 d9 45 bc 95 80 92 3c 03 23 a4 3d
       -0.033326417 -0.012075722 0.017883578 0.080144905
0003d0 cf 4f 27 3d 90 30 08 3d 05 91 11 bc 79 63 71 3d
       0.040847596 0.033249438 -0.008884673 0.058932755
0003e0 21 fc 30 3d d6 b6 d9 3d e1 0b 4e bd c7 e5 03 3d
       0.0432092 0.10630576 -0.050304297 0.032201555
0003f0 14 c6 96 3d 84 07 12 bd 12 5c d4 bc 49 60 70 3b
       0.07361999 -0.0356517 -0.025922809 0.0036678484

fc1.bias f4 [64]
000000 00 00 00 00 00 00 00 00 00 00 00 00 00 00 00 00
       0.0 0.0 0.0 0.0
000010 00 00 00 00 00 00 00 00 00 00 00 00 00 00 00 00
       0.0 0.0 0.0 0.0
000020 00 00 00 00 00 00 00 00 00 00 00 00 00 00 00 00
       0.0 0.0 0.0 0.0
000030 00 00 00 00 00 00 00 00 00 00 00 00 00 00 00 00
       0.0 0.0 0.0 0.0
000040 00 00 00 00 00 00 00 00 00 00 00 00 00 00 00 00
       0.0 0.0 0.0 0.0
000050 00 00 00 00 00 00 00 00 00 00 00 00 00 00 00 00
       0.0 0.0 0.0 0.0
000060 00 00 00 00 00 00 00 00 00 00 00 00 00 00 00 00
       0.0 0.0 0.0 0.0
000070 00 00 00 00 00 00 00 00 00 00 00 00 00 00 00 00
       0.0 0.0 0.0 0.0
000080 00 00 00 00 00 00 00 00 00 00 00 00 00 00 00 00
       0.0 0.0 0.0 0.0
000090 00 00 00 00 00 00 00 00 00 00 00 00 00 00 00 00
       0.0 0.0 0.0 0.0
0000a0 00 00 00 00 00 00 00 00 00 00 00 00 00 00 00 00
       0.0 0.0 0.0 0.0
0000b0 00 00 00 00 00 00 00 00 00 00 00 00 00 00 00 00
       0.0 0.0 0.0 0.0
0000c0 00 00 00 00 00 00 00 00 00 00 00 00 00 00 00 00
       0.0 0.0 0.0 0.0
0000d0 00 00 00 00 00 00 00 00 00 00 00 00 00 00 00 00
       0.0 0.0 0.0 0.0
0000e0 00 00 00 00 00 00 00 00 00 00 00 00 00 00 00 00
       0.0 0.0 0.0 0.0
0000f0 00 00 00 00 00 00 00 00 00 00 00 00 00 00 00 00
       0.0 0.0 0.0 0.0

fc2.weight f4 [5, 64]
000000 80 98 02 3c bc c5 62 bd 9b b8 57 be 73 38 53 be
       0.007970929 -0.055364355 -0.21066515 -0.20627002
000010 91 79 75 3c a4 0d e5 3d 68 17 16 bc 75 c0 24 bd
       0.014982597 0.11184242 -0.009160854 -0.040222604
000020 5c 39 55 be a7 8c ee 3c 59 64 0f bd 0e 56 0e be
       -0.20822662 0.029119803 -0.03500781 -0.13900015
000030 d6 df db bd a7 e3 88 3d 8b a4 d9 bc 4f 1a b6 bd
       -0.10736053 0.06684046 -0.026567718 -0.08891737
000040 68 ac 0e be 78 19 b4 bd 2c 83 2a 3d a8 3b d5 3c
       -0.13932955 -0.0879392 0.041629 0.026029423
000050 fc 86 08 3e c2 08 a7 3d 55 29 f4 3c 14 88 f0 3d
       0.13332742 0.08155967 0.029804865 0.11744705
000060 d8 80 08 be 6c 13 9e bd ca 0a 1d 3e 09 43 dd bb
       -0.133304 -0.07718548 0.15336147 -0.006752376
000070 df f7 f6 3d 5e 7c 45 be 32 a0 78 3d 7b 28 6e bb
       0.120589964 -0.19285724 0.06069965 -0.0036340046
000080 d7 e1 17 bc 08 f2 25 3e 4e e5 ec bc 6a 41 95 3d
       -0.009270153 0.16205609 -0.028917935 0.07287867
000090 c6 c9 4e 3e a7 ea b6 3e 75 58 04 3e 1a 64 2d 3e
       0.20194158 0.357259 0.12924369 0.16932717
0000a0 53 7d df bc f9 0b c3 3c 22 02 10 3d 0d 36 25 3d
       -0.027281439 0.02380942 0.035158284 0.04033475
0000b0 76 73 e3 3d be 97 43 be 40 66 95 bc 22 67 1b bd
       0.11106007 -0.19100854 -0.018237233 -0.037940152
0000c0 fd dc 56 bd e6 1c 07 3e 89 b3 21 bd df e4 d8 3d
       -0.052456845 0.13194618 -0.03947786 0.10590529
0000d0 a7 5b 13 bd 56 3d a1 bd 25 a9 12 be 08 55 48 3d
       -0.03597608 -0.07873027 -0.14322336 0.048909217
0000e0 2a 23 99 3d b5 c6 a8 be 5a c9 48 3d a6 24 65 3d
       0.0747741 -0.329641 0.04902015 0.055943154
0000f0 df e3 32 be ce b7 c1 3a c1 2d a2 be 4c d6 0f be
       -0.17469738 0.001477951 -0.31675532 -0.14046592
000100 0b 19 56 3d 3e 7a 0e be 47 e0 77 bd 9f 7d b8 3d
       0.052269977 -0.13913819 -0.060516622 0.09008335
000110 70 a7 0b 3b 6c 1b 8d bd fb 93 7c 3e 49 80 12 3e
       0.0021309517 -0.06889996 0.24665825 0.1430675
000120 16 52 b9 bd 97 f4 74 3c 15 77 36 bb eb 0f 51 bc
       -0.0904886 0.014950893 -0.0027841975 -0.012760143
000130 f0 fc c2 bc 67 6e 98 3d 37 df 35 bd d9 b1 ae 3d
       -0.02380225 0.074429326 -0.044402327 0.085300155
000140 11 62 1d be 25 37 9c 3b e4 6c 07 be ba aa 86 be
       -0.1536944 0.004767316 -0.13225132 -0.2630213
000150 6a 90 fd 3d e2 5b 8f bd 4f 70 63 3c af 95 00 be
       0.123810604 -0.06999947 0.013881757 -0.125571
000160 c7 bb 7b 3e 44 45 bc 3d b9 7e 23 3d ca 0c 7f bd
       0.2458335 0.09192899 0.039915774 -0.062268056
000170 a2 73 52 3e 8f 1e ad bd 7d 83 bc bd bf 14 5e be
       0.20551923 -0.08453094 -0.09204767 -0.21687602
000180 64 d0 a1 3d 5d 08 8c 3d 26 4d d5 3b 99 1f a6 bb
       0.079010755 0.06837533 0.006509441 -0.0050696847
000190 f2 b2 2b 3e de a1 ee bc 66 6f 87 3e 6b 78 80 be
       0.16767481 -0.029129919 0.26452178 -0.25091872
0001a0 62 fe bb 3d 27 9c 4b 3e 08 e7 35 be b3 de e8 3b
       0.09179379 0.19883786 -0.17763913 0.007106626
0001b0 92 d0 bc bd 3a 25 e1 3c 79 b7 f4 bd 39 97 03 be
       -0.09219469 0.027483571 -0.11949057 -0.12850656
0001c0 13 04 8e 3d 88 d1 17 3d 38 1b a4 3d d2 e7 22 be
       0.06934371 0.03706506 0.08013004 -0.15908745
0001d0 50 ac c2 3d e9 89 a1 3e 74 c7 d6 3d 74 b5 44 bd
       0.09505522 0.3155053 0.104872614 -0.04802461
0001e0 ca f6 2c be 9e 69 9f 3d 2d 25 1f 3d 4a eb 7e 3d
       -0.16891018 0.07783817 0.038853813 0.062236108
0001f0 24 8a 05 be 0c a1 19 3d e0 e1 c3 bd 82 68 d2 bd
       -0.13040978 0.037507102 -0.095645666 -0.102738395
000200 e7 77 27 3e b3 93 11 3e 30 95 e0 3d 0a b5 71 3d
       0.16354333 0.14216499 0.10965955 0.059010543
000210 82 a3 d4 bc e8 2f d9 3d f5 7c ac bd ac 95 96 bd
       -0.025956873 0.106048405 -0.08422271 -0.073527664
000220 e8 67 6e be f3 51 6a be 7b 85 e2 3d c7 34 3a bc
       -0.23281825 -0.22882824 0.11060616 -0.011365122
000230 48 7e 4f 3b f4 37 b8 bd 08 01 f9 bd bf 38 39 3d
       0.0031660963 -0.08995047 -0.121584 0.045220133
000240 60 4d a6 bc 40 2a 1b 3e 14 35 f3 bd 9a 3d 0e 3e
       -0.020300567 0.15152836 -0.11875358 0.13890687
000250 34 e5 cd 3d 0e 5f cc bd 6d 86 36 3e 55 bb de bd
       0.10053483 -0.09979068 0.17824717 -0.108755745
000260 fc 05 00 3e c7 24 5f bc 49 d4 39 be e2 15 41 bd
       0.12502283 -0.013619608 -0.18147387 -0.04714001
000270 42 c3 0c 3e 6f f0 48 be cd aa df 3c 9b 78 c6 3d
       0.1374636 -0.19622968 0.027303124 0.096909724
000280 34 f5 0d bd 54 ee a5 be 7c 83 07 be 8b 3c 00 be
       -0.034657672 -0.32408392 -0.13233751 -0.12523095
000290 78 55 d3 3c ca 02 2b be 2e ad 9b bd 1f 9b 1c 3e
       0.02579759 -0.16700283 -0.07601391 0.15293549
0002a0 4e 8c 48 bd b7 8b 50 3c 32 69 8f be 22 e3 69 be
       -0.04896193 0.012728623 -0.28009945 -0.2284055
0002b0 c1 61 0f bd c7 bc ee bd 13 8a 53 bd 18 e8 60 3d
       -0.035005335 -0.116571 -0.05164535 0.05490884
0002c0 2d cc d3 3d 3a 2f f1 bd 8e bf 30 be f2 99 1c 3c
       0.10341678 -0.11776586 -0.17260572 0.009558188
0002d0 6b 7a 2f 3d 8a d0 fe bd e7 8a b8 bd 3d af 9d 3d
       0.042841356 -0.124421194 -0.090108685 0.0769944
0002e0 d6 b8 5b bd ca a9 da 3a 62 a6 66 3e 82 43 91 3d
       -0.05364307 0.0016682681 0.22524408 0.07092954
0002f0 e6 57 8c bd bb 37 a7 3c 30 2b 07 be a4 d6 e4 bd
       -0.06852703 0.020412317 -0.13200068 -0.11173752
000300 08 ee 46 bd e9 09 5a 3c 4a 1d d7 3d 2c af 66 bd
       -0.048566848 0.013308027 0.10503633 -0.0563194
000310 38 19 b1 3d 25 d6 23 3d 93 9c 1b 3d 07 9e 32 3e
       0.08647388 0.039999146 0.037991118 0.17443095
000320 71 7d 2b be f4 51 54 3e 06 96 2c 3e 9a fa 83 bd
       -0.16747071 0.20734388 0.16854104 -0.06444283
000330 88 6d 28 3e 99 14 dc 3c fb e6 03 3e e8 51 89 be
       0.16448033 0.02686529 0.12881081 -0.26820302
000340 82 d9 86 3d dc 7d 81 39 ad 28 11 bd 72 69 cd 3d
       0.06584455 0.0002469857 -0.035439182 0.10029878
000350 d1 78 ae bd 30 69 03 3e 3b fd ba bd 2b d2 27 3e
       -0.08519138 0.12833095 -0.09130331 0.16388766
000360 b3 59 86 3d 90 4e 3b bd b7 5b 80 3e 2a 09 ce 3d
       0.065600775 -0.04572922 0.25069973 0.10060342
000370 f8 73 1b 3d f1 f0 0c be 49 79 cc be 8f f4 19 bd
       0.037952393 -0.13763787 -0.39936283 -0.037586745
000380 cd 76 a4 bd ed d7 0b be 71 57 4c bc 81 8b 4a be
       -0.08030472 -0.13656588 -0.0124720195 -0.19779779
000390 c1 e2 f0 bc 84 1f 10 3e b4 29 59 bd 62 92 22 3d
       -0.029405 0.14074522 -0.053018287 0.039690383
0003a0 a7 0a 64 3b 25 2e 01 3e 33 58 a2 3c 69 fe 83 bd
       0.0034796388 0.12615259 0.019817447 -0.06445009
0003b0 e6 e2 00 be 39 2d 80 3b e9 ea 46 3c d1 d4 3e be
       -0.12586555 0.003911641 0.012140968 -0.1863587
0003c0 79 a9 88 3d 14 42 49 3c 5c 7a 71 be e2 58 85 bc
       0.06672949 0.012283821 -0.23581833 -0.016277734
0003d0 75 ae de bb 40 2f 0e 3d 28 8f 48 3e f2 89 29 3b
       -0.0067956992 0.03471303 0.1958586 0.0025869575
0003e0 e0 e2 3a bd 96 a9 66 bd c2 51 46 3e 31 80 4b 3d
       -0.04562652 -0.056314074 0.19367126 0.0496828
0003f0 1e 8e 60 3e a7 47 bb 3c c3 bf a9 3d 31 43 24 3e
       0.21929213 0.022861315 0.08288529 0.16041256

fc2.bias f4 [5]
000000 00 00 00 00 00 00 00 00 00 00 00 00 00 00 00 00
       0.0 0.0 0.0 0.0
000010 00 00 00 00
       0.0
