models/v1/target_agent_net.pth (torch, 5784 bytes, 4 tensors)

fc1.weight f4 [64, 9]
000000 1c c2 48 bd b9 62 c1 3d 30 66 08 bc bb dc 0c be
       -0.049013242 0.09442658 -0.008325145 -0.13756077
000010 93 72 4c bd bc 4c 1a be 4e 5d 82 be 15 15 70 bc
       -0.049913954 -0.15068334 -0.2546181 -0.014653464
000020 59 96 20 bc c5 c4 bf bd 20 1d 92 bd 76 04 90 3c
       -0.009801471 -0.09363703 -0.071344614 0.017580252
000030 10 a2 50 bc a2 a4 12 be 07 0a 94 bc 4d 9f 59 be
       -0.012733951 -0.14320615 -0.018071188 -0.21252175
000040 2e 32 93 be 9b 1c 7a 3e 2a 76 f7 bd 82 dc c7 3d
       -0.28749222 0.24424975 -0.12083085 0.097588554
000050 3c 62 70 3e 35 d0 82 bd e6 db 53 3e 32 a1 23 3b
       0.23474973 -0.063873686 0.20689353 0.0024967906
000060 67 19 f1 3c 0f a6 4f 3e 5b 4b 43 3e ad 1a ac bd
       0.029431058 0.2027819 0.19071715 -0.084035255
000070 59 90 62 be 7b 46 9a bd 79 0d 87 bc 53 7a 15 be
       -0.22125377 -0.07532974 -0.016485916 -0.14597444
000080 34 6a a3 bd b3 d3 54 3d cc aa 85 3a df 3e 4c 3e
       -0.07979241 0.051959705 0.0010197996 0.19945858
000090 76 3f a0 bd b1 39 49 be e6 82 8f bd b5 af 5e 3e
       -0.07824604 -0.19650914 -0.07007389 0.21746714
0000a0 39 fe ec bd e8 7c cd 3d 50 af 3d bd 8c 8a 57 3c
       -0.115719266 0.100335896 -0.04630977 0.013155591
0000b0 8f da 4b be fa f0 b7 3e 90 0d 2c bd a1 6a 5d be
       -0.19907592 0.35926038 -0.04200512 -0.21622707
0000c0 04 86 6b 3d 0b 3b b9 3d aa 26 8d be 98 39 e5 bd
       0.057500854 0.09044465 -0.2756856 -0.11192626
0000d0 36 ce 1f 3e 3b fe 6f be fc 45 6e bd b6 96 1e 3e
       0.15606007 -0.23436825 -0.05817221 0.15487179
0000e0 87 39 5d 3e ed 21 0a 3e 6d 6e ae bc 87 e4 08 3e
       0.21603976 0.13489504 -0.02129289 0.13368426
0000f0 e5 c4 3f be 5c d2 be 3c da 20 a4 3d f7 71 c4 3c
       -0.18727453 0.023293667 0.080140784 0.023980124
000100 41 b0 2e bd ab f0 80 bd bd dd 46 bc de 9e 3d bd
       -0.042648558 -0.06295904 -0.012137827 -0.046294086
000110 dc 8d bf 3d 93 38 a4 bd 8d 7a b5 bd 18 f8 84 be
       0.093532294 -0.08018603 -0.08861265 -0.2597053
000120 28 5b 75 bd 57 5f 7f 3e 7c 1b 5b bc 9c 11 f5 bb
       -0.059901386 0.24938713 -0.013373252 -0.007478906
000130 43 1c 97 bc dc d4 3e 3d a6 c8 a0 3e f0 fd 45 3e
       -0.018446093 0.046589717 0.31403083 0.1933515
000140 e7 d1 9c 3c 7a 8e 43 3e a3 99 24 bd 88 48 c7 3c
       0.019143058 0.19097319 -0.040185582 0.024326578
000150 65 f4 2a be 32 5e 9c 3e 60 3e 94 3d 38 d4 6e 3e
       -0.16694792 0.30540615 0.072384596 0.23323143
000160 3f d5 4d 3d bc e4 17 ba 7e c8 b7 bd 4d 93 fe 3d
       0.050252195 -0.0005794277 -0.08973788 0.12430439
000170 b7 9d 83 be 63 73 ed bc 4f bd ad bd 51 b6 07 3d
       -0.25706264 -0.028985685 -0.084833734 0.033132855
000180 ae d1 11 be a5 8e ad bd 85 a8 2b 3c 4b 37 56 3e
       -0.14240143 -0.08474473 0.01047719 0.2091953
000190 1e f9 68 bd 40 29 4d 3d 9e 3d 24 be 7a d1 86 bc
       -0.0568782 0.050088167 -0.1603913 -0.016457308
0001a0 00 36 1c 3e 9c 47 c3 3e 47 7c 05 3e 97 e9 69 be
       0.15254974 0.3814057 0.1303569 -0.22843014
0001b0 ac 8c 96 3d 47 aa 1b 3d dd 63 77 3e e7 0b 5b 3e
       0.0735105 0.038004186 0.24159189 0.21391259
0001c0 c3 fe 53 3d cb e5 92 be e7 e4 fc 3b f6 d5 eb bc
       0.05175663 -0.28690943 0.007717717 -0.028788548
0001d0 00 3f c5 3d 49 0c d5 bc 33 20 5c 3d ca 94 33 3d
       0.09631157 -0.026006835 0.053741645 0.04384307
0001e0 47 60 55 3d f3 3b e6 3c 3e c3 0e be 17 a0 e4 3b
       0.05209377 0.028104758 -0.13941666 0.006977092
0001f0 15 54 13 3e 6e 56 8e bd 59 5a 95 3d 2c 7d b9 bd
       0.14387543 -0.06950079 0.07292623 -0.09057078
000200 47 6d 51 bd 94 72 8b 3d ee e7 aa bc 13 a1 03 3d
       -0.051129606 0.068089634 -0.020862546 0.032136034
000210 5a 90 87 bd d3 3d 8a bd cd 04 2f 3e 78 14 dc 3d
       -0.0661933 -0.06750073 0.17091675 0.107460916
000220 d1 42 70 3d 10 0b f7 be 56 97 ee 3d 02 31 07 3e
       0.05865747 -0.48250628 0.11649959 0.13202289
000230 ec b3 f2 3d 1b 8d 7b 3e ca ff 65 3d 21 4b 17 bd
       0.118507236 0.24565546 0.056152143 -0.036936883
000240 38 8a 49 ba 37 26 c0 3e dd 61 94 3d 6c 01 b6 bd
       -0.00076881377 0.37529156 0.072452284 -0.0888699
000250 c1 ea 56 3d e8 41 92 be fb dc 90 be 4b a8 9e be
       0.052469973 -0.28565907 -0.28293595 -0.30987772
000260 3a a4 a7 bd 68 76 e7 bd 76 aa 84 3d 31 e4 5e 3e
       -0.081856206 -0.11301881 0.06477825 0.21766736
000270 87 f8 a3 be a7 9b 2f 3b f3 0e 32 3d 77 a3 2d bd
       -0.3202555 0.0026795657 0.043471288 -0.04239222
000280 3d aa e1 3c 8a 80 ae 3d f5 aa 86 bd e3 7b 34 be
       0.027546996 0.08520611 -0.06575576 -0.17625384
000290 69 2a 3b ba 0d 2c 57 3c 28 d8 8e 3d 21 28 4c 3d
       -0.00071398035 0.013133061 0.06974822 0.049842957
0002a0 4d d9 65 bd 92 b3 44 3e 54 36 90 3e ab 7e 5f bc
       -0.056115437 0.19209126 0.2816645 -0.01364104
0002b0 bf 51 a6 3d 6b a8 0e be d7 32 28 bd 9e d3 42 bd
       0.081210606 -0.13931434 -0.04106411 -0.047565095
0002c0 af 99 39 be 5a 17 ee bd 25 57 37 3d c4 e8 64 bc
       -0.18125032 -0.11625548 0.044760842 -0.013971511
0002d0 d6 d1 98 bd 60 e1 1e 3d d1 8b f2 bd 47 84 2b bd
       -0.07461898 0.038789153 -0.11843074 -0.041874196
0002e0 fb d7 9b 3c 97 80 c0 3a fd 59 5f be 6c 12 ea bd
       0.019023886 0.001468676 -0.21811672 -0.11429295
0002f0 a3 10 a7 bd 8d 56 8a 3d 3e fb af 3d f8 75 44 3e
       -0.0815747 0.067547895 0.085928425 0.19185627
000300 1d 3b 2c 3e a8 60 b7 3e 19 b5 7a be d7 47 2a 3c
       0.16819425 0.3581593 -0.24483146 0.0103931045
000310 57 e9 57 be 28 51 66 3c 93 1b c6 bd 57 65 f4 3d
       -0.21085106 0.014057435 -0.09673228 0.119333915
000320 5f 9e 4a be f6 97 7a bd b9 56 5d 3e 2f 49 00 3e
       -0.19786976 -0.061180077 0.21615113 0.12527917
000330 49 cd 6f bd 9d d2 5a 3e f6 0d c7 bd d5 e3 58 3d
       -0.058545385 0.21369405 -0.0971946 0.052951653
000340 9d 1a d5 bd 8a 57 e0 3c 6d 8c 32 3e d3 5a d4 3d
       -0.10405467 0.027385492 0.1743638 0.10368886
000350 12 62 59 3d f0 74 ed 3c 03 bb f4 3c 67 7e c7 be
       0.053072043 0.028986424 0.02987433 -0.38963625
000360 1b 6d 56 3d 52 ec 6d bd b0 97 0d bd 40 d8 a9 3d
       0.052350145 -0.0580867 -0.03456849 0.082931995
000370 f5 63 2f bc 5f a3 bd be 57 a4 ea bc 2a 09 9b be
       -0.010704984 -0.37038705 -0.028642816 -0.3028043
000380 10 ce 08 be 09 1a 4d 3d 66 cc 13 3d f6 20 42 bd
       -0.13359857 0.050073657 0.0360836 -0.047394715
000390 09 49 9b 3c 29 5f d2 bc 56 83 cd 3c ed b2 20 bd
       0.018955724 -0.025680142 0.02508704 -0.039233137
0003a0 48 c7 bf bd b9 47 04 be 0f 01 47 3d 7e 89 1d 3e
       -0.09364182 -0.12917985 0.048584994 0.1538448
0003b0 db c5 4a 3e ca 1e dc bc 04 f4 01 be c0 64 84 bd
       0.19802038 -0.02687015 -0.12690741 -0.06464529
0003c0 58 4a 85 bd 89 3b b8 3c e4 85 86 3d 21 02 86 bd
       -0.065083206 0.022489326 0.06568506 -0.06543375
0003d0 be 12 cb 3d b1 4c 80 bd 7b f6 86 3d f7 da 4d be
       0.09915684 -0.06264628 0.06589981 -0.2010306
0003e0 16 42 8d bd a7 76 11 bc f3 43 cb 3d fe cf cd 3d
       -0.068973705 -0.008878387 0.0992507 0.10049437
0003f0 b0 a2 f4 ba 25 ad 6d 3d 56 f8 c6 bd f8 3b 9a 3d
       -0.0018664207 0.05802645 -0.09715335 0.075309694

fc1.bias f4 [64]
000000 a4 42 34 3d ee 6b 29 bd 51 c3 0f bd ce 78 3f 3d
       0.044008866 -0.041362695 -0.035098378 0.046746068
000010 e4 ae 23 bd ae bc 3a bd 49 9f 8c bc 99 7e 28 ba
       -0.03996171 -0.045590095 -0.017165797 -0.0006427556
000020 d0 71 6e bc 83 4f 4d bc f3 20 c2 3c e7 22 0a bc
       -0.014553502 -0.012531164 0.023697352 -0.008431173
000030 f3 f6 ad 3d e4 2f 2c 3d 12 36 7b bd 2a 92 2f bd
       0.084943675 0.04203786 -0.061330862 -0.042864002
000040 56 a0 a7 bd 4c e0 bf 3d 0b 59 27 bd a7 77 f1 bb
       -0.081848785 0.09368953 -0.040856402 -0.007369
000050 00 f0 24 bd 97 e4 04 bd a5 8e 24 bc 46 9d b7 bd
       -0.040267944 -0.032444563 -0.010043775 -0.089655444
000060 22 6c 22 bd 64 9a 68 3d fb a6 d7 bc 85 4c 9c bd
       -0.039653905 0.056787863 -0.02632474 -0.076317824
000070 e5 94 8c bd 5e 33 87 bc 2f bc 9b 3d f9 5b 09 3d
       -0.06864337 -0.016503986 0.076042525 0.033534978
000080 88 a8 ff bc 59 a4 9f bc c3 89 88 bd 18 59 a7 bc
       -0.031208292 -0.019487547 -0.06666901 -0.020428225
000090 b1 ec e2 bc e8 bc 02 bc ed 6e 60 bb 55 14 36 3c
       -0.027700754 -0.007979609 -0.0034245804 0.011113246
0000a0 13 35 db bc 08 b2 52 bd 2d 0e 96 bd c3 da 72 bc
       -0.026758706 -0.051439315 -0.073269226 -0.014822665
0000b0 ba b7 03 3e 91 2a 6f 3c 6d 27 05 bd 7c 97 4a bd
       0.12863055 0.014597551 -0.032508302 -0.049460873
0000c0 99 d7 0a bd 16 66 00 3e ef f5 3c bd c0 24 8d bc
       -0.033897016 0.12538943 -0.046132978 -0.017229438
0000d0 13 42 05 3d cc 1f dc bc fa fc 0f bd fc 12 5e bd
       0.032533716 -0.02687063 -0.035153367 -0.054217324
0000e0 25 ad ca bd 1c 27 75 bd 98 f2 61 3c ba f3 d5 3d
       -0.09896306 -0.05985175 0.013790749 0.10446878
0000f0 97 58 00 bd 23 f7 94 bd e0 84 92 bc 28 1e 4c 3d
       -0.031334486 -0.072737 -0.017885625 0.049833447

fc2.weight f4 [4, 64]
000000 25 37 0e be 38 65 7f 3d ff 3e b5 bd 0b 4d c2 bc
       -0.13888223 0.06235239 -0.08849906 -0.023718378
000010 9b 9f 9b bb 58 ec 4b 3e 4c 57 bb 3d 6c 95 c7 3d
       -0.004749251 0.19914377 0.0914751 0.09745297
000020 2f 4a f8 bb c0 d5 5d 3c f0 7f 22 3e 93 43 ee 3d
       -0.0075772027 0.0135397315 0.15869117 0.116339825
000030 0b 50 16 be 07 7c f0 bc 1c 61 79 3d 5c 7b 43 3e
       -0.14678971 -0.029356016 0.060883626 0.19090027
000040 0c 15 5c 3d fc fb ae be af 98 a1 3d 66 15 4b 3c
       0.05373101 -0.34176624 0.0789045 0.0123952385
000050 71 8e cb bd a5 34 e9 bc 11 98 87 3d 26 95 91 be
       -0.09939278 -0.028467486 0.06620801 -0.28434104
000060 f2 30 c1 bd 65 7c a6 3e e1 7e 5d be 37 98 f9 3d
       -0.09433164 0.3251678 -0.21630432 0.12187236
000070 cb 9b 0d 3e d1 08 8a 3e 31 df bd bd 0d 8d 57 3d
       0.13828962 0.2695985 -0.09271086 0.05262475
000080 5c 76 c1 3d 24 54 6e 3d 02 8b 9b bc 90 f5 4a 3d
       0.094464034 0.05818571 -0.018987183 0.049550593
000090 5d d9 22 be 1b 79 9b be 01 13 5c be b7 43 5f be
       -0.1590323 -0.30365834 -0.21491624 -0.21803175
0000a0 52 cd 20 3d ee d2 80 3d 25 26 88 bb 69 74 23 be
       0.03925831 0.06290232 -0.004154938 -0.15962376
0000b0 7f da 30 bd 98 de a7 3e 4f 9f 37 be ab 94 13 3e
       -0.043177124 0.32787013 -0.17931865 0.14412181
0000c0 3e ee 3f 3e 34 a4 4e be 08 c9 9d bd 76 bd 2b 3d
       0.18743226 -0.20179826 -0.07704359 0.04192873
0000d0 50 b8 6b be 42 c5 99 3d 14 d6 16 3d f2 c6 18 bd
       -0.23019528 0.07508327 0.036825255 -0.037299104
0000e0 23 4e a6 3d 75 0a ac 3d af 4e 65 bd 94 6d 6b be
       0.08120372 0.08400432 -0.05598324 -0.2299102
0000f0 ab f3 0d be 62 9f 26 bc 9f c3 14 bd d3 85 2c 3d
       -0.13862483 -0.010169836 -0.03631937 0.042119812
000100 67 1f 6c 3c a1 06 45 3e bd 88 85 3d 86 79 2c bd
       0.014411784 0.1924081 0.065202214 -0.04210808
000110 d7 5d de 3d b0 c6 90 be 3b 77 00 be cf 1b b3 bd
       0.10857742 -0.28276587 -0.12545483 -0.087455384
000120 f4 e7 ad 3e ec 42 b3 3e f7 27 88 3c b2 3e 8d 3e
       0.3396603 0.35011995 0.01662062 0.27586895
000130 08 46 04 be 7f 0c 6c bb 17 3f 53 bd 43 17 87 3d
       -0.1291734 -0.003601819 -0.05157384 0.06596234
000140 9a f2 74 3c 52 51 9a 3c 47 9b c5 3b d5 e3 cb 3d
       0.014950419 0.018837605 0.0060304734 0.09955565
000150 42 75 e4 3b 84 25 1d bd fc 8d ec 3d 74 de 55 3d
       0.006971986 -0.038365856 0.11550519 0.0522141
000160 eb 5e 45 3d be 6d 3b be 5f aa 2b ba 18 c1 65 bd
       0.048186224 -0.18303582 -0.00065485196 -0.05609235
000170 f3 df c4 bd f4 45 f5 bb cf b5 1c 3d 1d 9a ce 3c
       -0.096130274 -0.0074851457 0.038259324 0.025219971
000180 2a 77 bc 3c d6 d0 ac 3d 4b bd 2a 3e d4 a4 41 3d
       0.02300604 0.0843827 0.16673772 0.047276333
000190 f3 5f e1 bc 47 50 90 3c 5c ca 83 3e 59 cb 14 be
       -0.027511572 0.017616404 0.25740325 -0.14530696
0001a0 d7 a0 22 3e 0c fe 86 be e4 89 b8 3d 12 44 df 3d
       0.15881668 -0.26365697 0.090106755 0.10901655
0001b0 51 8e 44 be a2 90 02 3e f9 e7 98 bd f8 08 02 3e
       -0.19194914 0.12750486 -0.0746612 0.12698734
0001c0 78 63 5c 3d 71 9f 41 be da a8 51 3c 86 c4 35 3e
       0.0538058 -0.18908478 0.012796605 0.17750749
0001d0 1d a8 77 3d 3d 1d 05 3e 0e c2 9a 3d 1c 29 9f 3d
       0.06046306 0.12999435 0.07556544 0.07771513
0001e0 5a 99 a4 3e 49 e6 cf bc 93 a2 27 3e bc b4 e9 bc
       0.32148248 -0.025378363 0.16370611 -0.028528564
0001f0 29 ca cd bd 0d 4f 93 bd 4f fc 52 3d 82 ff 0e be
       -0.100483246 -0.07192812 0.05151015 -0.13964656
000200 12 ce 29 bc 60 04 48 be d9 99 a1 3c f6 a0 98 bc
       -0.010364072 -0.19532919 0.01972668 -0.01863144
000210 3d de 89 3b 39 e3 aa 3d d2 0f 7e bd 06 73 5a 3e
       0.004207401 0.083441205 -0.062026806 0.2133294
000220 8b 04 40 3d 61 e1 8b 3e ce 05 0d be 0d d1 2e 3e
       0.046879333 0.27320388 -0.13771746 0.17071934
000230 c1 4d d2 bc cb 56 54 3c b1 0f ff bd 56 de 3d 3e
       -0.025671842 0.012960146 -0.12454165 0.18541846
000240 02 ff dc bc 6e 0f cf bd ec 8e 95 3c 2a a2 bc 3d
       -0.026977066 -0.10110365 0.018256627 0.09210618
000250 cf 80 da 3d 68 a9 60 bd 99 ae 1f bc 2c 51 7d 3d
       0.106690995 -0.05484906 -0.009746217 0.06184499
000260 2a 58 58 3e e7 f7 f8 3d d0 39 80 3d 88 de b2 bc
       0.21127382 0.121566586 0.06261027 -0.021834627
000270 c4 7c bc bc f6 b4 59 3e 25 de b9 be da 32 79 bd
       -0.023008712 0.21260437 -0.36302295 -0.06083951
000280 f7 f1 16 3e 69 91 65 bd ca 75 80 bd fe 53 8f bd
       0.1474074 -0.056046877 -0.062724665 -0.06998442
000290 e6 b1 b0 3e 95 9a f8 bc 2a be 0b 3e ba 34 ad bd
       0.34510726 -0.030347148 0.1364676 -0.084573224
0002a0 23 0a 3b 3e ae 4e 21 3e cf f7 84 3d 4a 39 53 be
       0.18265586 0.1575267 0.06492578 -0.20627323
0002b0 73 f1 32 bd 5f 43 60 bc 7b dd 10 3e 09 cc 37 bc
       -0.043687295 -0.0136879375 0.14146988 -0.011218079
0002c0 88 74 7b 3e df 40 0e be 08 b9 97 3d 63 96 47 3e
       0.24556172 -0.13891934 0.07408339 0.19490962
0002d0 a1 56 2c bd 8e 8c 80 3e 41 7d 99 bd 65 4f 83 bd
       -0.042074803 0.25107235 -0.074945934 -0.06411628
0002e0 6f 7a 49 3e 0e 28 67 be bb f5 9c bd 3b 93 87 bd
       0.19675611 -0.22573873 -0.07664057 -0.06619879
0002f0 57 a1 83 bd 7c f5 59 3e 4e 4f 2d be 1d 89 13 be
       -0.064272575 0.21285051 -0.16924784 -0.14407773
000300 23 73 84 bd 54 98 bb bc 2e f0 06 bd c2 22 44 3d
       -0.06467273 -0.022899784 -0.032943897 0.04788471
000310 f1 31 6d 3d fc 6c 20 bc c8 3b 5a be f1 1e 91 3d
       0.057908956 -0.009791609 -0.21311867 0.0708598
000320 0e b2 b8 3d 41 53 ba 3d 0f 24 91 be bf e7 88 3d
       0.09018336 0.09097911 -0.28347823 0.06684827
000330 a8 75 04 be 66 55 48 be 09 6d 72 3d c4 75 8c bd
       -0.12935507 -0.19563827 0.059186015 -0.068583995
000340 51 a5 71 3e 6d 23 8a 3d 07 c9 a1 3e eb ae 86 bd
       0.2359822 0.06745038 0.31598684 -0.06576332
000350 d6 40 79 be be a1 18 3e 57 f6 17 3e 1c 59 29 3b
       -0.24341139 0.1490545 0.14840065 0.0025840467
000360 d2 36 d3 3c 40 6d 8c 3e d4 06 8a 3d 4b 8b 27 3d
       0.025782976 0.274271 0.067395836 0.040904325
000370 23 d4 9b 3c ac d0 75 3e 1a 0a ea bd b0 92 24 be
       0.019022053 0.24005383 -0.11427708 -0.16071582
000380 10 2c 13 be 83 cf 89 bd 2c 3e dc 3d f5 02 5b be
       -0.14372277 -0.06729033 0.10754046 -0.21387847
000390 06 97 de 3d 8b 46 4b 3d db 3e 1e bd 21 21 b7 3b
       0.10868649 0.049627822 -0.038634162 0.005588666
0003a0 3a 81 df bc 7c e0 36 3e e8 08 5b 3e 72 be 09 3d
       -0.0272833 0.17859071 0.21390116 0.03362889
0003b0 f1 46 ae bd d8 af 9a bd 18 2d 4c bd 54 32 b3 bd
       -0.08509625 -0.07553071 -0.049847692 -0.08749834
0003c0 97 ec f4 bc b5 d9 9a bd cb 33 33 bc 62 2c f2 3d
       -0.029897971 -0.075610556 -0.010937641 0.118248716
0003d0 46 e1 3c be ba c3 0b 3c fd 2a 85 3e 92 07 49 3d
       -0.1844531 0.008530552 0.2600936 0.049079485
0003e0 32 34 98 3c 1b 5b ce 3d 4b e6 f6 3d 97 61 c8 bd
       0.018579576 0.10075971 0.12055644 -0.09784239
0003f0 84 f6 dc 3d e8 8a c5 3c 22 13 71 3e a4 c3 1c be
       0.107892066 0.024114087 0.23542455 -0.15309006

fc2.bias f4 [4]
000000 da 98 90 3b 48 f5 84 bd 4a 42 cb bb 22 75 c0 bc
       0.0044127526 -0.06492096 -0.0062029706 -0.023493353
